results/Long_Baseline/3DBall/3DBall-1849546.onnx (onnx, 10026 bytes, 7 tensors)

network_body.observation_encoder.processors.0.normalizer.running_mean f4 [8]
00000000: 7abf b53a 6ff0 59bb b0ef c23e 63c5 4440
00000010: 512a a03f 733a 173c e047 d8be 6dc8 d03c
0.0013866269 -0.0033254882 0.38073492 3.0745475 1.2512914 0.009230244 -0.42242336 0.025486195

network_body._body_endoder.seq_layers.0.weight f4 [128, 8]
00000000: 8c1a dd3e d6b2 a03d 9cbc 6e3e 90a2 093e
00000010: 5750 883e 4c04 cfbe b086 48bd 158a 813e
00000020: 18a9 e1bd 3d2e 353f a59b 32be 1b9f a2be
00000030: a665 10be 9880 7b3e d7e5 10be 8a64 d7bd
00000040: 444a 01be 116c 27bf f46d 793e 7516 02bf
00000050: d267 f2bc d33c cbbd 70f4 be3d 7e82 b53d
00000060: 2f8b e9be cf89 97be b59a 3b3e 4dd9 e93d
00000070: 1eeb 3f3e 212a f73e 0a91 b53e 9242 bfbe
00000080: 4e10 f6be 7ae1 84be 38e3 1f3f 0b75 f8be
00000090: e059 debe 10e1 e83d 60c6 0f3f 160f 81be
000000a0: e396 abbe 3e2d 5ebd 127c 783d 4ee5 d7be
000000b0: 3ea9 8bbe d297 b73e 5d61 803f 2944 733c
000000c0: 11a2 17bf 14e5 033e 895d 233e 146b b0be
000000d0: 1516 99be bccd 45be cbd6 903e bb3e 713d
000000e0: 7805 01bf f19e 91bd 96fe fabe 6346 133d
000000f0: 0cea 46be d535 a6bd 51bd 813e 8ec9 b8be
00000100: 9e15 393e 269e c3be 4951 babe 2a20 68be
00000110: 7960 803d 44ed 7dbf 083d 41bd d1e0 6c3e
00000120: 98e3 803e 438e 653e 3c10 7f3e 7164 d5bd
00000130: 8b7c 453f db8c 2abe 7a8e c3be d2f6 e03b
00000140: 5da9 18be f58b 083f 4a2b 03bf f560 3b3e
00000150: 178b df3e f216 6fbe 178f c9bd 2883 46be
00000160: c7c4 133f 89d8 5ebf 358a 1cbf 8d2c 7f3e
00000170: 78c3 7c3e 7e56 27bf a00a 063f f15f bdbe
00000180: 9a89 fb3d c137 eb3d 52ab c03e 8ba8 003f
00000190: b46d e5be 5777 45be cbaf 09bf 0fc7 293f
000001a0: 9f99 ec3e 2efb cfbe 847d b13e 37d8 343f
000001b0: ac0b 933e a088 fdbe 5e95 5a3c 7be5 ccbd
000001c0: e15d 9abe 560f 1ebf 2eda a5bd d7a5 56bd
000001d0: 09b7 943e b2e3 80be 88c2 eabe 019c 33be
000001e0: 2cbd 0bbe 2f61 923e 0c51 81be 5268 87be
000001f0: 3936 433e bc01 bebd 5bc8 a8be ea99 7f3e
00000200: 08b0 e9be 0193 b6be b374 a43e 6a3d 55be
00000210: 64a2 02bb eaa5 76be 90e2 183e b7a1 5abf
00000220: 7ce4 d1bd 636b b83d 7afc a23e 8c1f 253e
00000230: 2fda 043e 874d e4bd ae1b bf3e 6a36 1cbf
00000240: 123e 473b d9cb 5e3e b39a a7bd 4433 153e
00000250: da69 c83d 17d1 733e f78a 74be c9e0 61be
00000260: e13b 8e3e 8986 10bf 27aa 4a3e 313f 8bbe
00000270: 8cbe 03bf 9785 303f 4231 1bbf 97ff 0cbf
00000280: 918c ca3e 969c 0a3f cadf 91bd 6b1e c73e
00000290: da51 fb3e 25b5 fb3e 810f 9ebe cc68 39bf
000002a0: 7e9b 3fbd a40d 9cbe c5be aabe cb29 99be
000002b0: b917 e53e 6a5f b93e f0cc a03e e816 81be
000002c0: dabe b93d 819a c9be 1e43 aabe 13f2 a03e
000002d0: 28eb 3fbf ca2b d3bd e878 0dbe 5e45 d1be
000002e0: 5273 9a3e bab6 213d b7bf a93e d355 17be
000002f0: bee6 8c3e 883f 17bf 0002 48be 3439 873e
00000300: fd60 fc3e d011 1dbd 8158 bdbe c573 803e
00000310: 732b adbe 1a15 4f3e 364e 863e 6dd2 d7bc
00000320: 6dba e93e 3bdf 41be 2629 16bf 11f5 47be
00000330: e41c d6be 5acb f73e 094a b63d 57da 1cbf
00000340: b38a aabe 4435 7bbd 3cee 533f a963 b53d
00000350: a17d cebe 3ee2 45bf d627 16be e968 29bf
00000360: ebc7 30be df28 04bf 5e00 ecbe 04e8 293f
00000370: 7a36 69bd 6669 39be ff85 48be e0c0 04bf
00000380: fed6 b43e f57c 04bd 6e15 4ebe b7be 5b3e
00000390: 15ba e93e 8629 8c3e ed40 6d3e 6f99 303f
000003a0: 9b01 143f ea01 8bbe 405c ac3d 14a3 91be
000003b0: 9666 013e 8ebd 493e fa63 cebe 9a1d f7be
000003c0: 6c88 9e3e 0f32 ad3e 3f38 c43e a770 38bd
000003d0: dd37 c2bd 2eed 98be 6dd7 ff3c 41b1 473f
000003e0: 2385 f0bd a8b8 ba3d 4bb3 c2bb 0286 b8be
000003f0: 8722 933e 5c7e bf3d 4d53 e23d 27d6 ab3e
0.43184316 0.0784661 0.23314136 0.13440919 0.26623794 -0.40432966 -0.048956573 0.2530066
-0.1101858 0.7077368 -0.17442186 -0.31762013 -0.14101276 0.24560773 -0.14150177 -0.10517223
-0.12625986 -0.6539927 0.2435835 -0.50815517 -0.029590521 -0.09923711 0.093239665 0.0886278
-0.45614 -0.29597327 0.18320735 0.114184 0.18742034 0.4827433 0.3546222 -0.37355477
-0.48059314 -0.25953275 0.62456083 -0.48526797 -0.43427944 0.11371052 0.5616207 -0.25206822
-0.33513555 -0.054242365 0.060665198 -0.42167133 -0.2727756 0.35858017 1.0029713 0.014847794
-0.5923167 0.12880355 0.1595365 -0.34456694 -0.2989966 -0.19316763 0.28288874 0.058897715
-0.5039897 -0.07110394 -0.4902236 0.035955798 -0.1942522 -0.081157364 0.2533975 -0.36091274
0.18074653 -0.38206595 -0.3639014 -0.2266852 0.06268401 -0.99190164 -0.047177345 0.23132636
0.2517364 0.2241755 0.24908537 -0.10419548 0.7714316 -0.16655295 -0.38194638 0.006865361
-0.14908357 0.5333856 -0.5123793 0.18298705 0.43660805 -0.23348597 -0.09841745 -0.1938597
0.57722133 -0.87049156 -0.6114839 0.24919339 0.2468394 -0.6536635 0.5235996 -0.3698726
0.12282105 0.114852436 0.37630707 0.50257176 -0.4481026 -0.19283806 -0.53783864 0.66319364
0.46210954 -0.40621322 0.34666073 0.7064242 0.28719842 -0.495183 0.013341276 -0.100047074
-0.3014975 -0.6174215 -0.08098255 -0.05240425 0.29045895 -0.25173718 -0.4585154 -0.1753998
-0.13646382 0.2858977 -0.25257146 -0.26446778 0.19063653 -0.092776746 -0.3296536 0.24961057
-0.45642114 -0.3565903 0.32120284 -0.20824209 -0.0019933218 -0.24086729 0.14930177 -0.8540301
-0.10248658 0.090048574 0.3183325 0.16125315 0.12973855 -0.111476 0.37325805 -0.6102053
0.0030401987 0.21757449 -0.081838034 0.14570338 0.097858146 0.2381023 -0.23881136 -0.22058405
0.2778006 -0.56455284 0.1979147 -0.2719665 -0.51462626 0.6895384 -0.60622036 -0.550775
0.3956037 0.5414518 -0.071227625 0.38890395 0.49085885 0.4916164 -0.30871204 -0.7242553
-0.04677915 -0.30479157 -0.3334867 -0.29914698 0.4474466 0.36205608 0.31406355 -0.2521279
0.09069605 -0.3937569 -0.3325433 0.31434688 -0.74968195 -0.103110865 -0.13815653 -0.40873235
0.30166107 0.039480902 0.3315408 -0.14778833 0.27519792 -0.59081316 -0.19532013 0.2641083
0.49292746 -0.038347065 -0.36981586 0.25088325 -0.33822212 0.20222893 0.26231545 -0.026345456
0.45650044 -0.18932812 -0.5865654 -0.19527079 -0.41818917 0.48397332 0.0890084 -0.6127066
-0.33308944 -0.061330095 0.8278539 0.08856899 -0.40330222 -0.77298343 -0.14663634 -0.66175705
-0.17263763 -0.51624864 -0.4609403 0.6636965 -0.05693672 -0.18106613 -0.19582365 -0.51856804
0.35320276 -0.03234573 -0.20125362 0.2145947 0.45649782 0.2737543 0.23169298 0.6898412
0.5781495 -0.27149898 0.08416033 -0.2844473 0.1263679 0.19701216 -0.4031065 -0.48264772
0.30963457 0.33827254 0.38324162 -0.04502931 -0.09483311 -0.29868454 0.031230653 0.78004843
-0.11744144 0.09117252 -0.0059417835 -0.3603974 0.2873728 0.09350273 0.110510446 0.33561823

network_body._body_endoder.seq_layers.0.bias f4 [128]
00000000: 0aa9 813c c160 40bc a820 383d f8f1 b93d
00000010: 8ba0 8f3d b122 b93d f021 623d b184 e13d
00000020: c748 65bc 12e3 a73a f540 debc d64b 0a3e
00000030: 85fa febc 9358 993d 294a 1cbd 302a 46bc
00000040: 1583 283e d310 033e 8fcb 32bd 3ae5 963d
00000050: 0e80 0fbd 8767 cbbc ce70 143e b17b f0bb
00000060: c4ed d73d 7ea3 363e ae9d ec3d 9c70 fb3d
00000070: a1f8 34bc d489 85bd 20b8 62bc fc43 18bd
00000080: 920c 66bb 71e4 7fbd 605b 62bd 95fc 113d
00000090: b6c1 0c3e 0794 b83d 9ee8 da3d 4267 fc3d
000000a0: 7a1f 31bd d0f1 ee3c e6e3 3fbb 9ca5 7abc
000000b0: 2761 90bc b4f7 be3d 93a7 7a3c 2edc c1bb
000000c0: eafe be3d 525b ec3c 254b c1bc ca54 55bc
000000d0: 5cce 3fbc b8b0 0ebd 44be dc3d 584b dc3c
000000e0: 2d17 38bd a0dd a03d cebb ae3c 5807 c23d
000000f0: e69c 873d d5ee 363c 74ef 383d 70ec c33c
00000100: 8dc2 8cbd 26c1 fe3d 8e3c 243e 6278 ab3c
00000110: cf41 563d 7a63 89ba 1212 3bbb 06a5 6dbc
00000120: 989c 723d 9740 033d d126 f9bc bfda d13c
00000130: a8c2 503d 1224 f03c 77b5 5a3d 3467 633d
00000140: 3c34 053c 8264 463c cb64 fcbb a460 693c
00000150: 473f 27ba 11b8 373d 5074 993d 45e2 be3d
00000160: cbd2 1e3e f657 09bd c3ac fabc 4699 583c
00000170: 5341 edbb 2165 1c3c e27d b43d 7651 e73c
00000180: c92a c9bb b21c 7c3c db75 293d dcc3 1f3c
00000190: f4b7 e9bc 3537 5d3d aa90 e03d 6ab7 ed3d
000001a0: 3ef5 1a3d edc6 85bc 17df 0c3e 1c77 0a3e
000001b0: 5ea1 313e 31af 6bbc 86a4 e93d 4f48 d73b
000001c0: 2126 f8bc 4f01 603d 3046 5b3d 6ee4 943c
000001d0: aba0 8e3d 3f97 fa3d 47b9 ddbc af33 d33d
000001e0: 9a66 d0bc cb1c f33c a411 4cbb f55b 0cbd
000001f0: 4c13 c1bc 701c 0abd 6187 5c3d bf50 72ba
0.015827674 -0.011741818 0.04495302 0.09079355 0.07013043 0.0903982 0.055208147 0.11011637
-0.013994402 0.0012808761 -0.027130583 0.13505492 -0.031125316 0.07487597 -0.038156662 -0.012095019
0.16456254 0.12799387 -0.04365116 0.0736794 -0.03503423 -0.02482964 0.14496157 -0.007338964
0.10543397 0.17835805 0.115535125 0.12277338 -0.011045606 -0.06520429 -0.013837844 -0.03717421
-0.0035102707 -0.062473718 -0.055262923 0.03564127 0.1374577 0.09012609 0.106888995 0.12324382
-0.04324291 0.02916804 -0.0029280125 -0.015298273 -0.01762445 0.09324589 0.015298742 -0.00591614
0.09325965 0.028852139 -0.023595402 -0.013020704 -0.011706915 -0.0348365 0.10778478 0.026891395
-0.044943977 0.078547716 0.021329787 0.09474057 0.06621723 0.01116534 0.045150235 0.023916453
-0.06873045 0.12439184 0.16038725 0.020931426 0.052308854 -0.0010481917 -0.0028544706 -0.014504677
0.05923137 0.03204402 -0.030414017 0.025617002 0.05096689 0.029314075 0.053395715 0.055518344
0.008130129 0.012108924 -0.007702445 0.014244232 -0.00063799735 0.044853274 0.07492888 0.09320501
0.15510099 -0.03353115 -0.030599957 0.013220137 -0.0072404533 0.009545595 0.08813073 0.028237086
-0.0061391336 0.015387701 0.04137216 0.009751286 -0.028530098 0.054007728 0.109650925 0.11607249
0.037831537 -0.016330207 0.13756977 0.13521999 0.17346713 -0.014385031 0.114083335 0.006569899
-0.030291619 0.054688748 0.053533733 0.01817533 0.06964239 0.12235879 -0.027065886 0.10312592
-0.02543955 0.029676815 -0.0031138444 -0.034267385 -0.023568772 -0.033718526 0.053840045 -0.00092435995

action_model._continuous_distribution.log_sigma f4 [1, 2]
00000000: b504 563d 4ea3 72bd
0.052250583 -0.05923777

action_model._continuous_distribution.mu.weight f4 [2, 128]
00000000: 6142 3fbd c9ed 8fbc b9c8 e3ba 641b 9a3d
00000010: 7103 473d c639 113d 1f8c a23c e678 303a
00000020: 60b4 aebc e755 3abd 0c08 13bc 2d43 0dbd
00000030: fa90 da3b 5ea9 6fbd 4b18 9b3b 88c1 5bba
00000040: 1652 a93c 0e37 a13b 723b 853c 8e91 003d
00000050: 4bbc 0ebd 1614 c6ba 6e04 38bd 325c 3ebd
00000060: 7332 77bd e6ef 3fbd 72f1 fa3c 637f 75bb
00000070: 3f41 c3bb 456a 00bd d97c cdbb 3b94 9c3b
00000080: 5381 323d 3d3d 133b 6263 c23c 89fe a13c
00000090: 45ae 7bbc d72e a3bd a2b2 c23c 39f5 263c
000000a0: 49c5 2c3c da7d 8dbd b11a 023d 7fa7 80bb
000000b0: 2653 ba3c 317d 8ebd f771 cbbc 92eb e43c
000000c0: 69df 5bbd 7af0 1dbb 65f4 06bd 5b17 9abc
000000d0: 8cf1 da3c ccc2 e8bc f3ac 41bd 4890 643d
000000e0: 33a5 153b 3c09 e03c aeb9 5e3d 86e9 963c
000000f0: 7e9c a3bd 155f f83c 050c 973d 098d 863d
00000100: f5dd 1abb 96d3 3c3d 700e 8fbb 9319 4bbd
00000110: 2526 533c 419d 3bbd 13cf ca3c f674 153c
00000120: b064 9d3c 4f8c 683d 2e3f a43b b53f ef3c
00000130: 48b1 d33c d004 3fbc 8ebe 82bd 8c6e b6bd
00000140: aadb b63c 3c01 443d 9de7 c93c e235 9ebd
00000150: 75d0 873d ae8d 44bd ff34 523d 76dc be3b
00000160: cd0a 31bc 7e35 ee3c 2034 7ebc 35cb e0bc
00000170: 5ffc 093b 5a1c 173c ac1f 39bd 364c 9ebd
00000180: 8c60 3e3c 9abb 4e3d 832d 623c 5842 47bd
00000190: 45ba 83bc f8ed 043d 78fb e9bc 22cd f9bc
000001a0: 4ba6 1e3d d9ca 1e3d 499e 21bc 0c11 0bbd
000001b0: d326 d5bc 91b4 703c 8e5d 983c 8345 a53c
000001c0: 0f11 473d 5188 7bbd d92e 6a3d 9fa3 923c
000001d0: 7550 4f3d 13a6 13bd 680a 37bd 79b3 82bd
000001e0: 7c61 c8bc ecd2 283d 1a3c d63c 6ebe f93c
000001f0: 9aca 85bc d138 a43c 74f4 7d3c 4b0a 473c
00000200: 953c 1ebd 1127 d13b 2c90 0e3d ce98 973d
00000210: ebad 313d 3e56 903d 319b 233d bd2f 853d
00000220: 800c 26bb b8a4 99bd 1262 8abd 178f 9b3d
00000230: 6061 e3bb 2520 693d 0764 5d3c 0889 6abd
00000240: ca2c e13d 8901 f53d ed34 9cbc 4f38 5a3d
00000250: a187 c6bc ca8b 373c 85fd 8a3d 7a55 8bbd
00000260: 93c7 903d 7814 b73d f6be b43d 487c 823d
00000270: 1bc1 b2bd 433b 45bc 93a5 cebd c6a1 acbd
00000280: 03b7 b9bd 096d 14bc 70d9 6dbd 413c f33c
00000290: 7846 863d 03bf 6a3d b535 573d 2862 833d
000002a0: c92f 58bc ac9e 50bd af57 15bd 95e4 f3bd
000002b0: d00e 71bd 49b5 493d 2d73 c2bd 8993 dabd
000002c0: d1fe 783d 6f39 f13c 573b 51bd c6ca 0d3b
000002d0: 96b9 b63c 36aa b9bc aeff 803d b391 943c
000002e0: c39d 963b aac2 613d a693 923b 3e27 263d
000002f0: 8062 c8ba 1152 0abc 1e72 24bd 4f4a c7bd
00000300: 25ff 47bc 486d b03d 707b 9b3d 0ab8 1a3c
00000310: 6043 0d3d 826c 32bd 8e80 69bd c746 d43b
00000320: febf 663d 03d8 793b 47b7 6f3a 3d3f bd3c
00000330: 4699 f83c 3473 f73c baa9 89bb e66a 153d
00000340: 4c15 143c 01ae 2abd 46d2 33bd d9c7 9fbd
00000350: cbfe 53bd 87fc 0a3b 91a4 363d 9657 c03d
00000360: 632a ed3d bc09 5abd 0a97 b9bc 5e76 643c
00000370: 7480 bebd 941e b2bd 1251 713d 80cc 50bd
00000380: 023f 6a3b 8f24 96bd f67f 393d 529e 09bd
00000390: 0f33 0cbd d299 133d 314a 9a3d 76a9 b13d
000003a0: c708 383c 3440 bdbd 669f 9d3d cd44 fc3d
000003b0: 6bd3 c93d 9625 f2bd 94af a53d ae97 813c
000003c0: 1947 aebd ab06 b83b ffc6 8e3c 2316 04bd
000003d0: 2335 a33d 5765 a63d a5d5 46bd 6eb7 873d
000003e0: 1e21 58bd bd3c 353d 2873 1cbd 1efe b2bd
000003f0: 7fe0 3a3c 8e5a 91bb 642b 263d f6ac cb3a
-0.046694163 -0.01756944 -0.0017378546 0.075247556 0.048587266 0.035455488 0.019842206 0.00067318825
-0.021326244 -0.04549208 -0.0089740865 -0.034487892 0.0066701146 -0.05851113 0.0047331206 -0.00083830254
0.020669024 0.004919893 0.016263697 0.03138881 -0.03484754 -0.0015112187 -0.0449261 -0.046474643
-0.060350846 -0.046859644 0.030632708 -0.0037459962 -0.0059587057 -0.031351347 -0.0062709865 0.0047784126
0.043580364 0.002246692 0.02372903 0.019774692 -0.015361373 -0.07967918 0.02376682 0.010190302
0.010545083 -0.0690877 0.031763736 -0.003926217 0.022744726 -0.06957472 -0.024834616 0.02794436
-0.053679857 -0.0024099634 -0.032947917 -0.018809965 0.026726507 -0.028413199 -0.047284078 0.05580166
0.0022834062 0.027348153 0.054376297 0.0184219 -0.07988833 0.030318776 0.073753394 0.06569869
-0.0023630832 0.04610022 -0.0043657348 -0.049584936 0.012887512 -0.045804266 0.024756944 0.009122124
0.01921305 0.056774434 0.0050124144 0.029205183 0.02584137 -0.011658862 -0.06384002 -0.08907804
0.02232154 0.04785274 0.024646575 -0.07725121 0.06631557 -0.04798668 0.051320072 0.005824621
-0.010805798 0.029078241 -0.015515357 -0.027440647 0.0021054966 0.009223068 -0.04519622 -0.0772938
0.011619698 0.05047188 0.013804796 -0.048647255 -0.016080031 0.032453507 -0.028562292 -0.030493323
0.038732808 0.03876767 -0.009864398 -0.033951804 -0.02601949 0.014691488 0.018599298 0.020174747
0.048600253 -0.0614093 0.057173584 0.017900286 0.05061384 -0.036047053 -0.04468766 -0.06381888
-0.024460547 0.041216776 0.026151706 0.030486312 -0.01633196 0.020046623 0.015500177 0.01214845
-0.038631994 0.006382831 0.03480546 0.07402192 0.04337875 0.070476994 0.039942924 0.06503246
-0.002533704 -0.07502121 -0.06756987 0.075956516 -0.0069390982 0.05691542 0.013512618 -0.05725959
0.10994871 0.119631834 -0.019068206 0.053276356 -0.024234595 0.011202762 0.06786636 -0.06803413
0.07069316 0.08939451 0.088254854 0.06371361 -0.08728238 -0.012038055 -0.100901745 -0.08429293
-0.0906811 -0.009059199 -0.058068693 0.029691817 0.065564096 0.05731107 0.052541453 0.06415206
-0.013194987 -0.05093257 -0.036460575 -0.11908833 -0.058852017 0.049245153 -0.09494624 -0.10672671
0.060789887 0.029446332 -0.05108198 0.0021635755 0.022305291 -0.02266417 0.06298767 0.018135881
0.0045964434 0.055117287 0.0044731675 0.040564768 -0.0015288144 -0.008442418 -0.040147893 -0.0973097
-0.012206827 0.08614594 0.07591903 0.009443292 0.034488082 -0.043560512 -0.057007365 0.006478164
0.05633544 0.0038123138 0.0009144437 0.023101443 0.030346524 0.0302063 -0.004201141 0.0364789
0.009038281 -0.04166985 -0.043901704 -0.0780179 -0.05175666 0.0021207647 0.044590537 0.09391706
0.1158035 -0.05323194 -0.022655029 0.013944237 -0.09301844 -0.086972386 0.058915205 -0.050976276
0.0035743122 -0.07331192 0.04528805 -0.03359825 -0.03422838 0.036035366 0.07533682 0.086749
0.011232561 -0.092407614 0.076964185 0.1231781 0.09854778 -0.11823575 0.080901295 0.015819397
-0.085096546 0.0056160293 0.017428873 -0.032247674 0.079691194 0.08124798 -0.04854359 0.06626783
-0.052765958 0.044247378 -0.03819576 -0.08739875 0.011406063 -0.004435844 0.040568724 0.0015539217

action_model._continuous_distribution.mu.bias f4 [2]
00000000: 78f8 e6bb cb7a 943d
-0.0070486628 0.072499834

onnx::Div_46 f4 [8]
00000000: 7003 3d3d 8a09 2c3d 482c 083f 609c 243e
00000010: 37f6 293f 40df bc3e e697 243f 1683 a43e
0.046145856 0.042001285 0.5319257 0.16075277 0.6639132 0.36889076 0.6429428 0.3213126
