results/Long_Baseline/3DBall/3DBall-2000453.onnx (onnx, 10026 bytes, 7 tensors)

network_body.observation_encoder.processors.0.normalizer.running_mean f4 [8]
000000 0e ba b4 3a 30 a3 57 bb d6 79 c4 3e 89 bc 44 40
       0.0013788359 -0.0032903664 0.38374203 3.0740073
000010 77 75 a4 3f 54 c0 15 3c fd 9d d9 be 7e 12 d4 3c
       1.2848347 0.009140093 -0.42503348 0.025887724

network_body._body_endoder.seq_layers.0.weight f4 [128, 8]
000000 8b 06 dd 3e 41 f1 9f 3d ed 3c 6e 3e fc 5f 09 3e
       0.43169054 0.078096874 0.23265429 0.13415521
000010 ef 6f 88 3e 6e 53 cf be 36 e4 48 bd fa cf 81 3e
       0.266479 -0.4049334 -0.049045764 0.25353986
000020 be a6 e2 bd 57 36 35 3f 66 50 32 be 33 8f a2 be
       -0.1106696 0.7078604 -0.17413482 -0.31749877
000030 0a 6a 10 be ad f2 7a 3e 91 0f 11 be dc 43 d7 bd
       -0.1410295 0.24506636 -0.14166094 -0.1051099
000040 42 3c 01 be f3 53 27 bf 0d 8a 79 3e b3 1d 02 bf
       -0.12620643 -0.6536247 0.24369068 -0.5082657
000050 80 0f f0 bc f6 0b ca bd bb 8b be 3d d6 76 b4 3d
       -0.029304266 -0.098655626 0.09303995 0.08811729
000060 7f 6a e9 be 96 51 97 be 5b 60 3c 3e c0 3a e9 3d
       -0.45589063 -0.29554433 0.18396132 0.11388159
000070 bb 70 3f 3e 3e fe f6 3e f8 91 b5 3e 16 77 bf be
       0.18695347 0.48240846 0.35462928 -0.37395543
000080 4c e9 f5 be f2 f1 84 be 42 e9 1f 3f e7 84 f8 be
       -0.48029554 -0.2596584 0.624653 -0.48538896
000090 ef e1 dd be f3 91 e9 3d 9c f4 0f 3f 5b 47 81 be
       -0.43336436 0.11404791 0.5623262 -0.25249752
0000a0 7e 6e ab be b5 e6 5b bd 60 26 7b 3d 4f 21 d8 be
       -0.33482736 -0.053686816 0.061315894 -0.42212912
0000b0 69 7b 8b be 41 bb b7 3e e5 66 80 3f 7a 2a 6b 3c
       -0.27242592 0.3588505 1.0031401 0.014353389
0000c0 65 aa 17 bf d2 50 04 3e fa 6a 23 3e 57 32 b0 be
       -0.59244376 0.12921456 0.15958777 -0.34413406
0000d0 e6 c6 98 be 14 33 45 be 6c dd 90 3e 1c da 6d 3d
       -0.29839247 -0.19257766 0.2829393 0.058069333
0000e0 22 1a 01 bf db f1 8f bd fb 7f fa be f0 4b 14 3d
       -0.504305 -0.07028552 -0.48925766 0.036205232
0000f0 99 76 47 be e9 76 a7 bd a2 ad 81 3e e9 5b b9 be
       -0.19478835 -0.08176977 0.25327784 -0.36202934
000100 c6 07 39 3e e2 ae c3 be 6c 82 ba be c0 91 68 be
       0.18069372 -0.38219362 -0.3642763 -0.22711849
000110 72 b3 81 3d 64 1d 7e bf 8a e4 41 bd 8c 08 6d 3e
       0.063330546 -0.99263597 -0.047337092 0.23147792
000120 4f e3 80 3e 73 38 65 3e 4a 1d 7e 3e 88 da d5 bd
       0.25173423 0.22384815 0.2481586 -0.10442072
000130 ed 9f 45 3f da a2 2a be 5a aa c3 be e3 d2 f4 3b
       0.7719715 -0.16663685 -0.38215905 0.0074714287
000140 28 3c 18 be 9d 6b 08 3f 8c 73 03 bf b3 43 3b 3e
       -0.14866698 0.53289205 -0.51348186 0.18287544
000150 54 fe df 3e 02 92 6e be 76 9e c9 bd 22 be 45 be
       0.43748724 -0.23297885 -0.09844677 -0.19310811
000160 84 ba 13 3f c3 bf 5e bf 15 4a 1c bf 7f 2b 7f 3e
       0.57706475 -0.87011355 -0.6105054 0.24918936
000170 9d 47 7c 3e 76 60 27 bf 45 0a 06 3f 02 92 bd be
       0.24636693 -0.6538156 0.5235942 -0.37025458
000180 2f ba fb 3d 29 d1 ea 3d 2e 9c c0 3e 7e 98 00 3f
       0.12291371 0.114656754 0.37619156 0.50232685
000190 b5 8d e5 be 72 b9 45 be 14 a3 09 bf 07 d4 29 3f
       -0.44834676 -0.19309023 -0.5376446 0.66339153
0001a0 85 8e ec 3e b4 eb cf be c5 b1 b1 3e ed e2 34 3f
       0.46202484 -0.40609515 0.3470594 0.7065876
0001b0 cd 04 93 3e fb 7f fd be 85 18 56 3c 2f ef cd bd
       0.287146 -0.49511704 0.013067369 -0.10055386
0001c0 31 68 9a be c5 f4 1d bf 5e 0e a4 bd 54 15 56 bd
       -0.30157617 -0.61701614 -0.08010553 -0.052266434
0001d0 50 52 94 3e 49 f0 80 be 15 d0 ea be c8 33 34 be
       0.2896905 -0.25183323 -0.4586188 -0.17597878
0001e0 47 a7 0b be fe 2e 92 3e 3e b0 81 be 25 6e 87 be
       -0.1363803 0.28551477 -0.25329775 -0.2645122
0001f0 75 a8 43 3e 82 57 be bd 17 c2 a8 be 85 dc 7f 3e
       0.1910723 -0.092940345 -0.3296058 0.24986465
000200 c4 c2 e9 be d4 8c b6 be 64 ce a4 3e 83 1d 55 be
       -0.45656407 -0.35654318 0.32188714 -0.20812039
000210 9c 77 e8 ba 78 e2 76 be 49 8f 18 3e 4a d8 5a bf
       -0.0017735842 -0.24109828 0.14898409 -0.8548628
000220 45 86 d2 bd eb 82 b8 3d 77 4f a3 3e 24 41 25 3e
       -0.10279516 0.090093456 0.31896564 0.1613813
000230 8f ae 04 3e fa 76 e4 bd c8 d1 be 3e a2 4f 1c bf
       0.12957214 -0.111555055 0.37269425 -0.6105901
000240 e1 13 5c 3b b2 a0 5e 3e c5 04 a9 bd 63 f7 14 3e
       0.0033581185 0.21740988 -0.08252863 0.14547496
000250 12 66 c9 3d 2e 1a 74 3e cd 5c 74 be b1 0d 62 be
       0.098339215 0.23838112 -0.23863526 -0.22075535
000260 db 4f 8e 3e 94 79 10 bf 53 fb 4a 3e ec f4 8a be
       0.277953 -0.56435513 0.19822435 -0.27139986
000270 c3 d6 03 bf b1 97 30 3f 91 3b 1b bf cd 0e 0d bf
       -0.51499575 0.6898146 -0.60637766 -0.5510071
000280 58 83 ca 3e 05 84 0a 3f ba a9 92 bd 67 04 c7 3e
       0.39553332 0.54107696 -0.07161279 0.38870546
000290 ab 97 fb 3e 8e cc fb 3e 8a ff 9d be 24 58 39 bf
       0.4913915 0.491795 -0.30859023 -0.72400117
0002a0 d9 e9 3f bd 6a da 9b be 89 2b aa be 93 52 99 be
       -0.046853874 -0.30440074 -0.3323634 -0.29945812
0002b0 a4 c9 e4 3e b7 3c b9 3e 6c f0 a0 3e 7f 38 81 be
       0.4468509 0.36179134 0.31433427 -0.25238416
0002c0 c1 a3 b9 3d 64 5d c9 be 86 f4 a9 be 9a 1d a1 3e
       0.09064437 -0.39329064 -0.3319437 0.31467897
0002d0 13 ed 3f bf 0c 62 d2 bd 12 ad 0d be de 93 d1 be
       -0.7497112 -0.10272607 -0.13835552 -0.40933126
0002e0 07 6e 9a 3e e2 6c 20 3d a8 88 a9 3e 14 dc 17 be
       0.3016207 0.03916634 0.33112073 -0.14830047
0002f0 6d ea 8c 3e dd 6b 17 bf 5f 0e 48 be 40 94 87 3e
       0.27522603 -0.5914896 -0.19536732 0.26480293
000300 aa 5d fc 3e 28 a8 1c bd 0c 16 bd be b8 98 80 3e
       0.4929021 -0.038246304 -0.36930883 0.25116515
000310 90 53 ad be 2c 5f 4f 3e 55 32 86 3e e6 ab d7 bc
       -0.33852816 0.20251149 0.26210275 -0.026327085
000320 f2 c4 e9 3e 2a 0a 42 be b1 ef 15 bf 92 fa 47 be
       0.4565807 -0.1894919 -0.58568865 -0.19529179
000330 50 70 d6 be be be f7 3e 54 21 b6 3d ba ce 1c bf
       -0.41882563 0.48387712 0.088930756 -0.6125294
000340 3c b7 aa be a8 a8 79 bd 27 f2 53 3f 59 d5 b6 3d
       -0.33342922 -0.06095186 0.8279137 0.089274116
000350 c5 56 ce be 40 c9 45 bf cf 86 16 be 47 be 29 bf
       -0.40300575 -0.7726021 -0.14699863 -0.66305965
000360 1b 0d 31 be ba 05 04 bf cc 4a eb be b8 f5 29 3f
       -0.17290156 -0.5157124 -0.45955503 0.6639056
000370 44 fd 6c bd 1a 08 3a be c0 d9 48 be 80 f5 04 bf
       -0.05785872 -0.18167153 -0.19614315 -0.51937103
000380 68 b3 b4 3e 34 d8 05 bd 4a fd 4e be 8a ee 5b 3e
       0.35293126 -0.03267689 -0.2021381 0.21477714
000390 66 14 ea 3e e6 f4 8b 3e 60 6c 6d 3e 38 94 30 3f
       0.45718688 0.2733528 0.23185873 0.68976164
0003a0 e7 f9 13 3f 48 34 8b be 33 a0 ab 3d 43 de 91 be
       0.57803196 -0.27188325 0.08380165 -0.28489885
0003b0 60 18 02 3e b9 7b 49 3e 89 73 ce be 2b 0a f7 be
       0.12704611 0.19676103 -0.4032252 -0.48249945
0003c0 72 6c 9e 3e c6 11 ad 3e 88 28 c4 3e 56 ab 39 bd
       0.30942112 0.33802623 0.38312173 -0.045329414
0003d0 a9 a9 c2 bd 33 69 99 be aa c1 01 3d a4 c1 47 3f
       -0.09505016 -0.29963073 0.031678833 0.7802985
0003e0 7c 9f f0 bd 67 f4 b9 3d ea 3f d7 bb 3b 56 b8 be
       -0.11749169 0.09079819 -0.0065688984 -0.3600329
0003f0 eb 43 93 3e 5e 0b bf 3d 78 60 e2 3d d7 eb ab 3e
       0.28762755 0.0932834 0.11053556 0.3357837

network_body._body_endoder.seq_layers.0.bias f4 [128]
000000 df 73 82 3c de cc 3d bc ef a8 38 3d f4 f7 b9 3d
       0.015924392 -0.011584489 0.045082983 0.090804964
000010 3c 12 90 3d ce 3e b9 3d cf 56 62 3d 73 2d e1 3d
       0.07034728 0.09045182 0.05525857 0.10994997
000020 60 47 5d bc 5e f0 a8 3a 4b 60 dc bc 12 32 0a 3e
       -0.013505787 0.0012889018 -0.026901385 0.13495663
000030 7d a3 00 bd c6 ce 99 3d bb ed 1c bd 63 e6 44 bc
       -0.031405915 0.07510142 -0.038312655 -0.012017819
000040 19 15 29 3e de a1 03 3e d4 e6 33 bd d7 76 97 3d
       0.16511954 0.12854716 -0.043921307 0.07395714
000050 68 12 10 bd 51 02 cd bc d7 94 14 3e ee e2 f0 bb
       -0.035173804 -0.025025519 0.14509903 -0.007351271
000060 ec c0 d7 3d fc 75 36 3e 95 ce ed 3d 1c 69 fb 3d
       0.10534844 0.17818445 0.11611668 0.122759074
000070 22 38 31 bc 03 72 85 bd 0c 98 66 bc 26 e2 17 bd
       -0.010816606 -0.06515887 -0.014074337 -0.037080906
000080 f5 68 63 bb c3 09 80 bd b9 85 63 bd f8 2f 13 3d
       -0.003470001 -0.06251862 -0.05554745 0.03593442
000090 12 20 0d 3e a3 ad b8 3d 6e 51 dc 3d 1a 15 fd 3d
       0.13781765 0.090174936 0.10757719 0.123575404
0000a0 17 82 32 bd 78 34 f2 3c 71 35 56 bb c6 2f 7d bc
       -0.043581095 0.029566035 -0.0032685662 -0.015453285
0000b0 b6 84 90 bc 57 4a bf 3d da 0a 80 3c 30 9b d4 bb
       -0.017641407 0.09340351 0.015630174 -0.0064882264
0000c0 a3 89 bf 3d b9 45 ef 3c 62 4f c0 bc d8 1e 55 bc
       0.09352424 0.029208051 -0.023475353 -0.013007842
0000d0 cf a4 3c bc 80 77 0d bd b2 fe dc 3d 3f 65 db 3c
       -0.011513903 -0.034537792 0.10790767 0.026781676
0000e0 b9 27 39 bd b2 f8 a1 3d 25 db ad 3c 29 bf c2 3d
       -0.045203898 0.07908763 0.02122266 0.09509117
0000f0 d4 2e 88 3d 35 66 36 3c da e3 37 3d 09 87 c1 3c
       0.06649557 0.0111327665 0.04489503 0.02362396
000100 ad 9e 8c bd 24 3b ff 3d b8 9d 24 3e 75 8c ac 3c
       -0.068662025 0.12462452 0.1607579 0.021063069
000110 ad 23 56 3d ba 0c 3b ba a4 6f 2c bb 9f 91 6e bc
       0.052280117 -0.00071353803 -0.002631166 -0.014561086
000120 34 49 72 3d 70 d7 01 3d 69 88 f7 bc 52 b7 d1 3c
       0.059151843 0.031699598 -0.030216413 0.02560011
000130 32 ea 52 3d 87 c5 f2 3c 39 50 5b 3d d4 cf 63 3d
       0.051492877 0.029635204 0.053543303 0.055618122
000140 39 01 06 3c 5e cb 41 3c a6 3b 00 bc 57 bc 6d 3c
       0.008179002 0.011828272 -0.007826721 0.014510236
000150 dc 1d 89 ba 67 38 38 3d c7 d6 99 3d 92 60 bf 3d
       -0.0010461169 0.044975664 0.07511669 0.09344591
000160 81 ee 1e 3e 62 4e 0a bd 1f 83 f7 bc 2e 1f 57 3c
       0.1552067 -0.033766158 -0.03021389 0.013129992
000170 c3 15 ea bb e0 e6 15 3c b2 97 b4 3d 99 e5 e9 3c
       -0.0071437075 0.009149283 0.08817996 0.028551864
000180 0f 92 c8 bb 10 ba 7a 3c 5e c4 29 3d cd a4 1e 3c
       -0.006120927 0.01530315 0.041447036 0.009682846
000190 f6 dd eb bc ff 15 5e 3d 06 0a e1 3d 80 4b ee 3d
       -0.028792363 0.054220196 0.1098824 0.11635494
0001a0 7b cf 19 3d 8e f6 87 bc 2f c3 0c 3e b3 56 0a 3e
       0.037551384 -0.016597059 0.13746332 0.13509636
0001b0 f8 6a 31 3e 76 c7 6c bc 13 48 ea 3d c9 d1 d7 3b
       0.17325962 -0.014451852 0.11439528 0.0065862876
0001c0 21 ef f9 bc 6b 37 61 3d c6 82 5b 3d 0b 4d 91 3c
       -0.030509533 0.05498449 0.053591512 0.017736932
0001d0 e5 c0 8e 3d 26 23 fb 3d 4d 7b df bc 19 fa d3 3d
       0.069703855 0.122625634 -0.027280474 0.10350437
0001e0 60 97 cd bc 5b 8b f5 3c ae a4 53 bb 3d 67 0c bd
       -0.025096595 0.029973676 -0.0032294202 -0.034278143
0001f0 66 47 bf bc e7 97 0c bd 21 5c 5c 3d 5e 24 95 ba
       -0.023349475 -0.034324553 0.0537988 -0.0011378636

action_model._continuous_distribution.log_sigma f4 [1, 2]
000000 60 9d 54 3d 93 fe 74 bd
       0.051907897 -0.059813093

action_model._continuous_distribution.mu.weight f4 [2, 128]
000000 2e a6 3f bd 6e 32 8f bc 23 84 02 bb 5d a8 99 3d
       -0.04678934 -0.017480101 -0.0019915185 0.07502816
000010 c7 f2 47 3d 2a 8b 12 3d 1e 54 a0 3c 14 31 03 3a
       0.048815515 0.03577725 0.01957136 0.00050045666
000020 d4 43 b5 bc 85 9a 3b bd 9a 0a 17 bc 4e 26 0f bd
       -0.02212707 -0.04580166 -0.009218836 -0.03494864
000030 b9 bf e0 3b d7 bd 6f bd 4e 6e 8b 3b d7 37 9f ba
       0.0068587926 -0.058530655 0.0042550927 -0.0012147379
000040 bc 23 a7 3c e1 51 a0 3b db 24 86 3c c0 0a 01 3d
       0.020402782 0.004892573 0.016374996 0.031504393
000050 0c fd 0d bd 29 12 f6 ba 7d b5 36 bd 3b 09 40 bd
       -0.034665152 -0.0018773723 -0.044606674 -0.046883803
000060 21 8a 76 bd 70 9c 3e bd 39 b7 f8 3c f1 a0 76 bb
       -0.060190324 -0.04653591 0.030360805 -0.003763255
000070 05 d7 cb bb f4 f7 00 bd 36 14 cb bb 92 60 8f 3b
       -0.0062207007 -0.031486467 -0.0061974777 0.0043755258
000080 d5 c7 31 3d 77 9e 1a 3b 8d 6e c1 3c 58 43 a2 3c
       0.043403465 0.0023592988 0.023612285 0.019807503
000090 2a 88 82 bc 13 2c a3 bd 37 10 c2 3c 4f f6 2e 3c
       -0.015934069 -0.07967391 0.023689372 0.010678842
0000a0 2a 8e 2e 3c a7 ea 8d bd f5 51 01 3d 56 20 8b bb
       0.010654012 -0.06929522 0.0315723 -0.004245798
0000b0 a8 22 b7 3c 64 8f 8e bd f2 9d cc bc 21 8c e5 3c
       0.022355393 -0.06960943 -0.024977658 0.02802092
0000c0 98 ba 5a bd 6f 1b 21 bb 35 9b 06 bd 53 27 99 bc
       -0.053400606 -0.0024583002 -0.03286286 -0.018695509
0000d0 d3 51 db 3c a7 2b e5 bc 95 04 42 bd 9c ed 63 3d
       0.026772415 -0.027974917 -0.04736765 0.055646524
0000e0 eb 9c 13 3b b5 16 df 3c d5 48 5e 3d f0 ab 94 3c
       0.002252395 0.027232507 0.054268677 0.018148392
0000f0 e0 20 a4 bd 31 9c f6 3c 69 8e 96 3d ce 53 86 3d
       -0.08014083 0.030103775 0.07351381 0.06558953
000100 7d 8e 22 bb 35 07 3c 3d a4 9c 8d bb 1b b9 4a bd
       -0.0024804168 0.04590531 -0.0043216515 -0.049492937
000110 c2 8a 4f 3c 3e 41 3c bd c2 77 c6 3c ae 83 18 3c
       0.01266736 -0.045960657 0.024227027 0.009308739
000120 3a f0 9a 3c 24 13 67 3d c3 cf ab 3b 94 71 ed 3c
       0.018913377 0.05641474 0.005243273 0.028984822
000130 bb 43 d4 3c 79 b7 3b bc 78 cc 82 bd 71 96 b6 bd
       0.025911203 -0.0114573175 -0.063866556 -0.08915413
000140 05 a0 b4 3c 8e eb 41 3d 26 d8 ca 3c b0 27 9f bd
       0.02204896 0.047343783 0.02476127 -0.07771242
000150 ee 00 87 3d 5a da 43 bd 16 08 52 3d 00 c6 b8 3b
       0.06591974 -0.04781566 0.051277243 0.005638838
000160 9d fb 2a bc 69 7f e8 3c 03 59 7f bc 33 4d e0 bc
       -0.010435966 0.028381066 -0.015585187 -0.027380561
000170 42 4c f7 3a 4a 19 18 3c 13 45 38 bd 27 11 9f bd
       0.0018867331 0.009283373 -0.04498775 -0.077669434
000180 25 e8 40 3c cb f7 4e 3d a6 99 5f 3c 8d 80 47 bd
       0.011774098 0.050529283 0.0136474725 -0.04870658
000190 4a ec 83 bc 7e ff 04 3d 39 2a ea bc f2 2b 00 bd
       -0.016103882 0.03247022 -0.028584586 -0.03129191
0001a0 6e cf 1d 3d 9f e3 1e 3d f6 2e 22 bc 2d 03 0c bd
       0.0385279 0.038791295 -0.009898892 -0.034182716
0001b0 d7 2f d9 bc de 77 6e 3c 60 ae 98 3c 20 ee a3 3c
       -0.02651207 0.014554946 0.018637836 0.020011008
0001c0 d8 75 48 3d a7 02 7d bd cf f2 69 3d fb 1e 92 3c
       0.04894051 -0.061770108 0.057116326 0.017837038
0001d0 1c ec 4e 3d aa 13 14 bd 00 74 37 bd ba 28 83 bd
       0.05051814 -0.036151566 -0.04478836 -0.06404252
0001e0 6c 4b cc bc e2 fd 2a 3d b1 97 d2 3c ac 5c fa 3c
       -0.024938308 0.041746028 0.025707098 0.030561768
0001f0 3f e8 85 bc c2 d5 a0 3c c1 af 7d 3c 2d d6 44 3c
       -0.016346095 0.019633178 0.0154837975 0.012013954
000200 c3 5f 1e bd 25 d3 d5 3b e3 2b 0d 3d 65 ba 97 3d
       -0.038665544 0.0065254145 0.03446568 0.07408599
000210 4a 92 31 3d 02 4e 90 3d db ea 22 3d 6d cd 84 3d
       0.043352403 0.07046129 0.039774757 0.06484494
000220 ab f2 64 bb f2 b7 99 bd 9b 52 8b bd b8 b5 99 3d
       -0.003493468 -0.07505788 -0.06802865 0.07505363
000230 8f 06 d9 bb 56 fd 69 3d b5 4f 59 3c 41 6e 6b bd
       -0.0066230963 0.057126366 0.013263633 -0.057478193
000240 65 29 e3 3d d9 73 f6 3d 02 06 9b bc a1 f3 5b 3d
       0.1109188 0.12033815 -0.018923763 0.05369914
000250 56 57 c7 bc 83 ab 27 3c 03 83 8b 3d 75 8c 8b bd
       -0.024333637 0.010233763 0.06812098 -0.068138994
000260 ce 8d 90 3d 5a f1 b5 3d 57 4f b6 3d 9d 49 82 3d
       0.07058297 0.08883925 0.089018516 0.06361697
000270 50 8d b3 bd ab e6 43 bc 51 02 cf bd 58 fa ac bd
       -0.087671876 -0.011956851 -0.10107864 -0.08446187
000280 49 4d bb bd c1 fc 0e bc 8a 4d 6d bd 10 2f f6 3c
       -0.091456 -0.008727253 -0.057935275 0.030051738
000290 9c ee 86 3d ca 5d 68 3d ea 04 59 3d 0c de 83 3d
       0.0658848 0.05673007 0.052983202 0.064388365
0002a0 6b 3a 56 bc 08 56 53 bd e3 1f 15 bd c2 cd f3 bd
       -0.013075451 -0.051595718 -0.036407363 -0.119044796
0002b0 49 a9 73 bd 37 0a 48 3d b0 14 c3 bd 0c 8a d9 bd
       -0.059487615 0.048837867 -0.0952543 -0.106220335
0002c0 0f d4 7a 3d d9 b8 f1 3c 2e fd 51 bd c6 44 16 3b
       0.06123739 0.029507088 -0.05126684 0.0022929176
0002d0 53 2e b9 3c 32 e1 bd bc e3 48 80 3d 3a 78 97 3c
       0.022605097 -0.02317867 0.06263902 0.018489946
0002e0 75 35 84 3b 43 f6 63 3d 8f 3e a7 3b ca a8 27 3d
       0.004034693 0.055654775 0.005103893 0.040932454
0002f0 79 78 1c bb 1f fe 0f bc 3a 76 24 bd 9a 79 c6 bd
       -0.0023875518 -0.0087886145 -0.040151812 -0.096911624
000300 89 b7 44 bc 66 0e b1 3d f3 db 9a 3d 6e 14 19 3c
       -0.012006649 0.086453244 0.07561483 0.00934325
000310 fe 13 0e 3d 36 87 35 bd 32 0f 6c bd a6 53 e0 3b
       0.034687035 -0.0443184 -0.05763168 0.006845909
000320 9f ce 65 3d c6 90 85 3b 3b b7 98 3a 75 f2 bb 3c
       0.056105252 0.004076096 0.0011651287 0.022942761
000330 e9 94 fe 3c 8e a8 fb 3c d1 8b 86 bb e0 e6 12 3d
       0.031076865 0.030720022 -0.004106023 0.03586471
000340 72 d7 1f 3c b2 9d 2b bd b0 94 32 bd e4 1c a1 bd
       0.009755956 -0.041898437 -0.04359883 -0.078668386
000350 ba fd 53 bd ce 45 0f 3b 3d 9b 37 3d f0 9b c0 3d
       -0.051755644 0.0021861675 0.04482578 0.09404743
000360 57 20 ed 3d c0 e3 59 bd d4 19 bc bc 0a e2 69 3c
       0.11578434 -0.053195715 -0.022961535 0.014275083
000370 94 99 be bd 1a 3b b1 bd cc 00 71 3d ad bd 51 bd
       -0.093066365 -0.08653851 0.05883865 -0.05120628
000380 01 18 74 3b 8e 72 95 bd 5d 3b 39 3d 6a e2 08 bd
       0.0037245753 -0.0729724 0.04522263 -0.03341905
000390 9e b4 0a bd c4 67 14 3d 5e cd 9a 3d fb e9 b1 3d
       -0.033863656 0.03623177 0.07558702 0.08687206
0003a0 62 9d 36 3c b7 44 bd bd 3c f2 9b 3d e7 08 fb 3d
       0.011145921 -0.09241622 0.07614562 0.12257557
0003b0 5b fd c7 3d 76 02 f2 bd 04 7f a6 3d 59 eb 82 3c
       0.097651206 -0.11816876 0.08129695 0.015981363
0003c0 ca df ad bd 47 f3 a3 3b 8d e4 91 3c 81 0d 03 bd
       -0.0848995 0.005003366 0.017809177 -0.0319953
0003d0 34 5a a3 3d e6 e0 a5 3d 71 0e 46 bd 76 66 88 3d
       0.07976189 0.080995366 -0.048353616 0.06660168
0003e0 41 1d 59 bd 42 eb 35 3d d1 e7 1c bd f7 17 b3 bd
       -0.053006414 0.044413812 -0.038307015 -0.08744805
0003f0 26 fc 3b 3c ae 58 98 bb a1 13 25 3d f8 fa c2 3a
       0.011473691 -0.0046492433 0.040301923 0.001487582

action_model._continuous_distribution.mu.bias f4 [2]
000000 1d 44 ee bb 78 b7 94 3d
       -0.0072713033 0.072615564

onnx::Div_46 f4 [8]
000000 8b 5c 3b 3d e9 27 29 3d d6 3d 05 3f 72 b6 21 3e
       0.045742553 0.041297827 0.5204748 0.15792254
000010 21 5e 27 3f 4a b0 b8 3e a7 f9 23 3f 3b 53 9f 3e
       0.65378004 0.36071998 0.64052814 0.31118187
