results/Long_Baseline/3DBall/3DBall-1899546.onnx (onnx, 10026 bytes, 7 tensors)

network_body.observation_encoder.processors.0.normalizer.running_mean f4 [8]
0	0x3ab58b20	0.0013850667
1	0xbb596be1	-0.0033175873
2	0x3ec38174	0.38184702
3	0x4044c27a	3.07437
4	0x3fa19eec	1.2626624
5	0x3c1657c4	0.009176198
6	0xbed8c004	-0.42333996
7	0x3cd2314f	0.025658278

network_body._body_endoder.seq_layers.0.weight f4 [128, 8]
0	0x3edd2791	0.4319425
1	0x3d9ff140	0.07809687
2	0x3e6e1219	0.23249091
3	0x3e097b32	0.13425902
4	0x3e889055	0.26672617
5	0xbecf312a	-0.40467197
6	0xbd47f7ea	-0.048820414
7	0x3e81ba10	0.25337267
8	0xbde2691e	-0.11055206
9	0x3f3530e0	0.707777
10	0xbe329ba4	-0.17442185
11	0xbea2ae49	-0.31773594
12	0xbe1073e1	-0.14106704
13	0x3e7b2320	0.24525118
14	0xbe113c78	-0.14183223
15	0xbdd7278c	-0.1050559
16	0xbe016953	-0.12637834
17	0xbf274df1	-0.65353304
18	0x3e79e850	0.24405026
19	0xbf022254	-0.5083363
20	0xbcf24997	-0.029576106
21	0xbdcb256e	-0.099192485
22	0x3dbdfd85	0.09276871
23	0x3db4cb1d	0.08827803
24	0xbee9763e	-0.45598024
25	0xbe975cc6	-0.29562968
26	0x3e3c746f	0.18403791
27	0x3de910ca	0.113801554
28	0x3e3f579f	0.18685769
29	0x3ef6eee3	0.4822913
30	0x3eb58097	0.3544967
31	0xbebf6c98	-0.37387538
32	0xbef60b89	-0.48055676
33	0xbe84e4cc	-0.25955808
34	0x3f1fefce	0.6247529
35	0xbef88f77	-0.48546955
36	0xbede175f	-0.43377206
37	0x3de90e40	0.11379671
38	0x3f0fd78c	0.56188273
39	0xbe8121ad	-0.25221005
40	0xbeab8bae	-0.33505005
41	0xbd5bedd8	-0.053693622
42	0x3d7ad332	0.061236568
43	0xbed83793	-0.422299
44	0xbe8b9330	-0.27260733
45	0x3eb79088	0.35852456
46	0x3f805faf	1.00292
47	0x3c6d34fe	0.014477966
48	0xbf17ac04	-0.5924685
49	0x3e043d35	0.12913974
50	0x3e23b527	0.15987073
51	0xbeb0803c	-0.34472835
52	0xbe98dc2b	-0.29855475
53	0xbe45ba11	-0.1930926
54	0x3e90b952	0.28266388
55	0x3d6e9842	0.058250673
56	0xbf0107aa	-0.5040232
57	0xbd906f4f	-0.070524804
58	0xbefa8380	-0.48928452
59	0x3d121db3	0.035672855
60	0xbe4787b2	-0.19485357
61	0xbda78951	-0.08180488
62	0x3e81af87	0.2532923
63	0xbeb949f0	-0.36189222
64	0x3e392cb4	0.18083459
65	0xbec3c905	-0.38239303
66	0xbebaa230	-0.36451864
67	0xbe68542b	-0.22688358
68	0x3d8143f1	0.06311787
69	0xbf7e0de6	-0.9923996
70	0xbd42b601	-0.047536854
71	0x3e6d4bf7	0.2317351
72	0x3e81025d	0.25197116
73	0x3e652f9f	0.22381447
74	0x3e7e16a8	0.2481333
75	0xbdd54cf4	-0.10415068
76	0x3f45a896	0.77210367
77	0xbe2a5cb9	-0.16636933
78	0xbec38a58	-0.38191485
79	0x3beda656	0.007252495
80	0xbe186ad1	-0.14884497
81	0x3f087018	0.5329604
82	0xbf03742a	-0.5134913
83	0x3e3bcbc0	0.18339443
84	0x3edffd26	0.43747824
85	0xbe6e70b6	-0.23285183
86	0xbdc9580e	-0.09831248
87	0xbe45f4b7	-0.19331633
88	0x3f13ba1b	0.5770585
89	0xbf5ec0b2	-0.8701278
90	0xbf1c4a99	-0.61051327
91	0x3e7f0f77	0.24908243
92	0x3e7c21bb	0.24622242
93	0xbf27696d	-0.6539524
94	0x3f060a90	0.5235987
95	0xbebd934c	-0.3702644
96	0x3dfb78a4	0.1227887
97	0x3deb3ac3	0.11485817
98	0x3ec09dba	0.37620336
99	0x3f00ac8c	0.50263286
100	0xbee580f1	-0.44824937
101	0xbe456e54	-0.19280368
102	0xbf0991e0	-0.5373821
103	0x3f29cc20	0.66327095
104	0x3eec9e6f	0.46214625
105	0xbed00760	-0.40630627
106	0x3eb1bca3	0.3471423
107	0x3f34d227	0.7063317
108	0x3e93061d	0.28715602
109	0xbefd9cdf	-0.49533746
110	0x3c54793f	0.01296836
111	0xbdcd7088	-0.10031229
112	0xbe9a608f	-0.30151793
113	0xbf1df162	-0.61696446
114	0xbda34f04	-0.079740554
115	0xbd5740a4	-0.05255188
116	0x3e9443ea	0.28958064
117	0xbe8119e8	-0.25215077
118	0xbeeae28e	-0.45875973
119	0xbe340af8	-0.17582309
120	0xbe0ba0b2	-0.13635519
121	0x3e92275e	0.2854566
122	0xbe81cb4f	-0.25350425
123	0xbe873a16	-0.26411504
124	0x3e43c320	0.19117403
125	0xbdbd520c	-0.09244165
126	0xbea8a757	-0.3294017
127	0x3e7fda02	0.24985507
128	0xbee9ced1	-0.456656
129	0xbeb682a2	-0.3564654
130	0x3ea4d750	0.3219552
131	0xbe55685c	-0.20840591
132	0xbb007168	-0.0019598845
133	0xbe77156e	-0.24129269
134	0x3e1859eb	0.14878051
135	0xbf5ad480	-0.854805
136	0xbdd262ef	-0.10272776
137	0x3db83b30	0.08995664
138	0x3ea34cb6	0.31894463
139	0x3e24f38b	0.1610853
140	0x3e049e2b	0.12950961
141	0xbde4c393	-0.11170115
142	0x3ebeccdc	0.3726567
143	0xbf1c5994	-0.61074185
144	0x3b50d9f4	0.0031868191
145	0x3e5eb0ce	0.21747133
146	0xbda8cbab	-0.082419716
147	0x3e1559a3	0.14584975
148	0x3dc97759	0.09837217
149	0x3e7432b6	0.2384747
150	0xbe74343a	-0.23848048
151	0xbe620c90	-0.22075105
152	0x3e8e453d	0.277872
153	0xbf1072b4	-0.56425023
154	0x3e4b4db7	0.19853865
155	0xbe8af580	-0.27140427
156	0xbf03e6ba	-0.51523936
157	0x3f307a7e	0.6893691
158	0xbf1b45ef	-0.60653585
159	0xbf0d1ab3	-0.55118865
160	0x3eca8b14	0.39559233
161	0x3f0a8b2f	0.5411863
162	0xbd930241	-0.07178164
163	0x3ec71a68	0.38887334
164	0x3efbb104	0.4915849
165	0x3efbdcfd	0.49192038
166	0xbe9df322	-0.30849558
167	0xbf3950a4	-0.7238867
168	0xbd404317	-0.04693898
169	0xbe9bc874	-0.3042637
170	0xbeaa35ec	-0.33244264
171	0xbe995452	-0.29947144
172	0x3ee4be21	0.44676307
173	0x3eb92cd9	0.3616703
174	0x3ea0eb0b	0.31429324
175	0xbe813cf5	-0.2524182
176	0x3db9f211	0.09079374
177	0xbec98020	-0.39355564
178	0xbea9f849	-0.3319724
179	0x3ea0e8e0	0.3142767
180	0xbf3ffd15	-0.7499555
181	0xbdd311ee	-0.10306154
182	0xbe0dfc73	-0.13865833
183	0xbed17c76	-0.4091527
184	0x3e9a96e1	0.30193236
185	0x3d204203	0.039125454
186	0x3ea96ce3	0.33090886
187	0xbe1798f3	-0.14804439
188	0x3e8d09bd	0.27546492
189	0xbf175455	-0.59113055
190	0xbe47c5ea	-0.19509092
191	0x3e8771d4	0.2645403
192	0x3efc6446	0.49295253
193	0xbd1d899f	-0.038461324
194	0xbebd2d45	-0.369486
195	0x3e806cd7	0.25083038
196	0xbead474c	-0.33843458
197	0x3e4f2919	0.20230521
198	0x3e862000	0.2619629
199	0xbcd98bd1	-0.026555927
200	0x3ee9b4a0	0.45645618
201	0xbe41cf36	-0.18926701
202	0xbf15fca1	-0.58588606
203	0xbe480efd	-0.19536968
204	0xbed688c4	-0.4190122
205	0x3ef7a9f0	0.4837184
206	0x3db5f076	0.08883755
207	0xbf1cdf57	-0.6127829
208	0xbeaaafa5	-0.3333713
209	0xbd7ae35d	-0.061251987
210	0x3f54063b	0.82822007
211	0x3db60460	0.08887553
212	0xbece82b5	-0.40334097
213	0xbf45d981	-0.7728501
214	0xbe16e2cd	-0.14734955
215	0xbf299141	-0.66237265
216	0xbe30c9c0	-0.17264462
217	0xbf040cbb	-0.51581925
218	0xbeeb4cdb	-0.45957074
219	0x3f29e21b	0.66360635
220	0xbd6d8047	-0.057983663
221	0xbe3a1006	-0.18170175
222	0xbe48e319	-0.19617881
223	0xbf04eb51	-0.51921564
224	0x3eb4c64f	0.35307547
225	0xbd05c45c	-0.032657966
226	0xbe4f0820	-0.20217943
227	0x3e5c22a5	0.21497591
228	0x3eea11f2	0.45716816
229	0x3e8c2cd2	0.27377945
230	0x3e6d50e4	0.23175389
231	0x3f30a332	0.68999016
232	0x3f140705	0.5782321
233	0xbe8b3a21	-0.27192786
234	0x3dab6ec8	0.08370739
235	0xbe91ccaf	-0.28476474
236	0x3e021fbd	0.1270742
237	0x3e49b242	0.19696906
238	0xbece5e9a	-0.4030655
239	0xbef6e8f7	-0.48224613
240	0x3e9e82f1	0.30959275
241	0x3ead1d77	0.33811542
242	0x3ec41026	0.3829357
243	0xbd389720	-0.045066
244	0xbdc27003	-0.09494021
245	0xbe991e1f	-0.29905793
246	0x3d02d91e	0.03194534
247	0x3f47beea	0.78025687
248	0xbdf040de	-0.117311224
249	0x3db9c8d9	0.09071512
250	0xbbdc35cc	-0.0067202803
251	0xbeb84781	-0.35992053
252	0x3e934c63	0.28769216
253	0x3dc00969	0.09376795
254	0x3de2b50d	0.11069689
255	0x3eabf184	0.335827

network_body._body_endoder.seq_layers.0.bias f4 [128]
0	0x3c825b85	0.01591278
1	0xbc3e5347	-0.011616535
2	0x3d388001	0.04504395
3	0x3db9960f	0.090618245
4	0x3d90471f	0.07044815
5	0x3db8d2f0	0.09024608
6	0x3d628b3d	0.05530857
7	0x3de099d6	0.10966842
8	0xbc5d70c4	-0.013515655
9	0x3ab19d0c	0.0013550832
10	0xbcdaeb85	-0.026723633
11	0x3e09ea8b	0.13468377
12	0xbd00304e	-0.031296067
13	0x3d99602f	0.07489049
14	0xbd1cff06	-0.038329147
15	0xbc44695a	-0.011988008
16	0x3e28f53a	0.16499797
17	0x3e034176	0.1281794
18	0xbd332bd9	-0.04374299
19	0x3d976565	0.07392386
20	0xbd0f42d3	-0.034975838
21	0xbccebf7f	-0.025237797
22	0x3e1468d1	0.1449311
23	0xbbf31879	-0.007418689
24	0x3dd7154e	0.105021104
25	0x3e363a24	0.17795616
26	0x3dedf47f	0.116188996
27	0x3dfad8df	0.12248396
28	0xbc2bb7ab	-0.010480802
29	0xbd8559f2	-0.06511296
30	0xbc65f4f9	-0.014035457
31	0xbd17595b	-0.03695045
32	0xbb4fea96	-0.0031725517
33	0xbd7f7c47	-0.06237438
34	0xbd62c271	-0.055361215
35	0x3d12fbec	0.035884783
36	0x3e0d3b8b	0.13792245
37	0x3db8367f	0.08994769
38	0x3ddbd7ce	0.10734521
39	0x3dfc87b7	0.12330573
40	0xbd325351	-0.043536488
41	0x3cf37efe	0.02972364
42	0xbb5117a8	-0.003190497
43	0xbc7bd19c	-0.015369799
44	0xbc8ed56e	-0.017435756
45	0x3dbf7f37	0.09350436
46	0x3c80a103	0.015701776
47	0xbbca0afa	-0.0061658593
48	0x3dbf44fe	0.09339331
49	0x3cef6e75	0.029227475
50	0xbcbeaad4	-0.023274817
51	0xbc563d87	-0.013076193
52	0xbc403b3f	-0.011732875
53	0xbd0c8e32	-0.034315296
54	0x3ddcb6cb	0.107770525
55	0x3cdbb3d8	0.026819155
56	0xbd3a42f1	-0.045473997
57	0x3da219d4	0.079150826
58	0x3caeb0fd	0.021324629
59	0x3dc2bb77	0.09508412
60	0x3d883639	0.06650967
61	0x3c357534	0.011075307
62	0x3d391621	0.04518712
63	0x3cc44b12	0.023961578
64	0xbd8c1b11	-0.068411
65	0x3dfe6f50	0.12423575
66	0x3e247319	0.16059531
67	0x3cad6253	0.021165049
68	0x3d564d3a	0.052319743
69	0xb9e3d1ee	-0.00043453224
70	0xbb273c91	-0.0025518278
71	0xbc7077cd	-0.014677
72	0x3d714a73	0.05890889
73	0x3d0229b4	0.031778052
74	0xbcf8a09a	-0.030350018
75	0x3ccfb4c1	0.025354745
76	0x3d5239f0	0.051324785
77	0x3cf0e306	0.029405128
78	0x3d5b7b02	0.053584106
79	0x3d637cd2	0.05553896
80	0x3c077b94	0.008269209
81	0x3c449a35	0.011999656
82	0xbbf9ae48	-0.007619653
83	0x3c6e53d3	0.014546352
84	0xba793c59	-0.00095075887
85	0x3d37f6a9	0.044912968
86	0x3d99cc71	0.07509697
87	0x3dbe9b4b	0.093069635
88	0x3e1e802d	0.15478583
89	0xbd0a66e3	-0.033789527
90	0xbcf40f89	-0.029792564
91	0x3c564fa3	0.01308051
92	0xbbe3c2e6	-0.006950724
93	0x3c188f94	0.009311575
94	0x3db43cd8	0.088006675
95	0x3cea0431	0.028566452
96	0xbbcd003b	-0.006256131
97	0x3c7d4001	0.015457154
98	0x3d27e811	0.0409928
99	0x3c1e9739	0.009679609
100	0xbceb3e12	-0.02871612
101	0x3d5e4218	0.05426225
102	0x3de03c0f	0.10948955
103	0x3dedf3ff	0.11618804
104	0x3d19647b	0.03744934
105	0xbc85e66f	-0.01634523
106	0x3e0c6415	0.13710053
107	0x3e09ea0a	0.13468185
108	0x3e313d34	0.17308503
109	0xbc6ab080	-0.014324307
110	0x3de99a66	0.11406402
111	0x3bd02519	0.0063520786
112	0xbcf81940	-0.030285478
113	0x3d618200	0.05505562
114	0x3d5b937a	0.05360744
115	0x3c9264fa	0.017870415
116	0x3d8e260e	0.06940852
117	0x3dfb0c29	0.12258179
118	0xbcde22d9	-0.027116226
119	0x3dd3be7e	0.10339068
120	0xbccd355c	-0.025049858
121	0x3cf471f4	0.029839493
122	0xbb52ba26	-0.003215441
123	0xbd0b8ec6	-0.034071706
124	0xbcbecc00	-0.023290634
125	0xbd0bcd90	-0.034131587
126	0x3d5c660d	0.05380826
127	0xba9713da	-0.0011526302

action_model._continuous_distribution.log_sigma f4 [1, 2]
0	0x3d53a6eb	0.051672857
1	0xbd737789	-0.05944017

action_model._continuous_distribution.mu.weight f4 [2, 128]
0	0xbd3fe233	-0.04684658
1	0xbc900ac1	-0.017583253
2	0xbafd1ae5	-0.0019310383
3	0x3d99dd4b	0.075129114
4	0x3d48b7fa	0.04900358
5	0x3d1313d7	0.035907593
6	0x3ca30745	0.019900927
7	0x3a04cc70	0.0005065864
8	0xbcb5e03c	-0.02220165
9	0xbd3b8603	-0.0457821
10	0xbc17ec42	-0.009272637
11	0xbd0f84a5	-0.03503861
12	0x3bdda0b6	0.006763543
13	0xbd6fc2c9	-0.05853537
14	0x3b8b655d	0.004254027
15	0xbab456de	-0.0013758799
16	0x3ca91edf	0.020644603
17	0x3ba328d2	0.0049792314
18	0x3c858fcb	0.016303917
19	0x3d0092cd	0.03139
20	0xbd0e501d	-0.03474437
21	0xbb01f584	-0.0019830177
22	0xbd372c39	-0.04471991
23	0xbd400f93	-0.046889853
24	0xbd76a85b	-0.06021915
25	0xbd3ff098	-0.046860307
26	0x3cfb16ab	0.030650457
27	0xbb770377	-0.0037691274
28	0xbbcde9b8	-0.006283965
29	0xbd00f06a	-0.031479277
30	0xbbcb52c8	-0.0062049367
31	0x3b92cc42	0.004479916
32	0x3d3135b0	0.04326409
33	0x3b136d55	0.0022495587
34	0x3cc178e5	0.023617217
35	0x3ca30de3	0.019904083
36	0xbc8114fe	-0.01575708
37	0xbda33ba5	-0.07970361
38	0x3cc50a0f	0.024052648
39	0x3c296956	0.010340055
40	0x3c2e224d	0.010628295
41	0xbd8e6885	-0.06953529
42	0x3d011896	0.031517588
43	0xbb885eec	-0.004161706
44	0x3cb5b7b6	0.022182327
45	0xbd8f12da	-0.069860175
46	0xbcce1e7a	-0.025161017
47	0x3ce6c4e9	0.028170066
48	0xbd5b347d	-0.053516854
49	0xbb2cf441	-0.0026390704
50	0xbd07bc02	-0.033138283
51	0xbc99a119	-0.018753575
52	0x3cdbc22c	0.026825987
53	0xbce7b40e	-0.028284099
54	0xbd427960	-0.047479033
55	0x3d647153	0.055772137
56	0x3afcc211	0.001928391
57	0x3ce09934	0.027416803
58	0x3d5ec535	0.05438729
59	0x3c9612d1	0.01831952
60	0xbda45994	-0.08024898
61	0x3cf4fb82	0.029905085
62	0x3d96c90c	0.073625654
63	0x3d86d09d	0.065827586
64	0xbb1b6629	-0.0023712015
65	0x3d3cbf3e	0.04608082
66	0xbb81363c	-0.003943233
67	0xbd4b714a	-0.049668588
68	0x3c4f11f3	0.012638557
69	0xbd3ca240	-0.04605317
70	0x3cc5314a	0.024071354
71	0x3c15fae1	0.0091540525
72	0x3c9c0120	0.019043505
73	0x3d67d1f4	0.05659671
74	0x3ba660ea	0.005077471
75	0x3ced86d7	0.02899496
76	0x3cd57a20	0.02605921
77	0xbc39accd	-0.011332703
78	0xbd82e740	-0.06391764
79	0xbdb71245	-0.089390315
80	0x3cb648dc	0.022251539
81	0x3d426979	0.047463868
82	0x3cc98d4c	0.024603508
83	0xbd9f3bf0	-0.07775104
84	0x3d873a1f	0.066028826
85	0xbd445728	-0.04793468
86	0x3d521f0e	0.051299147
87	0x3bba971c	0.005694283
88	0xbc303092	-0.010753768
89	0x3ce9c230	0.028534979
90	0xbc802c2d	-0.015646065
91	0xbce12103	-0.027481562
92	0x3b11860c	0.0022205142
93	0x3c198b66	0.009371614
94	0xbd374e7e	-0.04475259
95	0xbd9effc6	-0.07763629
96	0x3c3f54e4	0.011677954
97	0x3d4f1200	0.050554276
98	0x3c60a25d	0.013710585
99	0xbd47376f	-0.04863685
100	0xbc841041	-0.016121032
101	0x3d046cf1	0.032330457
102	0xbce99f72	-0.028518412
103	0xbcfea063	-0.031082338
104	0x3d1d98c9	0.038475785
105	0x3d1ebc57	0.038753834
106	0xbc24e1a4	-0.010063563
107	0xbd0c6677	-0.034277406
108	0xbcd8f7fd	-0.026485438
109	0x3c6ceb8a	0.014460454
110	0x3c98ef6c	0.018668853
111	0x3ca408df	0.020023761
112	0x3d484e96	0.04890307
113	0xbd7d82fc	-0.061892495
114	0x3d6a5914	0.057213858
115	0x3c922b6e	0.017842975
116	0x3d4ee5fa	0.05051229
117	0xbd139499	-0.036030386
118	0xbd366b85	-0.044536132
119	0xbd831815	-0.06401078
120	0xbccb8250	-0.024842411
121	0x3d2b0ba0	0.041759133
122	0x3cd2a7ee	0.02571484
123	0x3cfc0163	0.03076238
124	0xbc872dd2	-0.016501341
125	0x3ca1bbb0	0.019742817
126	0x3c7e6f60	0.015529484
127	0x3c412c66	0.011790371
128	0xbd1e041e	-0.038578145
129	0x3bda1f1a	0.0066565396
130	0x3d0e1566	0.034688376
131	0x3d973178	0.07382482
132	0x3d31eb3a	0.04343722
133	0x3d900d53	0.070337914
134	0x3d2408a2	0.040047295
135	0x3d845ea7	0.06463366
136	0xbb4e5d09	-0.0031488559
137	0xbd998a60	-0.07497096
138	0xbd8ba16b	-0.068178974
139	0x3d9993b5	0.07498876
140	0xbbd6f4cc	-0.006559944
141	0x3d699550	0.05702716
142	0x3c5b74b3	0.0133945225
143	0xbd6a7f36	-0.057250224
144	0x3de32e1b	0.11092778
145	0x3df5ce75	0.12002269
146	0xbc9c04f9	-0.01904534
147	0x3d5caf97	0.053878393
148	0xbcc8cdf8	-0.024512276
149	0x3c24dfd4	0.01006313
150	0x3d8b98b4	0.06816235
151	0xbd8ac132	-0.0677513
152	0x3d900a42	0.070332065
153	0x3db61a10	0.0889169
154	0x3db6d5dd	0.0892751
155	0x3d81c595	0.06336514
156	0xbdb42a2f	-0.087971084
157	0xbc42cb22	-0.011889251
158	0xbdcea6ab	-0.10090383
159	0xbdacf39d	-0.08444903
160	0xbdbbadce	-0.0916401
161	0xbc124b3e	-0.008929072
162	0xbd6d3806	-0.057914756
163	0x3cf7766e	0.030207839
164	0x3d87bc9a	0.0662777
165	0x3d681816	0.056663595
166	0x3d580ff5	0.052749593
167	0x3d83e480	0.06440067
168	0xbc50e6e6	-0.012750363
169	0xbd5396a9	-0.051657353
170	0xbd14dc77	-0.036343064
171	0xbdf37e3e	-0.11889313
172	0xbd740570	-0.059575498
173	0x3d49ee47	0.049299505
174	0xbdc30ff7	-0.095245294
175	0xbdda45c6	-0.106578395
176	0x3d7b81dd	0.061403144
177	0x3cf4f0ca	0.029899973
178	0xbd52444a	-0.051334657
179	0x3b042fba	0.0020170049
180	0x3cb74a86	0.022374403
181	0xbcbebabd	-0.023282403
182	0x3d801491	0.06253923
183	0x3c97f626	0.01854999
184	0x3b7a64af	0.0038206985
185	0x3d64f2c1	0.05589557
186	0x3bacb36a	0.0052704113
187	0x3d2854ff	0.041096684
188	0xbb1d089f	-0.0023961437
189	0xbc12abc8	-0.008952089
190	0xbd253c48	-0.04034069
191	0xbdc72600	-0.09724045
192	0xbc4bbd17	-0.012435219
193	0x3db01cd9	0.08599252
194	0x3d9afa80	0.0756731
195	0x3c1cceda	0.009570802
196	0x3d0f03b5	0.034915645
197	0xbd36bf83	-0.044616234
198	0xbd6c51ce	-0.057695203
199	0x3bda110c	0.006654864
200	0x3d6507aa	0.055915512
201	0x3b80ce02	0.003930808
202	0x3a848578	0.0010110578
203	0x3cb98331	0.022645565
204	0x3cfc4d85	0.030798683
205	0x3cf98ce9	0.030462699
206	0xbb84239e	-0.004032566
207	0x3d1221cd	0.035676766
208	0x3c1f2067	0.009712315
209	0xbd2bf313	-0.04197986
210	0xbd33d709	-0.043906245
211	0xbda0c6ba	-0.07850404
212	0xbd52711f	-0.051377412
213	0x3b06bda1	0.0020559805
214	0x3d37addc	0.04484354
215	0x3dc02767	0.093825154
216	0x3dec7ef2	0.115476504
217	0xbd588090	-0.05285698
218	0xbcbe43de	-0.023225721
219	0x3c6790d1	0.014133648
220	0xbdbee156	-0.09320323
221	0xbdb19e0a	-0.08672722
222	0x3d708fd1	0.058730904
223	0xbd5144c6	-0.051090978
224	0x3b5e8499	0.0033953546
225	0xbd96099d	-0.07326052
226	0x3d377f3b	0.04479907
227	0xbd089bc7	-0.033351686
228	0xbd0a38d3	-0.033745598
229	0x3d15ad5f	0.036542293
230	0x3d9a0dbf	0.07522153
231	0x3db1d380	0.086829185
232	0x3c32cda4	0.010913286
233	0xbdbd7e12	-0.09252562
234	0x3d9b9484	0.075966865
235	0x3dfa6200	0.12225723
236	0x3dc801e6	0.09765987
237	0xbdf20e87	-0.11819177
238	0x3da618e7	0.081102185
239	0x3c80d29c	0.015725426
240	0xbdade475	-0.0849084
241	0x3ba3d986	0.005000296
242	0x3c922de0	0.01784414
243	0xbd02eb18	-0.031962484
244	0x3da2d47c	0.079506844
245	0x3da6a4a3	0.08136871
246	0xbd479705	-0.048728008
247	0x3d88854f	0.066660516
248	0xbd58c29f	-0.05291998
249	0x3d35cfe4	0.044387713
250	0xbd1c1f59	-0.038115833
251	0xbdb31ec8	-0.087461054
252	0x3c41c8ae	0.011827631
253	0xbb9c24ca	-0.004765128
254	0x3d25e72c	0.040503666
255	0x3ad36a34	0.0016129673

action_model._continuous_distribution.mu.bias f4 [2]
0	0xbbecc2a3	-0.007225351
1	0x3d9453b4	0.072425276

onnx::Div_46 f4 [8]
0	0x3d3c6e22	0.04600347
1	0x3d2b0746	0.041754983
2	0x3f072c80	0.52802277
3	0x3e2398b6	0.15976223
4	0x3f29139b	0.6604554
5	0x3ebb70f5	0.36609617
6	0x3f246047	0.6420941
7	0x3ea2ba8f	0.31782958
