results/Long_Baseline/3DBall/3DBall-1949546.onnx (onnx, 10026 bytes, 7 tensors)

network_body.observation_encoder.processors.0.normalizer.running_mean f4 [8]
00000000: ef59 b53a 14a5 58bb 6e2b c43e 99bf 4440
00000010: 450f a33f b560 163c 7030 d9be 7e00 d33c
0.0013836006 -0.0033057379 0.38314384 3.0741942 1.2739035 0.00917833 -0.42419767 0.02575707

network_body._body_endoder.seq_layers.0.weight f4 [128, 8]
00000000: ee0a dd3e 2aee 9f3d 5d35 6e3e de50 093e
00000010: 1a61 883e 073e cfbe 377f 48bd 45c8 813e
00000020: ec7f e2bd ee38 353f f23d 32be 6092 a2be
00000030: 9b63 10be 99eb 7a3e 5b21 11be 2a62 d7bd
00000040: ba40 01be 3d54 27bf 88aa 793e 631c 02bf
00000050: 91e0 eebc 0e70 cabd 0c91 be3d 9265 b43d
00000060: a46b e9be d759 97be 5665 3c3e 4d70 e93d
00000070: 086d 3f3e b9ef f63e ba80 b53e da71 bfbe
00000080: 4ded f5be 02eb 84be 1bea 1f3f 458f f8be
00000090: 98ea ddbe 7f77 e93d 2beb 0f3f 1046 81be
000000a0: 3d6d abbe fbf8 5bbd 9c1a 7b3d 6e2c d8be
000000b0: 6e7c 8bbe b4ab b73e 0c67 803f d012 6c3c
000000c0: f3aa 17bf b86a 043e 4b78 233e 0140 b0be
000000d0: b3cb 98be 9b53 45be e2c9 903e dfcf 6d3d
000000e0: 5119 01bf 79fe 8fbd fe7c fabe 818e 143d
000000f0: af7d 47be d5d2 a7bd 0ca3 813e 9962 b9be
00000100: 6005 393e 79b8 c3be 2b86 babe 788f 68be
00000110: 7f77 813d 5317 7ebf c606 42bd 1118 6d3e
00000120: b8e8 803e d824 653e c91f 7e3e 0dbc d5bd
00000130: a895 453f c373 2abe 1d95 c3be c090 f03b
00000140: c646 18be 6c64 083f 1376 03bf e843 3b3e
00000150: caf1 df3e e85a 6ebe 7d3b c9bd 1cc4 45be
00000160: 27ba 133f 14ca 5ebf ec4c 1cbf da5b 7f3e
00000170: dd4a 7c3e d86f 27bf 9404 063f d583 bdbe
00000180: 7ea6 fb3d edce ea3d 7495 c03e 3795 003f
00000190: dc8e e5be 15a3 45be 519f 09bf 47d4 293f
000001a0: a293 ec3e eef3 cfbe f4af b13e 95e8 343f
000001b0: 670a 933e ab92 fdbe 4765 543c 0bc1 cdbd
000001c0: a868 9abe 1af2 1dbf d1c8 a3bd eb8c 55bd
000001d0: 1f6f 943e ff0b 81be f5d6 eabe 924e 34be
000001e0: 21a9 0bbe 2316 923e e0c4 81be 4867 87be
000001f0: 857e 433e 1ef8 bdbd d2b5 a8be 73f9 7f3e
00000200: f2c5 e9be 4f89 b6be 39d1 a43e 9f19 55be
00000210: ff0c e9ba 5412 77be 8858 183e dcdc 5abf
00000220: 0e83 d2bd f192 b83d 474b a33e 8857 253e
00000230: 5fa4 043e 04dc e4bd efb1 be3e f555 1cbf
00000240: 83b9 583b f687 5e3e 2e25 a9bd 8af5 143e
00000250: b74f c93d 5233 743e 7740 74be beef 61be
00000260: fa46 8e3e 5470 10bf 4b20 4b3e cde9 8abe
00000270: 4fd5 03bf 0c92 303f 343e 1bbf d519 0dbf
00000280: f089 ca3e e57f 0a3f e8b0 92bd 8100 c73e
00000290: f59a fb3e 66d6 fb3e 9aee 9dbe 0b58 39bf
000002a0: 6de0 3fbd afde 9bbe 502c aabe 2650 99be
000002b0: 7ad3 e43e 5929 b93e 70e6 a03e a132 81be
000002c0: 4192 b93d ff5c c9be ffea a9be 322c a13e
000002d0: 08f0 3fbf 42a2 d2bd 46ae 0dbe 7097 d1be
000002e0: 0972 9a3e f722 203d e480 a93e 63d7 17be
000002f0: aad0 8c3e c95e 17bf b9f6 47be 7290 873e
00000300: 1f61 fc3e c9c3 1cbd 0c13 bdbe 7fa8 803e
00000310: 2854 adbe 3e41 4f3e 013b 863e 1fc4 d7bc
00000320: b1c9 e93e 7eed 41be 07e9 15bf a3e9 47be
00000330: 166a d6be b6b1 f73e 423c b63d dcda 1cbf
00000340: 98ba aabe de9d 79bd daf4 533f 85f2 b63d
00000350: 075c cebe 62d2 45bf eeba 16be c2bb 29bf
00000360: ab14 31be e607 04bf a643 ebbe b0ff 293f
00000370: 558d 6cbd b846 3abe 23db 48be 7ffc 04bf
00000380: 4db1 b43e 18dd 05bd 0305 4fbe c8cf 5b3e
00000390: 7206 ea3e b20e 8c3e 016e 6d3e ef94 303f
000003a0: 27fd 133f 8b3b 8bbe 6f9f ab3d f5e0 91be
000003b0: 7c13 023e 8291 493e cb6f cebe d5fd f6be
000003c0: 3b6c 9e3e 6f03 ad3e 9c1c c43e 20c5 39bd
000003d0: 2bdf c2bd ab52 99be 73f4 013d 4ec2 473f
000003e0: aab4 f0bd 48d4 b93d 5a22 dabb 2e4f b8be
000003f0: 1a2f 933e f26c bf3d e090 e23d cdeb ab3e
0.431724 0.07809098 0.23262544 0.13409755 0.26636583 -0.4047701 -0.048949447 0.25348106
-0.110595554 0.7078999 -0.17406443 -0.317523 -0.14100496 0.24503936 -0.1417288 -0.1051677
-0.12622347 -0.6536291 0.24381459 -0.50824565 -0.029159816 -0.09884654 0.09305009 0.088084355
-0.45589936 -0.2956073 0.18398032 0.11398373 0.18693936 0.4822977 0.35449773 -0.3739155
-0.4803261 -0.25960547 0.6246659 -0.48546806 -0.43343043 0.11399745 0.5621821 -0.25248766
-0.3348178 -0.053704243 0.061304674 -0.42221397 -0.2724337 0.35873187 1.0031447 0.014408782
-0.5924522 0.12931335 0.15963857 -0.3442383 -0.2984291 -0.19270174 0.28279024 0.05805957
-0.50429255 -0.07030959 -0.48923486 0.036268715 -0.19481538 -0.0819451 0.25319707 -0.36208037
0.18068457 -0.3822668 -0.36430487 -0.22710979 0.0632162 -0.9925434 -0.04736974 0.23153712
0.2517755 0.22377336 0.24816813 -0.104362585 0.7718148 -0.16645722 -0.38199702 0.0073414743
-0.14870748 0.5327823 -0.5135204 0.18287623 0.43739158 -0.23276865 -0.098257996 -0.19313091
0.5770592 -0.87027097 -0.61054873 0.24937382 0.24637933 -0.65405035 0.52350736 -0.37014642
0.12287615 0.11465249 0.37614024 0.50227684 -0.44835556 -0.19300492 -0.5375872 0.66339535
0.46206385 -0.4061579 0.34704554 0.7066739 0.28718874 -0.4952596 0.0129635995 -0.10046586
-0.3015797 -0.6169754 -0.07997287 -0.052136343 0.2899103 -0.25204465 -0.45867124 -0.17608097
-0.13638736 0.28532514 -0.25345516 -0.26445985 0.19091232 -0.0927584 -0.32951218 0.24997501
-0.45658833 -0.35651633 0.32190874 -0.20810555 -0.0017780362 -0.24128085 0.14877522 -0.85493255
-0.10278903 0.09012402 0.3189337 0.16146672 0.12953328 -0.11174777 0.37245128 -0.6106866
0.0033069558 0.21731552 -0.082590446 0.1454679 0.098296575 0.23847702 -0.23852716 -0.2206411
0.27788526 -0.564214 0.19836538 -0.271315 -0.5149736 0.6897285 -0.6064179 -0.5511754
0.39558363 0.541014 -0.071626484 0.38867572 0.4914166 0.4918701 -0.308461 -0.7239997
-0.04684489 -0.30443332 -0.33236933 -0.2994396 0.44692594 0.36164358 0.3142581 -0.2523394
0.09061099 -0.39328763 -0.331871 0.3147903 -0.74975634 -0.102848545 -0.13836011 -0.4093585
0.30165127 0.039095845 0.33106148 -0.14828257 0.27502948 -0.59129006 -0.19527711 0.2647739
0.49292848 -0.038272653 -0.36928594 0.25128552 -0.3385327 0.20239732 0.2621689 -0.026338635
0.4566169 -0.18938252 -0.58558697 -0.19522719 -0.41877812 0.4837777 0.08898212 -0.6127145
-0.33345485 -0.06094157 0.8279549 0.08932976 -0.40304586 -0.77274144 -0.14719746 -0.6630212
-0.1729304 -0.5157455 -0.4595005 0.66405773 -0.057751972 -0.1819104 -0.19614844 -0.5194778
0.3529152 -0.032681555 -0.20216756 0.21465981 0.45708042 0.27354962 0.23186494 0.68977255
0.57808155 -0.27193865 0.08380019 -0.2849194 0.12702745 0.19684413 -0.40319666 -0.48240533
0.30941948 0.33791682 0.38303077 -0.04535401 -0.09515222 -0.29945883 0.031727266 0.7803086
-0.11753209 0.090736926 -0.006656927 -0.3599791 0.28746873 0.093469515 0.11062789 0.3357834

network_body._body_endoder.seq_layers.0.bias f4 [128]
00000000: 652e 813c 2b05 3dbc a529 393d e712 ba3d
00000010: 4035 903d 213e b93d 7adc 623d 886a e13d
00000020: f8b6 5dbc 9ba9 913a 541e debc 3d5e 0a3e
00000030: 8f1f 01bd fa24 9a3d 2134 1cbd 5dab 47bc
00000040: 8a44 293e b9c8 033e e464 34bd be9c 973d
00000050: 6f6d 10bd c288 ccbc 31b4 143e cb33 f7bb
00000060: 9ee3 d73d 8f7e 363e 1a48 ee3d 86b2 fb3d
00000070: 021a 33bc ae84 85bd 8b5c 69bc 1e6d 18bd
00000080: 32a3 69bb 7b33 80bd 2935 64bd 1daa 133d
00000090: 0b5a 0d3e 91e3 b83d ed6f dc3d 6a0e fd3d
000000a0: f70e 33bd 198a f13c 6b50 5dbb 203c 80bc
000000b0: 2d96 91bc 3194 bf3d 51a8 7d3c ce0e d9bb
000000c0: 70d1 bf3d 529b f03c 0b4f c1bc a2bf 54bc
000000d0: 6c8e 3bbc c8c1 0dbd ad5c dd3d bffd db3c
000000e0: 65ef 38bd 6450 a23d c728 ae3c e618 c33d
000000f0: f23d 883d 5aef 353c 96f1 373d f4dc c03c
00000100: a7af 8cbd 6a53 ff3d 2fb9 243e 14e1 ac3c
00000110: cbfa 563d b563 58ba 15a4 33bb ee39 6dbc
00000120: 1ad0 723d ca0c 023d fe8f f7bc 1c3f d23c
00000130: 7e61 533d acf3 f33c 9f54 5b3d 6211 643d
00000140: 72e6 073c c63e 403c 726f 01bc d37d 6b3c
00000150: 4413 98ba 4840 383d 15df 993d 9fa9 bf3d
00000160: 4ff8 1e3e 9f20 0bbd ebab f7bc 4d7f 583c
00000170: 9756 efbb 663a 133c 08be b43d 7e0b e93c
00000180: 48a9 c8bb eb3f 793c 14fd 293d b643 1c3c
00000190: a42b edbc 6870 5e3d 5863 e13d e2c0 ee3d
000001a0: a00e 1a3d fe21 89bc 5cdf 0c3e 5576 0a3e
000001b0: 5f8b 313e c122 6fbc b776 ea3d 6ddb d93b
000001c0: fc9a fabc 234b 613d 82b3 5b3d 631a 903c
000001d0: 79de 8e3d 567a fb3d 8e7c e0bc 175a d43d
000001e0: 6999 cebc 1d18 f63c 6c8d 5cbb efbe 0cbd
000001f0: 3d93 bebc e8ae 0cbd 67f0 5c3d e2bf 92ba
0.015769193 -0.011536877 0.04520573 0.090856366 0.07041407 0.09045053 0.055386044 0.11006647
-0.013532393 0.0011113168 -0.027114071 0.13512512 -0.031524237 0.07526584 -0.03813565 -0.012186852
0.16530052 0.12869538 -0.04404153 0.07402943 -0.035260614 -0.024967555 0.14521863 -0.007544016
0.105414614 0.17821716 0.11634846 0.1228991 -0.010931494 -0.06519447 -0.014243255 -0.037213437
-0.003565025 -0.06259819 -0.05571476 0.036050905 0.1380388 0.0902778 0.10763536 0.12356265
-0.043715443 0.029484795 -0.0033769857 -0.01565367 -0.017771805 0.09354437 0.015482024 -0.0066240793
0.09366119 0.029370937 -0.023597261 -0.012985142 -0.01144753 -0.034608632 0.10808692 0.026854394
-0.04515018 0.079254895 0.021259679 0.095262334 0.0665244 0.011104429 0.04490813 0.023542859
-0.068694405 0.12467082 0.16086267 0.02110342 0.05248527 -0.00082546036 -0.0027411033 -0.014479144
0.059280492 0.031750478 -0.030220028 0.025664859 0.051606648 0.029779278 0.053547498 0.05568064
0.008294689 0.011733716 -0.007900106 0.014373261 -0.0011602421 0.04498318 0.07513253 0.093585245
0.1552441 -0.033966657 -0.030233344 0.013213945 -0.0073040235 0.008986091 0.08825308 0.028447863
-0.0061236955 0.015212993 0.04150112 0.009537628 -0.028951474 0.054306418 0.110052764 0.11657883
0.037611604 -0.016739842 0.1375708 0.13521703 0.17338322 -0.014595688 0.11448424 0.006648472
-0.03059148 0.055003297 0.05363799 0.017590707 0.06976027 0.12279193 -0.027403142 0.10368746
-0.025219636 0.030040795 -0.003365363 -0.034361776 -0.023263568 -0.03434649 0.053940203 -0.0011196102

action_model._continuous_distribution.log_sigma f4 [1, 2]
00000000: 5e9f 543d 9714 74bd
0.051909797 -0.05958995

action_model._continuous_distribution.mu.weight f4 [2, 128]
00000000: 65af 3fbd 5bf4 8ebc bf8d 04bb 73ab 993d
00000010: c403 483d bdad 123d 62cf a03c 0a16 043a
00000020: 8d4a b5bc 4ab1 3bbd 85a8 16bc 6748 0fbd
00000030: d0db df3b 1abf 6fbd dedb 8a3b 52f6 9bba
00000040: 8e06 a73c 3d8d a03b 3836 863c 8edd 003d
00000050: 8928 0ebd 2052 f8ba 1adb 36bd 340f 40bd
00000060: b6d0 76bd d8a6 3ebd f6b2 f83c 043b 76bb
00000070: 23ff ccbb 5a39 01bd fab5 cbbb dce6 913b
00000080: 43c7 313d 4a61 193b 7518 c13c ea79 a23c
00000090: 04bc 82bc b542 a3bd 4a31 c23c 7228 2f3c
000000a0: 63f9 2d3c 05f3 8dbd 4675 013d 5eb1 8abb
000000b0: 6f58 b73c 9fb2 8ebd 24d0 ccbc 4895 e53c
000000c0: 66e8 5abd 3d60 23bb 17a6 06bd 137c 99bc
000000d0: 6126 db3c 98b6 e5bc 5974 42bd 55eb 633d
000000e0: 1ec7 113b 30b1 de3c 6d64 5e3d ab43 943c
000000f0: 9646 a4bd 262a f63c 0da7 963d ce84 863d
00000100: 97ed 22bb 9f14 3c3d 3b85 8dbb 07d4 4abd
00000110: 56b0 4f3c a96a 3cbd e99a c63c 9204 183c
00000120: 45e3 9a3c ac5f 673d 4a58 aa3b 5373 ed3c
00000130: f14c d43c bf08 3cbc 5ad9 82bd 80a7 b6bd
00000140: 53c8 b43c dc26 423d d0b1 ca3c f520 9fbd
00000150: 1009 873d edfc 43bd a1d9 513d 31ad b83b
00000160: c9b8 2bbc d2cd e83c b096 7fbc 48b2 e0bc
00000170: 7120 013b 283b 183c 3361 38bd 4909 9fbd
00000180: 5f87 403c 2eea 4e3d 5806 5f3c 9395 47bd
00000190: 41ef 83bc 46f0 043d 422a eabc e046 00bd
000001a0: 77fd 1d3d cae5 1e3d 6780 22bc 753b 0cbd
000001b0: b691 d9bc 2f6f 6e3c efbc 983c 59dd a33c
000001c0: 8f9e 483d f428 7dbd 21c6 693d 8bf3 913c
000001d0: 28df 4e3d ed25 14bd a06d 37bd b855 83bd
000001e0: 2fae cbbc c224 2b3d c2c2 d23c 9919 fb3c
000001f0: c4f0 85bc 7ff9 a03c 287c 7d3c 59fb 433c
00000200: 7e91 1dbd 88e8 d93b f635 0d3d e17d 973d
00000210: 4d49 313d 7409 903d c7e2 223d 8abb 843d
00000220: 6a21 5cbb 1c4a 99bd a510 8bbd 8e15 9a3d
00000230: 96f4 d6bb ceba 6a3d dd4f 5b3c a211 6bbd
00000240: 5945 e33d a056 f63d c912 9abc 2df8 5b3d
00000250: 8961 c6bc 5521 263c 729c 8b3d 9511 8bbd
00000260: 5687 903d a2b8 b53d 67b5 b63d 6e91 823d
00000270: fc85 b3bd a150 42bc 57e0 cebd 46f1 acbd
00000280: 3057 bbbd 9d48 0ebc 7fa7 6cbd a522 f73c
00000290: aa68 873d 96c4 683d 2235 593d afc7 833d
000002a0: d419 55bc 0c81 53bd a9b0 14bd d55b f3bd
000002b0: 077f 73bd b0e3 473d 8806 c3bd ec84 d9bd
000002c0: 1817 7b3d 0f0f f23c 1f07 52bd 1631 153b
000002d0: 5d81 b93c b5db bdbc 419a 803d 6dc2 983c
000002e0: 3300 813b 60b5 643d 31ed ac3b d85a 283d
000002f0: 64a7 1bbb fa6b 11bc 25e2 24bd d997 c6bd
00000300: 2a5c 44bc f7e2 b03d 77ec 9a3d 240d 1b3c
00000310: ffb6 0e3d a032 35bd fe33 6cbd 3887 e03b
00000320: ff06 663d 95b1 833b 4b79 963a 7597 bc3c
00000330: 606e ff3c b139 fc3c 206f 81bb 93dd 123d
00000340: de75 223c 1379 2bbd f9cb 32bd 10ca a0bd
00000350: de5a 53bd dbea 113b 0b81 373d 53ca c03d
00000360: 2ac5 ec3d 93f5 58bd cab0 bcbc 41da 693c
00000370: ab95 bebd d604 b1bd 1822 713d 58f5 50bd
00000380: 0a77 6f3b 0a67 95bd e715 393d 9e2e 08bd
00000390: 060f 0abd 8aa8 143d 1d12 9b3d 9240 b23d
000003a0: 798d 363c 5f03 bdbd 7800 9c3d 4f0f fb3d
000003b0: aa22 c83d 4ed6 f1bd 3e70 a63d b370 833c
000003c0: 2dc6 adbd b317 a73b d8c0 923c 79ac 02bd
000003d0: ba45 a33d cc01 a63d 7421 46bd 16dc 883d
000003e0: 8afa 58bd 69df 353d e8ad 1cbd d82f b3bd
000003f0: bae7 3d3c 964b 92bb 0b63 253d 782e c23a
-0.04679813 -0.017450502 -0.0020226089 0.075034045 0.048831716 0.03581022 0.019630138 0.00050386845
-0.022130275 -0.045823373 -0.009195452 -0.034981158 0.0068316236 -0.058531858 0.004237636 -0.0011898971
0.020388868 0.0048996494 0.016383275 0.03146129 -0.034706626 -0.0018945374 -0.044642545 -0.0468895
-0.060257636 -0.046545833 0.030358773 -0.0037571797 -0.0062560006 -0.031548835 -0.0062167617 0.0044525694
0.04340292 0.0023403936 0.023571232 0.019833524 -0.015958793 -0.07971708 0.023705143 0.010690795
0.01061854 -0.06931118 0.03160598 -0.0042325696 0.022381036 -0.06967663 -0.025001593 0.028025284
-0.05344429 -0.0024929189 -0.03287324 -0.018735921 0.026751699 -0.028041169 -0.04747424 0.055644352
0.0022243927 0.027184099 0.054294992 0.018098673 -0.08021276 0.030049395 0.07356081 0.06568299
-0.0024860853 0.045918103 -0.004318861 -0.04951861 0.012676319 -0.046000157 0.024243789 0.009278433
0.018907199 0.056487724 0.005198513 0.028985655 0.025915595 -0.011476695 -0.06389113 -0.08918667
0.022068178 0.04740034 0.02474299 -0.07769958 0.065935254 -0.04784863 0.051232938 0.0056358804
-0.010481068 0.028418455 -0.015599892 -0.027428761 0.0019703174 0.009291448 -0.04501457 -0.07765443
0.011751025 0.0505163 0.013612352 -0.04872663 -0.016105296 0.032455705 -0.028584603 -0.03131759
0.0385718 0.038793363 -0.009918309 -0.03423639 -0.026558738 0.014552875 0.018644778 0.020003008
0.04897934 -0.061806634 0.057073716 0.017816326 0.050505787 -0.03616898 -0.04478228 -0.06412834
-0.02486333 0.0417831 0.025727633 0.030651854 -0.016350158 0.019650219 0.015471496 0.011961781
-0.03846883 0.0066500343 0.03447529 0.07397056 0.043282796 0.07033053 0.039767053 0.06481083
-0.0033589252 -0.07484838 -0.06790284 0.075236425 -0.0065599186 0.057307057 0.01338574 -0.057389863
0.110972114 0.12028241 -0.018807786 0.053703476 -0.02421643 0.010139783 0.06816949 -0.06790463
0.07057063 0.088731065 0.089213185 0.06375395 -0.0876579 -0.011860044 -0.10101383 -0.08444457
-0.09147489 -0.008684305 -0.057776924 0.030167887 0.0661176 0.056828104 0.053029187 0.06434571
-0.013006646 -0.05163674 -0.03630129 -0.1188275 -0.059447315 0.048801124 -0.0952273 -0.10621056
0.06130132 0.029548196 -0.051276322 0.0022764853 0.022644693 -0.023176054 0.062794216 0.018647397
0.0039367913 0.055837035 0.005277299 0.04110226 -0.0023750896 -0.008875841 -0.04025473 -0.096969314
-0.011984864 0.0863704 0.07564633 0.009463582 0.034842487 -0.044237733 -0.05766677 0.006852057
0.056159016 0.004018972 0.001148024 0.02302144 0.03118056 0.030789228 -0.0039500147 0.03585584
0.009915797 -0.041863512 -0.043651555 -0.0785104 -0.05160033 0.002226523 0.0448008 0.0941359
0.115610436 -0.052968573 -0.023033518 0.014273227 -0.09305891 -0.086435005 0.058870405 -0.051015228
0.0036539459 -0.07295044 0.045186903 -0.033247583 -0.033705734 0.036293544 0.07571814 0.08703722
0.011142128 -0.092291586 0.07617277 0.12258779 0.09772237 -0.118084535 0.08126877 0.01604495
-0.08485065 0.0050992607 0.01791422 -0.031902764 0.07972284 0.081058115 -0.048371747 0.06682603
-0.052973308 0.044402514 -0.038251787 -0.0874936 0.011590892 -0.004464577 0.040377658 0.0014814874

action_model._continuous_distribution.mu.bias f4 [2]
00000000: 184a eebb 9f0e 953d
-0.0072720163 0.072781794

onnx::Div_46 f4 [8]
00000000: 6ee1 3b3d b30f 2a3d 0136 063f 16a1 223e
00000010: f831 283f c90d ba3e a32b 243f 45fc a03e
0.045869283 0.04151888 0.52426153 0.15881762 0.65701246 0.36338642 0.64129084 0.31442466
