results/Short_HighBatch/3DBall/3DBall-399544.onnx (onnx, 10026 bytes, 7 tensors)

network_body.observation_encoder.processors.0.normalizer.running_mean f4 [8]
000000 a2 ba 06 bb 5e 3e 98 bb c1 a0 dc bd 52 fb 46 40
       -0.002055802 -0.0046461066 -0.10772849 3.1090894
000010 0e 05 0b 3e d2 37 09 3c 77 3b 0e bf 3c 90 66 bd
       0.13576147 0.008375125 -0.55559486 -0.056289896

network_body._body_endoder.seq_layers.0.weight f4 [128, 8]
000000 b4 a4 e1 3e ef ea 94 be 89 67 c3 bd 33 ef d8 be
       0.4407097 -0.2908549 -0.09541232 -0.42369995
000010 2c af 1d bc 53 c6 9b bc 5b 45 06 3f 07 e8 0f be
       -0.009624284 -0.019015467 0.5244958 -0.14053355
000020 c9 95 06 be d9 33 56 bf 9a 73 89 be a8 94 59 3e
       -0.13143076 -0.83672863 -0.2684601 0.21248114
000030 83 ee 78 3e ec a8 f8 bd c7 00 4e 3f d4 bc 87 be
       0.24309735 -0.12141594 0.80469936 -0.26511252
000040 21 4d 11 bd 19 73 ec 3d 6f 63 5f be 77 08 a4 be
       -0.035473946 0.11545391 -0.21815275 -0.32037708
000050 5c 45 7d 3d c5 d9 af 3e c7 0c 23 3f 00 ed 3d be
       0.061833724 0.34345832 0.6369137 -0.1854744
000060 23 ae 97 bd 21 b7 cb 3d 53 30 08 3f 9c 52 b5 be
       -0.07406261 0.099470384 0.53198737 -0.35414588
000070 af 87 a7 bd 21 2c a8 bd 02 60 be 3e 06 c6 b8 be
       -0.081801765 -0.08211542 0.37182623 -0.3608858
000080 59 f6 02 3f fe d7 c7 be 09 23 04 be 46 9b 29 3d
       0.51157147 -0.39031976 -0.1290399 0.041407846
000090 6e a3 8d 3e 02 9f 0d bf 7b 36 06 3f b2 30 ce be
       0.2766375 -0.5532075 0.5242688 -0.40271527
0000a0 21 e2 8e bc 95 c7 6f 3d 8d b0 19 be d8 e8 95 be
       -0.017441811 0.058539946 -0.15008755 -0.29279208
0000b0 ec 56 a3 be 1a 30 10 3f 25 4d 9d 3d 79 72 ad be
       -0.31902254 0.563234 0.0768073 -0.33876398
0000c0 14 b5 84 bc a9 02 59 3e b5 d5 2c 3e 9e d5 a2 3e
       -0.016199626 0.21192421 0.16878398 0.31803602
0000d0 50 9d 81 3e 7a ad 27 be b0 5a c2 3e 06 4d 09 3e
       0.25315332 -0.1637477 0.37959814 0.13408288
0000e0 65 73 94 be 12 6d a2 3c 5b f2 a2 be 22 c2 ae bc
       -0.2899429 0.0198274 -0.31825528 -0.021332804
0000f0 19 6c 03 bf 08 01 1e bf 36 6e bc 3e d3 df 37 bf
       -0.5133682 -0.61720324 0.36802834 -0.71825904
000100 4c 33 9d 3e ad 97 fd 3e 48 2d 82 3d 85 2b dc bc
       0.307032 0.49529782 0.06356293 -0.02687622
000110 05 88 49 3f 95 02 89 be 1a 13 f0 3a ff eb 14 bc
       0.78723174 -0.26759782 0.001831624 -0.009089469
000120 1e d3 03 be fb 36 86 3d 76 06 15 3f 48 38 89 3e
       -0.12873504 0.065534554 0.58212984 0.26800752
000130 5f 01 9c bd d6 41 76 be 39 18 b7 bd a3 7f 9d be
       -0.07617449 -0.24048552 -0.08940167 -0.30761442
000140 4f c9 ad 3e fe a5 02 bf fa 20 12 be 37 dc 82 bd
       0.3394265 -0.51034534 -0.14270392 -0.06389659
000150 9f 4e f8 3e 4b b6 7d 3f 90 7f 7d be a7 cd ac 3e
       0.48497483 0.9910628 -0.24755692 0.3375065
000160 d6 58 30 3e 4c 73 07 3e 2e e1 46 bf d1 54 1d 3f
       0.17221388 0.13227576 -0.77687347 0.61457545
000170 dd 83 96 bd 1a c5 25 ba 4c b7 d6 3c 72 fa 7e bd
       -0.0734937 -0.0006323621 0.02621045 -0.062250562
000180 90 ae dc be c0 bc c3 3c d6 b4 03 be 6f 20 25 3f
       -0.4310193 0.023893714 -0.12861952 0.64502615
000190 30 c4 6d 3d f3 c8 3c bf bd c6 64 be 11 a2 1a 3e
       0.058048427 -0.73744124 -0.22341438 0.15100886
0001a0 7e d2 3e be 15 80 2a 3f a2 fc bb bc c1 ad 5a bd
       -0.18634984 0.6660169 -0.022947613 -0.05338836
0001b0 11 7a c7 be 30 f4 95 be 1e 3d c9 3e b1 4c 56 be
       -0.38960317 -0.29287863 0.3930444 -0.20927693
0001c0 24 e3 63 be 92 13 63 be ed c9 68 3e 4e 4a 1d 3f
       -0.22254616 -0.22175434 0.22733279 0.61441505
0001d0 4f fc 73 3f f2 41 0b 3f 66 94 c5 3d 1b aa 04 be
       0.9530687 0.543975 0.096474454 -0.12955515
0001e0 f8 6a 3b be c6 1a 10 3f 28 62 a1 3e 58 3c f7 3d
       -0.18302524 0.56290853 0.315202 0.120720565
0001f0 e6 85 2d be e2 44 43 3e 69 35 a5 be 09 7d cc 3d
       -0.1694561 0.19069245 -0.3226731 0.09984786
000200 0a 4f c3 bd 98 ee 11 3e 67 30 b8 3e 78 ed c6 3d
       -0.0953656 0.14251173 0.35974428 0.09713262
000210 66 2e a1 3f 24 1e f0 bb d3 99 86 3e 42 ff d3 bd
       1.2592285 -0.007327812 0.26289234 -0.10351421
000220 40 06 e4 bd 61 79 fd be 20 6f 75 3e a1 0c c9 3e
       -0.111340046 -0.49506667 0.23968172 0.39267448
000230 d8 c7 04 3e 7a 8c 14 3f 0d 21 2c be 14 d2 ad 3d
       0.1296686 0.5802685 -0.16809483 0.08487335
000240 d6 df 76 3d bd 2c 61 be 3d 31 cc bd 42 38 85 be
       0.06027206 -0.21989723 -0.09970329 -0.26019484
000250 4a b8 00 be 2b db 6b 3f 2d b4 42 3e 37 31 01 bf
       -0.125703 0.921313 0.19014044 -0.5046572
000260 b4 83 c1 3e 20 c3 7f 3e af c0 0a 3e 2b 3a 1f 3d
       0.37795794 0.24976778 0.13550065 0.038873833
000270 b0 e8 31 3c 26 4a e3 be 70 6a f7 3e 43 d2 b3 be
       0.0108587 -0.44392508 0.48323393 -0.35121354
000280 43 90 d2 bd 78 04 45 be b8 90 26 3e 23 f6 6c be
       -0.10281422 -0.19239986 0.16266143 -0.23140769
000290 07 ce 05 bf 08 27 58 bd d7 d5 0f be 04 1a b9 be
       -0.522675 -0.052771598 -0.14046417 -0.3615266
0002a0 ad 5c e3 3d 21 f3 41 3f bf f8 21 be 1e 6e a3 3e
       0.11101661 0.7576161 -0.15817545 0.3191995
0002b0 cd de e0 3e d6 2f 01 3f f8 3a 12 3e 6f fa 09 3f
       0.43919984 0.50463617 0.14280307 0.53897756
0002c0 98 70 f5 bd 4c 29 3f bf 6e cc db 3e 6b c5 52 bd
       -0.11984366 -0.7467239 0.42929405 -0.051457804
0002d0 b3 17 5e be 73 63 1a bc ca a6 87 3a 0e c7 02 3f
       -0.21688728 -0.009423125 0.001034939 0.51084983
0002e0 ce 59 e6 3d 01 b4 24 be 45 5b c1 be 3e fa 5c b9
       0.11247598 -0.16084291 -0.37764946 -0.00021074057
0002f0 0e a9 d8 3d 4f 95 18 3e ea 7d 55 3d 38 34 00 bf
       0.105791196 0.14900707 0.052122034 -0.5007968
000300 fe 7d 89 3e af 2e ab 3c 11 09 6e 3f ff 0b c7 bd
       0.26853937 0.020896284 0.92982584 -0.09719085
000310 f8 7c 4f 3f 6c 48 94 3e 39 08 c9 3e 7e c7 07 3f
       0.8105006 0.28961504 0.39264086 0.53038776
000320 4f 66 3a 3f f0 10 4c 3e ed 78 39 3f a6 91 19 be
       0.7281236 0.19928336 0.72450143 -0.14996967
000330 dc 02 c8 bd a8 99 90 be ff 9e 8b 3e 7a 9e f1 be
       -0.097661704 -0.2824223 0.27269742 -0.4719122
000340 bc 6c 20 3d f6 0b ee be ab 84 1c 3e 77 b8 94 be
       0.039166197 -0.464935 0.15284984 -0.29046986
000350 f2 ca 82 be 20 88 2f 3e 5e da 8d be ef cb 38 be
       -0.2554546 0.17141771 -0.27705663 -0.18046544
000360 df a7 20 3f 3c 36 5c be 10 1b 9f be 27 29 11 bf
       0.6275615 -0.21505064 -0.31075335 -0.5670342
000370 40 d1 d2 bc 05 e5 0f bf d2 cb 9d 3d 58 aa 3e bf
       -0.025734544 -0.5620883 0.07704891 -0.74478674
000380 61 cf 0e bf 3b 39 11 3f 89 fc 9f be 7d 78 91 3d
       -0.55785185 0.5672795 -0.31247357 0.071030594
000390 2c be 10 bf bc 64 42 be 1b a4 a8 be 31 6e a1 3e
       -0.5654018 -0.1898374 -0.32937703 0.31529382
0003a0 96 63 55 bf 5c 6d 68 3e 05 3a 49 3e 6a b5 d2 be
       -0.8335508 0.22697967 0.19651039 -0.41154033
0003b0 36 74 1d 3d 91 f5 09 bf f3 d3 88 be 31 d5 76 be
       0.038440906 -0.5389033 -0.26724204 -0.24104764
0003c0 26 cd 97 be c2 d8 81 3e 25 fd eb 3d 6b 19 4f bc
       -0.29648703 0.25360686 0.11522893 -0.012640337
0003d0 0a a1 30 be 79 4f ac 3e e1 20 b8 3e 11 0d 34 bd
       -0.17248932 0.33654383 0.35962585 -0.043957774
0003e0 4a 84 94 be 7d 0b a5 3e aa 3f 44 be 76 23 a9 3d
       -0.2900718 0.32235327 -0.19164911 0.08258717
0003f0 c0 93 47 be 89 16 d8 3e a7 e2 ae 3e e4 8b 1d 3f
       -0.19489956 0.42204693 0.34157297 0.6154158

network_body._body_endoder.seq_layers.0.bias f4 [128]
000000 ad 38 f2 3c fe 6b 85 3d fd 30 60 3d 77 3d 91 3d
       0.02956804 0.065147385 0.05473422 0.070918016
000010 19 99 dc 3c 8e 71 97 3d 5d 6c 52 3a c9 83 34 3d
       0.026928471 0.07394706 0.00080270116 0.044070993
000020 c2 e2 03 3c 48 f3 2f 3d df 3a 0e 3d af ad 11 3d
       0.008049669 0.04295662 0.034724113 0.03556603
000030 cb 23 dd 3c 62 d0 fe bc 62 d6 48 3d 3d e2 23 3d
       0.026994606 -0.031105224 0.049032576 0.04001068
000040 5a 0e 39 3c 00 2b 4d 3d cc 21 9d 3d 78 b8 bb 3c
       0.011294926 0.050089836 0.07672462 0.02291511
000050 69 35 90 3d 2c b1 66 3c 69 39 8f 3d 4f c4 40 3d
       0.07041437 0.014080327 0.06993372 0.047062214
000060 e1 1d 60 3c 9b 6e 07 3d 6b 27 1a 3d 0a 69 5e 3d
       0.013678999 0.033064466 0.03763525 0.05429939
000070 f7 ab cf bc 75 2a c5 3c 2c 54 18 3c 36 da b4 3b
       -0.025350554 0.024068097 0.009297412 0.005519177
000080 aa d9 82 3d b9 e0 dd 3a 3d 49 8f bc 57 27 9a 3d
       0.063891724 0.0016927934 -0.017490977 0.07527035
000090 a1 83 ed bc 29 87 fb 3c 46 7a 8c 3d ee b1 8c 3d
       -0.02899343 0.030704098 0.06859259 0.06869875
0000a0 23 f9 90 3d 23 75 df 3b bb 0f 01 bd 7c 04 2e 3d
       0.07078769 0.0068193837 -0.031509142 0.042484745
0000b0 b3 a6 27 3d 9a 27 d4 3c ef 44 62 3d bd eb e6 bb
       0.04093046 0.02589779 0.05524152 -0.007047145
0000c0 5f cd d4 bc 1a f2 67 3d 89 e6 3a 3c b7 cb 21 3d
       -0.025976835 0.05662737 0.011407503 0.03950092
0000d0 ad ac 2b bc 7e cf 17 3d e1 fc de 39 dd 5a 4b 3c
       -0.010478181 0.037063114 0.0004253155 0.0124118
0000e0 47 1b fa 3c 0a ba dc bc f5 89 56 3c 2d ac 8c 3d
       0.030530585 -0.02694418 0.013094415 0.068687774
0000f0 d0 b9 3b 3d a9 12 98 3c fb b4 53 3c 14 d3 bc bc
       0.0458315 0.018563585 0.012921567 -0.023049869
000100 ff 1a 2d 3d cc fc 5a bb 26 ab bd 3c 7a 52 82 3d
       0.042262074 -0.0033414839 0.023152899 0.063633874
000110 ad 6e ba bc 85 af d4 3c a3 dd 3d 3d c5 dd da bc
       -0.022757852 0.0259626 0.046353947 -0.026717076
000120 6e 39 14 3d 3c bc ef bc 5b e7 7c 3d fb fa e1 3c
       0.03618758 -0.029264562 0.061744075 0.027585497
000130 8e fc 74 3d 9c f0 b7 3c 95 fa 1c bd dd 67 89 39
       0.059811167 0.022453599 -0.03832491 0.0002620806
000140 43 52 6c 3d fb a2 d7 3c 46 30 35 3d f7 b0 81 3d
       0.05769564 0.026322832 0.04423549 0.063325815
000150 2b 09 18 3a ee e8 83 3d a6 ef ad 3d e6 c3 c2 bc
       0.0005799706 0.06440912 0.08492975 -0.023775052
000160 85 47 80 3d 69 98 13 3d 04 a0 2f 3d 54 30 64 3d
       0.06263641 0.03603402 0.042877212 0.05571015
000170 bb dc 1c bc 13 a8 3e 3b 07 5a 1b bd 83 5f 89 bc
       -0.009574111 0.002909188 -0.037927654 -0.016769176
000180 d2 68 ad 3d d0 20 1e 3d 46 53 c3 bc 53 52 8a 3d
       0.084672585 0.03860551 -0.023843419 0.06753983
000190 16 66 09 bd 58 fd 7a 37 2c cd 67 b8 5d 73 0c bb
       -0.033544622 1.4960147e-05 -5.5265773e-05 -0.0021431067
0001a0 87 35 96 3c c9 2a 74 3d c5 cd d0 3c aa 32 df bc
       0.01833607 0.059611116 0.025488744 -0.027245838
0001b0 3c 6c 18 3c 13 0e 53 3d 65 2c c2 3c b5 11 4a 3d
       0.009303149 0.051527094 0.02370281 0.049333293
0001c0 d0 c3 2e 3d 44 0e 60 3d ac 75 84 3d 7f e8 73 3c
       0.04266721 0.054701105 0.06467757 0.014886974
0001d0 ef aa 97 3c 4b 51 b1 3d 2e 23 12 bd 84 75 6f bc
       0.018514125 0.086580835 -0.03567808 -0.01461542
0001e0 dc ff 1d 3d 9a 7f a6 3c 78 8c 1c bd 89 d4 0f 3d
       0.038574085 0.020324517 -0.0382199 0.0351148
0001f0 a5 5b 67 3d f5 fe be bc d0 23 a4 bc bc 19 5a 3d
       0.056483883 -0.023314932 -0.020036608 0.0532472

action_model._continuous_distribution.log_sigma f4 [1, 2]
000000 4b 19 b8 bc d7 b9 1d bd
       -0.022472998 -0.03850731

action_model._continuous_distribution.mu.weight f4 [2, 128]
000000 c9 00 77 bd d1 c0 47 3b 4e 6b 74 3d d1 9c 32 3d
       -0.060303483 0.0030479918 0.059672646 0.043606583
000010 cc 0e 4b bd 6d dd b8 3c e9 94 e3 3c 17 01 69 bb
       -0.04957466 0.022566522 0.027780967 -0.0035553628
000020 c6 bc 36 bd 69 f5 16 3d 08 d9 64 3d 9a 68 03 bd
       -0.044613622 0.036855135 0.05587104 -0.032082178
000030 8d c5 93 bc 6a a2 8f bc 7a 7f 45 3d c9 60 58 3d
       -0.018038535 -0.0175335 0.048217274 0.052826677
000040 85 c9 c1 3c 24 d5 85 3d 64 d3 19 3d b7 97 d7 bd
       0.023655662 0.06534794 0.037555113 -0.10526984
000050 70 7e 80 3c 63 82 47 3b fb f2 6c 3d 5d ad 49 bd
       0.01568529 0.0030442707 0.05784891 -0.049237598
000060 cd b6 ef 3c 6f 61 b9 bc 3a 49 f3 3c 7d 21 c4 bc
       0.02926197 -0.022629468 0.029698003 -0.02394175
000070 72 85 4c 3c 25 33 01 3c 3e 26 ad 3c a9 44 d3 3c
       0.012482988 0.007885729 0.0211364 0.025789576
000080 b6 1f 28 bd ae ea 41 bc 65 96 19 3b 89 9d c5 3c
       -0.041045867 -0.011835737 0.002343559 0.02412297
000090 56 e9 c1 bc 64 59 92 39 ba e4 c0 bc 84 3a 28 3d
       -0.023670834 0.0002791389 -0.023546565 0.04107143
0000a0 5b 0a 12 bd d9 9a 94 3c 32 6b 85 bc e7 e8 9f bb
       -0.035654407 0.018140243 -0.016286466 -0.004880059
0000b0 a8 73 8a 3c 44 81 61 bd 3b cd 2c 3c 8f 3c a5 3b
       0.016900852 -0.055054918 0.010546978 0.0050426195
0000c0 a1 6c f8 bc da 59 57 3d 25 7e 66 3c e6 e2 c5 3b
       -0.030325236 0.052575924 0.014068161 0.0060390113
0000d0 59 87 c0 3c d4 a8 8d 3d c6 7e 0c 3d bc eb 72 bd
       0.023502039 0.06916967 0.034300588 -0.059306845
0000e0 9b 0e 42 3d bc 5a 86 3b af 4c 49 bd 37 56 c3 3c
       0.04737721 0.004100172 -0.049145397 0.023844821
0000f0 24 f0 47 3d 20 a5 1a bd 2d 0b 91 bd cd aa 4d bd
       0.048813 -0.03775513 -0.0708221 -0.050211716
000100 c5 85 c5 3a ce 3b f5 bc 3b ca fb bc e9 6d 4d bc
       0.0015069774 -0.029935744 -0.03073608 -0.012538412
000110 78 be c6 bc 0f 55 80 bd 2d ba e9 3c 27 cd f0 bb
       -0.024260744 -0.06266224 0.028531158 -0.007348675
000120 0e a5 4e bc 9d 2a cb bb 5e 7a 83 3d 97 09 75 bd
       -0.012612594 -0.0062001483 0.06419824 -0.0598236
000130 b6 a7 49 3d e9 e2 29 3d 7b ed ed bb 56 14 74 3c
       0.049232207 0.041476164 -0.007260976 0.014897427
000140 ca 83 e3 3c 80 cf 05 3d 70 49 56 bd 98 07 05 bd
       0.027772803 0.03266859 -0.05231613 -0.032477945
000150 ce b7 f3 3c 4c dd e1 bc 70 b6 30 3d 31 63 a8 3b
       0.02975073 -0.027571343 0.043142736 0.0051387777
000160 c6 0e 82 3d d8 13 5d 3d cd 16 bd 3a 92 0e c1 bb
       0.06350474 0.053974003 0.0014426351 -0.0058916295
000170 86 ac 4d bc 2c e7 d5 3c 85 75 f2 bc b0 6f 00 bd
       -0.01255334 0.026111208 -0.029597053 -0.031356514
000180 fd 92 68 3d cd d7 0a 3c d8 dd d8 bc f3 fb 87 3d
       0.056780804 0.0084743025 -0.02647297 0.066398524
000190 4c 6a d4 3b b2 8f c0 bc f9 79 81 bd 3c a0 45 bd
       0.006482398 -0.02350602 -0.063220926 -0.048248515
0001a0 ab 6d ad 3b b4 e8 68 bc 3b fd 26 3d 04 ed 48 bc
       0.0052926145 -0.014215637 0.040768843 -0.01226354
0001b0 e4 dc 28 bc e2 93 79 3c 99 35 47 3c 06 2c 34 3d
       -0.010306571 0.015233012 0.012158775 0.043987297
0001c0 19 3e 4e 3d df bc 6c bc 6e a7 31 3c e8 a0 84 bd
       0.05035219 -0.014449327 0.010843141 -0.06476003
0001d0 39 b1 62 bc 72 00 b6 3c 36 bb 42 3b 37 63 50 3c
       -0.0138361985 0.02221701 0.0029713637 0.012718967
0001e0 ca bb bf 3c 6e df 0c 3d 3d f7 21 bc 7d 48 85 bd
       0.023404974 0.034392767 -0.009885606 -0.06507967
0001f0 0f aa 45 3d cf 66 48 bd 2e 6d 3b bd 0d f5 41 3d
       0.048257884 -0.04892617 -0.04575842 0.04735284
000200 a6 3e 51 3d ec 42 39 3d 66 02 37 3d 0f c1 54 3d
       0.051085137 0.045229837 0.04468002 0.051941928
000210 c7 47 e6 3c 3b fa 29 3d 26 7d fa bc 0d d0 15 3d
       0.028110398 0.041498404 -0.030577254 0.036575366
000220 05 4c 59 bd b5 e0 7e 3c f6 09 ee bc db 12 e4 3c
       -0.053051013 0.015556504 -0.029057484 0.027841022
000230 87 bc a2 3c 68 2d 09 bc 6d 74 b4 bc b8 7f ca bc
       0.019865287 -0.008372642 -0.022028172 -0.024719104
000240 bc c4 32 bd a5 1d c8 b9 70 e5 8d 3d 51 e4 1b 3d
       -0.04364465 -0.0003816906 0.06928527 0.038059536
000250 db 27 7e 3d d4 76 6b bd 17 57 e9 3c 47 67 80 3d
       0.062049728 -0.05748637 0.02848391 0.062696986
000260 9b ad 82 bd 71 94 1a 3d ff 36 4d 3c 48 63 34 3d
       -0.06380769 0.03773922 0.012525319 0.044039994
000270 98 bf 26 bd d3 07 eb 3b b2 5e 52 3c e6 6e b3 bc
       -0.04071006 0.0071725636 0.01283996 -0.021903466
000280 bd 79 a4 3d cd 47 e6 3b 92 70 cf bc 9f e9 ab 3c
       0.08031032 0.0070276023 -0.025322232 0.020985423
000290 fc d3 03 3c c7 63 c5 3c 4a c2 2e 3d 5d f0 92 3c
       0.0080461465 0.02409543 0.042665757 0.01793688
0002a0 a2 73 3d 3d 7b df 97 3c ec 2d a2 3a af f0 09 3d
       0.046252854 0.018539181 0.0012373305 0.0336768
0002b0 9f 05 50 3b ed 0f 75 bd f0 86 f2 3c cd 37 8f bc
       0.0031741632 -0.05982964 0.029605359 -0.017482663
0002c0 87 a0 22 bd bc 57 22 3d fe ec 9f b8 e6 d3 31 3d
       -0.039703872 0.03963445 -7.625854e-05 0.043414973
0002d0 6a eb 24 bd 5c 0a 22 bd 13 3c 18 bc 7a a4 84 bd
       -0.04026357 -0.03956066 -0.009291667 -0.06476684
0002e0 af 9a 70 3c a6 ab 49 bc e2 45 b4 3c 2c f4 66 3d
       0.014685317 -0.012308991 0.022005979 0.056385204
0002f0 15 23 d6 bc a3 00 99 3c f6 77 2d bb 24 ca 35 3c
       -0.026139775 0.018677061 -0.0026469207 0.011095557
000300 47 ed af 3c 3c a5 c7 3a ac bb a9 3c 97 09 90 3d
       0.021475447 0.0015231739 0.020719372 0.07033079
000310 13 86 9a bd fb a8 74 bc ee 27 c6 3c cc 5a cb bc
       -0.07545104 -0.014932866 0.024188962 -0.024823569
000320 3c 01 6b 3c 20 77 dc bc 73 7c 58 bc 24 52 b9 3c
       0.014343556 -0.026912272 -0.013213265 0.022622176
000330 48 9b 40 3d 6b 45 6b 3c da d3 ba bc ac d1 23 3c
       0.047023088 0.014359812 -0.022806097 0.00999872
000340 20 43 37 3d 57 7f 12 bd 56 75 47 3d e3 56 3a 3d
       0.04474175 -0.035765972 0.048695885 0.045493018
000350 d5 54 a1 bd 02 6a 5f 3d 89 48 20 3d 83 58 fe bc
       -0.078775086 0.054544456 0.039131675 -0.031048065
000360 07 7b 59 bd 25 c5 cd bc 84 73 3b 3d 34 c5 26 3d
       -0.053095844 -0.02511842 0.04576446 0.04071541
000370 c6 60 a7 3c e6 3e 00 3c 48 3b b9 bc f9 46 7e bd
       0.020431887 0.007827496 -0.022611275 -0.062079404
000380 02 10 64 3d 47 02 c5 3b 85 c5 ee 3b e0 35 f0 3c
       0.05567933 0.0060122344 0.0072867298 0.029322565
000390 b7 34 b4 bc 13 fa 26 3c 1f b1 8c bd 5a 7d b6 bb
       -0.021997793 0.010191458 -0.06869721 -0.0055691423
0003a0 ee 50 c8 3c fb c4 a2 3d c0 40 10 bd 41 76 bf bc
       0.024452653 0.07947727 -0.035218 -0.023371818
0003b0 d8 0f b1 3c 44 a8 80 3c 07 60 f2 3b 3f 1e 0e 3c
       0.021614 0.015705235 0.0073967013 0.008674203
0003c0 f0 fd 98 bc 88 9b 92 3d 86 f5 68 3d 7d 5b df bc
       -0.018675774 0.071585715 0.056874774 -0.027265305
0003d0 e9 0a ba 3c fc 58 ec 3c 59 66 5e bc 2d 96 51 bd
       0.02271028 0.028851025 -0.013574206 -0.05116861
0003e0 bd 79 de 3c f9 bf 33 bd cd e9 0d bd 89 df 9f 3c
       0.027157659 -0.04388425 -0.034646798 0.01951577
0003f0 1a ef 97 bc 40 ff 32 bd 91 a1 c0 3b 9d 77 7b 3c
       -0.01854663 -0.043700457 0.005878635 0.015348342

action_model._continuous_distribution.mu.bias f4 [2]
000000 03 e4 d5 3c b4 ad 2d 3d
       0.026109701 0.042401984

onnx::Div_46 f4 [8]
000000 96 54 8e 3d c1 34 89 3d 8f 25 6d 3f 92 51 9e 3e
       0.06949727 0.06699515 0.92635435 0.30921608
000010 31 eb 77 3f ed a9 3d 3f d1 d0 76 3f 43 cf 3a 3f
       0.9684325 0.7408741 0.9641238 0.72972506
