results/Short_HighBatch/3DBall/3DBall-499059.pt (torch, 49284 bytes, 32 tensors)

network_body.observation_encoder.processors.0.normalizer.running_mean f4 [8]
000000 6b 9a 03 bb 93 5d 90 bb 41 93 26 be 28 d4 46 40
       -0.0020081054 -0.004405686 -0.1626711 3.106699
000010 d8 8e 70 3e 50 01 77 3b 82 3b 00 bf 34 d2 22 bd
       0.2349199 0.0037689991 -0.500908 -0.039751247

network_body.observation_encoder.processors.0.normalizer.running_variance f4 [8]
000000 db a5 0c 45 a5 2e 02 45 5d e2 b4 48 e3 4c 1e 47
       2250.366 2082.9153 370450.9 40524.887
000010 e9 89 cc 48 6d 6e 65 48 21 9a c5 48 28 e1 5e 48
       418895.28 234937.7 404689.03 228228.62

network_body.processors.0.normalizer.running_mean f4 [8]
000000 6b 9a 03 bb 93 5d 90 bb 41 93 26 be 28 d4 46 40
       -0.0020081054 -0.004405686 -0.1626711 3.106699
000010 d8 8e 70 3e 50 01 77 3b 82 3b 00 bf 34 d2 22 bd
       0.2349199 0.0037689991 -0.500908 -0.039751247

network_body.processors.0.normalizer.running_variance f4 [8]
000000 db a5 0c 45 a5 2e 02 45 5d e2 b4 48 e3 4c 1e 47
       2250.366 2082.9153 370450.9 40524.887
000010 e9 89 cc 48 6d 6e 65 48 21 9a c5 48 28 e1 5e 48
       418895.28 234937.7 404689.03 228228.62

network_body._body_endoder.seq_layers.0.weight f4 [128, 8]
000000 ef 5b e1 3e 9f f8 94 be fb b9 c4 bd 28 84 d9 be
       0.44015452 -0.29095933 -0.096057855 -0.4248364
000010 83 61 33 bc 6e 96 a0 bc e5 f2 05 3f bc 56 11 be
       -0.010948542 -0.01960298 0.5232375 -0.14193243
000020 7e 6c 06 be 57 44 56 bf f0 04 89 be c6 2e 59 3e
       -0.13127324 -0.8369803 -0.2676158 0.21209249
000030 04 bb 77 3e 23 9e f7 bd 0e 2b 4e 3f 1a 88 88 be
       0.24192435 -0.12090709 0.80534446 -0.26666337
000040 dc 6c 12 bd 39 75 ec 3d 9d f6 5e be 43 f8 a3 be
       -0.035748348 0.11545796 -0.21773763 -0.32025346
000050 7c 13 7c 3d 1d f9 af 3e 5d 52 23 3f f4 c3 3f be
       0.06154202 0.34369746 0.6379755 -0.18727094
000060 7e f7 97 bd 19 28 cb 3d f5 19 08 3f 00 45 b5 be
       -0.07420252 0.099197574 0.5316461 -0.35404205
000070 88 9f a5 bd f9 0f a9 bd 75 63 bf 3e e1 84 b9 be
       -0.08087069 -0.08255 0.37380567 -0.3623419
000080 e1 cf 02 3f fd 49 c7 be 1b df 04 be 78 7b 25 3d
       0.5109845 -0.38923636 -0.12975733 0.040400952
000090 40 d7 8c 3e 29 a4 0d bf 13 00 06 3f cb e5 ce be
       0.27507973 -0.55328614 0.52343863 -0.40409693
0000a0 a6 f8 94 bc a2 52 6e 3d 2d fd 1a be 1a 0c 96 be
       -0.018184971 0.058184274 -0.15135641 -0.29306108
0000b0 4b 2c a3 be 4d 2e 10 3f 47 6a 9f 3d 89 88 ae be
       -0.3186973 0.5632065 0.07783943 -0.34088543
0000c0 17 ba 82 bc 98 08 59 3e ab 20 2d 3e 3b 0d a3 3e
       -0.015957875 0.21194685 0.16906993 0.31846032
0000d0 cb 84 82 3e 59 92 27 be 0e cb c2 3e e0 d3 0b 3e
       0.25491938 -0.16364421 0.38045543 0.13655043
0000e0 c2 57 94 be 25 23 a9 3c 07 3b a3 be 6e c5 b4 bc
       -0.28973204 0.020646641 -0.31880972 -0.022066798
0000f0 41 7e 03 bf 5c ed 1d bf 18 a0 bc 3e f2 e2 37 bf
       -0.51364523 -0.61690307 0.36840892 -0.71830666
000100 24 0e 9d 3e dd d2 fd 3e 8b 8c 7f 3d 0d d9 db bc
       0.3067485 0.49574938 0.06238989 -0.026836896
000110 1f 96 49 3f 0e 30 89 be 44 c1 bb 3a d0 12 fd bb
       0.7874469 -0.26794475 0.0014324565 -0.00772319
000120 c9 a7 03 be 4c 24 85 3d e0 0b 15 3f 46 01 89 3e
       -0.12856974 0.06501064 0.58221245 0.26758784
000130 e4 30 98 bd a5 ae 76 be 12 8d b3 bd 6d 92 9d be
       -0.074312 -0.24090059 -0.087671414 -0.30775777
000140 df 72 ae 3e 88 a0 02 bf ae d6 11 be 37 5d 81 bd
       0.34072015 -0.510262 -0.1424205 -0.063166074
000150 6d 0c f9 3e 37 f9 7d 3f eb 94 7c be 4b c8 ad 3e
       0.48642293 0.99208397 -0.24666183 0.33941874
000160 42 61 30 3e db 25 08 3e e3 08 47 bf e5 41 1d 3f
       0.17224601 0.1329569 -0.77747935 0.6142867
000170 9b fe 99 bd cf 37 ac ba 42 02 d0 3c af 2f 82 bd
       -0.07519265 -0.0013139191 0.025391702 -0.06356751
000180 ea a0 dc be 17 71 c6 3c 96 5f 04 be 71 ed 24 3f
       -0.43091518 0.024223847 -0.12927088 0.64424807
000190 5c 84 69 3d ee c4 3c bf 28 46 65 be b6 7e 19 3e
       0.057010993 -0.7373799 -0.22390044 0.14989743
0001a0 35 a3 3e be 81 6c 2a 3f 40 fc bd bc b7 15 5a bd
       -0.18616946 0.66571814 -0.023191571 -0.053243365
0001b0 c3 86 c7 be d7 08 96 be e6 ac c8 3e 47 c5 55 be
       -0.38970003 -0.2930362 0.3919441 -0.20876037
0001c0 1d 68 63 be 66 ac 63 be 29 cc 68 3e c8 68 1d 3f
       -0.22207685 -0.22233734 0.22734131 0.6148801
0001d0 d4 77 74 3f 16 58 0b 3f e7 fc c6 3d df 70 02 be
       0.95495343 0.54431283 0.09716206 -0.1273837
0001e0 56 fa 3a be f3 3a 10 3f 75 d3 a1 3e 6b e2 f6 3d
       -0.18259558 0.5633995 0.3160664 0.120549046
0001f0 f5 25 2c be 42 d1 43 3e 18 e7 a4 be e7 40 cf 3d
       -0.16811354 0.19122794 -0.3220756 0.10119801
000200 12 54 c2 bd 80 52 12 3e 16 fe b7 3e 56 f2 c9 3d
       -0.094886914 0.14289284 0.3593604 0.09860675
000210 53 5e a1 3f 98 be e1 bb 81 3d 87 3e 3a 1a cf bd
       1.260691 -0.0068891756 0.2641411 -0.10112424
000220 f4 36 e3 bd a1 f1 fd be d4 94 75 3e 8b 3d c9 3e
       -0.11094466 -0.4959841 0.23982555 0.39304766
000230 a1 5b 06 3e b7 92 14 3f d5 30 2b be cc 10 b0 3d
       0.13120891 0.5803637 -0.16717847 0.08596954
000240 a9 7f 75 3d 44 c2 61 be 59 84 cd bd 1f 46 85 be
       0.0599362 -0.22046763 -0.10035009 -0.2603006
000250 0b 8a 00 be 74 dd 6b 3f 0d 51 43 3e 84 9a 01 bf
       -0.12552659 0.92134786 0.19073887 -0.506264
000260 b7 56 c1 3e 0e da 7f 3e 5f d8 09 3e 40 2b 1e 3d
       0.3776147 0.24985525 0.13461445 0.038615465
000270 35 9f 1d 3c 57 65 e3 be 92 d5 f6 3e c6 36 b4 be
       0.009620477 -0.44413254 0.48209816 -0.3519804
000280 af d6 d2 bd 02 fa 45 be ff 42 25 3e 94 c9 6d be
       -0.10294854 -0.19333652 0.16138838 -0.23221427
000290 3e 84 05 bf 2a bc 57 bd 72 21 0f be b7 2c b9 be
       -0.5215491 -0.05266968 -0.13977602 -0.36166927
0002a0 47 70 e4 3d 3b ee 41 3f 96 05 22 be dc 8f a3 3e
       0.11154228 0.75754136 -0.15822443 0.31945693
0002b0 b7 b5 e1 3e 31 50 01 3f a7 40 12 3e af aa 0a 3f
       0.4408395 0.5051299 0.14282475 0.5416669
0002c0 d6 f6 f4 bd a9 89 3f bf df fd db 3e 40 00 52 bd
       -0.11961143 -0.7481943 0.42967126 -0.05126977
0002d0 19 00 5d be 5f 68 20 bc 67 44 eb 3a 10 f5 02 3f
       -0.21582069 -0.009790509 0.0017949463 0.51155186
0002e0 11 fc e5 3d 36 5d 24 be 70 7f c1 be 28 08 93 ba
       0.112297185 -0.16051182 -0.3779254 -0.0011217641
0002f0 02 69 d6 3d 11 1d 18 3e 34 63 52 3d d7 66 00 bf
       0.104692474 0.14854838 0.05136414 -0.5015692
000300 c0 e0 89 3e 65 35 b3 3c 0c f3 6d 3f ef 42 c5 bd
       0.26929283 0.021876046 0.92948985 -0.09631907
000310 e5 de 4f 3f c3 a2 94 3e 53 82 c9 3e 96 6c 08 3f
       0.81199485 0.29030427 0.39357242 0.5329069
000320 ce 36 3a 3f 6e 91 4b 3e 35 3b 39 3f c4 fb 19 be
       0.72739875 0.19879696 0.7235597 -0.15037447
000330 5c 3d c9 bd 43 d5 90 be b8 dc 8b 3e dc 64 f2 be
       -0.098261565 -0.28287706 0.27316833 -0.47342575
000340 25 21 22 3d cb a0 ee be 8f 7f 1c 3e fd ad 94 be
       0.03958239 -0.4660705 0.15283035 -0.29038993
000350 c4 3e 82 be d1 f3 2f 3e 97 8a 8d be 82 d0 38 be
       -0.2543851 0.17182852 -0.27644798 -0.1804829
000360 e8 a6 20 3f 05 b6 5c be 17 8e 9f be 5b 89 11 bf
       0.6275468 -0.2155381 -0.31163093 -0.5685021
000370 8b f3 d2 bc 18 0c 10 bf 51 c2 9b 3d 17 94 3e bf
       -0.025750896 -0.56268454 0.07605422 -0.7444472
000380 8c d7 0e bf a5 43 11 3f ed 89 9f be 1f bc 92 3d
       -0.5579765 0.5674384 -0.31159917 0.071647875
000390 d7 9f 10 bf 0d 3f 42 be 96 a7 a8 be 13 e5 a1 3e
       -0.56493896 -0.18969364 -0.32940358 0.31620082
0003a0 1f 71 55 bf 95 38 68 3e 55 69 49 3e 15 fb d2 be
       -0.83375734 0.22677834 0.19669087 -0.41207185
0003b0 31 d0 1d 3d 37 d5 09 bf ba 80 88 be 83 71 77 be
       0.038528625 -0.53840965 -0.2666071 -0.24164395
0003c0 d9 fa 97 be ea ef 81 3e df a8 eb 3d 5a cd 54 bc
       -0.2968357 0.25378352 0.11506819 -0.012988413
0003d0 4b 29 30 be 92 47 ac 3e 6c fc b8 3e c1 a3 38 bd
       -0.17203252 0.33648354 0.36130083 -0.045078043
0003e0 29 52 94 be 23 1f a5 3e 8b 84 43 be 16 7c a9 3d
       -0.28968933 0.32250318 -0.1909353 0.08275621
0003f0 68 85 45 be d3 77 d8 3e 88 9c af 3e af 27 1e 3f
       -0.19289172 0.4227892 0.3429911 0.617793

network_body._body_endoder.seq_layers.0.bias f4 [128]
000000 ed fd ec 3c 21 e5 86 3d f8 00 67 3d 0d 46 95 3d
       0.028929675 0.065866716 0.05639741 0.07288752
000010 e4 d7 d2 3c 6c ef 9a 3d 07 bc f6 3a 8d b7 3a 3d
       0.02573771 0.07565197 0.0018824347 0.045585204
000020 a5 ae ef 3b 1c 7e 36 3d 6a 3c 14 3d 60 b2 10 3d
       0.0073145204 0.04455386 0.036190428 0.03532636
000030 f3 f9 da 3c 7d ea 01 bd e0 6e 4f 3d f5 5b 26 3d
       0.026730513 -0.031717766 0.050642848 0.04061504
000040 2d b8 48 3c 2e ee 52 3d bb 65 a0 3d 5a f5 b2 3c
       0.012250942 0.051496677 0.078319035 0.021845508
000050 3c fd 92 3d 59 24 6e 3c 77 35 92 3d 91 1a 42 3d
       0.07177207 0.014535033 0.07139104 0.047388617
000060 50 9a 73 3c b5 a7 06 3d 3d e7 1f 3d 11 6a 62 3d
       0.014868334 0.03287478 0.039038885 0.055276934
000070 3a 51 d2 bc 8e 2c ce 3c 83 10 2f 3c a5 8e d0 3b
       -0.025673497 0.02516773 0.010685089 0.006364661
000080 53 d0 83 3d 08 db a2 3a c6 74 8d bc 4e e5 9d 3d
       0.06436219 0.0012424896 -0.017267596 0.07709752
000090 6c 86 f2 bc 1e 48 fc 3c 4b e1 8d 3d 5d 7f 8f 3d
       -0.029605113 0.030796107 0.06927737 0.070067145
0000a0 3f 02 92 3d 6d 4f fb 3b e1 d2 04 bd 07 2a 2f 3d
       0.07129335 0.0076693804 -0.032427672 0.04276469
0000b0 96 77 2a 3d 3c d9 d0 3c 62 2c 65 3d 83 8b de bb
       0.041617952 0.02549421 0.05595053 -0.0067915334
0000c0 2a 8a d4 bc 3d ae 6d 3d d7 55 5e 3c 46 aa 25 3d
       -0.025944788 0.058027495 0.0135702705 0.04044559
0000d0 3a b8 2c bc ef 1e 1b 3d 4e 02 5b 3a c9 f8 42 3c
       -0.01054197 0.037871297 0.00083545304 0.011900135
0000e0 91 63 fe 3c 9e 99 df bc be fe 46 3c 40 ba 8f 3d
       0.031053336 -0.02729493 0.012145696 0.07017946
0000f0 97 bc 3e 3d be f1 8d 3c 27 2f 3e 3c 94 69 c0 bc
       0.046566572 0.017327186 0.011607922 -0.023487844
000100 c5 ab 34 3d fb e3 84 bb 6c e0 b7 3c 20 40 83 3d
       0.044109125 -0.0040554977 0.02244588 0.06408715
000110 b7 b7 bb bc 29 12 cf 3c 6b b5 42 3d 8b e4 dd bc
       -0.02291475 0.025277214 0.047536295 -0.027086517
000120 74 2a 14 3d 0e 27 f4 bc 3f ac 7e 3d d4 54 dc 3c
       0.0361733 -0.029803779 0.062175985 0.026895918
000130 67 e7 7b 3d e1 ae bc 3c 92 44 1f bd 6d aa 06 3a
       0.06149998 0.023032608 -0.038883753 0.000513709
000140 bd fc 73 3d db 8c e0 3c 3f b8 33 3d 70 5c 82 3d
       0.059567202 0.027410915 0.043876883 0.06365287
000150 4b 01 97 3a 48 25 85 3d 5a eb af 3d 5b 58 bf bc
       0.0011520771 0.065012515 0.085898116 -0.02335756
000160 28 2f 83 3d 26 c8 16 3d c9 50 34 3d 42 cf 67 3d
       0.06405479 0.03681197 0.044022355 0.05659414
000170 7a 62 0e bc 48 31 55 3b 56 cd 1e bd 09 8c 8b bc
       -0.008690471 0.0032530595 -0.038770042 -0.017034547
000180 c4 e3 b0 3d f3 8f 21 3d 1b c3 ce bc e0 78 8d 3d
       0.08637193 0.03944392 -0.025239518 0.06907821
000190 f2 1a 09 bd 8e 71 8b ba 91 22 02 ba 0c 42 2a bb
       -0.033472963 -0.00106387 -0.0004964257 -0.0025979308
0001a0 fc fc a4 3c 5e 2e 75 3d 1c dc dd 3c 2f 3b e3 bc
       0.020140164 0.059858672 0.027082495 -0.027738182
0001b0 28 7f 17 3c 6b 2d 57 3d 05 ef c9 3c 26 1d 4f 3d
       0.009246625 0.05253355 0.024650106 0.050564907
0001c0 7a a2 33 3d cb 82 61 3d 00 0b 86 3d 0a b7 63 3c
       0.04385612 0.055056375 0.06545067 0.01389862
0001d0 80 77 9c 3c 2b 93 b3 3d 03 ff 13 bd 6d da 64 bc
       0.01909995 0.087683044 -0.03613187 -0.013968092
0001e0 62 e8 23 3d 22 0b ad 3c 3a 64 1d bd 8d 34 0f 3d
       0.04001654 0.021123473 -0.03842566 0.034962226
0001f0 7f 0c 6d 3d d8 c5 c5 bc 53 df aa bc fa 7f 61 3d
       0.057873245 -0.02414219 -0.020858442 0.05505369

action_model._continuous_distribution.log_sigma f4 [1, 2]
000000 1d b3 b5 bc 90 a2 1e bd
       -0.022180134 -0.03872925

action_model._continuous_distribution.mu.weight f4 [2, 128]
000000 16 3d 73 bd 65 9d 87 3b 5a 9d 78 3d 77 72 35 3d
       -0.059384428 0.004138636 0.060696937 0.044298615
000010 d9 a5 47 bd 31 fc b9 3c 1d 8f ef 3c e0 1a 63 bb
       -0.04874215 0.022703262 0.029243046 -0.003465347
000020 fe 39 33 bd 9e 7f 17 3d 54 77 69 3d 27 55 06 bd
       -0.043756478 0.03698694 0.056998566 -0.03279605
000030 66 d5 95 bc 61 3e 8e bc 03 05 4b 3d 69 4b 57 3d
       -0.018290233 -0.017363729 0.049565326 0.05256215
000040 9c da cd 3c bf 92 87 3d b4 c7 1b 3d 2e 58 d6 bd
       0.025128655 0.066197865 0.03803225 -0.10466038
000050 49 d7 78 3c 75 78 81 3b 51 9f 71 3d b0 37 48 bd
       0.015188047 0.003951127 0.058989827 -0.048881233
000060 99 d0 fd 3c db 9f b2 bc d0 db ef 3c 33 c8 c6 bc
       0.030983256 -0.02180474 0.02927962 -0.024265384
000070 b5 b6 3e 3c 4b 8a f1 3b c8 de af 3c dc ac d6 3c
       0.01164024 0.007371222 0.021468535 0.026205473
000080 ae 59 29 bd 28 78 3f bc c7 87 ea 3a 5c 3a c3 3c
       -0.04134529 -0.011686362 0.0017893248 0.023831539
000090 33 d9 c4 bc 32 52 81 b5 25 7c c7 bc a9 6b 28 3d
       -0.02402935 -9.635171e-07 -0.024351189 0.041118298
0000a0 61 fe 11 bd 00 08 92 3c 53 0f 86 bc 1a c5 9c bb
       -0.035642985 0.01782608 -0.016364729 -0.0047842385
0000b0 a7 f3 83 3c 3e 3d 62 bd 66 95 22 3c a4 5f 92 3b
       0.016107393 -0.055234186 0.009923315 0.0044669677
0000c0 16 ef fa bc 60 99 5a 3d 20 e1 6f 3c 2b 47 b8 3b
       -0.030631583 0.053368926 0.014641076 0.0056237183
0000d0 ba fb bf 3c 45 c5 8e 3d d2 4d 0a 3d 15 be 71 bd
       0.023435462 0.0697122 0.03376562 -0.059019167
0000e0 f2 55 3e 3d 10 2b 78 3b 86 82 47 bd 4c b4 c8 3c
       0.046468683 0.0037867464 -0.04870846 0.024500035
0000f0 62 c0 47 3d c7 ec 16 bd ec 3a 90 bd 06 9a 4e bd
       0.048767455 -0.036846902 -0.070424885 -0.050439857
000100 29 40 43 3a 17 77 fa bc 43 4c f8 bc 65 13 36 bc
       0.000744822 -0.030574365 -0.030309802 -0.011113022
000110 9d c6 cb bc 06 7a 81 bd ac 08 e8 3c 83 8b df bb
       -0.02487498 -0.06322102 0.028324448 -0.006822051
000120 f3 d8 52 bc b7 61 a6 bb 78 3a 83 3d 89 53 76 bd
       -0.012869108 -0.0050775665 0.064076364 -0.06013826
000130 bd 80 4c 3d 6d 8b 27 3d 9b 1a df bb 6a 60 68 3c
       0.049927462 0.04090445 -0.0068085915 0.014183143
000140 bb 94 eb 3c 07 d4 05 3d c2 56 54 bd 55 c0 07 bd
       0.028757444 0.03267291 -0.05184055 -0.033142406
000150 9e 77 f9 3c 80 29 dc bc fb a9 2f 3d 06 35 ba 3b
       0.030452546 -0.026875257 0.042886715 0.0056825904
000160 e7 8a 84 3d df 2c 5e 3d 6b 65 bd 3a 61 3b c4 bb
       0.06471806 0.05424201 0.001444978 -0.005988524
000170 6a ca 4d bc 7a 96 d7 3c 7f 17 f6 bc 48 33 fd bc
       -0.012560466 0.02631687 -0.0300405 -0.030908242
000180 7a 79 6b 3d d1 b3 01 3c 8b c2 d2 bc 61 c4 89 3d
       0.057488896 0.007916407 -0.025727531 0.067269094
000190 07 30 f2 3b 90 a3 bf bc ed a8 82 bd 96 93 46 bd
       0.007390979 -0.023393422 -0.06379876 -0.048480593
0001a0 ab e1 b2 3b ec 04 56 bc 22 8c 2d 3d 4a 1c 3d bc
       0.0054590306 -0.013062697 0.04236997 -0.011542389
0001b0 7d 0e 17 bc 16 3b 80 3c e0 ad 54 3c 2c d3 35 3d
       -0.009219763 0.015653174 0.012980908 0.044390842
0001c0 9a c7 4e 3d 5a 68 69 bc 16 63 3f 3c 1e 69 85 bd
       0.050483324 -0.014246071 0.011681339 -0.0651419
0001d0 9b c0 5e bc 19 63 b3 3c 26 85 39 3b a5 32 5f 3c
       -0.013595725 0.02189784 0.0028308122 0.013622914
0001e0 c7 d7 c4 3c 15 07 0f 3d dc b0 15 bc 3b 26 87 bd
       0.024028672 0.034918863 -0.009136405 -0.06599089
0001f0 e0 0a 4a 3d 44 58 48 bd b5 6a 3c bd f9 ff 43 3d
       0.049326777 -0.0489123 -0.0460002 0.047851536
000200 36 c5 53 3d 9f c8 39 3d 76 67 39 3d d0 cd 58 3d
       0.051701747 0.045357343 0.045264684 0.052930653
000210 85 9b e8 3c 63 e5 2d 3d ac fe 00 bd 81 1f 18 3d
       0.02839447 0.04245509 -0.031492874 0.03713942
000220 94 2c 5d bd d2 68 7c 3c 7e 12 f1 bc 8c 0e e3 3c
       -0.05399759 0.0154058505 -0.029427763 0.027716897
000230 3c dc 9d 3c f0 8c fa bb d9 4a ba bc fc e4 d1 bc
       0.019270055 -0.0076461956 -0.022740768 -0.025621884
000240 4d 93 36 bd 0c 7a 09 ba ea a3 8f 3d 10 d8 1e 3d
       -0.04457407 -0.00052443217 0.07013686 0.038780272
000250 90 e7 7f 3d 32 41 71 bd 13 16 ee 3c 6b 5a 82 3d
       0.062476695 -0.058900066 0.02906326 0.06364902
000260 92 ec 84 bd 75 86 1b 3d 49 3c 5e 3c cc d4 38 3d
       -0.06490435 0.037970025 0.013564178 0.045124814
000270 61 32 27 bd 66 f8 f7 3b 9f 31 59 3c 00 39 bc bc
       -0.04081953 0.007567453 0.0132564595 -0.022976398
000280 d2 d2 a5 3d 78 41 ec 3b 88 2b d5 bc e3 b7 b4 3c
       0.080968514 0.007209953 -0.026021734 0.02206034
000290 51 7e 18 3c b5 20 c5 3c f8 28 31 3d 8c 7a 94 3c
       0.00930746 0.024063447 0.04325196 0.018124841
0002a0 d8 80 40 3d e1 40 9a 3c 3c 85 74 3a 53 c2 0a 3d
       0.046997875 0.018829765 0.0009327715 0.03387673
0002b0 ab 9a 78 3b 0f c8 78 bd a7 a1 ea 3c 67 22 95 bc
       0.0037933986 -0.060737666 0.028641535 -0.01820488
0002c0 2d 92 24 bd f9 11 22 3d 94 52 21 3a 68 83 32 3d
       -0.040178467 0.03956792 0.00061539677 0.04358235
0002d0 33 23 25 bd c9 e0 24 bd ec e5 17 bc 1c 35 87 bd
       -0.04031677 -0.040253434 -0.009271126 -0.06601927
0002e0 9a 29 70 3c 3f 5d 4c bc 13 08 b0 3c 4d 0a 6a 3d
       0.014658356 -0.0124734035 0.021488225 0.05713873
0002f0 fd 58 dd bc 1c 23 96 3c 1f 2d 50 bb a1 59 3b 3c
       -0.027019972 0.018327288 -0.0031765176 0.011434943
000300 24 e3 b7 3c d2 b6 51 3a aa 23 a6 3c d3 2d 91 3d
       0.022447176 0.00079999596 0.020280678 0.070888184
000310 15 fe 9a bd 5d 1a 79 bc a3 26 c8 3c af 67 d0 bc
       -0.075679936 -0.015204039 0.024432486 -0.025440065
000320 a6 38 75 3c 6a 53 de bc ef 09 58 bc 15 7f b4 3c
       0.014967119 -0.027139384 -0.013185962 0.022033254
000330 5a 0e 43 3d dd 49 6b 3c e9 a1 c0 bc 30 2b 21 3c
       0.04762111 0.014360872 -0.023514705 0.009836957
000340 7b 6f 3b 3d bf 98 11 bd 3c 10 49 3d 89 94 3c 3d
       0.045760613 -0.03554606 0.049087748 0.04604009
000350 6c 83 a3 bd 72 a9 62 3d cf 85 22 3d c7 63 04 bd
       -0.07984051 0.055337377 0.03967839 -0.032321718
000360 10 ae 5e bd a5 a2 d6 bc 20 ef 3d 3d 87 a6 29 3d
       -0.054365218 -0.026200602 0.046370625 0.04141858
000370 3e d8 aa 3c 0b 1a 0b 3c 1e cb b4 bc 6d 69 81 bd
       0.020855065 0.008490096 -0.02206951 -0.063189365
000380 46 09 67 3d 9a b2 d2 3b f2 ce ec 3b 45 8f ef 3c
       0.05640533 0.0064299824 0.0072268182 0.02924312
000390 b0 bb b9 bc 42 a1 1f 3c 2f 45 8e bd e1 5c 9d bb
       -0.022672504 0.009743037 -0.069467895 -0.004802332
0003a0 a8 13 ce 3c 2b 89 a3 3d 02 a8 13 bd 93 b7 c3 bc
       0.025155857 0.07985147 -0.036048897 -0.023891246
0003b0 dc 73 b3 3c 04 b6 7a 3c 17 6f ed 3b 54 1a 09 3c
       0.021905832 0.015302185 0.007245909 0.0083680935
0003c0 56 1e a5 bc ca d6 92 3d 31 bb 69 3d 52 f2 e2 bc
       -0.020156067 0.07169874 0.057063285 -0.027703438
0003d0 9b 29 c1 3c 63 03 ec 3c a9 2d 5d bc c9 ec 55 bd
       0.02357941 0.028810209 -0.013499656 -0.05222777
0003e0 13 fd df 3c d1 84 36 bd b9 4c 0f bd b5 14 a5 3c
       0.027342355 -0.044560257 -0.034985278 0.020151475
0003f0 fb 35 9f bc 38 b8 35 bd 4d 78 bf 3b 71 85 82 3c
       -0.01943492 -0.044365138 0.0058431984 0.01593277

action_model._continuous_distribution.mu.bias f4 [2]
000000 52 ea de 3c 79 8d 2f 3d
       0.027211342 0.04285953

exp_avg f4 [128, 8]
000000 0d e4 f5 38 1c 9d af b7 ac 90 2c 39 1d cf cd 38
       0.00011724988 -2.0934785e-05 0.00016457093 9.8137396e-05
000010 75 33 1c 39 fa b4 4b 39 d5 b3 72 38 6b 48 1a 39
       0.00014896489 0.00019427008 5.7864778e-05 0.00014713562
000020 48 b8 f8 37 07 78 8c 38 94 30 e2 38 2c 8d c4 37
       2.9649716e-05 6.698077e-05 0.00010785568 2.3430759e-05
000030 56 a6 d0 b7 d9 68 db 38 89 89 76 b7 fa d5 9b b8
       -2.4872988e-05 0.00010462263 -1.4694765e-05 -7.430832e-05
000040 d6 94 51 b7 ca f1 c8 b7 3d 44 ab 38 68 b9 27 37
       -1.2492024e-05 -2.395445e-05 8.166626e-05 9.997144e-06
000050 00 f0 dd b8 7c 59 a4 b7 bb 00 00 b9 d8 1e 8f b9
       -0.00010582805 -1.9591993e-05 -0.00012207303 -0.00027298066
000060 6a e0 5d b8 60 4d 8d b5 e5 4d 8b 37 e4 a4 b1 36
       -5.2899508e-05 -1.0527838e-06 1.6606364e-05 5.294207e-06
000070 7f 55 52 b8 9a 6e 8f 37 fc fd 48 b8 0f f1 14 b9
       -5.0147526e-05 1.7098431e-05 -4.7920257e-05 -0.00014204181
000080 a0 75 f7 b6 ec 75 2f b9 58 50 ae 38 d0 ee b3 38
       -7.374867e-06 -0.0001673323 8.311932e-05 8.5798674e-05
000090 6b 6d 5f 39 c0 4c e0 38 a6 b1 97 b6 22 f9 41 39
       0.00021307699 0.00010695448 -4.5208317e-06 0.00018498724
0000a0 6d 9d 17 38 a5 8e a4 b7 08 36 d4 38 3a 13 1f 37
       3.614782e-05 -1.9616748e-05 0.00010119012 9.481615e-06
0000b0 20 e3 14 38 4c e7 58 38 37 8b bf 36 6e 09 8f b8
       3.5497476e-05 5.1713825e-05 5.7084503e-06 -6.820528e-05
0000c0 32 62 dd b7 bc 5a cd 38 98 c4 c5 b8 1e e9 59 b8
       -2.6390979e-05 9.792062e-05 -9.4303105e-05 -5.195394e-05
0000d0 01 32 ea b8 0e 0d b3 b8 b0 48 52 b6 d1 26 50 b8
       -0.000111673035 -8.537817e-05 -3.1334748e-06 -4.9627215e-05
0000e0 74 3d 9f 38 4a 17 4b b8 53 5f 79 39 44 ab 5a 39
       7.593157e-05 -4.842066e-05 0.00023782002 0.00020853902
0000f0 70 c1 20 b8 c5 1d 48 39 fc b8 83 39 90 c7 a6 b8
       -3.8327125e-05 0.00019084576 0.0002512409 -7.952668e-05
000100 51 f6 6a b9 4e aa 53 b8 8e fe 3f b9 ca 43 b3 b8
       -0.00022407739 -5.046493e-05 -0.00018310008 -8.548012e-05
000110 a3 5a 5d 38 86 3e 83 b9 7b e3 88 38 dc f3 68 39
       5.2774918e-05 -0.0002503285 6.527357e-05 0.00022216089
000120 2c 73 6f 38 e1 08 30 38 93 47 14 36 c3 ae 01 b8
       5.7089303e-05 4.196994e-05 2.209538e-06 -3.0918756e-05
000130 3a cc 33 b8 26 55 31 38 ea 45 c9 37 9f 01 92 b8
       -4.2867126e-05 4.227939e-05 2.3993623e-05 -6.9621245e-05
000140 78 67 d9 b8 ef 01 31 38 a0 6b 85 b5 ec 25 9a 37
       -0.00010366639 4.220189e-05 -9.940595e-07 1.837589e-05
000150 03 c6 b1 b9 7f b1 12 b8 27 98 26 b9 82 63 d4 b8
       -0.000339076 -3.497442e-05 -0.00015887675 -0.000101274825
000160 ad 17 19 b8 44 43 e2 b8 63 cd fe 38 11 37 b2 38
       -3.6500092e-05 -0.00010789049 0.0001214992 8.497958e-05
000170 6f a7 eb 38 d4 e3 cc 38 b5 13 91 38 53 5b 55 38
       0.0001123686 9.769914e-05 6.9178095e-05 5.086821e-05
000180 56 72 96 37 b0 78 7d b8 4c e2 00 39 5c 0a 19 39
       1.7934635e-05 -6.04323e-05 0.00012291333 0.00014595076
000190 ce 64 6d 38 c1 45 fb 38 96 b1 08 39 c0 6a 90 b7
       5.6599085e-05 0.00011981605 0.00013036127 -1.7215847e-05
0001a0 e9 e6 9b b7 24 37 16 38 6e 60 02 b7 5e cd f5 37
       -1.8584966e-05 3.581414e-05 -7.771056e-06 2.9301907e-05
0001b0 34 0f 19 37 1d 78 3b 37 fc ff c2 b6 71 cf 58 38
       9.12305e-06 1.1174035e-05 -5.811451e-06 5.1691608e-05
0001c0 d0 19 99 36 f1 b8 2e 39 50 ff 31 37 a3 dc c3 b8
       4.5627603e-06 0.00016662829 1.0609467e-05 -9.3394214e-05
0001d0 13 5a a5 b9 d8 77 2a 37 1f 08 2b b8 df 5f fa b8
       -0.00031538363 1.0160693e-05 -4.077714e-05 -0.00011938786
0001e0 3a eb 6a b8 30 51 19 36 a9 de 18 b9 0a 46 44 b8
       -5.600902e-05 2.2846034e-06 -0.00014578797 -4.679527e-05
0001f0 52 ab e2 b8 68 d6 bc b8 3d e5 0e b9 a2 99 20 b8
       -0.00010808431 -9.004475e-05 -0.00013627573 -3.8290054e-05
000200 48 f2 4e b8 6e cd 2b 38 9c 04 a8 b8 54 23 ad b8
       -4.933987e-05 4.09609e-05 -8.011723e-05 -8.255863e-05
000210 72 b0 72 b9 9e 74 1e b9 92 75 6b 38 44 91 62 38
       -0.0002314465 -0.00015111497 5.6137862e-05 5.4017888e-05
000220 56 95 81 38 40 89 18 39 96 cb b0 37 5d 44 35 b9
       6.179015e-05 0.00014546979 2.1075637e-05 -0.00017286972
000230 36 21 49 b9 7d 73 a1 38 ce 8d 67 b9 fd 7c b5 b8
       -0.00019181226 7.6985896e-05 -0.00022082703 -8.6540334e-05
000240 9a 63 14 b7 75 25 09 38 e7 29 72 38 64 2e ef b7
       -8.844678e-06 3.269823e-05 5.773632e-05 -2.8512623e-05
000250 67 6f f6 38 b5 e6 be 37 80 9a 12 b9 28 a7 ad b8
       0.000117509444 2.2757196e-05 -0.00013981201 -8.280418e-05
000260 0c 1d d8 36 aa da 0f b9 0e 12 79 39 fc ff 30 38
       6.440683e-06 -0.00013719001 0.00023753216 4.2200074e-05
000270 b6 61 52 39 47 01 55 39 e0 a5 e5 34 5f e5 9a 39
       0.00020063561 0.00020313739 4.2775264e-07 0.00029544064
000280 b7 ae 1e 39 44 a4 4c 38 fd 6c 86 39 b6 ab 33 39
       0.0001513314 4.8790374e-05 0.00025639674 0.00017134738
000290 f8 60 14 38 52 c3 81 39 f4 9d ba 39 84 c2 93 b8
       3.537626e-05 0.00024750322 0.0003559437 -7.0457376e-05
0002a0 20 f3 75 b9 ec 17 09 39 a5 b8 5e b9 ad 67 c2 b7
       -0.00023455592 0.0001307425 -0.00021240355 -2.317488e-05
0002b0 9d dc 45 b9 bc c1 46 b9 e0 73 17 39 05 74 8d 37
       -0.00018869569 -0.00018954923 0.00014443649 1.6862536e-05
0002c0 f3 53 e2 37 e5 e3 98 39 57 d2 d7 38 20 38 79 b8
       2.6980391e-05 0.00029161494 0.00010291178 -5.9418497e-05
0002d0 4a 5b 50 b9 e3 1a 2c 39 8c e6 4f b8 0c 25 3c b9
       -0.00019870434 0.00016413214 -4.956736e-05 -0.00017942878
0002e0 3c 1d 23 38 65 a2 03 b9 20 46 75 39 80 f8 f0 38
       3.8889455e-05 -0.0001255363 0.00023391144 0.000114903785
0002f0 72 1a 9a 39 1f 3a 8a 39 ac ff ce 38 b4 b5 ad 38
       0.00029392872 0.00026364715 9.870468e-05 8.283128e-05
000300 1c 36 58 b9 a4 60 1a b9 6f 75 f9 b8 db e4 37 b9
       -0.00020619523 -0.00014722586 -0.00011895119 -0.00017537495
000310 b0 94 08 b9 c9 d9 4a b9 f6 fe a1 b8 b3 6d 76 38
       -0.00013025361 -0.00019345352 -7.7245684e-05 5.8753136e-05
000320 7a 62 a5 38 58 96 31 37 92 e0 e4 38 40 e8 0c 38
       7.886156e-05 1.0585027e-05 0.00010913717 3.35949e-05
000330 6e 1b 77 38 94 a2 d0 38 3b 3c 4d b6 dc 53 bc 38
       5.8914935e-05 9.9484954e-05 -3.058244e-06 8.9801586e-05
000340 70 8e 03 38 e8 c7 a0 38 30 cf 2f 38 80 9f cc b6
       3.136549e-05 7.66663e-05 4.191621e-05 -6.098242e-06
000350 36 6c 53 b8 ff fa 80 38 e2 ed b0 37 07 93 35 b8
       -5.04071e-05 6.150267e-05 2.1091608e-05 -4.3290693e-05
000360 12 f5 16 39 aa 04 3b 38 da 79 7d 39 b9 3e 5a 39
       0.0001439641 4.4588618e-05 0.00024173353 0.00020813466
000370 53 c7 b8 38 ac 58 91 39 70 bc 6d 39 32 34 7f b7
       8.810931e-05 0.0002772262 0.0002267228 -1.5211337e-05
000380 b7 a5 03 b9 82 f4 c7 38 f2 aa 8d b9 68 27 0f b9
       -0.00012554867 9.5346026e-05 -0.0002702098 -0.00013652223
000390 32 d9 38 b8 ec fe 4f b9 7d dd 74 b9 2c 3e 9f 38
       -4.4071297e-05 -0.00019836024 -0.00023352164 7.593291e-05
0003a0 c6 6e 35 38 9d e4 31 b7 98 f4 30 38 6b f1 4d 37
       4.325693e-05 -1.060325e-05 4.2189466e-05 1.2275162e-05
0003b0 66 c1 29 b6 43 3d 13 38 da f1 2a 38 ac e7 e0 b7
       -2.5295535e-06 3.5104586e-05 4.07564e-05 -2.6810761e-05
0003c0 89 d4 6c 37 28 24 d4 b7 7c ab df 37 7a ac 4c b7
       1.4116181e-05 -2.5289206e-05 2.6663525e-05 -1.2199505e-05
0003d0 2a 57 a1 b7 f8 7c 7f 36 40 91 c2 b7 58 3c 8e b8
       -1.9233285e-05 3.8070702e-06 -2.319424e-05 -6.7823275e-05
0003e0 cb 77 07 b8 f3 3d aa 38 f1 75 83 b8 e3 ad 72 b7
       -3.2298074e-05 8.1177706e-05 -6.268535e-05 -1.446481e-05
0003f0 29 ee 94 b8 3b 20 25 b8 1d b1 e0 b7 02 19 0b b8
       -7.101551e-05 -3.9369083e-05 -2.6785356e-05 -3.3163473e-05

exp_avg_sq f4 [128, 8]
000000 e2 f1 eb 33 cc dd a9 33 80 bd ae 33 54 7a ab 33
       1.09870385e-07 7.9100204e-08 8.136976e-08 7.9850594e-08
000010 77 33 f3 33 ba cd c4 33 66 47 a6 33 6c 6b 95 33
       1.1324931e-07 9.164383e-08 7.742965e-08 6.957893e-08
000020 a2 78 91 33 0f 85 41 33 62 f4 5f 33 b3 36 2f 33
       6.774032e-08 4.505733e-08 5.21435e-08 4.079511e-08
000030 0c 3e af 33 b3 8a f7 32 f1 85 dc 32 3f 5f 2e 33
       8.160359e-08 2.8817658e-08 2.567228e-08 4.0599158e-08
000040 77 4d ca 33 21 d3 97 33 49 7f 9f 33 51 18 08 33
       9.420449e-08 7.0698896e-08 7.4271675e-08 3.1687083e-08
000050 c2 25 a7 33 cf 04 6c 33 78 41 2c 33 13 70 58 33
       7.7834116e-08 5.4952405e-08 4.0106414e-08 5.039335e-08
000060 78 9a 21 33 3b 4f 21 33 5a d8 e7 32 8a b0 93 32
       3.7626222e-08 3.7557793e-08 2.6990325e-08 1.7193333e-08
000070 b8 9c ff 32 ab d9 d1 32 90 0f eb 32 c8 44 e7 32
       2.9757175e-08 2.4429786e-08 2.7364678e-08 2.6923217e-08
000080 63 39 a2 33 6e 8c 72 33 a8 fd 6f 33 39 46 28 33
       7.5541514e-08 5.6472736e-08 5.5877223e-08 3.9179415e-08
000090 57 02 ce 33 7c 86 61 33 30 23 e1 32 1f 09 1e 33
       9.593048e-08 5.2509208e-08 2.6209449e-08 3.6795537e-08
0000a0 3c 90 90 32 0a e5 be 32 9f d2 6a 32 02 2f 65 32
       1.6829397e-08 2.2223066e-08 1.3668482e-08 1.3340243e-08
0000b0 3f a9 7f 32 a8 35 23 32 44 7f c1 32 fc 79 3c 32
       1.4881436e-08 9.500049e-09 2.252603e-08 1.0970776e-08
0000c0 86 39 80 33 97 c9 28 33 5d 6e 2c 33 ec c7 fd 32
       5.970928e-08 3.9298893e-08 4.0147246e-08 2.954399e-08
0000d0 8a 73 67 33 ef d0 0b 33 fb 1a 82 32 47 24 01 33
       5.388896e-08 3.2553483e-08 1.5146261e-08 3.0068147e-08
0000e0 37 d1 20 33 27 04 9e 32 d0 a0 05 33 1b 84 c7 32
       3.7443183e-08 1.839551e-08 3.1112734e-08 2.3226724e-08
0000f0 7c 52 8c 32 62 c9 a1 32 da dd cf 32 3a 60 23 32
       1.6335655e-08 1.8834445e-08 2.4198858e-08 9.509728e-09
000100 fa 53 33 34 d5 ee 22 34 b3 d4 fd 33 f5 65 0e 34
       1.6701225e-07 1.5174312e-07 1.181992e-07 1.3261872e-07
000110 de 4d 48 34 bb f4 b3 33 ac cf 22 34 6e 20 d7 33
       1.865478e-07 8.379853e-08 1.5162976e-07 1.00176166e-07
000120 9a f7 d8 32 e1 d4 95 32 97 97 92 32 d5 8b 6a 32
       2.5258306e-08 1.7442689e-08 1.7065572e-08 1.3652387e-08
000130 09 7c 79 32 02 ac 4b 32 dc 2b 8f 32 31 14 f7 31
       1.452191e-08 1.1855265e-08 1.6667336e-08 7.1909416e-09
000140 02 df c4 33 be 14 e5 33 d3 61 9c 33 f0 11 05 34
       9.167526e-08 1.06674165e-07 7.28211e-08 1.2393116e-07
000150 7f 02 36 34 50 f1 3e 33 62 00 25 34 2e ae a8 33
       1.6950979e-07 4.4457295e-08 1.5366962e-07 7.854793e-08
000160 c9 d3 7f 33 6d 6b 41 33 e5 b7 72 33 8a 06 16 33
       5.956443e-08 4.5034017e-08 5.6512267e-08 3.4930544e-08
000170 75 23 73 33 ce b8 cf 32 de dd e3 32 f7 5f bd 32
       5.6610094e-08 2.4182011e-08 2.6527172e-08 2.2046136e-08
000180 25 87 f6 32 f3 f2 f4 32 08 63 e4 32 c6 30 d1 32
       2.8699626e-08 2.8515819e-08 2.6587728e-08 2.4352982e-08
000190 f3 de 07 33 73 2b 8b 32 ee 67 e7 32 2d 2f 89 32
       3.1634908e-08 1.6201488e-08 2.6939201e-08 1.5970352e-08
0001a0 0a 5e 9a 32 73 4e 84 32 06 a1 2b 32 24 5c e0 31
       1.7970724e-08 1.5402497e-08 9.9901225e-09 6.529733e-09
0001b0 c7 b7 66 32 f5 1b 2c 32 99 e9 0e 32 62 17 48 32
       1.3429548e-08 1.0018074e-08 8.318602e-09 1.1646849e-08
0001c0 92 13 d4 33 28 48 9e 33 40 f1 9b 33 34 14 84 33
       9.875579e-08 7.3705735e-08 7.261633e-08 6.150404e-08
0001d0 05 9f 12 34 9d 08 32 33 b5 dd 54 33 32 eb 5f 33
       1.365516e-07 4.145169e-08 4.9561738e-08 5.2135142e-08
0001e0 61 b1 90 33 ff 2e 8e 33 c1 3c 7c 33 37 8f 28 33
       6.7377876e-08 6.620939e-08 5.8728578e-08 3.92458e-08
0001f0 22 db 24 33 b0 d4 05 33 f0 50 a4 33 f7 ad e3 32
       3.8383526e-08 3.1159914e-08 7.6515676e-08 2.6505388e-08
000200 0a 85 ae 33 7f 18 ab 33 e5 b7 7c 33 2f f6 a6 33
       8.126706e-08 7.967264e-08 5.8840573e-08 7.774758e-08
000210 47 3e 12 34 a0 42 1b 33 e1 d4 99 33 0b b9 94 33
       1.3619966e-07 3.6149345e-08 7.16334e-08 6.925446e-08
000220 3c cc da 33 f0 d1 d4 33 a5 77 94 33 bb c2 e6 33
       1.0188566e-07 9.910207e-08 6.91355e-08 1.0745631e-07
000230 ce 8f 07 34 b4 a1 43 33 b9 b7 ea 33 27 3a 71 33
       1.262517e-07 4.5549044e-08 1.0929893e-07 5.6165074e-08
000240 66 7b 71 33 47 91 8d 33 d3 29 33 33 98 2f 21 33
       5.6224415e-08 6.59225e-08 4.1714724e-08 3.752902e-08
000250 49 6b 8e 33 a5 0b 19 33 1e 8e 95 33 91 1b 55 33
       6.631905e-08 3.563368e-08 6.964204e-08 4.9618e-08
000260 de 14 a9 34 10 1e 4e 34 95 49 60 34 3e 2d f0 33
       3.1493886e-07 1.9196182e-07 2.0888395e-07 1.11841004e-07
000270 28 8d 43 34 48 fa 74 34 80 3b ae 33 86 25 d1 33
       1.8212143e-07 2.2815323e-07 8.1133294e-08 9.7391464e-08
000280 5c 6e 4d 33 76 8c 3e 33 64 9f 2d 33 f5 2e 80 33
       4.7830653e-08 4.436557e-08 4.0424666e-08 5.969006e-08
000290 e6 36 2a 33 af b1 04 33 cb 7d e8 33 2c ac f8 32
       3.963114e-08 3.0895247e-08 1.08262235e-07 2.8949295e-08
0002a0 65 ff 07 34 5b ff f0 33 df 0a bd 33 a3 d7 83 33
       1.2665767e-07 1.122232e-07 8.802976e-08 6.139387e-08
0002b0 db 0b 1a 34 02 37 2c 33 39 03 4d 33 56 9d ca 33
       1.434668e-07 4.00969e-08 4.7733213e-08 9.434977e-08
0002c0 57 db a1 33 d9 12 e9 33 ed 34 68 33 d8 4c fa 33
       7.5370444e-08 1.08533364e-07 5.4064845e-08 1.165551e-07
0002d0 b7 21 f8 33 9e e3 49 33 28 3e 11 34 84 79 8f 33
       1.15545326e-07 4.7005976e-08 1.352679e-07 6.68106e-08
0002e0 96 f2 fe 33 c2 dd af 33 c5 50 01 34 37 e6 ba 33
       1.1871923e-07 8.18941e-08 1.2043445e-07 8.703176e-08
0002f0 36 40 09 34 8a 46 8a 33 15 e4 df 33 01 15 58 33
       1.2782479e-07 6.438957e-08 1.04257346e-07 5.0310522e-08
000300 c9 f9 15 34 c9 22 2e 34 be 32 9a 33 ed b1 fc 33
       1.3967578e-07 1.6217668e-07 7.180414e-08 1.1767029e-07
000310 e1 69 68 34 88 13 67 33 3d 98 01 34 b6 fd 25 34
       2.1645202e-07 5.3801642e-08 1.2069445e-07 1.5459122e-07
000320 c2 57 40 33 46 93 f4 32 0c 16 c2 32 3d 20 99 32
       4.47833e-08 2.847231e-08 2.2594598e-08 1.7826205e-08
000330 62 bb c5 32 b6 5b 9f 32 a6 1f aa 32 82 ee 9e 32
       2.301903e-08 1.8551741e-08 1.9804997e-08 1.8502082e-08
000340 b0 56 74 32 06 a3 94 32 f5 46 5b 32 de 85 ff 32
       1.422238e-08 1.7303602e-08 1.27636115e-08 2.9746783e-08
000350 e6 48 93 32 80 80 37 32 b5 a1 45 33 b9 7e 32 32
       1.7146203e-08 1.06812195e-08 4.601471e-08 1.0389777e-08
000360 a2 b7 2f 33 74 ff 2f 33 b6 b7 13 33 bc f7 95 33
       4.0912376e-08 4.0977696e-08 3.439319e-08 6.983416e-08
000370 bb 79 3c 33 16 fc fd 32 01 ad c8 33 6e 6d d9 32
       4.3882874e-08 2.9567712e-08 9.344695e-08 2.5311888e-08
000380 7b bc 92 33 f4 82 8c 33 c6 58 87 33 b2 54 53 33
       6.832939e-08 6.543078e-08 6.302575e-08 4.9204296e-08
000390 c6 ed 4e 33 1e c0 07 33 50 b7 9f 33 ee 4d 09 33
       4.8179366e-08 3.1606866e-08 7.437359e-08 3.1968675e-08
0003a0 bd d0 73 31 66 d7 29 31 80 b3 3f 31 40 28 6a 31
       3.5479808e-09 2.4715177e-09 2.7896192e-09 3.4074361e-09
0003b0 e9 6f 2f 31 e6 54 e9 30 89 d6 a1 31 61 ef d5 30
       2.5529465e-09 1.6977111e-09 4.7101065e-09 1.5565825e-09
0003c0 26 c8 4f 32 d5 7f 24 32 f5 ec 0d 32 7f b2 aa 31
       1.2094494e-08 9.575122e-09 8.261158e-09 4.967944e-09
0003d0 6d cd e0 31 09 ab d3 31 fe 60 8b 31 e7 6e ab 31
       6.5426122e-09 6.1603527e-09 4.056459e-09 4.989363e-09
0003e0 05 47 e3 32 2a d4 ce 32 79 cb c4 32 ca 1f 52 32
       2.6458574e-08 2.4078037e-08 2.2909932e-08 1.2230837e-08
0003f0 28 df c8 32 28 cd 36 32 82 7a 18 32 f5 01 94 32
       2.3384544e-08 1.0640441e-08 8.8754195e-09 1.7230358e-08

exp_avg f4 [128]
000000 a8 7b 14 38 95 de b4 b8 9a a9 29 b9 4b 3f 59 b8
       3.5401114e-05 -8.624528e-05 -0.00016180277 -5.1795778e-05
000010 66 25 aa 38 f7 9e 64 b8 a2 09 4f b8 35 52 14 b9
       8.113198e-05 -5.4507484e-05 -4.9361617e-05 -0.00014145004
000020 60 7a 2c 39 e6 8c 34 b8 b8 b5 58 b9 df f0 d5 b7
       0.00016448786 -4.3046566e-05 -0.00020667061 -2.5503743e-05
000030 f6 41 3d b8 0c 54 c3 37 9f 7a 69 b9 80 68 4b b4
       -4.5122542e-05 2.3284949e-05 -0.00022266291 -1.8943865e-07
000040 5f d8 e1 b8 f3 23 35 b9 fc 42 89 b6 68 00 2e 38
       -0.00010769138 -0.00017274897 -4.090716e-06 4.148521e-05
000050 75 65 11 b9 e0 18 1d 36 4f 6a 6a b9 c1 3b 35 b8
       -0.00013866073 2.3409302e-06 -0.00022355582 -4.3209413e-05
000060 2e ae 07 b9 61 94 d3 37 63 ab 50 b8 33 48 f2 b8
       -0.0001293949 2.5222254e-05 -4.975068e-05 -0.000115529074
000070 c5 bc 24 39 0c f5 ab b7 a0 81 33 b8 dc 04 f8 b7
       0.00015710581 -2.0498897e-05 -4.279765e-05 -2.9566167e-05
000080 5c bc 92 b8 d1 50 a0 36 de cd 93 38 e4 ea 0c b8
       -6.996907e-05 4.77778e-06 7.047852e-05 -3.359736e-05
000090 5b 3c 16 37 e5 ea 05 b8 8b 1e 98 b8 49 fb b9 b8
       8.954749e-06 -3.1928434e-05 -7.253614e-05 -8.868293e-05
0000a0 a8 e0 11 b9 29 05 c8 b7 38 5b 02 35 51 71 29 b8
       -0.00013911969 -2.384426e-05 4.8561515e-07 -4.0398274e-05
0000b0 16 6b d9 b7 d7 eb a6 39 ee 5a 88 b7 44 86 17 38
       -2.5918282e-05 0.00031837702 -1.6254806e-05 3.612625e-05
0000c0 da a1 38 39 72 19 45 b9 1f 90 10 b8 50 4e 19 b9
       0.00017607902 -0.00018796863 -3.44665e-05 -0.0001462039
0000d0 5a e8 f0 37 3a 6f 03 b9 4a 3d a2 b7 b1 e0 b3 39
       2.8718427e-05 -0.00012534569 -1.9340445e-05 0.0003430895
0000e0 75 ff 09 b7 5b 0b d3 37 21 c3 37 38 b8 28 ab b8
       -8.225315e-06 2.5158448e-05 4.3812328e-05 -8.1615e-05
0000f0 21 33 a0 b8 46 a3 b0 38 ee 95 52 39 79 67 5b b8
       -7.638918e-05 8.422746e-05 0.00020083014 -5.2310035e-05
000100 b0 10 8e b8 60 fe 8a 38 32 5d 24 38 47 13 d1 b6
       -6.774196e-05 6.627734e-05 3.9187442e-05 -6.2309296e-06
000110 dc 1f b1 39 9d 54 4a 39 66 47 d5 b8 9c 8f 00 38
       0.00033783808 0.00019295742 -0.000101699305 3.0651325e-05
000120 a7 b0 a0 b7 98 23 65 38 13 2d 77 b8 6c c1 f2 37
       -1.9155746e-05 5.4631004e-05 -5.8931368e-05 2.8938717e-05
000130 6e 81 d7 b8 6a 54 b7 b8 c2 ab 08 39 0c f2 46 b8
       -0.00010276107 -8.741843e-05 0.00013033955 -4.7432302e-05
000140 fd 39 c7 b8 00 11 21 b8 f0 2b c0 37 37 b7 b0 b8
       -9.4998606e-05 -3.8401224e-05 2.2908644e-05 -8.4264604e-05
000150 b7 e1 a1 38 80 a5 ba 35 59 1c da b8 00 8f a9 34
       7.719121e-05 1.3906247e-06 -0.0001040033 3.158275e-07
000160 72 89 72 b9 9e 2c 29 b8 50 19 ea b8 01 5e 89 b8
       -0.00023130121 -4.0334293e-05 -0.00011162704 -6.550179e-05
000170 0f 53 56 b8 76 09 90 b7 2d 62 8e 38 c8 03 6a 39
       -5.109893e-05 -1.7170543e-05 6.789374e-05 0.00022317388
000180 47 31 56 b9 0f 76 b5 b7 84 eb 0d 38 6f 59 48 b9
       -0.00020426988 -2.1631857e-05 3.383636e-05 -0.00019106803
000190 f3 2d 53 37 b1 02 d5 37 5c bf f8 39 3b 8b ec 37
       1.2587278e-05 2.5392832e-05 0.0004744482 2.8198227e-05
0001a0 46 1c ac b7 11 8c 97 b8 c8 a2 26 b9 c0 f3 2b b6
       -2.0517164e-05 -7.2263305e-05 -0.00015891634 -2.5622867e-06
0001b0 b3 75 c1 37 24 94 dc b8 33 59 46 b8 97 ee 28 b9
       2.30622e-05 -0.00010518011 -4.7289952e-05 -0.0001611061
0001c0 1e dc bb b8 4a be 05 b9 e8 b2 93 b8 a2 ad 7b 39
       -8.957855e-05 -0.00012754757 -7.04283e-05 0.00024001909
0001d0 fa cf 27 b8 85 34 4b b8 e0 bb 1c 36 3f 97 cd 38
       -4.0009596e-05 -4.8447884e-05 2.335517e-06 9.8033335e-05
0001e0 7a 5a b2 b7 9a f2 83 b4 a4 72 76 38 37 51 48 b7
       -2.1261385e-05 -2.4577167e-07 5.8757738e-05 -1.1939838e-05
0001f0 c9 90 1d b9 84 6c 4a 39 0a d8 83 38 e1 d3 e6 b8
       -0.00015026623 0.00019304646 6.286807e-05 -0.0001100672

exp_avg_sq f4 [128]
000000 33 61 da 33 b1 d4 8f 33 d2 54 ff 33 e1 57 96 33
       1.01690965e-07 6.697645e-08 1.18897916e-07 7.0009044e-08
000010 b1 89 97 33 45 9e 0a 33 fb 38 2f 33 a3 6c 01 33
       7.0565314e-08 3.2274574e-08 4.0797186e-08 3.0133958e-08
000020 6e 47 14 34 51 a7 bd 32 33 bf c4 33 e9 ff 4b 33
       1.380956e-07 2.2078583e-08 9.16174e-08 4.749737e-08
000030 18 1d d5 32 bc e9 7d 32 6c 28 c0 33 d1 9a 59 33
       2.4809694e-08 1.4779683e-08 8.9480494e-08 5.0665054e-08
000040 18 c4 ac 33 79 f7 c8 33 eb 07 11 34 48 7d 65 34
       8.0450434e-08 9.358241e-08 1.3507058e-07 2.1372864e-07
000050 6b 42 aa 33 a0 ae ed 33 fa 9d c2 33 00 f9 f1 33
       7.928323e-08 1.10679366e-07 9.062565e-08 1.126773e-07
000060 10 68 0d 34 05 88 00 33 d5 f8 7f 32 c3 d2 50 33
       1.3169506e-07 2.992603e-08 1.4899531e-08 4.862046e-08
000070 63 85 48 33 d5 07 0d 31 7c d0 32 32 aa 9a c1 32
       4.6687443e-08 2.0522652e-09 1.04083675e-08 2.253849e-08
000080 0f 51 15 34 9c dd b0 31 b4 1d 7d 32 a3 e0 84 32
       1.3906195e-07 5.1474682e-09 1.4733292e-08 1.5468975e-08
000090 3d 36 5b 32 50 94 80 32 9c 6a 0f 33 05 50 09 33
       1.275981e-08 1.4968606e-08 3.3391743e-08 3.1970576e-08
0000a0 d1 af b5 33 d7 58 60 32 42 78 8f 31 63 bb 0f 33
       8.46045e-08 1.3058716e-08 4.1755195e-09 3.346521e-08
0000b0 eb 5f a6 31 2e 9f 54 34 cc 8a 70 32 d7 b9 08 32
       4.8421405e-09 1.9801948e-07 1.4001397e-08 7.958497e-09
0000c0 e4 be 99 33 36 32 0c 34 f1 fa 26 31 81 02 83 33
       7.1593405e-08 1.3056783e-07 2.4298823e-09 6.100618e-08
0000d0 54 7c 38 33 20 60 4e 34 52 b0 d5 32 36 92 89 34
       4.2953914e-08 1.9220215e-07 2.4876645e-08 2.562462e-07
0000e0 c0 f3 16 33 64 b6 fd 31 68 0f 43 33 f5 e2 d1 33
       3.5146286e-08 7.3840045e-09 4.5415987e-08 9.773604e-08
0000f0 8b 4c 8d 33 98 36 37 33 1e 34 0f 34 31 4f 13 33
       6.579747e-08 4.265766e-08 1.3336873e-07 3.429813e-08
000100 23 e9 ef 31 44 11 af 32 25 b8 3a 33 a3 9f f5 33
       6.98232e-09 2.0380533e-08 4.3473978e-08 1.1437739e-07
000110 38 79 08 34 66 0e 18 34 be 62 c9 32 dd 3d 65 32
       1.2710086e-07 1.4161341e-07 2.3444382e-08 1.334362e-08
000120 3e 2c 14 32 fc a0 a3 32 62 f8 df 33 83 3b 9e 33
       8.624793e-09 1.9048905e-08 1.0429427e-07 7.3682735e-08
000130 36 67 0a 34 c6 bb 19 33 eb ad 82 32 d9 9b 5b 32
       1.28898e-07 3.5793867e-08 1.521308e-08 1.2782913e-08
000140 aa 35 55 33 1c 6b 15 33 59 4f 12 34 5b 3f 87 33
       4.9641734e-08 3.478918e-08 1.3626176e-07 6.297952e-08
000150 ea 51 11 34 22 9e 7a 33 7d 5f 9a 33 0b 43 fb 32
       1.3533977e-07 5.8351482e-08 7.188553e-08 2.9250733e-08
000160 20 f7 31 34 77 8f 83 33 8b 4b 11 33 86 76 c4 32
       1.6574313e-07 6.126259e-08 3.382915e-08 2.2871301e-08
000170 34 7b 83 32 04 3b a0 32 01 44 05 33 1a 58 07 34
       1.5306433e-08 1.8653289e-08 3.1028325e-08 1.2604906e-07
000180 fc b9 36 34 cc e4 3e 31 71 2f 86 32 8b 08 39 34
       1.7017732e-07 2.7778695e-09 1.5621227e-08 1.7232576e-07
000190 1c ca c4 32 ea 2c 98 32 18 22 8e 34 e1 e1 4d 33
       2.2909312e-08 1.7715553e-08 2.6474368e-07 4.7935718e-08
0001a0 14 0b 0c 32 3d 7c 2a 34 29 ba 93 33 89 8a 85 32
       8.151591e-09 1.5877681e-07 6.879083e-08 1.5546236e-08
0001b0 68 13 10 32 09 ca 93 32 04 d7 da 31 52 bb 86 33
       8.386316e-09 1.7204927e-08 6.3690795e-09 6.2739346e-08
0001c0 8a 22 3e 33 9f 47 cf 33 37 4c cd 33 95 8d 1c 34
       4.4269235e-08 9.6522164e-08 9.55992e-08 1.458014e-07
0001d0 5a 82 2d 32 23 42 cc 32 62 80 44 31 09 c1 6e 33
       1.0099564e-08 2.3778801e-08 2.859473e-09 5.5589258e-08
0001e0 e0 e1 ef 32 20 a2 8e 33 6c 5c fa 32 4a 9b d3 33
       2.7925978e-08 6.641881e-08 2.9145859e-08 9.8537e-08
0001f0 fe 9d 92 33 ba 08 99 33 c6 6d 68 33 21 27 6c 33
       6.8273934e-08 7.126205e-08 5.4116548e-08 5.498362e-08

exp_avg f4 [1, 2]
000000 18 19 ad 3b 8b fa a2 3b
       0.0052825324 0.0049737147

exp_avg_sq f4 [1, 2]
000000 9f cb 04 39 8a 4f 13 39
       0.00012664356 0.00014048643

exp_avg f4 [2, 128]
000000 5c b1 05 ba 50 30 89 bb 22 07 81 b9 a6 52 3d 3a
       -0.0005099976 -0.0041866675 -0.00024610112 0.00072220934
000010 4c ed 0e ba a0 a8 91 3a 0c 3d ad ba 1e a2 21 3b
       -0.000545223 0.0011112876 -0.0013217046 0.002466328
000020 67 3e b6 ba 20 6d 2f 37 23 83 1b bb b9 ea a6 39
       -0.0013904095 1.04562205e-05 -0.0023729287 0.0003183687
000030 01 e1 48 bb 94 9c 99 3a 62 79 9f bb 50 3d 94 38
       -0.003065169 0.0011719638 -0.004866765 7.06861e-05
000040 3c 87 9f bb 5d 66 c8 ba 0b ee 59 3a 34 a2 bb 3a
       -0.004868416 -0.0015289296 0.0008313364 0.0014315308
000050 de a3 c4 3a ec 4f 01 bb 70 a2 f3 ba 60 16 16 3a
       0.001500245 -0.0019731475 -0.0018587839 0.000572538
000060 d1 c3 9c bb dc e7 50 3a da 57 8d 3a 0e 05 41 3b
       -0.0047840853 0.000796912 0.0010783628 0.0029452476
000070 a9 5c 87 b9 d1 37 af b7 2b d2 01 b7 16 e6 d6 ba
       -0.00025818244 -2.0887617e-05 -7.737933e-06 -0.0016395475
000080 6e dc 98 3a e6 0e 1b 3a 28 99 c4 39 da 7e a2 3a
       0.0011662373 0.0005915001 0.00037498144 0.0012397424
000090 16 9d e8 39 b1 ff 81 3a 71 fb 72 3a 34 71 e1 b8
       0.00044367526 0.0009918121 0.0009269035 -0.00010749922
0000a0 74 41 39 39 c8 c9 50 3a 09 92 be 3a ef 47 f0 b9
       0.00017667358 0.0007964638 0.0014539371 -0.00045829962
0000b0 08 69 7d 3a e0 0f f0 b7 e0 7e 1d 37 5c d3 a0 b9
       0.0009666835 -2.8617622e-05 9.38747e-06 -0.00030675053
0000c0 ca 8f 4c ba 64 01 5c bb f0 ca 35 ba 19 c8 52 ba
       -0.00078034087 -0.0033570165 -0.0006934842 -0.0008040681
0000d0 1e 5f 96 3a 18 60 51 bb d2 b2 c1 b9 2f a0 df ba
       0.0011472439 -0.0031948145 -0.0003694506 -0.0017061288
0000e0 e3 32 c4 3a 14 ec ee ba 64 e7 9a 39 af ec 94 ba
       0.0014968779 -0.0018228316 0.00029545568 -0.0011362041
0000f0 1c f9 c6 ba 19 52 0c bb 94 a2 20 bb 5d 98 e5 3a
       -0.0015180442 -0.0021411239 -0.0024510967 0.0017516721
000100 53 26 01 3b 57 19 a6 ba 5d 33 51 bb cb 5d db ba
       0.001970668 -0.0012672347 -0.0031921484 -0.0016736327
000110 28 88 c9 b8 0a f4 45 3a a2 9d a3 b9 d2 80 89 ba
       -9.609788e-05 0.0007551318 -0.00031207228 -0.0010490662
000120 96 26 87 ba 10 93 9d b9 40 71 91 ba 38 6f de 3a
       -0.0010311182 -0.00030054944 -0.0011096373 0.0016970402
000130 78 a3 fc 39 f8 08 26 ba 7c 8d 1b bb 68 e9 c6 ba
       0.0004818698 -0.0006333734 -0.0023735454 -0.0015175762
000140 0c 81 6d ba c0 de 02 39 ec 40 b4 ba 50 bd 68 3a
       -0.0009060062 0.00012480747 -0.0013752258 0.00088783074
000150 04 7e 84 ba f6 c6 f1 3a 0d b7 a5 39 76 c8 19 bb
       -0.0010108356 0.0018446136 0.00031607636 -0.0023465431
000160 37 34 f6 ba 74 fc 77 ba e9 33 6d 3a 63 06 2d 3a
       -0.0018783872 -0.00094599207 0.0009048568 0.0006600378
000170 56 df cf 39 90 56 85 3a a1 a2 1c 3a 17 96 00 bb
       0.00039648515 0.0010172892 0.00059751613 -0.001962071
000180 58 a5 e8 ba c1 1d 4d ba 46 2e 25 b9 44 70 e7 ba
       -0.0017749472 -0.0007824563 -0.00015752864 -0.0017657359
000190 1b 0c 47 ba 41 95 02 bb 7c 1f 89 ba 59 49 1f 3b
       -0.00075930514 -0.0019925388 -0.0010461654 0.0024305193
0001a0 30 6d c7 3a 35 a5 3f bb 56 5a 76 bb 58 7c 37 ba
       0.0015215036 -0.0029242758 -0.0037590466 -0.00069994247
0001b0 5c bf 45 3a 33 c8 a8 bb 40 c5 f6 ba 30 1e 2b bb
       0.00075434684 -0.0051508187 -0.0018827096 -0.0026110522
0001c0 e8 d3 0a 39 a8 f6 16 ba 00 f8 17 bb 98 57 f3 38
       0.00013239647 -0.00057588005 -0.002318859 0.000116034586
0001d0 8a a7 8f 3a b8 50 f1 3a b3 3f 67 3a 15 bb 0d bb
       0.0010959965 0.0018410897 0.00088214426 -0.0021626402
0001e0 71 b5 18 ba b5 18 c9 ba 30 98 d0 ba 11 f6 8b 3a
       -0.0005825377 -0.0015342446 -0.0015914496 0.0010678192
0001f0 70 8d 4a bb aa 15 15 3a 80 71 c9 b8 6e 94 af ba
       -0.0030907057 0.0005687127 -9.605568e-05 -0.0013395676
000200 0c 6d 6f b9 03 52 6d ba 72 99 4e b9 64 83 7a 3a
       -0.0002283344 -0.0009053053 -0.00019702854 0.0009556322
000210 d8 15 61 ba 3d cf c6 39 ce 7d 98 39 7e c8 0f bb
       -0.0008586324 0.00037919907 0.0002908543 -0.002193957
000220 f2 fc 9f 3a d3 41 91 3a cb 82 30 3b 09 b7 fb ba
       0.0012206121 0.0011082239 0.0026933427 -0.0019204329
000230 84 8b b9 bb 62 1e dc ba 58 ee 84 3b fd 3f 81 b9
       -0.0056623835 -0.0016793723 0.004056733 -0.00024652472
000240 4f c2 4c 3b 0b 7b a0 3a b2 4b 92 3a 0e e4 59 39
       0.0031243747 0.0012243701 0.0011161475 0.0002077969
000250 26 e2 b1 ba 28 52 64 3a 19 15 0f bb d3 13 0a 39
       -0.0013571426 0.0008709752 -0.0021832644 0.0001316809
000260 d0 0c 24 3b 6b f5 0f 3b c2 b1 d9 ba 54 b8 5c bb
       0.002503205 0.002196635 -0.0016608762 -0.0033679204
000270 80 e0 08 bc 5e 86 db bb 57 1c 9d 39 e6 ad c3 ba
       -0.008354306 -0.0066993674 0.00029966488 -0.0014929145
000280 06 e2 b0 39 a0 2b e5 39 c3 1d 4a bb f4 44 19 bb
       0.00033737737 0.00043710787 -0.0030840493 -0.0023387047
000290 2c 79 22 bb 36 ee 8c ba 89 c4 77 ba 7c b1 13 3a
       -0.0024791462 -0.0010752145 -0.0009451588 0.0005634052
0002a0 e7 29 b4 bb a2 0e d0 b9 f7 fc b2 3a 00 0a 84 b5
       -0.005498159 -0.00039683754 0.0013655712 -9.837677e-07
0002b0 74 6f 6c bb 69 d8 98 bb 0c a0 52 39 44 d3 1f bb
       -0.0036077173 -0.00466447 0.00020086783 -0.0024387399
0002c0 24 b8 e4 bb 9f fb 16 3b 43 24 e5 b8 93 62 9e bb
       -0.006979959 0.0023038161 -0.00010926325 -0.0048335283
0002d0 00 8f 58 37 2c 02 f7 ba cf 7f a9 b9 35 4e 9f ba
       1.2907898e-05 -0.0018845252 -0.00032329417 -0.0012154045
0002e0 87 16 2b bb f3 f3 3b bb 54 d4 f7 3a f6 69 d5 3a
       -0.0026105957 -0.002867934 0.0018907883 0.0016282189
0002f0 b5 12 8d ba 1a 15 56 39 48 e9 44 bb 06 5c 87 39
       -0.0010763021 0.00020416491 -0.0030046273 0.0002581777
000300 b9 6d a6 bb 7f 8d 27 bb 73 23 1f ba 80 18 e4 36
       -0.005078998 -0.0025566516 -0.0006070651 6.7977817e-06
000310 c8 39 b0 bb d8 80 29 bc f2 7b 1e ba 58 28 5c 3a
       -0.005377982 -0.01034566 -0.0006045691 0.00083983457
000320 14 03 97 bb 9e c1 86 ba ae fe d4 ba 8e a1 9c 3a
       -0.0046085212 -0.0010281091 -0.0016250217 0.0011950003
000330 96 93 d0 3a 13 bd cc ba ec 96 b8 bb f8 6c e6 bb
       0.0015913125 -0.0015620313 -0.0056332257 -0.007032033
000340 42 2b 07 3a 88 fc 06 ba 44 b7 38 b9 aa 6b eb ba
       0.0005156287 -0.00051493244 -0.00017615879 -0.0017961164
000350 1f b3 69 ba d1 4f 79 3a 79 eb 94 b9 01 4f 1c 3b
       -0.0008914936 0.000951049 -0.000284042 0.00238508
000360 96 22 52 3b 95 f1 91 ba a0 63 63 b9 8e 5a 86 b9
       0.0032064072 -0.0011134619 -0.0002168552 -0.0002562594
000370 a5 a5 7c bb f0 ef 98 bb 40 9d ad ba 3a 41 2b ba
       -0.003855088 -0.0046672747 -0.0013245717 -0.0006532852
000380 55 7f 13 3a fe ab 81 bb ae 11 77 ba e0 9d 35 3b
       0.0005626579 -0.0039572706 -0.0009424937 0.002771251
000390 2a 4c fb 38 38 7f 62 bb bd 0d d7 bb d2 ac b0 bb
       0.00011982799 -0.0034560692 -0.006562917 -0.0053916955
0003a0 02 66 fe 39 e1 54 07 ba d9 53 7f 3a c6 0a 4c 3b
       0.00048522657 -0.0005162489 0.00097399723 0.003113435
0003b0 95 97 38 3b 38 42 27 bb 00 c9 57 39 5a 83 05 bb
       0.0028166522 -0.0025521647 0.00020578876 -0.002037248
0003c0 b9 fb 08 3a 5e 05 dc b8 b5 66 8e 3a cc 1b 92 bb
       0.0005225498 -0.00010491417 0.0010864349 -0.00445888
0003d0 aa c0 6f ba d5 82 c1 ba 50 90 be 3a 0a 88 43 bb
       -0.00091458356 -0.0014763722 0.0014538858 -0.0029835724
0003e0 35 ff 81 3b bd bf 97 ba 25 7f 8f 3a 07 3b 05 bc
       0.0039671906 -0.0011577528 0.0010947926 -0.008131749
0003f0 1e 0a e7 39 dc 38 df ba c3 f9 2b bb 48 4b 0a 3b
       0.0004406729 -0.0017030495 -0.00262414 0.0021102
