results/Short_HighBatch/3DBall/3DBall-349757.pt (torch, 49284 bytes, 32 tensors)

network_body.observation_encoder.processors.0.normalizer.running_mean f4 [8]
0	0xbb050ec2	-0.0020302986
1	0xbba0a4a3	-0.0049024387
2	0xbd87d46d	-0.06632314
3	0x40470d20	3.110176
4	0x3d98f8fb	0.07469364
5	0x3c488e44	0.01224095
6	0xbf1804e9	-0.5938249
7	0xbd8ae5f1	-0.06782139

network_body.observation_encoder.processors.0.normalizer.running_variance f4 [8]
0	0x44dcf771	1767.7325
1	0x44cdcc64	1646.3872
2	0x489eab8a	324956.3
3	0x47104ae0	36938.875
4	0x48ab1d47	350442.22
5	0x484da5c6	210583.1
6	0x48ac24e1	352551.03
7	0x48479059	204353.39

network_body.processors.0.normalizer.running_mean f4 [8]
0	0xbb050ec2	-0.0020302986
1	0xbba0a4a3	-0.0049024387
2	0xbd87d46d	-0.06632314
3	0x40470d20	3.110176
4	0x3d98f8fb	0.07469364
5	0x3c488e44	0.01224095
6	0xbf1804e9	-0.5938249
7	0xbd8ae5f1	-0.06782139

network_body.processors.0.normalizer.running_variance f4 [8]
0	0x44dcf771	1767.7325
1	0x44cdcc64	1646.3872
2	0x489eab8a	324956.3
3	0x47104ae0	36938.875
4	0x48ab1d47	350442.22
5	0x484da5c6	210583.1
6	0x48ac24e1	352551.03
7	0x48479059	204353.39

network_body._body_endoder.seq_layers.0.weight f4 [128, 8]
0	0x3ee11886	0.43964022
1	0xbe9518e8	-0.29120564
2	0xbdbf902c	-0.093536705
3	0xbeda09b0	-0.42585516
4	0xbc273b87	-0.0102070635
5	0xbc95dd53	-0.018294012
6	0x3f05b30a	0.52226317
7	0xbe0f0a90	-0.13968873
8	0xbe06bb7f	-0.13157462
9	0xbf55fdd6	-0.8359045
10	0xbe892ebc	-0.26793468
11	0x3e59b53d	0.21260543
12	0x3e78dc01	0.24302675
13	0xbdf92bac	-0.12166533
14	0x3f4dc07e	0.80371845
15	0xbe877a2b	-0.26460394
16	0xbd1098e7	-0.03530207
17	0x3de8de59	0.113705344
18	0xbe5fda69	-0.2186066
19	0xbea3b633	-0.31974944
20	0x3d81c32d	0.06336055
21	0x3eaf2675	0.34209028
22	0x3f22e3f4	0.6362908
23	0xbe3e0fea	-0.18560758
24	0xbd96d8eb	-0.073655926
25	0x3dc95d91	0.098322995
26	0x3f081c2a	0.53167975
27	0xbeb47d79	-0.35251978
28	0xbda6f0c6	-0.08151393
29	0xbdab7155	-0.08371226
30	0x3ebdbff6	0.37060517
31	0xbeb8ae94	-0.36070693
32	0x3f02c3bd	0.5107992
33	0xbec7157a	-0.38883573
34	0xbe019384	-0.12653929
35	0x3d206bc7	0.039165284
36	0x3e8c7dc2	0.27439696
37	0xbf0cf2c9	-0.5505796
38	0x3f05e504	0.52302575
39	0xbece1649	-0.40251377
40	0xbc86f431	-0.016473861
41	0x3d647004	0.05577089
42	0xbe175a97	-0.14780651
43	0xbe95475e	-0.2915601
44	0xbea34ba0	-0.31893635
45	0x3f0ffd84	0.5624621
46	0x3d9aa5e0	0.075511694
47	0xbead649a	-0.33865815
48	0xbc806d37	-0.015677078
49	0x3e580689	0.21096243
50	0x3e2b78fd	0.16745372
51	0x3ea2dbb6	0.3180825
52	0x3e823e6a	0.25438243
53	0xbe28cd2c	-0.16484517
54	0x3ec2d51a	0.3805321
55	0x3e08f39d	0.13374181
56	0xbe93f2ec	-0.28896272
57	0x3c9b752f	0.018976776
58	0xbea1f77e	-0.31634134
59	0xbca77d18	-0.020445392
60	0xbf03a4b9	-0.5142322
61	0xbf1dfb01	-0.61711127
62	0x3ebbe4b2	0.36697918
63	0xbf37d10d	-0.7180336
64	0x3e9cd42d	0.30630627
65	0x3efecbe5	0.49764934
66	0x3d81ccf1	0.063379176
67	0xbcdf3d2f	-0.027250854
68	0x3f4911d5	0.78542835
69	0xbe883fd4	-0.26611197
70	0x3b06dba8	0.0020577703
71	0xbc2a0235	-0.010376503
72	0xbe031158	-0.12799585
73	0x3d82421a	0.06360264
74	0x3f14d6cc	0.58140254
75	0x3e89b512	0.26895958
76	0xbd98f9dd	-0.07469533
77	0xbe78439e	-0.24244544
78	0xbdb8be53	-0.090206765
79	0xbe9d7772	-0.30755192
80	0x3eae196a	0.34003764
81	0xbf02e0d2	-0.511243
82	0xbe13dc2d	-0.14439459
83	0xbd7fe0ae	-0.06247013
84	0x3ef8aeba	0.48570806
85	0x3f7d9782	0.9905931
86	0xbe7d515f	-0.24738072
87	0x3eacf9da	0.33784372
88	0x3e2f9ffa	0.1715087
89	0x3e093633	0.13399582
90	0xbf466f90	-0.7751398
91	0x3f1d4dd4	0.6144688
92	0xbd9ab303	-0.07553675
93	0x3a8eb7a5	0.001088847
94	0x3cd00a9c	0.025395684
95	0xbd7da8c4	-0.061928526
96	0xbedcc24e	-0.43116993
97	0x3cce8e82	0.025214437
98	0xbe02804f	-0.12744258
99	0x3f24f264	0.6443236
100	0x3d66659b	0.056249242
101	0xbf3c7ef1	-0.736312
102	0xbe65b5d4	-0.22432643
103	0x3e1acec6	0.1511794
104	0xbe3fa8f8	-0.187168
105	0x3f2aeeb9	0.6677051
106	0xbcc0b6ca	-0.02352466
107	0xbd5bfaa1	-0.053705815
108	0xbec7f03f	-0.3905048
109	0xbe95b5d0	-0.29240274
110	0x3ec909b7	0.39265224
111	0xbe560a87	-0.20902453
112	0xbe63be62	-0.22240594
113	0xbe65ae66	-0.22429809
114	0x3e66c54f	0.22536205
115	0x3f1d8703	0.61534137
116	0x3f748323	0.955126
117	0x3f0aa732	0.5416137
118	0x3dc40038	0.09570354
119	0xbe04ac02	-0.12956241
120	0xbe3ab101	-0.18231584
121	0x3f0fe9f0	0.56216335
122	0x3ea12906	0.3147661
123	0x3df5a94f	0.11995184
124	0xbe2cc309	-0.16871275
125	0x3e442646	0.19155225
126	0xbea4ac98	-0.3216293
127	0x3dccbfc8	0.09997517
128	0xbdc32e75	-0.09530345
129	0x3e115b40	0.14194965
130	0x3eb76ee4	0.3582679
131	0x3dcaa0c1	0.098939426
132	0x3fa13f95	1.2597529
133	0xbc10d049	-0.008838722
134	0x3e874432	0.26419216
135	0xbdd5bd67	-0.10436516
136	0xbde38cdb	-0.111108504
137	0xbefe7759	-0.4970043
138	0x3e7404e1	0.23829986
139	0x3ec9502f	0.39318988
140	0x3e066ae2	0.1312671
141	0x3f144609	0.57919365
142	0xbe2d5abb	-0.16929142
143	0x3daf5680	0.085614204
144	0x3d74eac2	0.059794195
145	0xbe62cc69	-0.22148289
146	0xbdcb0417	-0.099128895
147	0xbe852ac1	-0.2600918
148	0xbe007dd0	-0.12547994
149	0x3f6b82e5	0.91996604
150	0x3e407dd5	0.18798001
151	0xbf0108ce	-0.5040406
152	0x3ec0f081	0.3768349
153	0x3e808b50	0.25106287
154	0x3e0c8232	0.1372154
155	0x3d1b1e07	0.037870433
156	0x3c0ca52c	0.008584302
157	0xbee262b2	-0.44215924
158	0x3ef6bc04	0.4819032
159	0xbeb3b9ad	-0.35102597
160	0xbdcfce86	-0.10146813
161	0xbe46ec55	-0.19426091
162	0x3e2888bc	0.1645841
163	0xbe6c3fcd	-0.23071213
164	0xbf05e986	-0.52309453
165	0xbd587a51	-0.052851025
166	0xbe116714	-0.14199477
167	0xbeb8d46b	-0.36099562
168	0x3de3bc62	0.111199155
169	0x3f424928	0.7589288
170	0xbe23417f	-0.15942954
171	0x3ea311c6	0.31849498
172	0x3ee09ba2	0.43868738
173	0x3f017474	0.5056832
174	0x3e130214	0.14356261
175	0x3f09f810	0.5389414
176	0xbdf3a12b	-0.11895975
177	0xbf3f82c2	-0.74808896
178	0x3edb5c07	0.4284365
179	0xbd50de3a	-0.05099318
180	0xbe5c8900	-0.21536636
181	0xbc27b565	-0.010236119
182	0xba187a59	-0.0005816571
183	0x3f03258a	0.51229155
184	0x3de5c9a1	0.11220098
185	0xbe240639	-0.16017999
186	0xbec05cc7	-0.37570783
187	0xbac3fd13	-0.0014952741
188	0x3dd5c009	0.104370184
189	0x3e19440e	0.14967367
190	0x3d4e2c58	0.05033526
191	0xbf0008f4	-0.5001366
192	0x3e89d6e5	0.26921764
193	0x3caf295f	0.021382032
194	0x3f6df3f0	0.92950344
195	0xbdc38b43	-0.095480464
196	0x3f4f5f2d	0.810046
197	0x3e9466c8	0.28984666
198	0x3ec9d3ca	0.39419395
199	0x3f0793ff	0.529602
200	0x3f3a092c	0.72670245
201	0x3e4c5cfa	0.19957343
202	0x3f39bd67	0.7255463
203	0xbe1a21d9	-0.15051974
204	0xbdca015b	-0.0986354
205	0xbe90a234	-0.2824875
206	0x3e8aae1b	0.27085957
207	0xbef1a248	-0.47194123
208	0x3d25ad60	0.040448546
209	0xbeeeed7f	-0.4666557
210	0x3e1c9d2d	0.15294333
211	0xbe941382	-0.28921133
212	0xbe824f6b	-0.25451216
213	0x3e301de1	0.17198898
214	0xbe8e0867	-0.27740785
215	0xbe377218	-0.17914617
216	0x3f2052e6	0.6262649
217	0xbe5cf592	-0.21578053
218	0xbe9e353b	-0.30899987
219	0xbf11cbee	-0.56951797
220	0xbcd84b4c	-0.026403092
221	0xbf0fe539	-0.5620914
222	0x3d988dcf	0.07448923
223	0xbf3e4a09	-0.7433172
224	0xbf0f022f	-0.55862707
225	0x3f118573	0.5684425
226	0xbea0c8af	-0.3140311
227	0x3d8f8a53	0.07008805
228	0xbf10a6e8	-0.5650468
229	0xbe41f82c	-0.18942326
230	0xbea82d45	-0.32847038
231	0x3ea19a07	0.31562826
232	0xbf550fc2	-0.8322717
233	0x3e6521e2	0.22376207
234	0x3e498413	0.19679289
235	0xbed282b2	-0.41115338
236	0x3d262d95	0.040570814
237	0xbf0a1780	-0.5394211
238	0xbe893977	-0.26801655
239	0xbe760c33	-0.24028091
240	0xbe979330	-0.29604483
241	0x3e80f264	0.2518493
242	0x3dec3392	0.11533274
243	0xbc53f202	-0.012936117
244	0xbe2f9687	-0.17147265
245	0x3eac0a6c	0.336017
246	0x3eb7c2f1	0.35890916
247	0xbd35b60e	-0.044363074
248	0xbe948d60	-0.2901411
249	0x3ea513a3	0.32241544
250	0xbe459748	-0.1929599
251	0x3da56dc5	0.080775775
252	0xbe472cf5	-0.19450743
253	0x3ed844eb	0.4224008
254	0x3eaf4f7d	0.34240332
255	0x3f1d8022	0.6152364

network_body._body_endoder.seq_layers.0.bias f4 [128]
0	0x3cdeed26	0.02721269
1	0x3d809b6a	0.06279643
2	0x3d5562a1	0.052096013
3	0x3d8ab17c	0.06772134
4	0x3cc887e6	0.024478864
5	0x3d8f0563	0.06983449
6	0x3b44bd4e	0.003002006
7	0x3d27eff8	0.041000336
8	0x3c20db9f	0.009817987
9	0x3d28d322	0.041216977
10	0x3d14b138	0.03630182
11	0x3d0686de	0.032843463
12	0x3cd04f11	0.025428327
13	0xbcf0fc3e	-0.029417153
14	0x3d4fc0c4	0.050720945
15	0x3d22e2e6	0.03976717
16	0x3c65a55c	0.0140164755
17	0x3d4d23f0	0.0500831
18	0x3d972b38	0.0738129
19	0x3cb0bbb1	0.021573873
20	0x3d8b5f68	0.06805307
21	0x3c8be13f	0.01707518
22	0x3d8d86bc	0.06910464
23	0x3d33b085	0.043869514
24	0x3c7bcf44	0.01536924
25	0x3d0007d4	0.031257465
26	0x3d1397d4	0.036033466
27	0x3d53dc8d	0.051724005
28	0xbcbd7d4c	-0.023131035
29	0x3cb3b551	0.021937044
30	0x3bd7793c	0.0065757316
31	0x3bf4e284	0.007473292
32	0x3d7ad928	0.061242253
33	0x3a924168	0.0011158409
34	0xbc79b546	-0.015240973
35	0x3d94bd05	0.07262615
36	0xbcf34330	-0.029695123
37	0x3cee5f91	0.029098304
38	0x3d874d4b	0.06606539
39	0x3d8828ed	0.06648431
40	0x3d8cade6	0.06869106
41	0x3b84f53b	0.004057554
42	0xbcff864b	-0.031191966
43	0x3d26a77e	0.040687077
44	0x3d219713	0.039450716
45	0x3ce62836	0.028095346
46	0x3d5a97c4	0.05336739
47	0xbba07347	-0.0048965546
48	0xbcbf8a7d	-0.023381466
49	0x3d61f741	0.05516744
50	0x3c29d9df	0.010366886
51	0x3d164880	0.036690235
52	0xbc0516e9	-0.008123138
53	0x3d1e69c4	0.038675085
54	0x3a7a91f4	0.0009558492
55	0x3c5fc9ff	0.013658999
56	0x3ce7c602	0.02829266
57	0xbccfe3ce	-0.02537718
58	0x3c431ea8	0.0119091645
59	0x3d8786c9	0.06617505
60	0x3d3fc431	0.046817962
61	0x3c86e3a9	0.016465979
62	0x3c4673ac	0.012112539
63	0xbcbb791d	-0.0228849
64	0x3d1fbd47	0.03899887
65	0xbb850d1a	-0.0040603997
66	0x3caa2b8a	0.020772714
67	0x3d7b048e	0.06128364
68	0xbca352a5	-0.019936869
69	0x3cd6fd7c	0.026243918
70	0x3d331253	0.043718647
71	0xbccb8266	-0.024842452
72	0x3d0c0618	0.0341855
73	0xbcde98e7	-0.027172519
74	0x3d7bef2d	0.061507393
75	0x3cdf7a62	0.027280036
76	0x3d6b5ec9	0.05746344
77	0x3ca9bb4d	0.020719195
78	0xbd11e61b	-0.035619836
79	0xba32d839	-0.0006822381
80	0x3d614b4b	0.055003446
81	0x3ce25cd4	0.027632155
82	0x3d2bdada	0.04195676
83	0x3d75b9e8	0.059991747
84	0x3b41f57a	0.0029595778
85	0x3d7a625d	0.061128963
86	0x3da88a0e	0.08229457
87	0xbcb0a944	-0.021565087
88	0x3d828fe9	0.06375105
89	0x3d14179c	0.03615533
90	0x3d2203c0	0.039554358
91	0x3d5ac125	0.053406853
92	0xbc4e8475	-0.012604822
93	0x3abd9dab	0.0014466544
94	0xbd11061f	-0.03540623
95	0xbc660556	-0.014039358
96	0x3da88eba	0.08230348
97	0x3d17f5de	0.03709971
98	0xbccb80a8	-0.024841622
99	0x3d877480	0.066140175
100	0xbcfef6cc	-0.031123541
101	0xbaefb097	-0.0018286881
102	0x3adac56c	0.0016690916
103	0xba37ba99	-0.0007008701
104	0x3c6d3d11	0.014479891
105	0x3d6d85a0	0.057988763
106	0x3ce4bc02	0.02792168
107	0xbcd245e2	-0.025668088
108	0x3be13b2e	0.00687351
109	0x3d4a0122	0.049317487
110	0x3cbcece4	0.023062177
111	0x3d47fc06	0.048824333
112	0x3d2e1908	0.04250434
113	0x3d56b753	0.052420925
114	0x3d809568	0.06278497
115	0x3c7c9107	0.015415437
116	0x3c762fed	0.015026075
117	0x3daacbe2	0.08339669
118	0xbd0838e6	-0.033257388
119	0xbc4dff00	-0.012573004
120	0x3d16f3c5	0.03685357
121	0x3cbc35d1	0.02297488
122	0xbd150189	-0.036378417
123	0x3d0adbbb	0.033900958
124	0x3d6cbc27	0.057796624
125	0xbcafa317	-0.021440072
126	0xbcad32c5	-0.021142373
127	0x3d54d2d7	0.051958885

action_model._continuous_distribution.log_sigma f4 [1, 2]
0	0xbcb931de	-0.022606786
1	0xbd1e3146	-0.03862121

action_model._continuous_distribution.mu.weight f4 [2, 128]
0	0xbd7322ef	-0.059359487
1	0x3ba9456c	0.0051657464
2	0x3d74ce55	0.059767086
3	0x3d2d3c1b	0.04229365
4	0xbd40ff9e	-0.047118776
5	0x3cb45349	0.02201237
6	0x3ce8e59c	0.028429799
7	0xbb695ee2	-0.0035609533
8	0xbd308dd1	-0.043103997
9	0x3d139a21	0.03603566
10	0x3d69324e	0.05693274
11	0xbd0109cf	-0.031503495
12	0xbc8d04e5	-0.017214248
13	0xbc9a82a7	-0.018861128
14	0x3d49e23a	0.049288012
15	0x3d50ebeb	0.05100624
16	0x3ccf857e	0.025332209
17	0x3d8710b8	0.06594986
18	0x3d19131d	0.037371743
19	0xbdd58171	-0.104250796
20	0x3c6b41f9	0.014358991
21	0x3b1a64e0	0.0023558661
22	0x3d6e7ca4	0.058224335
23	0xbd418a92	-0.04725129
24	0x3cf00b76	0.02930234
25	0xbcb96863	-0.022632783
26	0x3cee1e18	0.029067084
27	0xbcc0a3fc	-0.023515694
28	0x3c258bd8	0.010104142
29	0x3bcedc45	0.0063128793
30	0x3ca5090b	0.020145914
31	0x3cca1c5d	0.024671728
32	0xbd26e192	-0.040742464
33	0xbc47631c	-0.012169626
34	0x3ada9c0b	0.0016678585
35	0x3cb7e357	0.022447271
36	0xbcc62839	-0.024189102
37	0x3a5c52a5	0.0008404649
38	0xbcbd6e3f	-0.023123858
39	0x3d25ada8	0.040448815
40	0xbd0cb902	-0.034356125
41	0x3c928462	0.01788539
42	0xbc833a0d	-0.016018892
43	0xbb5beac8	-0.0033556689
44	0x3c7dc602	0.015489103
45	0xbd608b9a	-0.054820634
46	0x3c23cf22	0.009998115
47	0x3b7d6a9b	0.0038668278
48	0xbd0534bc	-0.032520995
49	0x3d59058d	0.05298381
50	0x3c5f24c1	0.013619603
51	0x3bd76a24	0.0065739322
52	0x3cbdd2f4	0.02317188
53	0x3d8e9823	0.069626115
54	0x3d091339	0.033465598
55	0xbd6a9851	-0.057274166
56	0x3d3b631c	0.045748815
57	0x3b879fc4	0.0041389186
58	0xbd467033	-0.048446845
59	0x3cc88d07	0.02448131
60	0x3d42ad4d	0.047528554
61	0xbd0f0870	-0.034920156
62	0xbd8d6613	-0.06904235
63	0xbd4fa1db	-0.050691467
64	0x391122c9	0.00013841236
65	0xbcef06bb	-0.029178014
66	0xbce81c22	-0.028333727
67	0xbc349d55	-0.011023839
68	0xbcca9a9f	-0.024731932
69	0xbd7c1226	-0.061540745
70	0x3ce0302e	0.027366724
71	0xbbd84071	-0.006599479
72	0xbc3c6e7d	-0.011500952
73	0xbbc64bfc	-0.0060515385
74	0x3d8203fb	0.063484155
75	0xbd73c393	-0.059512686
76	0x3d4a21cf	0.04934865
77	0x3d231a29	0.03981987
78	0xbbd6d13d	-0.006555705
79	0x3c6f09ec	0.014589768
80	0x3ce25235	0.02762709
81	0x3d032b43	0.03202368
82	0xbd4d8fcd	-0.050185967
83	0xbd02ebd0	-0.03196317
84	0x3cf1fd39	0.029539691
85	0xbcdc3325	-0.026879856
86	0x3d2e629c	0.04257451
87	0x3ba589a7	0.00505181
88	0x3d809902	0.06279184
89	0x3d56d4d8	0.052449077
90	0xb92e6662	-0.00016632074
91	0xbbe1e0f3	-0.006893271
92	0xbc423e69	-0.0118557
93	0x3ccfe941	0.025379779
94	0xbcfcf03b	-0.03087627
95	0xbd017a3e	-0.03161072
96	0x3d67599a	0.056481935
97	0x3c070870	0.008241758
98	0xbcd096f9	-0.025462614
99	0x3d87d9c7	0.066333346
100	0x3bf50092	0.0074768746
101	0xbcb4ac51	-0.022054823
102	0xbd8012f6	-0.062536165
103	0xbd4ada06	-0.04952433
104	0x3b956747	0.0045594308
105	0xbc5cc2ba	-0.013474161
106	0x3d2ac1e0	0.0416888
107	0xbc469476	-0.012120357
108	0xbc27c344	-0.010239426
109	0x3c86bf50	0.016448647
110	0x3c617772	0.013761388
111	0x3d38aa33	0.04508419
112	0x3d4d9446	0.050190233
113	0xbc708859	-0.014680945
114	0x3c4bd9ed	0.012442094
115	0xbd8116ab	-0.06303152
116	0xbc5abe4c	-0.013351034
117	0x3cae9c62	0.021314804
118	0x3b08cb2e	0.0020873058
119	0x3c647a58	0.013945185
120	0x3cbe3544	0.023218758
121	0x3d0d42f8	0.034487695
122	0xbc1960a9	-0.0093614245
123	0xbd84d978	-0.06486791
124	0x3d491b7e	0.049098484
125	0xbd465efe	-0.048430435
126	0xbd339512	-0.043843336
127	0x3d40b67a	0.047049023
128	0x3d4d877d	0.05017804
129	0x3d357175	0.044297654
130	0x3d2b34c1	0.041798357
131	0x3d5205ed	0.051275183
132	0x3cdf7473	0.027277207
133	0x3d231e7c	0.039823994
134	0xbcfc6793	-0.030811107
135	0x3d134880	0.035957813
136	0xbd591185	-0.052995224
137	0x3c88df61	0.016708078
138	0xbce69c1a	-0.028150607
139	0x3cd983ec	0.026552163
140	0x3ca05fbe	0.019576903
141	0xbc206652	-0.00979002
142	0xbcb6e7e7	-0.022327377
143	0xbccc7e70	-0.024962634
144	0xbd31de88	-0.043425113
145	0x375e760a	1.3259714e-05
146	0x3d8b4165	0.067995824
147	0x3d190f30	0.037368
148	0x3d800086	0.062501
149	0xbd6e5f83	-0.058196556
150	0x3cf6ce95	0.030127803
151	0x3d7b012d	0.06128042
152	0xbd81def3	-0.06341352
153	0x3d19b74b	0.037528317
154	0x3c679d63	0.014136645
155	0x3d3383a1	0.043826703
156	0xbd2bd6b5	-0.041952807
157	0x3bdaf51a	0.0066820504
158	0x3c391941	0.011297525
159	0xbcbefb0e	-0.023313072
160	0x3da2f39b	0.0795662
161	0x3bf5d49d	0.007502152
162	0xbccb2e2c	-0.02480229
163	0x3ca9da2c	0.020733915
164	0x3c1a65de	0.009423701
165	0x3cd1e6e4	0.025622793
166	0x3d300b63	0.04297961
167	0x3c8f806e	0.017517295
168	0x3d3c8f5e	0.046035163
169	0x3c90d551	0.017679842
170	0x3b002e2b	0.0019558768
171	0x3d0d7d3d	0.034543265
172	0x3b75a82d	0.0037484274
173	0xbd7806d3	-0.060553383
174	0x3cff651e	0.031176146
175	0xbc904ab0	-0.017613739
176	0xbd28c769	-0.041205797
177	0x3d216aad	0.039408375
178	0x3af55979	0.0018718682
179	0x3d2c86d9	0.04212079
180	0xbd294f6e	-0.041335516
181	0xbd2573a7	-0.040393498
182	0xbc200039	-0.009765678
183	0xbd850539	-0.06495137
184	0x3c80c7dc	0.0157203
185	0xbc51a871	-0.012796507
186	0x3cadba84	0.021207102
187	0x3d637509	0.055531535
188	0xbcdc76e7	-0.026912166
189	0x3c94d879	0.018169628
190	0xbb5341af	-0.0032235195
191	0x3c3cab06	0.011515385
192	0x3cadf279	0.021233784
193	0x3a3b349e	0.00071413245
194	0x3ca419db	0.02003186
195	0x3d8eb013	0.06967177
196	0xbd98f2ca	-0.07468183
197	0xbc8094a2	-0.015695874
198	0x3cc48f41	0.02399409
199	0xbcc4fe4b	-0.024047038
200	0x3c743fb8	0.01490777
201	0xbcdb4e04	-0.0267706
202	0xbc698055	-0.014251788
203	0x3cb4cb93	0.022069728
204	0x3d3c1dc6	0.04592683
205	0x3c6696a6	0.014074003
206	0xbcbcd550	-0.023050934
207	0x3c170fa6	0.0092200395
208	0x3d3450db	0.044022422
209	0xbd0d501f	-0.034500238
210	0x3d481bd1	0.048854653
211	0x3d330e1d	0.04371463
212	0xbda04528	-0.078256905
213	0x3d58d53f	0.052937742
214	0x3d1ca179	0.03823993
215	0xbd01505e	-0.031570785
216	0xbd5a84e1	-0.05334938
217	0xbcd93830	-0.02651605
218	0x3d383c42	0.04497934
219	0x3d2d04c0	0.042240858
220	0x3c9dd162	0.01926488
221	0x3bc8c58a	0.006127064
222	0xbccbcba2	-0.024877373
223	0xbd80e8dc	-0.062944144
224	0x3d5fa8ac	0.054604217
225	0x3bb144dc	0.00540982
226	0x3bbf1f2a	0.0058325725
227	0x3cea69e7	0.028614951
228	0xbcc5c124	-0.024139948
229	0x3c16bd9c	0.00920048
230	0xbd8d4f07	-0.06899839
231	0xbbf73621	-0.0075442945
232	0x3cc3c790	0.02389887
233	0x3da26dfd	0.07931135
234	0xbd0ce062	-0.034393676
235	0xbcb887a3	-0.022525614
236	0x3caccbf2	0.021093342
237	0x3c70d11f	0.014698296
238	0x3c073c9a	0.008254195
239	0x3bfdb132	0.0077420706
240	0xbc8bbe5f	-0.01705855
241	0x3d935f66	0.0719593
242	0x3d677789	0.056510482
243	0xbce544ba	-0.027986873
244	0x3cb2b96e	0.021816935
245	0x3cec77c3	0.0288657
246	0xbc54dbc2	-0.0129918475
247	0xbd4cee52	-0.050031967
248	0x3ce1bc4b	0.027555605
249	0xbd322679	-0.04349372
250	0xbd070626	-0.032964848
251	0x3ca6b3eb	0.020349463
252	0xbc9b4881	-0.018955471
253	0xbd2fc13a	-0.042908885
254	0x3b964a00	0.004586458
255	0x3c7a1fef	0.015266403

action_model._continuous_distribution.mu.bias f4 [2]
0	0x3cd394bd	0.02582776
1	0x3d238520	0.03992188

exp_avg f4 [128, 8]
0	0xb9031170	-0.0001249963
1	0xb8e47ee9	-0.00010895526
2	0xb7b68d68	-2.1761938e-05
3	0xb929ba24	-0.00016186439
4	0x380c40fb	3.343912e-05
5	0x3962af5e	0.00021618369
6	0x36b564f0	5.405971e-06
7	0x381e6569	3.776458e-05
8	0xb686df04	-4.0194736e-06
9	0xb7615a58	-1.343208e-05
10	0x385720a2	5.1290386e-05
11	0xb8c605f4	-9.4424846e-05
12	0xb8cc0af4	-9.729518e-05
13	0x38fce8b5	0.000120596414
14	0xb88b571a	-6.6442604e-05
15	0xb900d8df	-0.00012287822
16	0xb93ec4a8	-0.00018193072
17	0x389157bf	6.930483e-05
18	0x38faea8a	0.00011964615
19	0x38ccadef	9.759876e-05
20	0xb904dd91	-0.00012671041
21	0xb7787918	-1.4810146e-05
22	0xb89fdba3	-7.622621e-05
23	0xb9376870	-0.00017491146
24	0xb8f55f20	-0.00011700229
25	0x38257ce8	3.9455394e-05
26	0x37e5c633	2.7391221e-05
27	0x38a60f06	7.918295e-05
28	0xb8b14421	-8.452708e-05
29	0xb7a76c04	-1.995825e-05
30	0xb87f34e1	-6.0845985e-05
31	0xb894b29c	-7.0904585e-05
32	0xb8d350d5	-0.0001007632
33	0xb8dbbd7e	-0.000104780294
34	0xb83e5dd7	-4.5386925e-05
35	0xb91a18a8	-0.0001469577
36	0x37eef234	2.8484596e-05
37	0x3972cb1f	0.00023154587
38	0x36883278	4.058991e-06
39	0x38674e93	5.514787e-05
40	0xb55c8980	-8.2156475e-07
41	0xb79abcc2	-1.8446128e-05
42	0x39166a0e	0.00014344623
43	0x391b1c92	0.00014792595
44	0xb82cba53	-4.1181524e-05
45	0x37dd38fd	2.637179e-05
46	0x389486a1	7.0822665e-05
47	0xb819989c	-3.662017e-05
48	0x388e361f	6.7811685e-05
49	0x3826c7f1	3.9763694e-05
50	0xb6c837a2	-5.966941e-06
51	0x390b9284	0.00013310654
52	0x38091437	3.2682172e-05
53	0xb943bd9a	-0.00018667281
54	0x380db95d	3.3789653e-05
55	0x3772e192	1.4476844e-05
56	0x390a0024	0.00013160758
57	0xb82113c3	-3.8403796e-05
58	0x393fdf08	0.00018298265
59	0x3883aad0	6.278383e-05
60	0xb75557cd	-1.2716232e-05
61	0x3903bce9	0.00012563508
62	0x37fa9732	2.9872728e-05
63	0x3798d1ed	1.8217566e-05
64	0x399bc0b2	0.00029707473
65	0xb7f69509	-2.9394885e-05
66	0xb8e2eefe	-0.000108210355
67	0x3894d0e9	7.0961025e-05
68	0x393d8a49	0.0001807596
69	0xb880dcbc	-6.1446306e-05
70	0x365d2878	3.2955122e-06
71	0x394049eb	0.00018338083
72	0xb86fa4e8	-5.713562e-05
73	0x3849a9bb	4.808021e-05
74	0xb696d9f2	-4.4957205e-06
75	0x372528b5	9.844244e-06
76	0xb85169bd	-4.992796e-05
77	0xb7ea3391	-2.7918986e-05
78	0xb7a75bbd	-1.995067e-05
79	0xb894995a	-7.085754e-05
80	0x36d16ffa	6.241721e-06
81	0x393c5c48	0.00017963455
82	0x37e64d08	2.7454007e-05
83	0xb78192d4	-1.544637e-05
84	0xb8c0506d	-9.170254e-05
85	0xb81de835	-3.7647977e-05
86	0xb9a16a46	-0.00030787493
87	0x374ea4e0	1.2316945e-05
88	0xb7c357e3	-2.3286737e-05
89	0xb89d502a	-7.501275e-05
90	0x37b6e75b	2.1803824e-05
91	0xb887b194	-6.470378e-05
92	0xb42f3600	-1.631779e-07
93	0x39265362	0.00015862056
94	0x385e7598	5.3038442e-05
95	0x3725c3c0	9.880343e-06
96	0xb7ba02cb	-2.2174228e-05
97	0xb72169eb	-9.621009e-06
98	0x37f80f3a	2.9570994e-05
99	0xb8961cc2	-7.157914e-05
100	0xb838b852	-4.404068e-05
101	0x38f8ba51	0.00011860266
102	0x38615265	5.3720916e-05
103	0xb7a599d1	-1.974116e-05
104	0x3802e67d	3.1209074e-05
105	0xb6bdefe0	-5.660564e-06
106	0xb84714bf	-4.746462e-05
107	0xb7e199fc	-2.6893795e-05
108	0x37128441	8.733071e-06
109	0xb784f8d5	-1.5851498e-05
110	0xb7647b28	-1.3618534e-05
111	0x38110fe6	3.45855e-05
112	0xb816e3ca	-3.5974932e-05
113	0x383b90d2	4.471915e-05
114	0x36b49aa8	5.3824224e-06
115	0x38993f8b	7.307444e-05
116	0x37e9f0bc	2.7887865e-05
117	0xb9495e9d	-0.000192041
118	0xb913cc8b	-0.0001409521
119	0xb71c31b0	-9.309893e-06
120	0xb85d3bb2	-5.27461e-05
121	0x38a48f68	7.846841e-05
122	0xb88e5ba3	-6.788156e-05
123	0x3656ec8b	3.202617e-06
124	0xb777ec98	-1.47774335e-05
125	0xb74a384e	-1.2053248e-05
126	0xb90afa3b	-0.00013253924
127	0xb7d04a3a	-2.4830097e-05
128	0x38ead793	0.00011198143
129	0xb7a34b13	-1.9466073e-05
130	0x362f9690	2.616467e-06
131	0x39224622	0.0001547565
132	0x38de904b	0.000106126616
133	0xb94c9f94	-0.00019514404
134	0xb714c38c	-8.867017e-06
135	0x389fef6a	7.626305e-05
136	0xb8770c4e	-5.890085e-05
137	0x390c6a80	0.00013391115
138	0x37408824	1.14757895e-05
139	0xb7fe4708	-3.0312236e-05
140	0xb8b66b7a	-8.698455e-05
141	0xb88ade98	-6.621814e-05
142	0xb962b27b	-0.00021619529
143	0xb899ebe8	-7.3395495e-05
144	0xb89bfe25	-7.438314e-05
145	0xb815f82f	-3.5755507e-05
146	0x38d94c1e	0.00010361544
147	0x394a9612	0.00019320127
148	0xb8d13f8e	-9.9777346e-05
149	0xb830df25	-4.216949e-05
150	0xb723c0a6	-9.760412e-06
151	0xb88c1a57	-6.6806264e-05
152	0xb8a21993	-7.7295255e-05
153	0xb84d7b27	-4.8990503e-05
154	0xb72f23e0	-1.0439166e-05
155	0xb9af79a2	-0.00033469225
156	0x3867a4be	5.522812e-05
157	0x39fa652a	0.0004775909
158	0xb888eddd	-6.529291e-05
159	0x391ef7a3	0.00015160306
160	0x390c5a41	0.00013385063
161	0xb842cec7	-4.644578e-05
162	0x39741498	0.00023277325
163	0x3937491a	0.00017479472
164	0xb7cf571e	-2.471689e-05
165	0x389dcdee	7.524701e-05
166	0x39572809	0.00020518912
167	0xb79af2e6	-1.8471339e-05
168	0x39712830	0.00022998522
169	0x385f491a	5.3235424e-05
170	0xb8e603b3	-0.00010967944
171	0x38cefb02	9.869599e-05
172	0x38bfc7b1	9.144785e-05
173	0xb8d1f0dd	-0.00010010761
174	0xb77fdec1	-1.5251048e-05
175	0x391f0c6d	0.0001516805
176	0x37689ed2	1.3865256e-05
177	0x3919a19e	0.00014651424
178	0x38c0df02	9.196812e-05
179	0x37d2ccd4	2.5129331e-05
180	0xb913e2f2	-0.00014103556
181	0x37bee348	2.2755601e-05
182	0xb800e8e6	-3.073448e-05
183	0xb92d4f5c	-0.0001652813
184	0x3907416d	0.00012898976
185	0xb91d9635	-0.00015028643
186	0x393268b8	0.00017014414
187	0x38152e76	3.556764e-05
188	0x36be6cf0	5.6751232e-06
189	0x392b1253	0.00016314657
190	0x392983ce	0.00016166197
191	0x3890dc76	6.907519e-05
192	0x39977a1f	0.00028891952
193	0xb82513c0	-3.935746e-05
194	0x3884acd4	6.326442e-05
195	0x39558493	0.0002036265
196	0x390fdf02	0.0001372062
197	0xb93b443c	-0.00017859129
198	0xb8794391	-5.9429152e-05
199	0x391ec109	0.00015139965
200	0xb95961ae	-0.00020731121
201	0xb6deef93	-6.6440057e-06
202	0xb79b7ba6	-1.8535018e-05
203	0xb928b32d	-0.00016088477
204	0xb7fe60d7	-3.0324254e-05
205	0x392c0511	0.00016405086
206	0xb546e6c4	-7.4096556e-07
207	0xb7df0f5b	-2.6590822e-05
208	0x37b2932f	2.1287791e-05
209	0x3806ec41	3.216812e-05
210	0x3863968a	5.4261218e-05
211	0x38997e20	7.319101e-05
212	0xb82c6f92	-4.1111904e-05
213	0x378730a6	1.6115908e-05
214	0x37abbbd2	2.047225e-05
215	0xb836b372	-4.3559303e-05
216	0xb8af094b	-8.346381e-05
217	0xb8482095	-4.771406e-05
218	0x38c19986	9.231553e-05
219	0xb8324383	-4.2501382e-05
220	0xb812a290	-3.496051e-05
221	0x391f18c8	0.00015172653
222	0x390248f0	0.00012424937
223	0xb4b01700	-3.279929e-07
224	0xb92a8231	-0.00016260963
225	0x388311f7	6.249913e-05
226	0xb98899f1	-0.00026054637
227	0xb8877173	-6.458433e-05
228	0xb7167f75	-8.970373e-06
229	0xb8936608	-7.028511e-05
230	0xb928ffbd	-0.00016116998
231	0x379e125f	1.8843622e-05
232	0x37b51a48	2.158912e-05
233	0x375171f4	1.24839025e-05
234	0x382158b4	3.8468002e-05
235	0x37b21f2a	2.1233765e-05
236	0xb636ca4d	-2.7237868e-06
237	0x37957e6f	1.782106e-05
238	0x37da3ba5	2.60154e-05
239	0xb740906e	-1.1477719e-05
240	0xb867cb62	-5.5264107e-05
241	0x380fcfc3	3.428735e-05
242	0x37e5b689	2.7383927e-05
243	0x37b32bf2	2.1358926e-05
244	0xb7ea69fc	-2.7944327e-05
245	0x371a4a80	9.196461e-06
246	0xb73489dd	-1.0760935e-05
247	0xb82eee09	-4.170652e-05
248	0xb891c69e	-6.951134e-05
249	0x389ea836	7.565359e-05
250	0xb86ca3dc	-5.641939e-05
251	0xb756e378	-1.2808356e-05
252	0xb78c7937	-1.6745746e-05
253	0xb73ff07d	-1.144048e-05
254	0xb776b1af	-1.4704113e-05
255	0xb756134c	-1.2759887e-05

exp_avg_sq f4 [128, 8]
0	0x33b260ea	8.3063995e-08
1	0x334353c9	4.5478178e-08
2	0x33983f6f	7.08959e-08
3	0x3359b9dc	5.0693288e-08
4	0x33973a1c	7.0420555e-08
5	0x33ba1c2f	8.6664265e-08
6	0x334468ee	4.573024e-08
7	0x334c65ea	4.759014e-08
8	0x333cc952	4.395526e-08
9	0x32df4819	2.5993403e-08
10	0x330de3c9	3.303629e-08
11	0x32ca9bea	2.3586797e-08
12	0x334cd88b	4.7694396e-08
13	0x32af660e	2.041909e-08
14	0x32949936	1.729914e-08
15	0x32f98a72	2.9050373e-08
16	0x338a446d	6.438572e-08
17	0x333cf47c	4.399452e-08
18	0x3349ace9	4.695622e-08
19	0x32a06b45	1.8675232e-08
20	0x3345a5a6	4.6018293e-08
21	0x333fa04a	4.4616435e-08
22	0x32fbae8e	2.9299624e-08
23	0x3312f9bd	3.422041e-08
24	0x32fab38b	2.9185477e-08
25	0x32f72234	2.8770138e-08
26	0x32ca7ba5	2.3572122e-08
27	0x3283339f	1.5273882e-08
28	0x32d2877c	2.4508829e-08
29	0x32ac41f1	2.0053422e-08
30	0x32c479c2	2.2872772e-08
31	0x32bc02e5	2.1887397e-08
32	0x334eafd9	4.8123045e-08
33	0x3308fc80	3.1894615e-08
34	0x331f4c75	3.708961e-08
35	0x32c006d4	2.2354847e-08
36	0x33512f6c	4.8704734e-08
37	0x3323fedc	3.8183188e-08
38	0x3277149d	1.4381979e-08
39	0x32bfdd62	2.2336e-08
40	0x32470535	1.15845085e-08
41	0x32639bea	1.324859e-08
42	0x3215ba4d	8.715301e-09
43	0x321f469a	9.271071e-09
44	0x3237fcae	1.0709455e-08
45	0x31e90b6f	6.7824923e-09
46	0x326caf14	1.3776816e-08
47	0x320106dd	7.510349e-09
48	0x333fb6e5	4.4636995e-08
49	0x32eb5ff5	2.7401237e-08
50	0x3301dd60	3.0236492e-08
51	0x32af836f	2.043245e-08
52	0x33080912	3.1673217e-08
53	0x33012c79	3.00756e-08
54	0x322dc46c	1.01145865e-08
55	0x32b2f2df	2.0832372e-08
56	0x32c80168	2.3283704e-08
57	0x324f91d5	1.2082144e-08
58	0x329a56c5	1.7967418e-08
59	0x325a250a	1.2697692e-08
60	0x324df299	1.1987731e-08
61	0x3248e88f	1.169441e-08
62	0x3255dab7	1.2447962e-08
63	0x3203fc14	7.6825195e-09
64	0x33f0c763	1.1212139e-07
65	0x33cc72c8	9.520369e-08
66	0x33a2068a	7.544902e-08
67	0x33a52b34	7.69127e-08
68	0x33f1a4cd	1.1252414e-07
69	0x335d31de	5.1500926e-08
70	0x33b88de1	8.593975e-08
71	0x33901e9f	6.7110925e-08
72	0x32b51030	2.1078534e-08
73	0x326ae929	1.3673607e-08
74	0x328929e3	1.5967947e-08
75	0x32246a2e	9.570199e-09
76	0x322cb6c5	1.0053275e-08
77	0x322f05cc	1.0187659e-08
78	0x3225c78d	9.649637e-09
79	0x31c21293	5.6482548e-09
80	0x336fafde	5.5806474e-08
81	0x336b9fd4	5.4860564e-08
82	0x3367b7a7	5.395091e-08
83	0x339aa3c7	7.200975e-08
84	0x33bbf8c8	8.753119e-08
85	0x330e01c3	3.3063554e-08
86	0x33a7af6a	7.808451e-08
87	0x334924f2	4.683256e-08
88	0x33237863	3.8060886e-08
89	0x3303ccd9	3.0687122e-08
90	0x330c56d4	3.267526e-08
91	0x32b919e3	2.1548606e-08
92	0x3306128d	3.1216178e-08
93	0x3294c889	1.732066e-08
94	0x326b394f	1.3691831e-08
95	0x3282000f	1.5134018e-08
96	0x32b318f2	2.0849686e-08
97	0x32c4399c	2.28436e-08
98	0x32a076e3	1.8680515e-08
99	0x328e468c	1.6563057e-08
100	0x32b9969e	2.1605327e-08
101	0x325c75d1	1.2832474e-08
102	0x328420c8	1.538173e-08
103	0x326801f4	1.3504621e-08
104	0x329b5896	1.8084659e-08
105	0x327c9d93	1.4704159e-08
106	0x321e9f50	9.233034e-09
107	0x31cdbd54	5.9878094e-09
108	0x327c5269	1.46870685e-08
109	0x323590c6	1.0568504e-08
110	0x320ed84b	8.314667e-09
111	0x325da78f	1.29019915e-08
112	0x337fa166	5.9518605e-08
113	0x332bf85b	4.0039918e-08
114	0x3348db90	4.676582e-08
115	0x3317374e	3.5207727e-08
116	0x3393592b	6.8614405e-08
117	0x3301e58f	3.0243935e-08
118	0x32dbcaf3	2.5587246e-08
119	0x330994fb	3.2033295e-08
120	0x336f18e7	5.5669172e-08
121	0x33612c9f	5.2427477e-08
122	0x335fd7da	5.211755e-08
123	0x33096ccd	3.1996752e-08
124	0x32fdbec0	2.953982e-08
125	0x32f8fae4	2.8985092e-08
126	0x3340f1aa	4.4923276e-08
127	0x32bc61f8	2.1930632e-08
128	0x334c03b6	4.7500826e-08
129	0x332e7858	4.0621984e-08
130	0x3311b704	3.3926895e-08
131	0x3325137d	3.843478e-08
132	0x33967359	7.005901e-08
133	0x32c0d93e	2.2450532e-08
134	0x3322034d	3.7721566e-08
135	0x33373946	4.2660098e-08
136	0x3398ba65	7.1119565e-08
137	0x337140da	5.6171167e-08
138	0x3373df4e	5.678094e-08
139	0x33870a89	6.288344e-08
140	0x3399c573	7.1605335e-08
141	0x3328716b	3.92187e-08
142	0x337de4e8	5.9114342e-08
143	0x33161057	3.4939458e-08
144	0x3331a8b7	4.136447e-08
145	0x3342eab7	4.5382617e-08
146	0x3309f338	3.2119004e-08
147	0x330583af	3.108624e-08
148	0x33539657	4.9264e-08
149	0x32fe4455	2.9600566e-08
150	0x336fb1bb	5.580817e-08
151	0x3331d811	4.1407535e-08
152	0x348b3698	2.593049e-07
153	0x341ff896	1.4898464e-07
154	0x34490853	1.8722612e-07
155	0x33c18e0e	9.0131024e-08
156	0x33fd7a57	1.1803484e-07
157	0x346640a1	2.1443931e-07
158	0x33888a84	6.358189e-08
159	0x33a1b923	7.530823e-08
160	0x3324a41f	3.8333493e-08
161	0x331632bb	3.4970736e-08
162	0x33039d99	3.064415e-08
163	0x3321ad07	3.76431e-08
164	0x33208bbf	3.738e-08
165	0x32bf53e8	2.2273483e-08
166	0x33794c2d	5.804411e-08
167	0x32eaf623	2.7353115e-08
168	0x33bae8f1	8.703672e-08
169	0x33b05a6a	8.212085e-08
170	0x336bda45	5.4913716e-08
171	0x332933be	3.9395438e-08
172	0x33bef09b	8.89133e-08
173	0x32de8e02	2.590878e-08
174	0x32f2d458	2.826907e-08
175	0x338d08d6	6.5674314e-08
176	0x336487ad	5.3208783e-08
177	0x338a2105	6.432132e-08
178	0x3346ab84	4.625646e-08
179	0x33888bda	6.3584324e-08
180	0x339559d3	6.954692e-08
181	0x33188df3	3.551936e-08
182	0x33983fb7	7.089641e-08
183	0x332f3d49	4.08011e-08
184	0x33ac1227	8.012676e-08
185	0x33537751	4.9235783e-08
186	0x33a941b3	7.8816264e-08
187	0x335928b4	5.056127e-08
188	0x339d3946	7.3213e-08
189	0x3358a3f1	5.0440523e-08
190	0x335b18cc	5.1012464e-08
191	0x332213a7	3.7736438e-08
192	0x33d3c637	9.861508e-08
193	0x33d24f27	9.793285e-08
194	0x33854cca	6.207263e-08
195	0x339157b2	6.76804e-08
196	0x340b99df	1.3001362e-07
197	0x33242f8e	3.8227476e-08
198	0x339b01e4	7.218094e-08
199	0x33df0b4b	1.0386301e-07
200	0x3310faa2	3.3755562e-08
201	0x32c74ef7	2.3202558e-08
202	0x32c27141	2.2636074e-08
203	0x328a8cab	1.6129283e-08
204	0x329bc819	1.8135369e-08
205	0x329a7825	1.7982595e-08
206	0x3280bf25	1.4988084e-08
207	0x3284ac0e	1.5445064e-08
208	0x3241d0d0	1.1281557e-08
209	0x323389ba	1.0450487e-08
210	0x323ac429	1.0871227e-08
211	0x329cebd9	1.8268041e-08
212	0x3248c8fe	1.16872325e-08
213	0x32181d14	8.854176e-09
214	0x32e29211	2.6376286e-08
215	0x31ec5f6a	6.8793513e-09
216	0x32cbbace	2.371726e-08
217	0x32a8f934	1.9671099e-08
218	0x32bffbe9	2.2349882e-08
219	0x33123b79	3.4047364e-08
220	0x32d5f2bf	2.4906852e-08
221	0x329c7c2d	1.8217259e-08
222	0x333946ac	4.3137945e-08
223	0x328b1e75	1.619558e-08
224	0x335470de	4.946275e-08
225	0x336702d9	5.378647e-08
226	0x3346d2b4	4.62921e-08
227	0x33133f0a	3.428344e-08
228	0x333f976b	4.4608367e-08
229	0x32ca6dab	2.3565766e-08
230	0x33472e1c	4.6375234e-08
231	0x33013810	3.008614e-08
232	0x3129ead8	2.472623e-09
233	0x30b56fa7	1.3201217e-09
234	0x30ff8f42	1.8594408e-09
235	0x30f2af5f	1.7657661e-09
236	0x30e60914	1.6737283e-09
237	0x30a0d61e	1.1702388e-09
238	0x31228df9	2.3654805e-09
239	0x308f543d	1.0428561e-09
240	0x3222c8fb	9.475339e-09
241	0x31f8b42c	7.238233e-09
242	0x31e63595	6.6999726e-09
243	0x3185a0e6	3.8891015e-09
244	0x31b70fed	5.3278115e-09
245	0x31cf84dc	6.0395973e-09
246	0x316be41e	3.432667e-09
247	0x318e4cf8	4.1414943e-09
248	0x328ec100	1.6618742e-08
249	0x3289daaa	1.6048336e-08
250	0x327cea2a	1.4721573e-08
251	0x320325de	7.633814e-09
252	0x326fd268	1.3959472e-08
253	0x320c54e0	8.168371e-09
254	0x31aaa7fb	4.9667483e-09
255	0x323efa4d	1.1116367e-08

exp_avg f4 [128]
0	0xb88da6d0	-6.754475e-05
1	0xb9881286	-0.00025953742
2	0xb9b23c5f	-0.00033995786
3	0xb96f45c6	-0.00022818809
4	0xb69632be	-4.4762555e-06
5	0xb960265c	-0.00021376595
6	0x38f0e6f7	0.00011487112
7	0xb93970a4	-0.00017684937
8	0x39e3bce4	0.00043437548
9	0xb894e87e	-7.100495e-05
10	0xb88f0c0a	-6.821014e-05
11	0xb91250f0	-0.00013953797
12	0xb8ec8261	-0.00011277642
13	0x3867139a	5.5092947e-05
14	0x3754fa70	1.2694494e-05
15	0x38e18f26	0.000107554995
16	0x393a9091	0.00017792197
17	0xb912f02c	-0.00014013116
18	0xb9a20071	-0.00030899377
19	0xb8825c6e	-6.2160994e-05
20	0xb98e9ebf	-0.00027202626
21	0x39c07ddc	0.00036714866
22	0xb9a64872	-0.00031715963
23	0xb9811d49	-0.00024626617
24	0x3948f7e9	0.0001916584
25	0xb90488d2	-0.0001263947
26	0xb8e9466f	-0.00011123425
27	0xb96da954	-0.00022665161
28	0x39854de3	0.00025425767
29	0xb811f310	-3.4797064e-05
30	0xb893d171	-7.048518e-05
31	0x38742cc0	5.821581e-05
32	0xb9aa7745	-0.0003251379
33	0xb7a5200f	-1.9684461e-05
34	0x39297a36	0.00016162623
35	0xb8c82b86	-9.54485e-05
36	0x35ba228e	1.3868137e-06
37	0xb908e771	-0.0001305619
38	0xb954db3b	-0.00020299565
39	0xb91008e8	-0.00013736228
40	0xb938d44d	-0.00017626696
41	0xb8c01f95	-9.161156e-05
42	0xb70adfa3	-8.2775105e-06
43	0xb9554bb8	-0.0002034147
44	0xb82907e2	-4.030008e-05
45	0x3a12bc69	0.00055975333
46	0xb8fc8c2f	-0.000120424076
47	0x38e60a90	0.00010969222
48	0x399acffd	0.00029528132
49	0xb993241c	-0.00028064928
50	0xb846a60a	-4.7361515e-05
51	0xb985ebdb	-0.00025543463
52	0x396e5845	0.00022730332
53	0x37b091c4	2.1048712e-05
54	0x381d3a40	3.7485966e-05
55	0x3a1a5914	0.00058879075
56	0xb8e63710	-0.00010977511
57	0x388b5408	6.6436885e-05
58	0xb73b4b99	-1.116367e-05
59	0xb996f9e6	-0.00028796418
60	0x38a09bf5	7.658444e-05
61	0xb78f7a5a	-1.7103903e-05
62	0x39923417	0.000278861
63	0xb869e7d1	-5.5767425e-05
64	0xb8f6d909	-0.0001177062
65	0x385b6f58	5.2317366e-05
66	0xb87e9dde	-6.0705344e-05
67	0xb997aa21	-0.0002892772
68	0x3a175f97	0.0005774437
69	0x398f7de8	0.00027368893
70	0xb908c4f8	-0.00013043347
71	0x39067889	0.00012824139
72	0xb8859d8d	-6.37128e-05
73	0x39153930	0.00014231051
74	0x3816eb57	3.5981964e-05
75	0xb666c2f8	-3.4386157e-06
76	0xb99239d3	-0.00027890372
77	0xb8bb7892	-8.939313e-05
78	0x3929c3e3	0.0001619007
79	0xb84fc88c	-4.953942e-05
80	0xb97b6083	-0.00023973179
81	0x38c21c47	9.255908e-05
82	0xb9303429	-0.00016804099
83	0xb93f8cb5	-0.00018267597
84	0x39c53be1	0.0003761938
85	0xb94cbe6e	-0.00019525897
86	0xb9745064	-0.00023299601
87	0x39145660	0.00014146557
88	0x393a3eb7	0.00017761705
89	0x38877d26	6.460612e-05
90	0xb947fc1f	-0.00019072041
91	0xb95138c9	-0.00019952947
92	0xb8c76e31	-9.509584e-05
93	0xb8223d08	-3.868065e-05
94	0x3947b773	0.00019046459
95	0x39ee71bb	0.00045479633
96	0xb9c86b11	-0.00038226743
97	0xb819110c	-3.649392e-05
98	0x37bdc32a	2.2621436e-05
99	0xb98ef7e6	-0.0002726905
100	0x38e88fd5	0.00011089413
101	0x371d27fd	9.36724e-06
102	0x3a4f9ce3	0.0007919801
103	0x388a1e3e	6.585986e-05
104	0xb8bd1424	-9.015974e-05
105	0xb9938066	-0.0002813369
106	0x3839eab8	4.4326036e-05
107	0x391158ec	0.00013861404
108	0xb8948a12	-7.0829075e-05
109	0xb8fbf7f3	-0.00012014797
110	0xb8b897f8	-8.80211e-05
111	0xb933514b	-0.00017101054
112	0x37ac03c6	2.0505755e-05
113	0xb9b3413a	-0.00034190138
114	0xb98b2734	-0.00026541355
115	0x39c6c675	0.00037913365
116	0xb8e2e4ba	-0.000108191234
117	0xb8f5bbc0	-0.000117174815
118	0x3889afa2	6.565383e-05
119	0x398e77be	0.00027173565
120	0xb90d97af	-0.00013503314
121	0x39191a35	0.0001460098
122	0x39596d9a	0.00020735562
123	0xb7d9e589	-2.5975301e-05
124	0xb781bb6e	-1.5465277e-05
125	0x39a973d4	0.0003232049
126	0x38ab73e4	8.175502e-05
127	0xb9089706	-0.00013026231

exp_avg_sq f4 [128]
0	0x33942d3e	6.9000166e-08
1	0x333df742	4.422987e-08
2	0x33a6dc95	7.770101e-08
3	0x3366f29e	5.3771707e-08
4	0x332d6eae	4.0380364e-08
5	0x32c5cbe7	2.3026542e-08
6	0x32d801b0	2.5146477e-08
7	0x32bddec2	2.2103794e-08
8	0x33bd7586	8.822376e-08
9	0x328c036e	1.6299705e-08
10	0x3359b557	5.0689177e-08
11	0x32f6c81f	2.8729174e-08
12	0x329c2120	1.8175854e-08
13	0x327bc575	1.4655019e-08
14	0x3354faee	4.9588316e-08
15	0x3323ffeb	3.818415e-08
16	0x3326966d	3.87867e-08
17	0x3391f1a2	6.7960414e-08
18	0x33f2eac8	1.13117096e-07
19	0x341ed3a2	1.4791888e-07
20	0x33a137f6	7.507326e-08
21	0x3395cfd9	6.9761604e-08
22	0x3397e872	7.073767e-08
23	0x3391624b	6.769968e-08
24	0x33b232ab	8.2979874e-08
25	0x32ca37bc	2.354124e-08
26	0x32544711	1.2356183e-08
27	0x331eb842	3.6954823e-08
28	0x3321e957	3.7697955e-08
29	0x30b454ba	1.3120804e-09
30	0x32037b8c	7.653295e-09
31	0x3260c416	1.3083101e-08
32	0x340148b6	1.2040513e-07
33	0x319be664	4.537286e-09
34	0x324763d8	1.1606026e-08
35	0x3243019f	1.13508625e-08
36	0x323d3e19	1.1015367e-08
37	0x3258f118	1.2627673e-08
38	0x32d46c6d	2.4729355e-08
39	0x32da54c5	2.5417089e-08
40	0x33853394	6.202677e-08
41	0x32400838	1.117774e-08
42	0x314f0458	3.0124934e-09
43	0x32e1ae18	2.6272616e-08
44	0x3175da19	3.5776166e-09
45	0x3407f10d	1.2660549e-07
46	0x32535d24	1.2302994e-08
47	0x31afbd6c	5.114705e-09
48	0x3372d252	5.65363e-08
49	0x33e037a8	1.0440937e-07
50	0x30b9e4c1	1.3525537e-09
51	0x3335d68a	4.233747e-08
52	0x3303f9ba	3.072794e-08
53	0x33ebad01	1.09745095e-07
54	0x32944827	1.7262279e-08
55	0x342b5584	1.5956726e-07
56	0x330682a8	3.1318137e-08
57	0x31e64ace	6.7023853e-09
58	0x3305ef30	3.1184015e-08
59	0x33983352	7.087387e-08
60	0x333903b7	4.3077048e-08
61	0x32cdbd8a	2.3951333e-08
62	0x33aa3ac7	7.9269334e-08
63	0x330515fd	3.0986474e-08
64	0x319df141	4.5967288e-09
65	0x323d82ff	1.1031033e-08
66	0x32ce0521	2.3983889e-08
67	0x33c155b3	9.0028514e-08
68	0x33b7ee8f	8.564995e-08
69	0x33ad5551	8.071459e-08
70	0x328fbc4a	1.6733015e-08
71	0x3218582b	8.8676115e-09
72	0x31ac6e9c	5.0184337e-09
73	0x328a0d11	1.6071256e-08
74	0x339c61eb	7.282127e-08
75	0x33697f92	5.4365564e-08
76	0x33c63e6f	9.23145e-08
77	0x32ec4308	2.7504498e-08
78	0x32134910	8.573139e-09
79	0x32396e3e	1.0793483e-08
80	0x33197cff	3.573677e-08
81	0x329dd762	1.837515e-08
82	0x33bbd1f6	8.746058e-08
83	0x332e9d93	4.0655845e-08
84	0x33a45a1d	7.6532366e-08
85	0x33314492	4.127339e-08
86	0x337d673c	5.9000044e-08
87	0x32cde875	2.397085e-08
88	0x33e5e2a6	1.07048706e-07
89	0x333c5117	4.3845912e-08
90	0x32e7aebe	2.6971403e-08
91	0x329e5550	1.8432416e-08
92	0x321d1256	9.142772e-09
93	0x3262f891	1.3211449e-08
94	0x32bfa8ed	2.2312145e-08
95	0x33d7cb47	1.00486936e-07
96	0x340edae5	1.3304414e-07
97	0x30fdc846	1.8465094e-09
98	0x3210a5ba	8.419585e-09
99	0x340f932f	1.3371458e-07
100	0x32a835ea	1.9582291e-08
101	0x32208e2b	9.345551e-09
102	0x343b5769	1.7447532e-07
103	0x33093a3a	3.1950755e-08
104	0x31cd098e	5.9673715e-09
105	0x3415e879	1.396128e-07
106	0x3308b946	3.1833473e-08
107	0x325cffab	1.2863818e-08
108	0x31c992c2	5.8665544e-09
109	0x32361c8d	1.0600286e-08
110	0x31a34fe4	4.753007e-09
111	0x3321f4ba	3.770831e-08
112	0x33091cee	3.192411e-08
113	0x33b5aae0	8.459551e-08
114	0x339e5e2a	7.374577e-08
115	0x33b19538	8.2693475e-08
116	0x31a065e8	4.6681983e-09
117	0x32b6c184	2.127559e-08
118	0x310d0d5a	2.052579e-09
119	0x3307267f	3.146715e-08
120	0x32ba4cf7	2.168825e-08
121	0x33027149	3.0371016e-08
122	0x32b661c9	2.1232056e-08
123	0x338489e1	6.171809e-08
124	0x331b42e0	3.6149572e-08
125	0x334c4050	4.7555943e-08
126	0x32fd8fcf	2.9518473e-08
127	0x333c699a	4.3868205e-08

exp_avg f4 [1, 2]
0	0x3a2f44d6	0.00066859776
1	0x3c3c5682	0.011495234

exp_avg_sq f4 [1, 2]
0	0x38cd7e16	9.798647e-05
1	0x38f3d3b0	0.00011626573

exp_avg f4 [2, 128]
0	0xbacce2e6	-0.0015631586
1	0xbac47887	-0.0014989533
2	0xba0c993d	-0.00053634105
3	0x397200c0	0.00023079198
4	0x3a308f31	0.00067352044
5	0x3a2aa37f	0.0006509348
6	0x3946e79c	0.00018969033
7	0x3b29c3eb	0.002590413
8	0xb9421b58	-0.00018511468
9	0x3ac791f7	0.0015225996
10	0xbb2fb3e4	-0.0026810104
11	0xb9bc0574	-0.00035862217
12	0x3aaf00ea	0.0013351713
13	0x3aeee0fb	0.0018225008
14	0xbae68f02	-0.0017590227
15	0x3ada9ddc	0.0016679126
16	0xba6c3444	-0.0009010474
17	0xba8e253e	-0.0010844839
18	0xb8cc6840	-9.746896e-05
19	0x3ac082ba	0.0014687397
20	0x39f3446a	0.00046399544
21	0xba1537c4	-0.00056922087
22	0xbad28fbd	-0.0016064566
23	0x37460500	1.1802884e-05
24	0xbb40754f	-0.0029366796
25	0x3a6df1d6	0.0009076869
26	0xb9875a5d	-0.00025816532
27	0x39d78786	0.00041108968
28	0x3a3f1d46	0.0007290434
29	0x39a87813	0.0003213292
30	0x3a7e0ebd	0.0009691527
31	0xb974cfca	-0.00023347061
32	0x394b8666	0.00019409656
33	0x3991e3c9	0.00027826268
34	0xba4884d3	-0.0007649187
35	0x391ac2c4	0.0001475914
36	0xba16ec07	-0.0005757217
37	0x3af4c7c4	0.0018675257
38	0x3a3929ac	0.00070633995
39	0x39aa5bfc	0.0003249346
40	0x39d6a864	0.00040942722
41	0x3a4de56e	0.0007854317
42	0x3b2d1c7f	0.002641469
43	0x399b21d5	0.0002958911
44	0x38d2b376	0.000100470075
45	0xb93dc29c	-0.00018096942
46	0x3b000afe	0.0019537802
47	0x3aa9986a	0.00129391
48	0x3a20a540	0.000612814
49	0xbac52b09	-0.0015042733
50	0xba9744bc	-0.001154087
51	0x39865252	0.00025619805
52	0x3a65f207	0.00087717216
53	0xba7724c6	-0.0009427782
54	0x3ab46f7e	0.0013766137
55	0x3970bf48	0.00022959441
56	0x3a1d7582	0.0006006585
57	0x3ab5581c	0.0013835463
58	0xba146a88	-0.00056616263
59	0xb7c027e0	-2.2906752e-05
60	0x3a72c832	0.0009261399
61	0x3a749efa	0.00093315507
62	0xbb101889	-0.002198728
63	0x3aeb9f22	0.0017976502
64	0xb9820c68	-0.00024804776
65	0xba820a08	-0.0009921202
66	0x396c73b0	0.00022549811
67	0xba65e9ba	-0.0008770485
68	0xbb14477d	-0.0022625618
69	0x3a26c17e	0.000636123
70	0x3a7c13de	0.00096159976
71	0x3b48b2e0	0.0030624196
72	0x38994c48	7.309817e-05
73	0x3b466cc8	0.003027724
74	0x3b01f6f8	0.0019831043
75	0x3a917311	0.0011096915
76	0x3a783431	0.00094682263
77	0x3a58fe72	0.00082776614
78	0xbac11214	-0.0014730119
79	0x3a7b310c	0.00095821987
80	0xba71e901	-0.00092281407
81	0xb92328d4	-0.00015560101
82	0xbaa94f00	-0.0012917221
83	0xbadd580d	-0.0016887203
84	0xb87eadd8	-6.0720224e-05
85	0xba11b1ba	-0.00055577944
86	0x3a960dea	0.0011448239
87	0xbae06386	-0.0017119504
88	0x3978d828	0.00023731648
89	0x3a1273b2	0.0005586698
90	0x3ab629db	0.0013897972
91	0x399ba638	0.00029687746
92	0x3a1ea7c9	0.00060522236
93	0x3b8f2e8b	0.004369562
94	0x39c60368	0.0003776804
95	0xba868641	-0.00102634
96	0xbaca72c8	-0.0015445584
97	0x396c73b8	0.00022549822
98	0x38a50674	7.869015e-05
99	0xba9db884	-0.0012033139
100	0xbb05eada	-0.0020434172
101	0xbad1f25e	-0.0016017666
102	0xbb5e9f57	-0.0033969486
103	0x3aad6e40	0.001323171
104	0x3a43e469	0.00074726954
105	0xba78859c	-0.00094803586
106	0xbb36886d	-0.0027852312
107	0x3a8a1f3b	0.0010537872
108	0x3869dd7b	5.57578e-05
109	0xb9f66ad8	-0.0004700038
110	0xbadb4d5b	-0.0016731428
111	0xbab87121	-0.0014071801
112	0x3aa78f7c	0.001278385
113	0x3a5a3cc2	0.00083250937
114	0x38dddd20	0.00010579289
115	0xb8ac9e70	-8.2311104e-05
116	0x3af651f8	0.0018792739
117	0x3b06bdbb	0.0020559866
118	0x3a9af344	0.0011821766
119	0xba4d40ea	-0.00078298023
120	0xbab0308c	-0.0013442202
121	0xbabf08c5	-0.0014574757
122	0xba8e2fb5	-0.0010847958
123	0xb9bcaa14	-0.00035984872
124	0xba44f02e	-0.0007512596
125	0x3a9c1b65	0.001191002
126	0xba421797	-0.0007404028
127	0xba8889d5	-0.0010417054
128	0xb9e5d63b	-0.00043837898
129	0xbaa654cc	-0.0012690066
130	0xba2497be	-0.0006278715
131	0x3a7b2f73	0.00095819606
132	0xbb45a7a4	-0.0030159736
133	0xb9b1628c	-0.00033833494
134	0xbae2e44b	-0.0017310468
135	0xbb27a860	-0.0025582537
136	0xbb4ffea1	-0.0031737464
137	0x39b93a60	0.00035329442
138	0xbb069d10	-0.0020540394
139	0xbb3da1fb	-0.002893566
140	0xbba7fd52	-0.0051266337
141	0xba053352	-0.00050811947
142	0xbaae015e	-0.0013275554
143	0x39a8a5b8	0.00032166927
144	0xbb187d1d	-0.0023267933
145	0x39a73020	0.00031888578
146	0x39bad5e1	0.00035636037
147	0xbb0b84b1	-0.0021288807
148	0x392d9ce7	0.00016557016
149	0xbb165969	-0.0022941476
150	0xba3ac585	-0.00071247696
151	0xb99eefdd	-0.0003031482
152	0xbb6cf356	-0.0036155782
153	0xbb20dff2	-0.0024547544
154	0xb7bed2e0	-2.2747961e-05
155	0xbaec0286	-0.0018006123
156	0xbb95f5e2	-0.0045764307
157	0xbb7a9e08	-0.0038241167
158	0x3a716faf	0.00092100626
159	0xba2fc65c	-0.0006705278
160	0xb9e4d616	-0.00043647055
161	0xbba74f07	-0.0051058563
162	0xbb209406	-0.0024502291
163	0xbb0a1b76	-0.0021073497
164	0xb8ac7eea	-8.225239e-05
165	0xbb8d7942	-0.0043174336
166	0xb9a950de	-0.00032294443
167	0x3a3a3d70	0.0007104492
168	0xbaff0be8	-0.0019458504
169	0x3a836de3	0.0010027256
170	0xbb321326	-0.0027172058
171	0xbb1e5db3	-0.0024164736
172	0xbb1d2b84	-0.0023982236
173	0xbb8da34c	-0.004322445
174	0xba4a5fc6	-0.000771996
175	0xbb38300f	-0.0028104817
176	0xbb47ac30	-0.0030467622
177	0xbb342bef	-0.0027492007
178	0xb8c10637	-9.204115e-05
179	0xbb91ec11	-0.00445319
180	0xbb8c5cf4	-0.004283542
181	0xbb2a5f2d	-0.002599667
182	0xb8fdc518	-0.00012100692
183	0xbbba5510	-0.00568641
184	0xba603556	-0.00085528695
185	0xbb18b022	-0.0023298343
186	0xbb104749	-0.0022015146
187	0x398e3d7e	0.00027130166
188	0xb9a0f284	-0.00030698266
189	0xbb6bab1b	-0.003596014
190	0xbb6e4684	-0.0036357949
191	0x3a067704	0.0005129429
192	0xbb6fe48e	-0.0036604735
193	0xbb41eb34	-0.0029589655
194	0xbb3dd47e	-0.0028965767
195	0xba94ff0d	-0.0011367515
196	0xbb4e08de	-0.003143839
197	0xbc1d1611	-0.009587781
198	0x38857e9c	6.365517e-05
199	0xbb3931ed	-0.0028258518
200	0xbb3f3ade	-0.0029179375
201	0xbb65e517	-0.0035079175
202	0xbb19dd16	-0.0023477725
203	0xbbd5a56f	-0.0065199654
204	0x395d5ea8	0.00021111465
205	0xba310e18	-0.00067541143
206	0xbb43f008	-0.0029897708
207	0xbba55c05	-0.00504637
208	0x3a790ee5	0.00095008156
209	0xba73fcba	-0.00093073735
210	0xbb0b35d2	-0.0021241796
211	0xbadb8548	-0.0016748095
212	0xb9dc5809	-0.0004202726
213	0xb9e424a8	-0.0004351486
214	0xb9748e9c	-0.0002332278
215	0xbb281f71	-0.0025653506
216	0xb9c869c8	-0.00038225786
217	0xb9ac8150	-0.00032902742
218	0x39eb1393	0.00044837277
219	0x394fcdd7	0.0001981774
220	0xbba008cc	-0.004883861
221	0xbb9d1d78	-0.0047947727
222	0xbaff0fe0	-0.0019459687
223	0xbb462fc9	-0.0030240885
224	0x3a415d61	0.000737628
225	0xbb9d4f4e	-0.0048007136
226	0xbadc9452	-0.0016828871
227	0x3aa545fc	0.0012609358
228	0xba8e6db2	-0.0010866432
229	0xbb53add5	-0.0032299657
230	0xbbad4263	-0.005287455
231	0xbb3d1876	-0.0028853691
232	0x39f388d6	0.00046450522
233	0xbb3f37c4	-0.0029177526
234	0xbaf0c27b	-0.0018368507
235	0xbb5f232e	-0.0034048068
236	0xbb10a556	-0.0022071204
237	0xbb5fa962	-0.003412806
238	0xbb06ac0c	-0.0020549325
239	0xbb41d520	-0.0029576495
240	0xbab68823	-0.001392607
241	0xbaa33b6b	-0.0012453621
242	0xbaeace37	-0.001791424
243	0xbb9c94ec	-0.004778495
244	0xba5f6853	-0.00085223204
245	0xba6d11d4	-0.0009043489
246	0xbb084628	-0.002079377
247	0xbb398067	-0.0028305294
248	0xba477626	-0.0007608853
249	0xba77edd4	-0.00094577414
250	0xba83eeec	-0.0010065711
251	0xbb911820	-0.0044279248
252	0xba1b5d44	-0.00059266784
253	0xbb1280eb	-0.0022354673
254	0xbafdb857	-0.0019357306
255	0x3ad19ed2	0.0015992767
