results/Short_HighBatch/3DBall/3DBall-349757.onnx (onnx, 10026 bytes, 7 tensors)

network_body.observation_encoder.processors.0.normalizer.running_mean f4 [8]
0	0xbb050ec2	-0.0020302986
1	0xbba0a4a3	-0.0049024387
2	0xbd87d46d	-0.06632314
3	0x40470d20	3.110176
4	0x3d98f8fb	0.07469364
5	0x3c488e44	0.01224095
6	0xbf1804e9	-0.5938249
7	0xbd8ae5f1	-0.06782139

network_body._body_endoder.seq_layers.0.weight f4 [128, 8]
0	0x3ee11886	0.43964022
1	0xbe9518e8	-0.29120564
2	0xbdbf902c	-0.093536705
3	0xbeda09b0	-0.42585516
4	0xbc273b87	-0.0102070635
5	0xbc95dd53	-0.018294012
6	0x3f05b30a	0.52226317
7	0xbe0f0a90	-0.13968873
8	0xbe06bb7f	-0.13157462
9	0xbf55fdd6	-0.8359045
10	0xbe892ebc	-0.26793468
11	0x3e59b53d	0.21260543
12	0x3e78dc01	0.24302675
13	0xbdf92bac	-0.12166533
14	0x3f4dc07e	0.80371845
15	0xbe877a2b	-0.26460394
16	0xbd1098e7	-0.03530207
17	0x3de8de59	0.113705344
18	0xbe5fda69	-0.2186066
19	0xbea3b633	-0.31974944
20	0x3d81c32d	0.06336055
21	0x3eaf2675	0.34209028
22	0x3f22e3f4	0.6362908
23	0xbe3e0fea	-0.18560758
24	0xbd96d8eb	-0.073655926
25	0x3dc95d91	0.098322995
26	0x3f081c2a	0.53167975
27	0xbeb47d79	-0.35251978
28	0xbda6f0c6	-0.08151393
29	0xbdab7155	-0.08371226
30	0x3ebdbff6	0.37060517
31	0xbeb8ae94	-0.36070693
32	0x3f02c3bd	0.5107992
33	0xbec7157a	-0.38883573
34	0xbe019384	-0.12653929
35	0x3d206bc7	0.039165284
36	0x3e8c7dc2	0.27439696
37	0xbf0cf2c9	-0.5505796
38	0x3f05e504	0.52302575
39	0xbece1649	-0.40251377
40	0xbc86f431	-0.016473861
41	0x3d647004	0.05577089
42	0xbe175a97	-0.14780651
43	0xbe95475e	-0.2915601
44	0xbea34ba0	-0.31893635
45	0x3f0ffd84	0.5624621
46	0x3d9aa5e0	0.075511694
47	0xbead649a	-0.33865815
48	0xbc806d37	-0.015677078
49	0x3e580689	0.21096243
50	0x3e2b78fd	0.16745372
51	0x3ea2dbb6	0.3180825
52	0x3e823e6a	0.25438243
53	0xbe28cd2c	-0.16484517
54	0x3ec2d51a	0.3805321
55	0x3e08f39d	0.13374181
56	0xbe93f2ec	-0.28896272
57	0x3c9b752f	0.018976776
58	0xbea1f77e	-0.31634134
59	0xbca77d18	-0.020445392
60	0xbf03a4b9	-0.5142322
61	0xbf1dfb01	-0.61711127
62	0x3ebbe4b2	0.36697918
63	0xbf37d10d	-0.7180336
64	0x3e9cd42d	0.30630627
65	0x3efecbe5	0.49764934
66	0x3d81ccf1	0.063379176
67	0xbcdf3d2f	-0.027250854
68	0x3f4911d5	0.78542835
69	0xbe883fd4	-0.26611197
70	0x3b06dba8	0.0020577703
71	0xbc2a0235	-0.010376503
72	0xbe031158	-0.12799585
73	0x3d82421a	0.06360264
74	0x3f14d6cc	0.58140254
75	0x3e89b512	0.26895958
76	0xbd98f9dd	-0.07469533
77	0xbe78439e	-0.24244544
78	0xbdb8be53	-0.090206765
79	0xbe9d7772	-0.30755192
80	0x3eae196a	0.34003764
81	0xbf02e0d2	-0.511243
82	0xbe13dc2d	-0.14439459
83	0xbd7fe0ae	-0.06247013
84	0x3ef8aeba	0.48570806
85	0x3f7d9782	0.9905931
86	0xbe7d515f	-0.24738072
87	0x3eacf9da	0.33784372
88	0x3e2f9ffa	0.1715087
89	0x3e093633	0.13399582
90	0xbf466f90	-0.7751398
91	0x3f1d4dd4	0.6144688
92	0xbd9ab303	-0.07553675
93	0x3a8eb7a5	0.001088847
94	0x3cd00a9c	0.025395684
95	0xbd7da8c4	-0.061928526
96	0xbedcc24e	-0.43116993
97	0x3cce8e82	0.025214437
98	0xbe02804f	-0.12744258
99	0x3f24f264	0.6443236
100	0x3d66659b	0.056249242
101	0xbf3c7ef1	-0.736312
102	0xbe65b5d4	-0.22432643
103	0x3e1acec6	0.1511794
104	0xbe3fa8f8	-0.187168
105	0x3f2aeeb9	0.6677051
106	0xbcc0b6ca	-0.02352466
107	0xbd5bfaa1	-0.053705815
108	0xbec7f03f	-0.3905048
109	0xbe95b5d0	-0.29240274
110	0x3ec909b7	0.39265224
111	0xbe560a87	-0.20902453
112	0xbe63be62	-0.22240594
113	0xbe65ae66	-0.22429809
114	0x3e66c54f	0.22536205
115	0x3f1d8703	0.61534137
116	0x3f748323	0.955126
117	0x3f0aa732	0.5416137
118	0x3dc40038	0.09570354
119	0xbe04ac02	-0.12956241
120	0xbe3ab101	-0.18231584
121	0x3f0fe9f0	0.56216335
122	0x3ea12906	0.3147661
123	0x3df5a94f	0.11995184
124	0xbe2cc309	-0.16871275
125	0x3e442646	0.19155225
126	0xbea4ac98	-0.3216293
127	0x3dccbfc8	0.09997517
128	0xbdc32e75	-0.09530345
129	0x3e115b40	0.14194965
130	0x3eb76ee4	0.3582679
131	0x3dcaa0c1	0.098939426
132	0x3fa13f95	1.2597529
133	0xbc10d049	-0.008838722
134	0x3e874432	0.26419216
135	0xbdd5bd67	-0.10436516
136	0xbde38cdb	-0.111108504
137	0xbefe7759	-0.4970043
138	0x3e7404e1	0.23829986
139	0x3ec9502f	0.39318988
140	0x3e066ae2	0.1312671
141	0x3f144609	0.57919365
142	0xbe2d5abb	-0.16929142
143	0x3daf5680	0.085614204
144	0x3d74eac2	0.059794195
145	0xbe62cc69	-0.22148289
146	0xbdcb0417	-0.099128895
147	0xbe852ac1	-0.2600918
148	0xbe007dd0	-0.12547994
149	0x3f6b82e5	0.91996604
150	0x3e407dd5	0.18798001
151	0xbf0108ce	-0.5040406
152	0x3ec0f081	0.3768349
153	0x3e808b50	0.25106287
154	0x3e0c8232	0.1372154
155	0x3d1b1e07	0.037870433
156	0x3c0ca52c	0.008584302
157	0xbee262b2	-0.44215924
158	0x3ef6bc04	0.4819032
159	0xbeb3b9ad	-0.35102597
160	0xbdcfce86	-0.10146813
161	0xbe46ec55	-0.19426091
162	0x3e2888bc	0.1645841
163	0xbe6c3fcd	-0.23071213
164	0xbf05e986	-0.52309453
165	0xbd587a51	-0.052851025
166	0xbe116714	-0.14199477
167	0xbeb8d46b	-0.36099562
168	0x3de3bc62	0.111199155
169	0x3f424928	0.7589288
170	0xbe23417f	-0.15942954
171	0x3ea311c6	0.31849498
172	0x3ee09ba2	0.43868738
173	0x3f017474	0.5056832
174	0x3e130214	0.14356261
175	0x3f09f810	0.5389414
176	0xbdf3a12b	-0.11895975
177	0xbf3f82c2	-0.74808896
178	0x3edb5c07	0.4284365
179	0xbd50de3a	-0.05099318
180	0xbe5c8900	-0.21536636
181	0xbc27b565	-0.010236119
182	0xba187a59	-0.0005816571
183	0x3f03258a	0.51229155
184	0x3de5c9a1	0.11220098
185	0xbe240639	-0.16017999
186	0xbec05cc7	-0.37570783
187	0xbac3fd13	-0.0014952741
188	0x3dd5c009	0.104370184
189	0x3e19440e	0.14967367
190	0x3d4e2c58	0.05033526
191	0xbf0008f4	-0.5001366
192	0x3e89d6e5	0.26921764
193	0x3caf295f	0.021382032
194	0x3f6df3f0	0.92950344
195	0xbdc38b43	-0.095480464
196	0x3f4f5f2d	0.810046
197	0x3e9466c8	0.28984666
198	0x3ec9d3ca	0.39419395
199	0x3f0793ff	0.529602
200	0x3f3a092c	0.72670245
201	0x3e4c5cfa	0.19957343
202	0x3f39bd67	0.7255463
203	0xbe1a21d9	-0.15051974
204	0xbdca015b	-0.0986354
205	0xbe90a234	-0.2824875
206	0x3e8aae1b	0.27085957
207	0xbef1a248	-0.47194123
208	0x3d25ad60	0.040448546
209	0xbeeeed7f	-0.4666557
210	0x3e1c9d2d	0.15294333
211	0xbe941382	-0.28921133
212	0xbe824f6b	-0.25451216
213	0x3e301de1	0.17198898
214	0xbe8e0867	-0.27740785
215	0xbe377218	-0.17914617
216	0x3f2052e6	0.6262649
217	0xbe5cf592	-0.21578053
218	0xbe9e353b	-0.30899987
219	0xbf11cbee	-0.56951797
220	0xbcd84b4c	-0.026403092
221	0xbf0fe539	-0.5620914
222	0x3d988dcf	0.07448923
223	0xbf3e4a09	-0.7433172
224	0xbf0f022f	-0.55862707
225	0x3f118573	0.5684425
226	0xbea0c8af	-0.3140311
227	0x3d8f8a53	0.07008805
228	0xbf10a6e8	-0.5650468
229	0xbe41f82c	-0.18942326
230	0xbea82d45	-0.32847038
231	0x3ea19a07	0.31562826
232	0xbf550fc2	-0.8322717
233	0x3e6521e2	0.22376207
234	0x3e498413	0.19679289
235	0xbed282b2	-0.41115338
236	0x3d262d95	0.040570814
237	0xbf0a1780	-0.5394211
238	0xbe893977	-0.26801655
239	0xbe760c33	-0.24028091
240	0xbe979330	-0.29604483
241	0x3e80f264	0.2518493
242	0x3dec3392	0.11533274
243	0xbc53f202	-0.012936117
244	0xbe2f9687	-0.17147265
245	0x3eac0a6c	0.336017
246	0x3eb7c2f1	0.35890916
247	0xbd35b60e	-0.044363074
248	0xbe948d60	-0.2901411
249	0x3ea513a3	0.32241544
250	0xbe459748	-0.1929599
251	0x3da56dc5	0.080775775
252	0xbe472cf5	-0.19450743
253	0x3ed844eb	0.4224008
254	0x3eaf4f7d	0.34240332
255	0x3f1d8022	0.6152364

network_body._body_endoder.seq_layers.0.bias f4 [128]
0	0x3cdeed26	0.02721269
1	0x3d809b6a	0.06279643
2	0x3d5562a1	0.052096013
3	0x3d8ab17c	0.06772134
4	0x3cc887e6	0.024478864
5	0x3d8f0563	0.06983449
6	0x3b44bd4e	0.003002006
7	0x3d27eff8	0.041000336
8	0x3c20db9f	0.009817987
9	0x3d28d322	0.041216977
10	0x3d14b138	0.03630182
11	0x3d0686de	0.032843463
12	0x3cd04f11	0.025428327
13	0xbcf0fc3e	-0.029417153
14	0x3d4fc0c4	0.050720945
15	0x3d22e2e6	0.03976717
16	0x3c65a55c	0.0140164755
17	0x3d4d23f0	0.0500831
18	0x3d972b38	0.0738129
19	0x3cb0bbb1	0.021573873
20	0x3d8b5f68	0.06805307
21	0x3c8be13f	0.01707518
22	0x3d8d86bc	0.06910464
23	0x3d33b085	0.043869514
24	0x3c7bcf44	0.01536924
25	0x3d0007d4	0.031257465
26	0x3d1397d4	0.036033466
27	0x3d53dc8d	0.051724005
28	0xbcbd7d4c	-0.023131035
29	0x3cb3b551	0.021937044
30	0x3bd7793c	0.0065757316
31	0x3bf4e284	0.007473292
32	0x3d7ad928	0.061242253
33	0x3a924168	0.0011158409
34	0xbc79b546	-0.015240973
35	0x3d94bd05	0.07262615
36	0xbcf34330	-0.029695123
37	0x3cee5f91	0.029098304
38	0x3d874d4b	0.06606539
39	0x3d8828ed	0.06648431
40	0x3d8cade6	0.06869106
41	0x3b84f53b	0.004057554
42	0xbcff864b	-0.031191966
43	0x3d26a77e	0.040687077
44	0x3d219713	0.039450716
45	0x3ce62836	0.028095346
46	0x3d5a97c4	0.05336739
47	0xbba07347	-0.0048965546
48	0xbcbf8a7d	-0.023381466
49	0x3d61f741	0.05516744
50	0x3c29d9df	0.010366886
51	0x3d164880	0.036690235
52	0xbc0516e9	-0.008123138
53	0x3d1e69c4	0.038675085
54	0x3a7a91f4	0.0009558492
55	0x3c5fc9ff	0.013658999
56	0x3ce7c602	0.02829266
57	0xbccfe3ce	-0.02537718
58	0x3c431ea8	0.0119091645
59	0x3d8786c9	0.06617505
60	0x3d3fc431	0.046817962
61	0x3c86e3a9	0.016465979
62	0x3c4673ac	0.012112539
63	0xbcbb791d	-0.0228849
64	0x3d1fbd47	0.03899887
65	0xbb850d1a	-0.0040603997
66	0x3caa2b8a	0.020772714
67	0x3d7b048e	0.06128364
68	0xbca352a5	-0.019936869
69	0x3cd6fd7c	0.026243918
70	0x3d331253	0.043718647
71	0xbccb8266	-0.024842452
72	0x3d0c0618	0.0341855
73	0xbcde98e7	-0.027172519
74	0x3d7bef2d	0.061507393
75	0x3cdf7a62	0.027280036
76	0x3d6b5ec9	0.05746344
77	0x3ca9bb4d	0.020719195
78	0xbd11e61b	-0.035619836
79	0xba32d839	-0.0006822381
80	0x3d614b4b	0.055003446
81	0x3ce25cd4	0.027632155
82	0x3d2bdada	0.04195676
83	0x3d75b9e8	0.059991747
84	0x3b41f57a	0.0029595778
85	0x3d7a625d	0.061128963
86	0x3da88a0e	0.08229457
87	0xbcb0a944	-0.021565087
88	0x3d828fe9	0.06375105
89	0x3d14179c	0.03615533
90	0x3d2203c0	0.039554358
91	0x3d5ac125	0.053406853
92	0xbc4e8475	-0.012604822
93	0x3abd9dab	0.0014466544
94	0xbd11061f	-0.03540623
95	0xbc660556	-0.014039358
96	0x3da88eba	0.08230348
97	0x3d17f5de	0.03709971
98	0xbccb80a8	-0.024841622
99	0x3d877480	0.066140175
100	0xbcfef6cc	-0.031123541
101	0xbaefb097	-0.0018286881
102	0x3adac56c	0.0016690916
103	0xba37ba99	-0.0007008701
104	0x3c6d3d11	0.014479891
105	0x3d6d85a0	0.057988763
106	0x3ce4bc02	0.02792168
107	0xbcd245e2	-0.025668088
108	0x3be13b2e	0.00687351
109	0x3d4a0122	0.049317487
110	0x3cbcece4	0.023062177
111	0x3d47fc06	0.048824333
112	0x3d2e1908	0.04250434
113	0x3d56b753	0.052420925
114	0x3d809568	0.06278497
115	0x3c7c9107	0.015415437
116	0x3c762fed	0.015026075
117	0x3daacbe2	0.08339669
118	0xbd0838e6	-0.033257388
119	0xbc4dff00	-0.012573004
120	0x3d16f3c5	0.03685357
121	0x3cbc35d1	0.02297488
122	0xbd150189	-0.036378417
123	0x3d0adbbb	0.033900958
124	0x3d6cbc27	0.057796624
125	0xbcafa317	-0.021440072
126	0xbcad32c5	-0.021142373
127	0x3d54d2d7	0.051958885

action_model._continuous_distribution.log_sigma f4 [1, 2]
0	0xbcb931de	-0.022606786
1	0xbd1e3146	-0.03862121

action_model._continuous_distribution.mu.weight f4 [2, 128]
0	0xbd7322ef	-0.059359487
1	0x3ba9456c	0.0051657464
2	0x3d74ce55	0.059767086
3	0x3d2d3c1b	0.04229365
4	0xbd40ff9e	-0.047118776
5	0x3cb45349	0.02201237
6	0x3ce8e59c	0.028429799
7	0xbb695ee2	-0.0035609533
8	0xbd308dd1	-0.043103997
9	0x3d139a21	0.03603566
10	0x3d69324e	0.05693274
11	0xbd0109cf	-0.031503495
12	0xbc8d04e5	-0.017214248
13	0xbc9a82a7	-0.018861128
14	0x3d49e23a	0.049288012
15	0x3d50ebeb	0.05100624
16	0x3ccf857e	0.025332209
17	0x3d8710b8	0.06594986
18	0x3d19131d	0.037371743
19	0xbdd58171	-0.104250796
20	0x3c6b41f9	0.014358991
21	0x3b1a64e0	0.0023558661
22	0x3d6e7ca4	0.058224335
23	0xbd418a92	-0.04725129
24	0x3cf00b76	0.02930234
25	0xbcb96863	-0.022632783
26	0x3cee1e18	0.029067084
27	0xbcc0a3fc	-0.023515694
28	0x3c258bd8	0.010104142
29	0x3bcedc45	0.0063128793
30	0x3ca5090b	0.020145914
31	0x3cca1c5d	0.024671728
32	0xbd26e192	-0.040742464
33	0xbc47631c	-0.012169626
34	0x3ada9c0b	0.0016678585
35	0x3cb7e357	0.022447271
36	0xbcc62839	-0.024189102
37	0x3a5c52a5	0.0008404649
38	0xbcbd6e3f	-0.023123858
39	0x3d25ada8	0.040448815
40	0xbd0cb902	-0.034356125
41	0x3c928462	0.01788539
42	0xbc833a0d	-0.016018892
43	0xbb5beac8	-0.0033556689
44	0x3c7dc602	0.015489103
45	0xbd608b9a	-0.054820634
46	0x3c23cf22	0.009998115
47	0x3b7d6a9b	0.0038668278
48	0xbd0534bc	-0.032520995
49	0x3d59058d	0.05298381
50	0x3c5f24c1	0.013619603
51	0x3bd76a24	0.0065739322
52	0x3cbdd2f4	0.02317188
53	0x3d8e9823	0.069626115
54	0x3d091339	0.033465598
55	0xbd6a9851	-0.057274166
56	0x3d3b631c	0.045748815
57	0x3b879fc4	0.0041389186
58	0xbd467033	-0.048446845
59	0x3cc88d07	0.02448131
60	0x3d42ad4d	0.047528554
61	0xbd0f0870	-0.034920156
62	0xbd8d6613	-0.06904235
63	0xbd4fa1db	-0.050691467
64	0x391122c9	0.00013841236
65	0xbcef06bb	-0.029178014
66	0xbce81c22	-0.028333727
67	0xbc349d55	-0.011023839
68	0xbcca9a9f	-0.024731932
69	0xbd7c1226	-0.061540745
70	0x3ce0302e	0.027366724
71	0xbbd84071	-0.006599479
72	0xbc3c6e7d	-0.011500952
73	0xbbc64bfc	-0.0060515385
74	0x3d8203fb	0.063484155
75	0xbd73c393	-0.059512686
76	0x3d4a21cf	0.04934865
77	0x3d231a29	0.03981987
78	0xbbd6d13d	-0.006555705
79	0x3c6f09ec	0.014589768
80	0x3ce25235	0.02762709
81	0x3d032b43	0.03202368
82	0xbd4d8fcd	-0.050185967
83	0xbd02ebd0	-0.03196317
84	0x3cf1fd39	0.029539691
85	0xbcdc3325	-0.026879856
86	0x3d2e629c	0.04257451
87	0x3ba589a7	0.00505181
88	0x3d809902	0.06279184
89	0x3d56d4d8	0.052449077
90	0xb92e6662	-0.00016632074
91	0xbbe1e0f3	-0.006893271
92	0xbc423e69	-0.0118557
93	0x3ccfe941	0.025379779
94	0xbcfcf03b	-0.03087627
95	0xbd017a3e	-0.03161072
96	0x3d67599a	0.056481935
97	0x3c070870	0.008241758
98	0xbcd096f9	-0.025462614
99	0x3d87d9c7	0.066333346
100	0x3bf50092	0.0074768746
101	0xbcb4ac51	-0.022054823
102	0xbd8012f6	-0.062536165
103	0xbd4ada06	-0.04952433
104	0x3b956747	0.0045594308
105	0xbc5cc2ba	-0.013474161
106	0x3d2ac1e0	0.0416888
107	0xbc469476	-0.012120357
108	0xbc27c344	-0.010239426
109	0x3c86bf50	0.016448647
110	0x3c617772	0.013761388
111	0x3d38aa33	0.04508419
112	0x3d4d9446	0.050190233
113	0xbc708859	-0.014680945
114	0x3c4bd9ed	0.012442094
115	0xbd8116ab	-0.06303152
116	0xbc5abe4c	-0.013351034
117	0x3cae9c62	0.021314804
118	0x3b08cb2e	0.0020873058
119	0x3c647a58	0.013945185
120	0x3cbe3544	0.023218758
121	0x3d0d42f8	0.034487695
122	0xbc1960a9	-0.0093614245
123	0xbd84d978	-0.06486791
124	0x3d491b7e	0.049098484
125	0xbd465efe	-0.048430435
126	0xbd339512	-0.043843336
127	0x3d40b67a	0.047049023
128	0x3d4d877d	0.05017804
129	0x3d357175	0.044297654
130	0x3d2b34c1	0.041798357
131	0x3d5205ed	0.051275183
132	0x3cdf7473	0.027277207
133	0x3d231e7c	0.039823994
134	0xbcfc6793	-0.030811107
135	0x3d134880	0.035957813
136	0xbd591185	-0.052995224
137	0x3c88df61	0.016708078
138	0xbce69c1a	-0.028150607
139	0x3cd983ec	0.026552163
140	0x3ca05fbe	0.019576903
141	0xbc206652	-0.00979002
142	0xbcb6e7e7	-0.022327377
143	0xbccc7e70	-0.024962634
144	0xbd31de88	-0.043425113
145	0x375e760a	1.3259714e-05
146	0x3d8b4165	0.067995824
147	0x3d190f30	0.037368
148	0x3d800086	0.062501
149	0xbd6e5f83	-0.058196556
150	0x3cf6ce95	0.030127803
151	0x3d7b012d	0.06128042
152	0xbd81def3	-0.06341352
153	0x3d19b74b	0.037528317
154	0x3c679d63	0.014136645
155	0x3d3383a1	0.043826703
156	0xbd2bd6b5	-0.041952807
157	0x3bdaf51a	0.0066820504
158	0x3c391941	0.011297525
159	0xbcbefb0e	-0.023313072
160	0x3da2f39b	0.0795662
161	0x3bf5d49d	0.007502152
162	0xbccb2e2c	-0.02480229
163	0x3ca9da2c	0.020733915
164	0x3c1a65de	0.009423701
165	0x3cd1e6e4	0.025622793
166	0x3d300b63	0.04297961
167	0x3c8f806e	0.017517295
168	0x3d3c8f5e	0.046035163
169	0x3c90d551	0.017679842
170	0x3b002e2b	0.0019558768
171	0x3d0d7d3d	0.034543265
172	0x3b75a82d	0.0037484274
173	0xbd7806d3	-0.060553383
174	0x3cff651e	0.031176146
175	0xbc904ab0	-0.017613739
176	0xbd28c769	-0.041205797
177	0x3d216aad	0.039408375
178	0x3af55979	0.0018718682
179	0x3d2c86d9	0.04212079
180	0xbd294f6e	-0.041335516
181	0xbd2573a7	-0.040393498
182	0xbc200039	-0.009765678
183	0xbd850539	-0.06495137
184	0x3c80c7dc	0.0157203
185	0xbc51a871	-0.012796507
186	0x3cadba84	0.021207102
187	0x3d637509	0.055531535
188	0xbcdc76e7	-0.026912166
189	0x3c94d879	0.018169628
190	0xbb5341af	-0.0032235195
191	0x3c3cab06	0.011515385
192	0x3cadf279	0.021233784
193	0x3a3b349e	0.00071413245
194	0x3ca419db	0.02003186
195	0x3d8eb013	0.06967177
196	0xbd98f2ca	-0.07468183
197	0xbc8094a2	-0.015695874
198	0x3cc48f41	0.02399409
199	0xbcc4fe4b	-0.024047038
200	0x3c743fb8	0.01490777
201	0xbcdb4e04	-0.0267706
202	0xbc698055	-0.014251788
203	0x3cb4cb93	0.022069728
204	0x3d3c1dc6	0.04592683
205	0x3c6696a6	0.014074003
206	0xbcbcd550	-0.023050934
207	0x3c170fa6	0.0092200395
208	0x3d3450db	0.044022422
209	0xbd0d501f	-0.034500238
210	0x3d481bd1	0.048854653
211	0x3d330e1d	0.04371463
212	0xbda04528	-0.078256905
213	0x3d58d53f	0.052937742
214	0x3d1ca179	0.03823993
215	0xbd01505e	-0.031570785
216	0xbd5a84e1	-0.05334938
217	0xbcd93830	-0.02651605
218	0x3d383c42	0.04497934
219	0x3d2d04c0	0.042240858
220	0x3c9dd162	0.01926488
221	0x3bc8c58a	0.006127064
222	0xbccbcba2	-0.024877373
223	0xbd80e8dc	-0.062944144
224	0x3d5fa8ac	0.054604217
225	0x3bb144dc	0.00540982
226	0x3bbf1f2a	0.0058325725
227	0x3cea69e7	0.028614951
228	0xbcc5c124	-0.024139948
229	0x3c16bd9c	0.00920048
230	0xbd8d4f07	-0.06899839
231	0xbbf73621	-0.0075442945
232	0x3cc3c790	0.02389887
233	0x3da26dfd	0.07931135
234	0xbd0ce062	-0.034393676
235	0xbcb887a3	-0.022525614
236	0x3caccbf2	0.021093342
237	0x3c70d11f	0.014698296
238	0x3c073c9a	0.008254195
239	0x3bfdb132	0.0077420706
240	0xbc8bbe5f	-0.01705855
241	0x3d935f66	0.0719593
242	0x3d677789	0.056510482
243	0xbce544ba	-0.027986873
244	0x3cb2b96e	0.021816935
245	0x3cec77c3	0.0288657
246	0xbc54dbc2	-0.0129918475
247	0xbd4cee52	-0.050031967
248	0x3ce1bc4b	0.027555605
249	0xbd322679	-0.04349372
250	0xbd070626	-0.032964848
251	0x3ca6b3eb	0.020349463
252	0xbc9b4881	-0.018955471
253	0xbd2fc13a	-0.042908885
254	0x3b964a00	0.004586458
255	0x3c7a1fef	0.015266403

action_model._continuous_distribution.mu.bias f4 [2]
0	0x3cd394bd	0.02582776
1	0x3d238520	0.03992188

onnx::Div_46 f4 [8]
0	0x3d919901	0.07109261
1	0x3d8c82f7	0.06860917
2	0x3f76c1ab	0.96389264
3	0x3ea663ea	0.32498103
4	0x3f802009	1.0009776
5	0x3f46a3fa	0.7759396
6	0x3f808293	1.0039848
7	0x3f43ae27	0.7643761
