results/1strun-test/3DBall/checkpoint.pt (torch, 49973 bytes, 32 tensors)

network_body.observation_encoder.processors.0.normalizer.running_mean f4 [8]
00000000: ef15 05bd 680e ab3c 188c d23e bd25 4340
00000010: f0d0 4b3e f131 153f b927 89bf 7f88 943e
-0.03249162 0.020880893 0.41122508 3.0491784 0.19903922 0.5827933 -1.0715247 0.29010388

network_body.observation_encoder.processors.0.normalizer.running_variance f4 [8]
00000000: 98a2 0743 209a 0643 ed87 c046 dbc0 6345
00000010: a6cd c446 7762 a446 49f5 9f46 70ba af46
135.63513 134.60205 24643.963 3644.0535 25190.824 21041.232 20474.643 22493.219

network_body.processors.0.normalizer.running_mean f4 [8]
00000000: ef15 05bd 680e ab3c 188c d23e bd25 4340
00000010: f0d0 4b3e f131 153f b927 89bf 7f88 943e
-0.03249162 0.020880893 0.41122508 3.0491784 0.19903922 0.5827933 -1.0715247 0.29010388

network_body.processors.0.normalizer.running_variance f4 [8]
00000000: 98a2 0743 209a 0643 ed87 c046 dbc0 6345
00000010: a6cd c446 7762 a446 49f5 9f46 70ba af46
135.63513 134.60205 24643.963 3644.0535 25190.824 21041.232 20474.643 22493.219

network_body._body_endoder.seq_layers.0.weight f4 [128, 8]
00000000: 2c52 983d 305c e93e 3ebc 2d3f e974 c43e
00000010: e6d2 64be df8b b33d 048d 223e ea6c b13e
00000020: 9c72 a3be f063 bdbe 8e00 a5bd 96d5 263d
00000030: ac03 8dbf d3b1 703e 558c 2b3e 1bf5 8b3e
00000040: f831 2dbc 466a e1bc d3a4 4d3e 9161 4b3f
00000050: 23a3 ccbd 6ab2 993e fafa dbbe 68df a4be
00000060: fc4f 59be bc14 8cbe b52e 51be d042 8c3b
00000070: 7ce2 0d3e a87c 283f 9b14 c63e c6a6 1fbf
00000080: 6f68 00be f9d9 cabc edea bf3e dd61 15bf
00000090: f284 033c 587b c1bd fba2 efbe 593c 293e
000000a0: 3ef5 5b3e 2d6a 34bf eca4 673d 4ccb 693e
000000b0: c3bb 173f 2f5a 1e3f 447d fc3c 243c b2be
000000c0: 719e ab3e be45 39be a4dd d73e d103 753e
000000d0: beb3 77be 7d75 793d 8692 cdbe 0de4 67be
000000e0: 1217 58be b31b 4a3f cb71 b63c ad18 85be
000000f0: 4fbf 80bd 7c0a 08bf 6c67 b53e 348a 233e
00000100: 5769 a0be 8bd4 cd3e 8ac2 773b 077e 753e
00000110: fb7e f13e acd3 d53e b5fd 0abf bfc5 a4bd
00000120: 6e4a 043f defc 963d 6ac1 1ebc 362b 6c3c
00000130: 898a d23e 62a4 9dbd a7c0 ca3d e3c6 c9be
00000140: 305b 203e f2a6 24be 9f33 e03e 0776 debe
00000150: 33d7 353f 78db 15be c0a5 aa3e c694 0b3e
00000160: 0700 173e 8bb6 1cbf e4c0 a9be adf2 8fbe
00000170: e236 2b3e 4f85 2fbd d9c8 45be 33de babe
00000180: bf0f ddbc 0493 453e d38c b83e 77f0 d03e
00000190: ecc5 67be 939d b23d 4f01 0c3c c99a 28be
000001a0: 68d5 87be f5aa 89be c9e0 d23e 5300 353f
000001b0: e71f 153f 2c6c 883e 3393 dcbe 1efb 0e3f
000001c0: 69f8 80be cd79 49bd 0513 ce3e f9fa 423e
000001d0: 9bd6 2abe 787a eabe 36ba 593e 6ad5 863f
000001e0: de66 1ebd c17a 11bf 6acf 18bf 2bc9 cc3d
000001f0: 8e5c 123f eb95 423d 95b7 9f3d 09b4 07be
00000200: 900d 15bd be21 edbe 96f4 183f 26a5 e73e
00000210: 9fc2 573c 9ac0 a53c a489 8c3e 1fb7 0d3e
00000220: 7dc2 41bf 89fb aabe f012 c73d dba1 c8bb
00000230: cb5d bebe 5c05 97be 6876 e93d a9c8 8c3e
00000240: d67e 2bbe 8e0b c63e 4da0 32bc 4191 cc3e
00000250: e3fd 533e e14c ed3e 2979 e4be 9a6d 173e
00000260: aaf9 193f 876c ca3d a558 b53e e077 01bf
00000270: c12c ec3e dee4 fb3d fe75 303e 7d00 d4be
00000280: ff83 e6be d2a3 f3be eba1 803e 160b 983c
00000290: 0aa7 783e afdd bdbc 2be3 663e 425c a43e
000002a0: e4ba 4d3e c41a d9be d74a 343f dff5 093e
000002b0: 5be6 eebe 39b5 d6be 2352 063e f7a7 1dbe
000002c0: 083b dbbe 99c6 5e3e 4d48 67be 2788 00bf
000002d0: fb68 a1bd d754 53bd 4fc2 793f 5def 863e
000002e0: bfa4 173e 3c4a afbd 9533 063d 2e0a a43e
000002f0: 3f82 d63d 6a1f c9be 039c 8b3e 90bd 63be
00000300: 4357 0e3e c7a3 283f 6a69 8c3d c586 d1be
00000310: f11a 793e dcb4 713e 7d36 babe e082 c53e
00000320: 8f3e 2abe be4e 04be c863 21be e712 cfbe
00000330: 6799 803c 264b 803e d055 92be ef29 ebbe
00000340: c555 663e 5b46 95be a993 1f3f c64c c83e
00000350: 3391 6c3e c030 293e 2932 b13d bca7 873e
00000360: 134e d13e e9a4 b43d 91b6 da3d e3d5 c53e
00000370: ce04 acbe a7ad 373f dcdc 50bd 12e3 edbd
00000380: d7df a53e ccfa 343e 1b88 27be 7db2 d4be
00000390: 8f7a c9be cae1 12be 322e e6bc 70bd 39be
000003a0: bc7a 67be fd04 b43e 04df f6bc d915 c0be
000003b0: b46a b0be b62e 53bf 2505 fabe ec84 e3be
000003c0: 66e7 b1be 6667 28bf 9cfc a73c 9a1a 933d
000003d0: cc63 5a3e 3805 83be 99ff 3dbc 3228 063e
000003e0: 30bb b0be 04c0 243e 9f33 433c ba9c 683e
000003f0: a3df fd3e ecad 89be 118f 803d c46b 00be
0.07437548 0.45578146 0.6786536 0.38370445 -0.22346076 0.08766913 0.15874106 0.34653407
-0.31923378 -0.3699031 -0.080567464 0.040731035 -1.1016746 0.23505335 0.16752751 0.27335438
-0.0105709955 -0.027516495 0.20082407 0.7944575 -0.09992053 0.30018932 -0.42964917 -0.32201695
-0.21221918 -0.2735957 -0.20427974 0.0042804256 0.13855928 0.6581521 0.38687596 -0.6236385
-0.12539838 -0.02476214 0.37483922 -0.5835245 0.008027302 -0.09447354 -0.46804032 0.16526927
0.21480271 -0.7047451 0.056553766 0.22831458 0.59270877 0.6185636 0.03082145 -0.3481151
0.3351932 -0.18093011 0.42161286 0.23927237 -0.2418966 0.06090306 -0.4015085 -0.22645588
-0.2110255 0.78948516 0.022271058 -0.2599539 -0.06286489 -0.53141 0.35430467 0.15970689
-0.31330368 0.4020122 0.0037805163 0.23973857 0.4716719 0.41763055 -0.54293376 -0.080455296
0.5167607 0.07372449 -0.009689668 0.014414599 0.4112132 -0.07697369 0.09900027 -0.3940955
0.15659785 -0.1607931 0.43789384 -0.43449423 0.7103149 -0.14634502 0.33329582 0.13630971
0.14746104 -0.6121604 -0.33154976 -0.28114834 0.16720155 -0.042851742 -0.19314899 -0.3649765
-0.026985047 0.19294363 0.3604494 0.4080846 -0.22634095 0.08721461 0.008545234 -0.16465296
-0.26530004 -0.26888242 0.41187122 0.7070362 0.58251804 0.2664503 -0.43081054 0.55851924
-0.25189522 -0.049188424 0.40248886 0.19041051 -0.16683428 -0.4579656 0.2126244 1.0533879
-0.03867232 -0.5682793 -0.5969149 0.09999307 0.5717248 0.047506254 0.07798687 -0.13252272
-0.036389887 -0.46314806 0.5974821 0.45243186 0.01316896 0.020233441 0.2744876 0.13839386
-0.7568739 -0.3339503 0.09720409 -0.0061228103 -0.37180933 -0.29496276 0.11399537 0.27496842
-0.16747603 0.3868069 -0.0109024765 0.3995457 0.20702319 0.46347716 -0.44623688 0.14787903
0.6014658 0.09883981 0.35419193 -0.5057354 0.46127895 0.12299512 0.1723251 -0.41406623
-0.4502258 -0.47585922 0.25123534 0.018559974 0.2428247 -0.023176996 0.22547595 0.32101637
0.20090824 -0.42403233 0.70426697 0.13472699 -0.46660122 -0.41935137 0.1311727 -0.15396105
-0.42818475 0.21755446 -0.22586174 -0.5020775 -0.078813516 -0.05159458 0.97562116 0.26354495
0.1480894 -0.08559081 0.032764036 0.32039016 0.10474061 -0.3928178 0.27267465 -0.22240281
0.13900475 0.65874904 0.06856044 -0.40923133 0.24326684 0.23604149 -0.36369696 0.38576412
-0.16625427 -0.12920663 -0.1576072 -0.4044411 0.015698148 0.25057334 -0.28581095 -0.4593043
0.22493656 -0.2915524 0.62334687 0.39121073 0.23102264 0.16522503 0.086521454 0.2649516
0.40879878 0.088205166 0.10679353 0.38639745 -0.33597416 0.7174935 -0.050991878 -0.11615576
0.3239734 0.17673796 -0.16360514 -0.41542426 -0.39351317 -0.14343944 -0.0280982 -0.18138671
-0.22605413 0.35160056 -0.030135639 -0.37516668 -0.34456408 -0.8249315 -0.4883205 -0.4443735
-0.34746855 -0.65782773 0.020506196 0.07182808 0.21327132 -0.2558992 -0.011596584 0.13101271
-0.34517813 0.16088873 0.011914163 0.22716036 0.49584684 -0.26890504 0.06277288 -0.1254111

network_body._body_endoder.seq_layers.0.bias f4 [128]
00000000: b129 f63b a8e8 ffbb 7e6d 1dbc 8630 553b
00000010: d102 d2bb b051 15bc b055 1abc 6fd5 27bc
00000020: c5c2 59ba a2e4 1fbb 8f4f 41bc 9405 8e3b
00000030: db94 493c e80c 3bbc 301a 43bc fba4 2b3c
00000040: 9402 5fbc 0c9f c8bb 6d31 0bbc f359 b5bb
00000050: f8bc 473c 2628 48bc 718b 55bc 0ce0 3e3c
00000060: 11e9 063c 7547 c4bb a538 54bc c736 37bb
00000070: a150 48bb 9b5c 573b 7eaa bebb a47f 833b
00000080: 00dc 363b c711 1abc 2a09 d5bb 61b3 7e3a
00000090: 4c6f b23b 9247 0cbc 6155 21bc 0c17 e13a
000000a0: 3707 2abb 679a 2d3c 423b 37ba c762 363b
000000b0: ca51 56bc b045 e5bb aa11 f43b 7848 d0bb
000000c0: 9082 27bc 2e80 aabb ac45 2fbc f76f bb3b
000000d0: ee1f 7cbc bfb7 fd3b 484b b93b 8277 1fbc
000000e0: d7a7 27bc 592f 35bc 6dbd 60bb c1b7 3e3c
000000f0: 6a22 f03a 0b14 653b d72c 23bb ca6b 9c3b
00000100: 3557 9abc 96f3 653c b21f 56bc f903 cb39
00000110: b30d 0dbc 7898 89bb 07f2 d23b 4cf9 a73b
00000120: 052b e9ba 48a8 12bc 217d 8dbc 8de5 36bc
00000130: 8780 793b 80c0 31bb 41d8 69bc 70db 06bc
00000140: f630 ff3b e01a fe3a b495 9a38 2707 2dbb
00000150: f377 463c d65b 4b3a 4c61 64bc 31a5 1bbc
00000160: c427 923a b177 58bc 812f be3a 0197 ae3b
00000170: fa5d 9a3b b3ff 7d3c 7431 97bb e4fd 613b
00000180: 0d16 9db9 8f8f 12bc 52c4 a638 d841 babb
00000190: eb31 f7bb d406 1e3b 8fa2 8ebc 7ea7 31bc
000001a0: dc08 ca3a 3830 043c 32bf 62ba a3ae 3c3c
000001b0: 7838 36bc af47 e93b 90b6 22bb a2ba 013c
000001c0: 6867 2a3c 35f6 7bbb c758 b0ba 5de4 9abc
000001d0: 5912 ccbb f7d0 153b 826f a7bb 5c5d 083c
000001e0: a93a 9a3b 378d ec3b 70ea 6e3c 35c4 2f3b
000001f0: f613 2b3c 8097 cfbb 5d07 0d3b dc55 e6ba
0.007512294 -0.007809717 -0.0096086245 0.0032530143 -0.006409027 -0.009113714 -0.009419844 -0.010243758
-0.0008306916 -0.002439775 -0.011798753 0.004334161 0.012303556 -0.011416651 -0.011908099 0.010476346
-0.0136114545 -0.0061224755 -0.008495671 -0.0055344044 0.01219105 -0.012216603 -0.013033734 0.011650097
0.008234278 -0.0059899637 -0.012952958 -0.0027956234 -0.0030565637 0.0032861594 -0.005818664 0.0040130187
0.0027902126 -0.0094036525 -0.0065013366 0.00097160606 0.0054453965 -0.008561986 -0.009847016 0.0017173006
-0.0025944242 0.010595894 -0.0006989726 0.0027829872 -0.0130810235 -0.006996833 0.007448395 -0.006356295
-0.010224 -0.0052032685 -0.010697763 0.0057201344 -0.015388472 0.0077428515 0.005654726 -0.009733083
-0.010232887 -0.011058652 -0.0034292594 0.01164049 0.0018320803 0.0034954573 -0.0024898553 0.0047735916
-0.018840412 0.014035126 -0.01306908 0.00038722137 -0.008609223 -0.004199084 0.0064375433 0.005126154
-0.001778931 -0.008951254 -0.01727158 -0.011163128 0.0038070993 -0.0027122796 -0.01427275 -0.008231029
0.007787819 0.0019386671 7.3711766e-05 -0.0026401968 0.012113559 0.000775752 -0.013939213 -0.009499834
0.0011150767 -0.01321213 0.0014510007 0.0053280597 0.00471091 0.015502858 -0.0046140496 0.0034483606
-0.00029961803 -0.00894536 7.952064e-05 -0.0056841187 -0.0075437925 0.0024112957 -0.017411498 -0.010843156
0.0015414017 0.008068137 -0.0008649706 0.011516246 -0.011121862 0.007119141 -0.0024828054 0.007918032
0.0104006305 -0.0038446311 -0.0013454192 -0.01890772 -0.006227773 0.0022860148 -0.0051097283 0.00832304
0.0047067 0.0072189826 0.014582261 0.002681983 0.010441771 -0.006335199 0.0021519281 -0.0017573196

action_model._continuous_distribution.log_sigma f4 [1, 2]
00000000: ddb0 5d3a 81fa 5abc
0.00084568356 -0.013365389

action_model._continuous_distribution.mu.weight f4 [2, 128]
00000000: dc79 413c 9f1c 0ebc a747 23ba 3132 903b
00000010: 5373 c5bc 43ca 07bb 0864 ac3a 06c8 55bc
00000020: 0866 b5bc 0e68 3abc 05e5 fcbb ec3d 8cbc
00000030: ee0f 183c b1dc 9abc 9678 4abc bd5e 51bc
00000040: 9d5c 86bc 8944 9c3c 1225 ebbc ac8f 3bbc
00000050: a285 093c 868a 2c3c e968 e1bb af45 75bc
00000060: 6bec ad3c 77fb d0bb 4734 babb c740 a33c
00000070: 6aec 0ebd 8502 9a3c 4082 b3bc f4d5 3b3a
00000080: af63 27bd 31de 193d a3f4 943c 0b2d 953c
00000090: 7938 223d bc7c a5bc 8640 f23b 457f a73c
000000a0: 56f4 9bbc 1761 a33b 3ab2 0cbc 064c 71bc
000000b0: aa6e c73b 503f cb3c d4e0 6dbb 4c67 a43b
000000c0: 2851 c1bb 645f f0bc 05e7 25bc d03b 2abd
000000d0: 8ccd 9d3b 227a 213c 24f2 653c 0e75 58bc
000000e0: fbe2 9f3c 39a1 60bc 0911 df3c d68c 023c
000000f0: 1e68 1bbd 1a21 5dba 3ca1 42bd b227 423d
00000100: c630 88b9 8952 babb 54bc 2ebb a062 3bbd
00000110: 7418 9ebc 88b9 833c cfa6 92bc 27c7 29bc
00000120: 0ba6 b7bc 33cf bdbb 8d77 943b 0676 cbbb
00000130: fefb 563b 8f43 ba3c b5a2 96bb 44c0 4abc
00000140: de34 783c 3549 803c d795 3cbd 5323 bfbc
00000150: 12fe 703c 3851 4b3d e914 57bc fca7 ac3b
00000160: ffe9 2b3d 994b 073c a9ed 783a 0908 253c
00000170: 5b87 b6bc 7355 b5bb 6efd e63b 3572 d6bb
00000180: d33b 693b 88fe ecbc 4e1c 67bd f1b2 c6bc
00000190: 8924 143c bbe8 d63c 2956 9abb 83eb eeba
000001a0: d0ef 55bc e276 5f3c 0d11 0fbc ffcf 093a
000001b0: e65d 87bc 366f 053a 793b 473d eba2 213d
000001c0: 3ce2 9c3c 596f cabc 24a2 1dbd 11d4 18bb
000001d0: a08a 163c bd3a 373c e709 babc f7c8 38bb
000001e0: 4040 0a3b 799f 07bc 376d 363c ffae 6cbd
000001f0: e7fe 583c a649 213c 076c acbc 9630 9c3c
00000200: 7e55 0cbc 91e5 223d 3937 8b3b 67ec 2fbb
00000210: 7c62 4d3c 8736 173c 5370 693c 2994 1b3c
00000220: 2252 7dbc b16f 99ba b638 cb3c 94dd 03bc
00000230: aa09 c5bc 4000 393c c6e2 663a a342 9fbc
00000240: 7d0a bc3c 31ec 093d 8468 9c3c 3bf7 6a3c
00000250: e909 50bc b925 033d a1f4 ff3b 117a a5bc
00000260: 621b 0bbc 6281 8b3c 58dd c33c 2d86 863c
00000270: 1316 ca3c 7cbf 8ebc 95c6 37ba 83d6 bcbb
00000280: 5818 e5bc 6ac0 dc3c 7287 293c c0f4 0abc
00000290: 873d aabc ab22 c1ba f618 ee3c b9fb 4abb
000002a0: d47d 133b 861d e0bc 5d39 8abb e9b6 aebb
000002b0: 403d e13c 1c0c 4d3c 2cba 8ebc d2df 7d3c
000002c0: 5d31 b53c a4b7 cdbb 0cdc c8bb fdd5 6ebc
000002d0: 7e18 a23c 4e59 cbba 0d00 caba 997b 9b3c
000002e0: 08a1 ae3c 6a54 803c d22f 663c dded c5bc
000002f0: 8143 67bc 4d35 58bb 6c23 683b 580c 0ebc
00000300: f955 543c 8b1e 29bc 62fa 063c 2299 32bb
00000310: 98f0 223d 1f48 e33b f1dc 96bc e8ea 50bc
00000320: 6059 83bc 757e c83b cf35 353c e6a8 123c
00000330: 405d 73bc e948 f93c a590 ed3b 7f4d 1d3c
00000340: 70a6 0abd 2d88 37bb 47c4 55bc 915a ddb9
00000350: 1283 b0bc 81f8 ef3b a56f 013d 5dc5 e83c
00000360: 3225 ca3c 5d34 0e3d eff7 00bb 981c 2fbc
00000370: e557 0bbc 32e0 97bc 103f 693b 02d5 0ebd
00000380: 1797 57bc 1989 643d e64b 1b3c cf9b c23b
00000390: ac2c 393c b881 a9ba 071a 123c 0f0f 0dbb
000003a0: f2a2 abbc 6d39 94bc d788 18bb e23b 04bd
000003b0: 60f5 473c d35e bbbc b280 c83c 5214 c1bc
000003c0: 6913 9cbc c4c0 12bb 9af7 80ba c715 ec3b
000003d0: af5d 863c 3393 283b 6eb1 b23c 5929 a8bc
000003e0: 43ae 11bd cc98 01bd c5d4 56bd 331b 13bc
000003f0: e90e 9cbc 3741 b03c 97ed 17bc 0a0f 913c
0.011808839 -0.008673816 -0.00062286336 0.0044005145 -0.024102842 -0.0020719923 0.001315237 -0.013048178
-0.022143379 -0.011377348 -0.007717731 -0.01711937 0.009281142 -0.018904062 -0.0123578515 -0.012778935
-0.016401583 0.019075649 -0.0287042 -0.011447828 0.008393677 0.010531073 -0.0068789613 -0.014970227
0.021230897 -0.006377633 -0.0056825015 0.01992835 -0.03489343 0.01880003 -0.021912694 0.00071653654
-0.04086655 0.037565414 0.018183058 0.018209955 0.039604638 -0.02020108 0.0073929457 0.020446429
-0.019037407 0.0049859392 -0.008587414 -0.014727598 0.00608619 0.024810463 -0.0036297338 0.0050171968
-0.005899567 -0.02934236 -0.01012588 -0.041560948 0.004815763 0.009855779 0.014034782 -0.013211502
0.019517412 -0.0137103135 0.027229803 0.007968148 -0.03794109 -0.00084354135 -0.047517046 0.047401138
-0.0002597628 -0.0056861085 -0.0026662545 -0.045748353 -0.01929877 0.01607968 -0.017901806 -0.010362423
-0.022418043 -0.0057925223 0.004530853 -0.006209138 0.0032804008 0.022737293 -0.004597033 -0.012374941
0.015149323 0.015659908 -0.046041336 -0.023332274 0.014709013 0.049638003 -0.013127544 0.0052690487
0.041971203 0.00825777 0.00094958633 0.0100727165 -0.02228134 -0.005533868 0.007049254 -0.0065443763
0.0035588637 -0.028929964 -0.056423478 -0.024255248 0.009041914 0.026234021 -0.004709978 -0.0018228147
-0.013057664 0.013639184 -0.008732093 0.0005257129 -0.016524266 0.0005090119 0.048640702 0.03946201
0.019150846 -0.024711298 -0.038484707 -0.002331976 0.009188324 0.011183438 -0.0227098 -0.0028195956
0.0021095425 -0.008277767 0.011134437 -0.057784077 0.013244367 0.009844219 -0.021047605 0.019066136
-0.008565305 0.039769713 0.0042485264 -0.0026843788 0.012535688 0.009229309 0.014247972 0.009495773
-0.0154614765 -0.001170626 0.024807315 -0.008048434 -0.02405246 0.0112915635 0.00088075956 -0.019440955
0.02295422 0.033672515 0.019092806 0.014341171 -0.012697675 0.032018397 0.0078111445 -0.020199807
-0.008490415 0.017029468 0.023909256 0.016421402 0.024668729 -0.017425291 -0.0007010487 -0.0057628765
-0.02796571 0.026947219 0.010347234 -0.0084812045 -0.020781292 -0.0014735063 0.029064637 -0.0030972792
0.002250542 -0.027357828 -0.004218264 -0.005331863 0.027495027 0.012515094 -0.017422758 0.015495257
0.022118265 -0.006277995 -0.0061297473 -0.014577386 0.01978707 -0.0015514286 -0.0015411392 0.018979834
0.02131702 0.015665252 0.014049487 -0.024161274 -0.014115215 -0.0032990754 0.0035421504 -0.008669935
0.012959951 -0.010322223 0.008238407 -0.0027251919 0.03978023 0.0069360877 -0.0184159 -0.0127513185
-0.016033828 0.0061185905 0.011060192 0.008951401 -0.0148537755 0.030430274 0.007249909 0.009600996
-0.033850133 -0.002800475 -0.013047284 -0.00042219882 -0.021546874 0.007323325 0.031600613 0.028414423
0.02467594 0.034717906 -0.001967903 -0.01068797 -0.008504842 -0.018539522 0.0035590567 -0.03487111
-0.013158581 0.05579481 0.009478545 0.005938984 0.0113021545 -0.0012932336 0.008917338 -0.0021523868
-0.020951722 -0.018093789 -0.0023274922 -0.03228367 0.012204498 -0.022872364 0.02447543 -0.02356926
-0.019052224 -0.002239273 -0.0009839416 0.0072047445 0.016402094 0.0025722503 0.02181312 -0.020527529
-0.03556658 -0.03163986 -0.052449007 -0.008978653 -0.019050078 0.021515472 -0.009272954 0.017707366

action_model._continuous_distribution.mu.bias f4 [2]
00000000: 74f5 393b db6a 4cbc
0.0028375061 -0.012476648

exp_avg f4 [128, 8]
00000000: 58aa 9938 85e6 0239 b6d3 ee38 415e 8637
00000010: 2401 1638 96c1 58b8 d7cc 5d38 56d8 2b38
00000020: 1b16 cb38 54da 5c39 4dd8 4338 f341 8738
00000030: 8603 9038 e602 d239 d76a 2939 c508 9a39
00000040: f7fd 23b8 5464 9bb7 78c6 76b6 033d 88b7
00000050: b5d7 0e36 3874 c137 9464 f137 d893 6536
00000060: bf3b 6c38 d011 c137 36f2 16b8 ad24 1338
00000070: 86c6 5936 9768 b4b8 6532 4b38 fdfd db36
00000080: 0db5 0fb9 430e 67b9 e6c2 2739 cf20 00ba
00000090: 52e9 8639 1819 9f39 14e0 b5b9 f6bd 0238
000000a0: 6a85 7cb8 597e 44b8 e403 db37 67c4 29b8
000000b0: f83d e9b7 f37a 5f38 1db4 12b7 43f4 a0b7
000000c0: d569 ddb8 a64b aeb8 6ae5 edb8 5141 e836
000000d0: f44a 10b8 0d6d 0238 1f16 4139 9102 06b6
000000e0: ff79 3c38 3eea db37 11d7 0eb9 7dac 0fb5
000000f0: 4034 47b8 f30c d337 bb1d 93b8 05ad ef37
00000100: 50b7 8fb8 263e 1fb8 2694 a839 9d29 f5b9
00000110: 62c7 8f39 7363 3d39 dd84 0dba 621d ed38
00000120: 1072 e038 9fd7 5038 f02a 6b38 8627 82b8
00000130: b549 1238 71b0 aa36 675c 4eb9 6cf2 c737
00000140: a25f b9b8 1407 37b9 e71f bcb8 2e59 60b8
00000150: 8f7f d6b8 eb4f 0a39 9cc0 6db8 7f79 bab8
00000160: 088d 09b9 a0eb 08b8 5bce 4c39 eb68 90b9
00000170: 67cb 9f38 cb53 6439 190b b8b9 cb21 63b8
00000180: 5d25 5239 bbf4 2939 85e3 da38 319d 1d38
00000190: 3179 5038 c0c5 44b9 04c8 ffb8 268e 6637
000001a0: 7e70 84b9 18c3 72b9 458a 1939 f02a 25b9
000001b0: e35a 3e38 de72 4739 b81b 17b9 e66b 7db8
000001c0: 1521 deb7 86d5 b337 f48d 7eb7 1b64 39b7
000001d0: a947 4a38 d884 9637 b17b fdb8 7f7e 2e38
000001e0: ae12 efb8 a038 96b7 09a5 87b8 5342 72b7
000001f0: 675e 4f38 ca34 48b7 9c5c 36b9 3094 c5b7
00000200: 06e8 91b9 d8c7 39b9 8dab 9b38 4be8 8cb8
00000210: c494 9937 9952 9339 2540 15b9 4e86 32b8
00000220: c95c 1c3a 7485 0d39 df86 3835 50ee d939
00000230: bd3b 6b37 5048 7cb8 e6b7 8a39 e372 8239
00000240: 65c3 99b9 f93d 77b9 b609 1339 8c05 aab9
00000250: 5dbf 3a38 bcae ae39 28c9 0eb9 e0da 25b8
00000260: 9e25 14b8 0208 18b9 4f17 79b8 88c5 37b9
00000270: 7f19 1937 9380 da38 8275 23b9 6622 10b8
00000280: 0e1b a638 ee21 9138 ff20 8bb8 799c b8b5
00000290: 528b d537 8a0a 36b9 711a b638 157b d237
000002a0: 700e e1b8 3aeb 11b8 8fa9 35b9 18ef aeb8
000002b0: 5921 7938 b034 b138 8afa 4239 aed9 5639
000002c0: e884 deb7 dba3 3e38 da38 9337 d65d c0b7
000002d0: 9a1c 18b8 bc09 1239 f48b d4b8 e9ad 0038
000002e0: 1eae aa38 2ddc 0539 5e73 16b5 f9db 4a39
000002f0: 12b4 ceb5 d851 ccb8 65b7 c4b8 5951 9bb7
00000300: d234 7b38 d4ff 5d39 3f16 22b7 6331 a739
00000310: 53f9 f0b8 a94d d3b8 2100 6839 f1e6 3cb6
00000320: b65d 2038 12bc 41b8 188d a137 957b deb7
00000330: 7133 8538 c6ac 3d39 8bf3 3038 4a5d 7c38
00000340: 6f1a 91b9 c01d 5bb9 cddf edb8 d4cf 51b8
00000350: 019c 05b9 3fb5 de38 0f40 ca38 c974 f5b8
00000360: 6ee2 03b9 c22d ab38 6d79 14b9 96c8 b337
00000370: 6587 80b8 b913 6db8 e2bb 9739 ec65 d838
00000380: 8998 5439 2c59 9c38 87f7 a4b8 dc3f ceb9
00000390: b52a 8038 11d6 9d39 1f66 88b9 ebf5 9f38
000003a0: ef57 2cb9 6674 feb7 c555 3eb7 3f39 2239
000003b0: 94a9 36b9 214f 4db9 4e5e bc38 714a d2b8
000003c0: 5d6b 90b9 b02d a0b8 3ce2 8139 2c32 6db9
000003d0: 9e14 d438 cffb b339 15da afb9 6d90 25b8
000003e0: fe0e 3837 09ad 0438 1358 ceb6 ce7a 0cb6
000003f0: 7ed3 d137 4fb8 34b8 0d30 98b7 c83b 9f37
7.3273375e-05 0.00012483641 0.000113881586 1.6017935e-05 3.576385e-05 -5.1678704e-05 5.2881278e-05 4.0971056e-05
9.683912e-05 0.00021062169 4.669307e-05 6.4495856e-05 6.8671114e-05 0.0004005648 0.00016156897 0.00029379703
-3.909875e-05 -1.8524159e-05 -3.677238e-06 -1.6240874e-05 2.1285207e-06 2.3061511e-05 2.8776274e-05 3.4209716e-06
5.6322428e-05 2.3015687e-05 -3.5988363e-05 3.5081688e-05 3.2451076e-06 -8.60255e-05 4.8445905e-05 6.5562767e-06
-0.0001370499 -0.0002203519 0.00015998966 -0.00048877014 0.0002573231 0.0003034554 -0.00034689961 3.117133e-05
-6.0205733e-05 -4.6847712e-05 2.6108646e-05 -4.0475654e-05 -2.7804621e-05 5.328185e-05 -8.744214e-06 -1.918723e-05
-0.00010557814 -8.311057e-05 -0.00011343772 6.9217426e-06 -3.440208e-05 3.1095977e-05 0.00018414155 -1.996905e-06
4.493631e-05 2.6215912e-05 -0.00013622294 -5.3522655e-07 -4.749396e-05 2.515919e-05 -7.015044e-05 2.8571589e-05
-6.852916e-05 -3.7966434e-05 0.00032153836 -0.00046761046 0.00027423637 0.00018061492 -0.00053985213 0.000113065136
0.00010702398 4.9791877e-05 5.6068355e-05 -6.206245e-05 3.4877758e-05 5.0869353e-06 -0.00019680113 2.3835535e-05
-8.8393004e-05 -0.00017454877 -8.970481e-05 -5.3488817e-05 -0.00010228075 0.00013190477 -5.6684585e-05 -8.8918016e-05
-0.00013117876 -3.264437e-05 0.0001953183 -0.0002754399 7.6195975e-05 0.0002177499 -0.00035103483 -5.415249e-05
0.0002004108 0.00016208265 0.00010437429 3.7578113e-05 4.9703933e-05 -0.00018765684 -0.00012196603 1.3742165e-05
-0.00025260815 -0.00023151597 0.00014642726 -0.00015751622 4.5384175e-05 0.0001902091 -0.00014410808 -6.042039e-05
-2.6479867e-05 2.1437892e-05 -1.5172631e-05 -1.1050167e-05 4.822729e-05 1.7943254e-05 -0.000120870194 4.160264e-05
-0.000113998874 -1.7907762e-05 -6.468042e-05 -1.4439766e-05 4.9440565e-05 -1.193322e-05 -0.00017391372 -2.3553235e-05
-0.00027829426 -0.00017717422 7.42293e-05 -6.718988e-05 1.8308296e-05 0.00028099565 -0.00014233643 -4.2563588e-05
0.0005964754 0.00013496523 6.8741605e-07 0.00041567022 1.4021e-05 -6.014883e-05 0.00026458426 0.0002488113
-0.00029328014 -0.00023578842 0.0001402263 -0.0003242906 4.4524077e-05 0.00033318053 -0.00013617112 -3.954291e-05
-3.5320983e-05 -0.00014498833 -5.9387934e-05 -0.00017525826 9.125447e-06 0.00010418999 -0.00015588666 -3.436431e-05
7.920536e-05 6.920459e-05 -6.6341825e-05 -1.3754608e-06 2.5456455e-05 -0.00017360799 8.6833614e-05 2.5091265e-05
-0.00010731525 -3.4789766e-05 -0.0001732467 -8.341501e-05 5.9397284e-05 8.4498315e-05 0.00018594615 0.00020489722
-2.6526352e-05 4.5452132e-05 1.755024e-05 -2.293188e-05 -3.626626e-05 0.00013927271 -0.00010135016 3.0679545e-05
8.1386635e-05 0.0001276589 -5.6047236e-07 0.00019346167 -1.5400603e-06 -9.7427226e-05 -9.380168e-05 -1.851532e-05
5.9892256e-05 0.00021171506 -9.661132e-06 0.00031889518 -0.00011490532 -0.000100757294 0.00022125292 -2.8148609e-06
3.8234248e-05 -4.618994e-05 1.9258398e-05 -2.652201e-05 6.351516e-05 0.00018088808 4.2188487e-05 6.0168364e-05
-0.0002767625 -0.0002089655 -0.00011342727 -5.0023038e-05 -0.00012741984 0.000106195446 9.6440424e-05 -0.00011704263
-0.00012577485 8.1624385e-05 -0.00014159615 2.1431868e-05 -6.128735e-05 -5.652357e-05 0.00028940948 0.00010318667
0.0002027472 7.455269e-05 -7.866235e-05 -0.0003933896 6.1114704e-05 0.00030104865 -0.00026016028 7.6275166e-05
-0.00016435956 -3.0333362e-05 -1.1344852e-05 0.0001547085 -0.00017420045 -0.00019579801 8.982104e-05 -0.00010027446
-0.00027545812 -7.6379045e-05 0.00024773355 -0.00022620772 0.00010112788 0.00034329153 -0.00033541085 -3.9473573e-05
1.0970745e-05 3.1632404e-05 -6.1495316e-06 -2.0933107e-06 2.5013225e-05 -4.3086995e-05 -1.8142187e-05 1.8982115e-05

exp_avg_sq f4 [128, 8]
00000000: 1015 4834 65ce 8834 ade4 af34 44fd 9834
00000010: 98d4 5234 71fd 8134 3eb4 0a34 69e3 6934
00000020: c84b 8f35 5af4 7d35 5b4a c135 6dba 7f35
00000030: c469 4c35 147c b935 1d9f 3535 c399 1a35
00000040: 3b2c 1933 f238 2333 bb82 6833 8094 4733
00000050: 38e6 e532 5481 4233 dfa5 3933 f7e8 a832
00000060: 1eb2 8533 f2a8 4333 d36c b633 b1f3 8433
00000070: e4c1 2133 60cf be33 83c0 0533 1646 1633
00000080: 6785 a735 2419 9a35 d63d ed35 e0fa f035
00000090: 6abe 9035 932e d335 ed54 8e35 b3bb 9035
000000a0: cc84 8d33 816b 4a33 0859 c933 197b 9d33
000000b0: 0c43 6633 3f1e b733 8336 6133 9ef9 1233
000000c0: 4e03 e333 3206 e033 3abf 3934 3fab 0934
000000d0: b799 c633 a3aa 0d34 c8fc 1634 75ab 9833
000000e0: 1a4d 3a34 6e5d ba34 1f1b 8034 93a7 ae34
000000f0: cf7d 8734 eb25 4c34 95e4 1134 06c0 a134
00000100: 3570 bf35 884c ab35 60dc ea35 1c20 0136
00000110: cc59 8a35 229a e335 ab95 8b35 ac62 9235
00000120: efd5 9032 4f6e eb32 3696 da32 0771 a532
00000130: 3571 b832 a13f 8d32 b264 c832 20e3 a532
00000140: 0ed4 5935 55db 7535 1b83 9135 ccf7 a935
00000150: 498d 7c35 97f4 7e35 f257 1a35 dad2 7735
00000160: f02d c233 f119 1c34 8cb4 2534 b702 e433
00000170: c9a5 e533 0a2b ef33 6667 2134 5b5c 9e33
00000180: e776 a934 d53e b334 d7f8 0435 2fb2 b834
00000190: 8cde 6a34 87c5 d734 bcdc 5534 48fd 5634
000001a0: f396 3735 e01d 3d35 60ba 7635 167a 8835
000001b0: 48bd 2235 315d 4c35 f433 2335 bb3c 1835
000001c0: 49e2 1334 e74c 6f34 1ed6 5934 8c25 7834
000001d0: 18ca 3534 34b1 2934 b32a cf33 62ea 5834
000001e0: 2d54 0e34 6b8a 5f34 349e 7034 e21b 2034
000001f0: 3501 2c34 33df 2b34 ace2 3c34 a2dd d633
00000200: d049 1535 d5c7 1935 eda1 8335 ce41 2d35
00000210: 47be ee34 fd8a 5435 d56d bd34 0c05 cb34
00000220: 68e2 cb35 0d9d 6935 3559 c435 5519 b435
00000230: 5b00 5335 6b8b d235 2a6b 3e35 bbbe 2735
00000240: f944 ea35 bba1 fd35 15da 1836 5619 2c36
00000250: ff56 c735 8b35 0736 8357 d835 d3f6 c735
00000260: f662 9b34 0303 b334 8b3c 0635 1106 0235
00000270: 5781 c034 31f2 d334 a435 8f34 1e47 b934
00000280: 19a6 8f34 98ba 5634 bc54 ad34 58af c134
00000290: 1715 5234 3617 a834 f244 2a34 1f13 3a34
000002a0: 4230 0335 e668 2f35 1e7a 6935 7455 1c35
000002b0: 2ee3 1935 5e82 3535 9508 ff34 ba1f ee34
000002c0: b59d 2c34 a9e8 5a34 b484 6834 71ac 8434
000002d0: 8e9c 4c34 732c 5c34 3328 c833 803a 5834
000002e0: e63f 0934 ab64 5f34 15a9 4c34 3f61 4b34
000002f0: 0166 2934 0c70 1234 917f 1b34 3f8a e233
00000300: 1e02 2535 781e 3c35 323b 6135 26e1 6935
00000310: 11e3 2035 331a 3f35 a094 0b35 c23e 2635
00000320: 7295 fc34 471f 8a34 ed75 0a35 b67d 1335
00000330: 2867 9634 e216 1235 e46a bb34 7a4b 8534
00000340: f0b4 0235 264c 0535 cd0b 5535 43a4 2935
00000350: 8aaf ff34 6182 2335 a183 b134 a50a ed34
00000360: 440a ca34 3fbf e934 8081 4235 419e d134
00000370: 7ed7 ae34 436d 2e35 b0d4 a134 33a5 8534
00000380: 32da 0e35 1a4a 4135 6a05 5535 30d8 2e35
00000390: e0dc 3f35 eadf 2135 4bfa 5335 d22b 3635
000003a0: 6363 5e34 c181 8e34 3f9a 9034 dce2 b334
000003b0: 2e4e 8234 ebe2 6f34 cd6e dc34 a439 7834
000003c0: e4be 9034 6b30 9d34 d110 b834 68b2 9d34
000003d0: 64fd 6d34 97be 9934 3624 7a34 8419 1a34
000003e0: ebb1 5832 eb87 8932 9e10 7432 4b99 9e32
000003f0: 9d27 6532 e39c 5432 0a75 1d32 d99d 6032
1.8634114e-07 2.5482146e-07 3.2762674e-07 2.849648e-07 1.9635115e-07 2.4212525e-07 1.2917823e-07 2.1782547e-07
1.0676386e-06 9.4605423e-07 1.4401261e-06 9.526619e-07 7.614983e-07 1.3819686e-06 6.7659295e-07 5.7593223e-07
3.5663316e-08 3.8003186e-08 5.4135608e-08 4.6468358e-08 2.67638e-08 4.5286768e-08 4.3224528e-08 1.9663714e-08
6.2256944e-08 4.555563e-08 8.4948304e-08 6.191056e-08 3.7662076e-08 8.885286e-08 3.1141564e-08 3.498834e-08
1.2481295e-06 1.1481211e-06 1.7675873e-06 1.7954408e-06 1.0784254e-06 1.573428e-06 1.0604541e-06 1.0783464e-06
6.58998e-08 4.7129564e-08 9.3759866e-08 7.3332735e-08 5.3612027e-08 8.527103e-08 5.2436473e-08 3.42203e-08
1.0571112e-07 1.043194e-07 1.7299035e-07 1.2821418e-07 9.248054e-08 1.3193726e-07 1.40618e-07 7.1092394e-08
1.7350649e-07 3.471318e-07 2.386159e-07 3.2531952e-07 2.5237247e-07 1.9012775e-07 1.3587335e-07 3.0128302e-07
1.4263265e-06 1.2762766e-06 1.7498496e-06 1.9241188e-06 1.0307936e-06 1.6957677e-06 1.0399866e-06 1.0906565e-06
1.6861092e-08 2.7407763e-08 2.5446848e-08 1.9259927e-08 2.14719e-08 1.6443495e-08 2.3328855e-08 1.9311813e-08
8.114738e-07 9.158878e-07 1.0841499e-06 1.26636e-06 9.408291e-07 9.49783e-07 5.749745e-07 9.23215e-07
9.042185e-08 1.453807e-07 1.5432505e-07 1.0617571e-07 1.06937996e-07 1.11371335e-07 1.503191e-07 7.374248e-08
3.1565216e-07 3.3387064e-07 4.953594e-07 3.4402316e-07 2.187391e-07 4.019059e-07 1.9917474e-07 2.0022446e-07
6.839247e-07 7.045146e-07 9.191335e-07 1.0168321e-06 6.0625143e-07 7.6131533e-07 6.0797834e-07 5.6712787e-07
1.3772764e-07 2.2286586e-07 2.0287595e-07 2.311046e-07 1.693046e-07 1.5803818e-07 9.6469556e-08 2.0201836e-07
1.3255404e-07 2.081885e-07 2.2409296e-07 1.4911305e-07 1.6019187e-07 1.6006815e-07 1.7591327e-07 1.0005466e-07
5.5614237e-07 5.7287735e-07 9.807387e-07 6.454328e-07 4.44694e-07 7.917841e-07 3.5283907e-07 3.781537e-07
1.5190572e-06 8.7027803e-07 1.4629101e-06 1.3418418e-06 7.860414e-07 1.5686795e-06 7.093646e-07 6.24899e-07
1.7454432e-06 1.8897039e-06 2.2776705e-06 2.5644745e-06 1.4851975e-06 2.0147734e-06 1.6118723e-06 1.4898491e-06
2.8943003e-07 3.334354e-07 5.000699e-07 4.84376e-07 3.5856894e-07 3.947803e-07 2.6674854e-07 3.451068e-07
2.6756678e-07 1.9998186e-07 3.2285413e-07 3.607663e-07 1.9565447e-07 3.1309327e-07 1.5857566e-07 1.7329556e-07
4.887153e-07 6.534523e-07 8.697697e-07 5.823888e-07 5.732753e-07 6.7617464e-07 4.7503696e-07 4.435404e-07
1.6076122e-07 2.0387473e-07 2.1654961e-07 2.4712384e-07 1.9055935e-07 2.0505267e-07 9.320538e-08 2.013785e-07
1.2782365e-07 2.0805116e-07 1.9060492e-07 1.8941226e-07 1.577646e-07 1.3638072e-07 1.4481908e-07 1.0549092e-07
6.147037e-07 7.0079795e-07 8.390517e-07 8.71269e-07 5.993507e-07 7.119117e-07 5.1997813e-07 6.1931144e-07
4.7047394e-07 2.572726e-07 5.158061e-07 5.49447e-07 2.8014733e-07 5.442254e-07 3.4909237e-07 2.4828097e-07
4.869207e-07 4.965717e-07 7.9365856e-07 6.319644e-07 4.7625173e-07 6.091196e-07 3.3064592e-07 4.4152435e-07
3.76329e-07 4.3538782e-07 7.245908e-07 3.9044428e-07 3.2566817e-07 6.497905e-07 3.0143337e-07 2.489338e-07
5.321664e-07 7.2005935e-07 7.935656e-07 6.5134645e-07 7.147446e-07 6.030301e-07 7.896785e-07 6.786405e-07
2.0711518e-07 2.654397e-07 2.693432e-07 3.350641e-07 2.427127e-07 2.2341162e-07 4.1058811e-07 2.311777e-07
2.696098e-07 2.9278758e-07 3.4284906e-07 2.9373336e-07 2.2164528e-07 2.8637143e-07 2.3296238e-07 1.435165e-07
1.2613309e-08 1.6010707e-08 1.4206448e-08 1.846333e-08 1.3338561e-08 1.2375696e-08 9.165214e-09 1.30744064e-08

exp_avg f4 [128]
00000000: 39a6 0538 57d6 27b8 3b03 89b7 924c ceb7
00000010: 6a02 c438 aa3b e1b6 7f10 e2b8 fda5 a8b8
00000020: 8e4d ad39 f9a3 2f38 c31e eeb8 0826 0339
00000030: a781 f838 aff0 0d38 13db 9d35 fcfe b538
00000040: 8a69 18b8 cb7a 5ab9 571b a438 bbc8 20b8
00000050: a1bb cc37 df63 32b9 c769 0cb7 4ddb f738
00000060: a105 96b8 1cf7 9fb7 1a21 f5b8 b102 10b9
00000070: 0475 d9b7 f070 c938 935c af38 15fc 5e38
00000080: bf85 d839 bf52 11b9 cbbf ceb8 1dc9 edb6
00000090: 68ea a7b6 bd92 bd37 f8fd 07b9 83c0 1db9
000000a0: d6e0 6838 3e37 a438 c2e3 a238 f50c 5437
000000b0: 1f7e 32b9 5375 2db9 10dd 2939 74dd 1db9
000000c0: 2c96 f8b8 c4de af39 bfc1 5d37 77a8 ab38
000000d0: 1147 f8b8 f7ba 12b8 4584 34b8 2e55 6ab8
000000e0: c86a d8b8 34c3 04b6 64f6 d3b8 fa5d 2839
000000f0: c657 b539 2221 1938 0ee7 ee38 4237 2cb9
00000100: 1387 cab8 0a05 b538 e5b6 58b7 5e73 ae38
00000110: eff5 c9b8 2087 f0b8 152b 3f39 5ed1 8138
00000120: f2d6 0839 3cf9 e0b7 cbdf 70b8 5c20 e0b7
00000130: 4019 4c38 5f60 c9b9 7219 2ab8 45f4 16b8
00000140: 8f34 9c39 04ef fcb7 b47a a438 d930 6a38
00000150: 5607 8c38 de67 c7b8 32c3 b6b8 27ed 9e37
00000160: 2413 02ba dfe1 9fb9 a5d8 a536 bada b038
00000170: a429 9a38 7d45 9038 52d4 7cb7 41df 8439
00000180: 8dfc 8bb6 3df2 f6b9 a616 15b8 3224 dd38
00000190: c1d2 29b9 9fae 25b9 4d2f 4bb8 9411 a237
000001a0: 4b6d a339 52c7 c637 9acf 4938 1a3d 5b39
000001b0: 4641 a438 edd6 1439 7b02 06b8 efc6 c8b7
000001c0: 9a8b 0ab8 e4af 1139 eee4 fdb7 d106 4db8
000001d0: 6b2e 37b8 8e52 a3b8 7db2 6938 8375 4339
000001e0: 29b9 8e39 d55c 9739 810a 7639 ea99 8238
000001f0: d64e 7038 8943 16b9 55d4 8438 d7eb 54b9
3.1864478e-05 -4.0015522e-05 -1.6333177e-05 -2.459277e-05 9.346458e-05 -6.7124683e-06 -0.000107795924 -8.041782e-05
0.00033054914 4.1875963e-05 -0.00011354454 0.00012507301 0.00011849711 3.3841174e-05 1.176117e-06 8.678247e-05
-3.6337915e-05 -0.00020835844 7.825222e-05 -3.8333917e-05 2.4406067e-05 -0.00017012608 -8.3692785e-06 0.00011818726
-7.153606e-05 -1.9069346e-05 -0.00011688676 -0.00013733913 -2.5922905e-05 9.605463e-05 8.3618936e-05 5.3163694e-05
0.0004129838 -0.00013859103 -9.85857e-05 -7.086563e-06 -5.0042763e-06 2.2598886e-05 -0.00012969214 -0.00015044403
5.5522505e-05 7.830419e-05 7.767185e-05 1.26392015e-05 -0.00017022387 -0.00016542272 0.00016199448 -0.00015055184
-0.00011853533 0.00033544574 1.32177365e-05 8.1852944e-05 -0.00011838799 -3.4983237e-05 -4.303853e-05 -5.5869277e-05
-0.00010319572 -1.9783156e-06 -0.00010107158 0.00016056738 0.00034588407 3.65089e-05 0.00011391762 -0.00016423783
-9.65727e-05 8.631691e-05 -1.2917187e-05 8.3184554e-05 -9.6302356e-05 -0.00011469261 0.00018231229 6.190197e-05
0.00013050044 -2.681894e-05 -5.7428882e-05 -2.671795e-05 4.8660906e-05 -0.0003840951 -4.0554856e-05 -3.599028e-05
0.00029793798 -3.0152041e-05 7.8429846e-05 5.583544e-05 6.677087e-05 -9.508406e-05 -8.714794e-05 1.89455e-05
-0.00049619586 -0.0003049513 4.942604e-06 8.433075e-05 7.3510484e-05 6.879398e-05 -1.5069805e-05 0.0002534334
-4.1719236e-06 -0.00047101258 -3.554546e-05 0.00010544843 -0.00016195608 -0.00015800678 -4.8443024e-05 1.932009e-05
0.00031171212 2.3696255e-05 4.811548e-05 0.0002090823 7.8322875e-05 0.00014194446 -3.19504e-05 -2.3934494e-05
-3.3031778e-05 0.00013893802 -3.0266554e-05 -4.8882157e-05 -4.367383e-05 -7.787823e-05 5.571776e-05 0.00018640426
0.00027222306 0.0002887013 0.00023464301 6.227552e-05 5.729388e-05 -0.00014330274 6.3338004e-05 -0.00020305753

exp_avg_sq f4 [128]
00000000: 0f11 2534 d60c 8335 1f8b 2033 5d9a 5f33
00000010: 6684 5335 3f13 5333 0b08 cb33 231f 3634
00000020: 0b49 6335 6e5d b132 d491 1835 9eb3 f933
00000030: bf75 9134 b561 f934 fafe 0334 ffe3 4434
00000040: c61c 1d35 0612 5635 60c9 9c35 c078 8334
00000050: ff49 2434 3a86 2d35 3d64 2234 f3c7 5834
00000060: 4893 db34 057d 7134 5c4a cb34 9c44 d234
00000070: fa02 3235 ff36 4f34 a736 7f34 641b 2232
00000080: 5dea 8835 9bb5 7f35 8c4f a634 10e5 5f34
00000090: ca9a df35 01d3 2a34 2f41 ea34 bc0f bc34
000000a0: ec70 4734 679e e134 46ab b433 c3fb e033
000000b0: 9168 a434 45a4 c234 9684 d133 db50 4634
000000c0: d19e bf34 730e 4d35 227a 0233 bce9 9235
000000d0: b923 5f34 29b0 4233 835a 0b34 90fd a734
000000e0: 51fd d834 7dcc 6534 e0c5 0835 b37f 9734
000000f0: 5c00 8e35 9cd8 f631 76b2 6e35 f957 d135
00000100: 120e d933 372a 1f33 ad51 6533 d167 7a35
00000110: a1e6 a135 f6de 1534 a4f5 a934 fa60 ea33
00000120: 0eb1 5635 d904 b833 8adf b133 7f37 1a34
00000130: cd83 7a34 6437 a735 c51a cd33 ce32 8634
00000140: 47ef 5535 e00d f233 6f40 7135 98c3 9734
00000150: 13ca 9234 391f ba35 9211 1c35 a634 0e35
00000160: 5af7 b035 f06e 0835 247d 9232 832f ad33
00000170: 5a51 8334 5646 e633 f856 ad33 cb45 2d35
00000180: 0f5d f533 9b14 4736 ffe7 e535 f3af 3235
00000190: 68cd 0d34 55ca 1735 b663 b833 7216 c131
000001a0: b547 3335 05d4 9e34 07d5 3d33 93c9 0435
000001b0: 1348 5334 5256 1d35 dbb4 1036 96ad ad35
000001c0: 583c cd34 2ee5 dc34 f717 3935 259c 6432
000001d0: dd47 1834 ee84 7833 e0fc 5d35 dd7f 9634
000001e0: 6606 0d35 d368 9b35 0c14 9b35 d486 fe35
000001f0: 7c50 3834 b3ec 9c34 0728 b334 b1cc d934
1.5373028e-07 9.763996e-07 3.7379433e-08 5.2061626e-08 7.879629e-07 4.914477e-08 9.454387e-08 1.6961398e-07
8.467038e-07 2.0647999e-08 5.683662e-07 1.1627638e-07 2.7094026e-07 4.6450955e-07 1.2293086e-07 1.8336867e-07
5.852893e-07 7.974744e-07 1.1681514e-06 2.448851e-07 1.530061e-07 6.464285e-07 1.5123892e-07 2.0189309e-07
4.089909e-07 2.2490356e-07 3.78658e-07 3.9165468e-07 6.63145e-07 1.9298385e-07 2.3768608e-07 9.435869e-09
1.0200998e-06 9.5259173e-07 3.0977787e-07 2.0851826e-07 1.6659844e-06 1.5909247e-07 4.3633324e-07 3.5029177e-07
1.85744e-07 4.202477e-07 8.4130576e-08 1.0476608e-07 3.0623463e-07 3.6254838e-07 9.756438e-08 1.8469602e-07
3.5692076e-07 7.638948e-07 3.0379063e-08 1.0945873e-06 2.0781489e-07 4.532936e-08 1.2978312e-07 3.1290665e-07
4.0417447e-07 2.140168e-07 5.0951894e-07 2.8218855e-07 1.0579929e-06 7.184168e-09 8.8921604e-07 1.5597317e-06
1.0107409e-07 3.7058467e-08 5.33925e-08 9.328333e-07 1.2062557e-06 1.3957819e-07 3.165743e-07 1.0914114e-07
7.997886e-07 8.5690495e-08 8.282866e-08 1.4362557e-07 2.3331013e-07 1.245859e-06 9.550926e-08 2.499641e-07
7.969688e-07 1.1271527e-07 8.987326e-07 2.8268255e-07 2.7341648e-07 1.3867167e-06 5.8140097e-07 5.2975736e-07
1.3185011e-06 5.0825383e-07 1.7053544e-08 8.0645826e-08 2.4459843e-07 1.07230036e-07 8.07176e-08 6.4549084e-07
1.1425629e-07 2.9665305e-06 1.7129349e-06 6.6566207e-07 1.3206375e-07 5.6546315e-07 8.586305e-08 5.619591e-09
6.6787044e-07 2.9584058e-07 4.419874e-08 4.946716e-07 1.9677127e-07 5.861267e-07 2.1562944e-06 1.2940025e-06
3.822813e-07 4.1144943e-07 6.8952744e-07 1.330685e-08 1.4182247e-07 5.78629e-08 8.2696897e-07 2.803271e-07
5.2535904e-07 1.1578908e-06 1.1554234e-06 1.8963715e-06 1.7165615e-07 2.9229486e-07 3.3370472e-07 4.0568332e-07

exp_avg f4 [1, 2]
00000000: 004f 8f38 a30d 703c
6.833486e-05 0.014651689

exp_avg_sq f4 [1, 2]
00000000: d958 393b d730 4a3b
0.0028281717 0.0030851865

exp_avg f4 [2, 128]
00000000: 1f2d 813b 10ae 95bb 4142 88bb 449c 3ebc
00000010: 9490 bfbc f191 4bbc 011f cabb a903 e139
00000020: 6e0e 30bc 61b0 2cba c1e0 babb 436a 92bb
00000030: 9658 0436 249e 43bc c8ff 0c3b 02be 293b
00000040: 55bc ddba e69a 8ebb 7324 a9bb aec7 1abc
00000050: f2e0 c3bb 2ba9 043b 6773 b43b 2ff4 503b
00000060: ffd6 7ebc 7c48 84bc 39c0 4dbb 67a6 56bb
00000070: e949 7ebb 8c06 bdbb 8724 17bb 7c88 323a
00000080: e5c6 e6bb 9497 2a3b 6509 2abb e319 51ba
00000090: 766f 41bc 4cd6 60b9 3365 69b8 53ff 1bbc
000000a0: 1d54 c0bb a783 803a 54ba ffba 1c59 29bb
000000b0: f4d5 0d3a 0933 8db9 8a00 34bb 31dc eebc
000000c0: 50a4 bcbb 3559 84bb c6e1 a03b 1210 4fbb
000000d0: 8341 1fbb fe17 f4bb 376a bbbb dd6e 40bc
000000e0: e7f6 cc39 8ed6 1738 7bb7 22bb 7b79 f7ba
000000f0: c9c0 67bc 9419 43bb 7822 deba d10d 31bc
00000100: d215 70bc 8c66 cb3a 98b8 d7bb e31b baba
00000110: f40f 46bc aacb 8cbb 70eb 58bb 99df 25b8
00000120: a78e 6ebb d874 67bc c9f1 62bb ef7f d9bb
00000130: 4b00 86bc c4bd 88bc 9d16 553a d7e2 b2bb
00000140: d389 ebbb 7ad4 bfb8 6c4c dc39 9c64 6ebb
00000150: c245 3038 a9e0 bfba 14fe ba3a 6364 3bba
00000160: f438 3bbc db47 29bc 2c60 b0bb 79e7 88bb
00000170: 486a ddba 616d cf3b 554b 80ba 6f59 22bc
00000180: 5aa2 9639 1077 a5bc bc12 9d3b 7521 fabb
00000190: d5ca 07bc 10fa 9ebc d80d 1a3b be45 ad3a
000001a0: 34c7 fdbc bc6b e6ba 8530 00bc 8d50 1eb9
000001b0: 10fc b4bb ef47 dbbb e8e2 25bb 6700 4c39
000001c0: 8d96 1cbb 3a97 13bb 6139 d33b 3bb4 59bb
000001d0: 560a 00bc 840b 12bc 9fae 88bc b62c 96bb
000001e0: 61f9 eabb 105e b9ba e2a6 c03a 6844 7cbb
000001f0: 24a1 86bb c975 41bc 2fe6 7a3b 7e4a 40bc
00000200: 1d31 c0bb 919c 1d3b dc38 87bb 4e1c 513a
00000210: 57a0 41bc 3dae 063a ee38 c8bb aab0 babb
00000220: 2d63 ccbb 8a9c 50bb f0ea b3bb 8eea c2ba
00000230: e4a7 b7ba 342f e6bb 8d16 78bb 1fee 15bb
00000240: 9268 3c3a d8b5 64bb 31b6 86bb 0708 b9bb
00000250: 9545 8d39 6478 78bb 67ef 55ba 101f 4ebb
00000260: 6e5c 79bc 80e8 95bb 7d45 91bb c3d2 4d39
00000270: 046f a5ba 39c6 72bc c35d 47ba f762 28bb
00000280: ef46 4ebb 0a16 98bb 6beb 23bb 730a b53a
00000290: 5e81 25bc bc60 52bb 3d0b adbb ac92 c9bb
000002a0: c33f 17bc b52b af3a cf15 00bb 2742 0bbb
000002b0: 85e0 08bb 7854 84bb 6ebf bdbb 5f06 43bc
000002c0: 5adc acbb a30c e3bb aac0 73ba 152e 3dbb
000002d0: b270 87bb cc5a 8e3a 7590 80bb 9a5c 23bc
000002e0: a486 0cbb 8702 f3b8 6577 5c3a 971f 4fbb
000002f0: e275 02bc 7970 fbbb 928d abbb c586 a1bb
00000300: 7bcf d5bc 22b9 81ba db21 4f3a 8371 4ebb
00000310: 1380 3cbb b967 d6bb 7411 5fbb 141c 4ebc
00000320: aa24 a13b bce3 4ebc 912c 4dbc 0f01 e7bb
00000330: 1b08 12bb 6fed cfbb bb0f 05bc 436f 05bc
00000340: 314f 2fbc 0bf4 4bbb fe4f 97ba 8801 81ba
00000350: 5656 a4b8 d5d8 443b beb4 0fbb 71ae ce3b
00000360: 7fcb c8bb c34f 2cbc 9faf 1e3b 92df 2cbc
00000370: 27e6 c1ba 1575 b3ba 2227 643b cc70 82bb
00000380: 33b5 f5ba 8b96 98bc c9a7 9bbb bd55 09bb
00000390: 8972 4abc 7b93 19bc 4bf3 73bb bf96 82bb
000003a0: 0f3c 95bc 2c26 61ba 7418 c4bb 0307 05bc
000003b0: 5990 b4bb 3424 dfbb 6539 98ba 578d 473b
000003c0: 14de 343b 763b b9bb 1f0a 92bb 60d0 fcbb
000003d0: 32a3 813b 24c9 793b 105d cabb f1c2 04bc
000003e0: c4be dbbb 712c 2dbb 28e0 6339 d6df 6ebc
000003f0: cd16 90bb f209 41bb 6370 98bb b8ef 323a
0.0039421464 -0.004567869 -0.0041582887 -0.011633936 -0.02338437 -0.012424932 -0.0061682467 0.0004291807
-0.010745628 -0.0006587562 -0.0057030623 -0.004468234 1.9721097e-06 -0.011939559 0.0021514762 0.0025900607
-0.0016917089 -0.0043519614 -0.005161816 -0.009447021 -0.0059777433 0.0020242434 0.005506921 0.0031883826
-0.015554189 -0.016147844 -0.0031395091 -0.0032752992 -0.0038801378 -0.0057686027 -0.0023062543 0.0006810499
-0.007042753 0.002603029 -0.002594554 -0.00079765747 -0.0118063595 -0.00021442136 -5.5645778e-05 -0.009521323
-0.005869402 0.000980486 -0.0019510486 -0.0025840467 0.00054106046 -0.0002693164 -0.0027466142 -0.02915773
-0.0057568923 -0.0040389546 0.004909727 -0.0031595272 -0.0024300523 -0.007449149 -0.005719449 -0.011745182
0.0003909387 3.6201025e-05 -0.00248286 -0.0018880808 -0.014145085 -0.0029769884 -0.0016947528 -0.010806517
-0.01465364 0.0015518232 -0.0065832846 -0.0014198985 -0.012088764 -0.0042967396 -0.0033099316 -3.9547307e-05
-0.0036400945 -0.014126979 -0.0034628978 -0.0066375653 -0.016357562 -0.01669205 0.0008128675 -0.0054591703
-0.007188061 -9.1471666e-05 0.0004201861 -0.0036375886 4.2026637e-05 -0.0014639097 0.0014266395 -0.00071484427
-0.011427153 -0.010332073 -0.0053825583 -0.0041779843 -0.0016892636 0.0063301777 -0.0009788076 -0.009909018
0.0002873119 -0.020198375 0.004793493 -0.007633383 -0.008288105 -0.019406348 0.0023506787 0.0013219637
-0.030978777 -0.0017579715 -0.007824068 -0.00015098062 -0.0055232123 -0.0066919248 -0.0025312249 0.00019455106
-0.0023893446 -0.0022520558 0.006446049 -0.0033218998 -0.007814964 -0.008913878 -0.016684828 -0.0045829667
-0.0071708416 -0.0014142413 0.0014698172 -0.0038492922 -0.004108565 -0.011807867 0.0038284173 -0.01173651
-0.0058652298 0.002404962 -0.004126651 0.0007976935 -0.011818013 0.0005137658 -0.006110302 -0.0056973295
-0.0062374086 -0.0031831586 -0.005490653 -0.0014870928 -0.0014011827 -0.00702467 -0.0037855238 -0.0022877527
0.0007187213 -0.0034898426 -0.0041110744 -0.005646709 0.00026945458 -0.0037913555 -0.0008160979 -0.003145162
-0.015219791 -0.0045748353 -0.0044333325 0.00019628838 -0.0012621586 -0.014817768 -0.0007605219 -0.0025693753
-0.0031475385 -0.004641299 -0.0025012146 0.0013812318 -0.010101644 -0.0032101115 -0.0052808807 -0.006151518
-0.009231511 0.0013364466 -0.001954425 -0.0021249147 -0.0020885777 -0.00403839 -0.0057906425 -0.011903374
-0.0052752914 -0.0069289966 -0.00092984235 -0.0028866578 -0.0041333074 0.00108608 -0.0039234706 -0.009970808
-0.0021442557 -0.00011587614 0.0008410125 -0.0031604522 -0.007962676 -0.00767332 -0.0052353824 -0.004929396
-0.026099911 -0.0009897093 0.0007901468 -0.0031500764 -0.0028762862 -0.0065431264 -0.0034037502 -0.0125799365
0.004917701 -0.012627538 -0.0125228325 -0.0070496867 -0.0022282663 -0.006345443 -0.008121426 -0.008144203
-0.010700033 -0.0031120803 -0.0011544225 -0.0009842375 -7.836211e-05 0.0030036469 -0.00219278 0.006307416
-0.0061277742 -0.010517064 0.0024213565 -0.01055135 -0.0014793322 -0.0013691509 0.0034813364 -0.0039807316
-0.0018746018 -0.018626472 -0.004750226 -0.0020955645 -0.012356409 -0.009373541 -0.0037223871 -0.0039852555
-0.018217115 -0.0008588757 -0.0059843604 -0.0081193475 -0.0055103716 -0.0068097357 -0.0011613785 0.0030449235
0.002759819 -0.0056528402 -0.004456773 -0.00771527 0.003956222 0.0038114274 -0.0061756447 -0.008103118
-0.0067060906 -0.0026424194 0.00021731912 -0.014579734 -0.0043972493 -0.002945539 -0.0046520694 0.0006825882
