results/Long_LowLR/3DBall/3DBall-1849949.onnx (onnx, 10026 bytes, 7 tensors)

network_body.observation_encoder.processors.0.normalizer.running_mean f4 [8]
00000000: 3b1f dcbb 23ec 383c 1a20 723d bf65 4540
00000010: f626 233e f033 ad3d fcc3 75bf 263a 593e
-0.00671759 0.011286768 0.059112646 3.084335 0.15932831 0.08457172 -0.96002173 0.21213588

network_body._body_endoder.seq_layers.0.weight f4 [128, 8]
00000000: 518f cd3d 577c 16be b450 983e 7cbb 9a3e
00000010: 8d82 993d 13ac 213c b791 edbe 2c94 56be
00000020: 3bed 93be c1a7 1dbe 1695 de3e 4991 463d
00000030: 74d1 f03e 3f65 cfbd 9373 a83e 6388 a43e
00000040: a2a9 b9bd d547 9a3e be68 3ebe e70b 6c3f
00000050: aee9 5e3d f090 5d3e 313d 91be 1f09 b83e
00000060: 7e11 dabe beff cbbd e758 b7be dd3e 39bf
00000070: d49a 9dbd b9c3 cb3d 35e9 813e 5263 043e
00000080: 2e48 8d3b d7b7 a1be 9bd4 39be 6f00 b43e
00000090: 37b2 87bd f517 7f3d f4f5 b9be f1ee 3dbe
000000a0: 6660 b3bb c4eb 98be 765f be3e 0c95 363e
000000b0: 031a 91be 7922 8b3d 8498 053f 2ec9 42be
000000c0: 73c7 4f3e 207a 2bbc 01dc 5c3d 44f0 273f
000000d0: d674 d63e f3b7 df3e d037 a93e f985 49bf
000000e0: 4cc2 2bbd 817b 06bf c1ea 50be bf3e a83d
000000f0: e4ee 0cbe 185f 1abe 4226 e4bd e2ec 813e
00000100: 7d86 263f 33d3 bc3c fae0 403e 3335 aabe
00000110: 4228 43bf d245 1cbe 84d2 8abd 8720 5cbc
00000120: b1e1 623e 5de7 203e 5dfe b73d 4503 3a3f
00000130: cad8 6e3e 0b95 3dbf 0ca2 ecbe b943 f8be
00000140: fe2b 163d 3d89 babe f522 cc3d 1aa1 74bd
00000150: 53e3 723e 2b35 debe a9c3 f9bd 7840 d5be
00000160: e263 c0be 231c 30bd e4a4 7cbd 9b52 533e
00000170: bba3 da3c ab09 053d e532 593d 4afe 00bf
00000180: a23e 083e da1d 69be 3a0f 4b3e 132b 49be
00000190: bdd9 043f 0451 36be c253 0ebe 9027 3d3e
000001a0: d959 e0be 1763 84be d3af 14bf d0a8 c13e
000001b0: 8052 46bf 9323 173f 21d3 bd3e b145 a13d
000001c0: b529 d13e 29e2 75be d655 653e 0e65 14bf
000001d0: dc61 ab3d 4405 37bd 0ef6 c7be 0641 79bf
000001e0: 8cf0 e13e 0d5d 9dbe 5ba6 2e3e a977 dd3e
000001f0: 5adc 153d a5d9 14bf 8b11 ddbd 21e1 aabd
00000200: 64fa 16bd 6c32 dc3e 111a 83be 04f8 ed3e
00000210: c4df e1be a89c e93e 351b 613f 3347 603f
00000220: 9210 5bbe 8ac4 afbd 0149 313f fc8f 14be
00000230: 1cf8 1f3e 4baf b5be ede6 ee3e 4fb8 cbbb
00000240: 6f68 8bbe 69b5 c2bd d683 ae3e bdf0 a23e
00000250: 3cdb 123f bc4c 9abe 7883 4fbe 2f45 78be
00000260: 2b4a c1be d343 17be 60a5 753d a8e2 1ebe
00000270: 7848 293e 97cc c5be 03ac 153e 403e 18be
00000280: b544 2ebe 17c3 3e3d 068c f2bc 5777 303e
00000290: 859b 18bc e63a d93e cb8d 473d 4a00 d1be
000002a0: a408 cfbe c0a3 073a e0aa 7fbd 8867 66be
000002b0: d754 a7be b7c7 6e3e ed3e 05bf 15a8 eabe
000002c0: 8ae1 c0be ba96 3abe 4660 96bd c5dc 383e
000002d0: 3a01 66bf ab1e 94bc 327f 58be b37a 0b3e
000002e0: c457 5ebe ceef 7abe 2bbf 4bbe 0b13 1e3f
000002f0: 4b7a 1ebf 0fee 38be c999 02bf f90d c53d
00000300: 47d1 773d 45c1 adbe 851c 21bf a9a5 a9bd
00000310: 6780 3e3f b7d9 7cbe ef74 f83e 757d d0be
00000320: e478 2f3f 7493 02bf 108e cfbe ea5e 7abe
00000330: 4930 f0be 7d3c b53d 320e bb3e 1915 f03e
00000340: 0502 c83b 35bd 733e 9692 413f fe1a 453d
00000350: 42fc a63e 8d1a bbbd 6b7d 323f 1ea4 413e
00000360: a1b9 fdbe ec7e 64be b59b d33e a2e3 b83e
00000370: 152a 5b3d e7d6 97bd 7b39 923e 238f 1d3f
00000380: 0d35 bdbe 4d2e 71be 7b95 e8be db96 4a3e
00000390: ef95 cf3e 89d0 d3be a870 0e3e 61f4 adbe
000003a0: b9a3 d13e 12d8 173e ea8a 95bd 4677 65bd
000003b0: b125 b3be b7f6 7dbe 6822 95be b020 6a3d
000003c0: 4ed8 b53e 8d60 2abf b374 35be e1d4 77bd
000003d0: 5191 2e3e 6ffe 923c 98c1 8abe d4b9 acbe
000003e0: deed f93d 5bab 25bf 551f 9a3d a244 b2be
000003f0: 80ba 4c3f 8d24 efbd 5201 723e ed3b 723e
0.10037101 -0.1469587 0.29749072 0.30221164 0.07495604 0.009867686 -0.46400234 -0.2095496
-0.2889193 -0.15396024 0.4347312 0.0484784 0.470348 -0.10126733 0.32900676 0.32135305
-0.09065558 0.30132928 -0.18594643 0.9220566 0.054422073 0.2163732 -0.28366998 0.3594446
-0.4259147 -0.09960888 -0.35810015 -0.72361547 -0.07695547 0.099494405 0.25373235 0.12928513
0.004311583 -0.3158557 -0.18147509 0.3515658 -0.06625789 0.062278707 -0.3632046 -0.1854818
-0.005474138 -0.29867375 0.37182206 0.17830294 -0.28340158 0.067936845 0.52185845 -0.19022056
0.20290928 -0.010466129 0.05392075 0.6560099 0.41886014 0.4369503 0.33050394 -0.7872005
-0.041933343 -0.525322 -0.20402052 0.08215093 -0.13763005 -0.15075338 -0.111401096 0.2537604
0.6504896 0.023049926 0.18835822 -0.33243713 -0.76233304 -0.1526101 -0.06778434 -0.0134354895
0.22156407 0.15713258 0.08984063 0.7266124 0.23324886 -0.74055547 -0.46217382 -0.48489168
0.036663048 -0.3643283 0.09967605 -0.05972395 0.2371953 -0.4339994 -0.12195522 -0.41650748
-0.37576205 -0.042995583 -0.06168069 0.2063698 0.0266894 0.032479923 0.053027052 -0.50388014
0.13305143 -0.22765294 0.19830027 -0.19645338 0.5189474 -0.17804343 -0.13899139 0.18472123
-0.43818548 -0.2585685 -0.58080786 0.37824106 -0.77469635 0.59038657 0.3707514 0.07874621
0.40852132 -0.24012055 0.22396025 -0.579667 0.083682746 -0.044682756 -0.39054912 -0.9736484
0.44128835 -0.30735055 0.17055647 0.43255356 0.036587097 -0.581446 -0.10794362 -0.08343721
-0.036859885 0.4300722 -0.25605825 0.46478283 -0.44116032 0.45627332 0.8793214 0.8760864
-0.2139304 -0.08582409 0.6925202 -0.1450805 0.1562199 -0.354853 0.46660557 -0.0062170397
-0.27228114 -0.095072575 0.34084958 0.31824294 0.57365775 -0.3013667 -0.20264995 -0.24245141
-0.37751898 -0.14771967 0.059972167 -0.1551615 0.16531551 -0.38632652 0.14616399 -0.14867496
-0.17018397 0.04657277 -0.029607784 0.17233025 -0.0093144225 0.42427748 0.04871921 -0.40820533
-0.4043628 0.0005174242 -0.06241882 -0.22500432 -0.32681915 0.23318373 -0.5204914 -0.4583136
-0.37672073 -0.1822156 -0.073425815 0.18052967 -0.8984562 -0.01808103 -0.21142271 0.13621025
-0.21713167 -0.2450554 -0.19897144 0.6174781 -0.61905354 -0.18059562 -0.5101591 0.09621806
0.060502317 -0.33936515 -0.6293414 -0.0828355 0.74414676 -0.24692427 0.48526713 -0.40720716
0.6854384 -0.51006246 -0.40538073 -0.2445027 -0.4691184 0.08849428 0.36534268 0.46891096
0.0061037564 0.23802646 0.756143 0.048121445 0.32614332 -0.091359235 0.6972262 0.18910262
-0.49555686 -0.22314042 0.41329733 0.3611117 0.05350693 -0.07414036 0.2855948 0.61546534
-0.36954537 -0.23552819 -0.45426545 0.1978411 0.40544078 -0.41370037 0.13910162 -0.3397551
0.40945223 0.14828518 -0.073018864 -0.05602195 -0.34989694 -0.24801145 -0.29127812 0.05716008
0.3551659 -0.66553575 -0.17720298 -0.06050575 0.17047621 0.017943589 -0.27100825 -0.33735526
0.12203573 -0.6471459 0.07525507 -0.34817988 0.79972076 -0.116768934 0.23633316 0.23655672

network_body._body_endoder.seq_layers.0.bias f4 [128]
00000000: faf7 e03b f3dd dc3b 0ee7 093c e6fd aabb
00000010: 5bb1 67bb e910 ef3b 8c91 3fbb 71ad 873a
00000020: a358 a33b 6285 13ba 52c4 7bbb 09ee 8cbb
00000030: 9bbe bd3b b67b 8ebb e0c3 5939 91d4 5aba
00000040: f189 a13c 0eb9 26bb 1590 613c 215a b7bb
00000050: 462e 3e3a 557a 383c 079e 06bb aa5c 7dbb
00000060: 0b1e aa39 fa9e 3a3c 2689 3cbc dbf5 2d3c
00000070: dab2 0abc ec3e 40bc dca5 9fbb 95fd d9bb
00000080: 4af9 123c ee9c 2f3c 0843 f739 a55f b8bb
00000090: beca 43bc 9970 8a3c efdd abb7 286e 343c
000000a0: fdaa 0e3c 6d80 033c 8799 2dba a891 763c
000000b0: d4b8 703c 2201 2abc da08 91bc d7a7 43b9
000000c0: 1de7 f638 4bd1 06bc 8735 d9bb 91f1 41bb
000000d0: f2e9 ebba e044 023c 9b77 f5b9 b31c c13a
000000e0: 72be 56bb 0aa4 52bc 8b9a 74bb ee53 babb
000000f0: eb4a 0abb ecf1 773c a68e 733c 127f 893c
00000100: 44e1 a63c f192 cabb 1704 ce3b fb6e 4ebc
00000110: a23d 5dbc 2df5 093c 9671 8f3c 8ee3 b5b9
00000120: 90bd ac3c b30d 0fbb 3adb 803c c8a3 6bbb
00000130: 63ae 3a3b 02e8 b03c 5b68 88bb 1c7c ca3b
00000140: 278c 4f3c 22f5 843c bf10 913b cf2c c53a
00000150: 139d e83b d889 b1bb a7d3 533c 7fe1 0b3c
00000160: 0dd0 6e3c 7278 77bb 5436 dfbb 60fe 003c
00000170: 20bd 20bc e406 8cbc 60e5 04bc 7965 b63c
00000180: 5e00 8a3c 4856 5bbc 4672 14bc 437b 81bb
00000190: 5de6 c93b 32bd ee3a 1686 16bc ecd1 d83a
000001a0: 7183 bd3c 8078 153c 1add ed3a dac9 d13b
000001b0: c541 eebb d3d7 14bb 4648 213c 97bb 35bb
000001c0: 8bf5 283c 252e 2a3c 3079 113c d7f8 faba
000001d0: 0f11 5cbb 6d44 d0bb 7af0 f2bb f0e4 abbb
000001e0: 7cef 22bb d9f8 203c 0359 cebb 10ad 90bc
000001f0: 0f8c d3ba 4188 5bbc b2ed 9b3c b857 8c3b
0.0068654986 0.0067403256 0.008416904 -0.0052182553 -0.0035353515 0.007295717 -0.002923104 0.0010351372
0.0049849316 -0.00056274806 -0.0038416577 -0.004300837 0.005790544 -0.0043482436 0.00020767702 -0.0008347715
0.019719096 -0.002543989 0.013767262 -0.005595461 0.000725482 0.011259635 -0.002054097 -0.0038659968
0.0003244731 0.011390442 -0.011507308 0.010617699 -0.008465493 -0.011733752 -0.004872067 -0.006652544
0.008970568 0.010718567 0.00047161453 -0.005626636 -0.011950193 0.016899394 -2.0488134e-05 0.011012591
0.008707759 0.008026225 -0.00066223036 0.015049376 0.014692504 -0.010376247 -0.017704416 -0.00018659174
0.00011773242 -0.00822861 -0.0066286954 -0.0029593448 -0.0017998798 0.007950991 -0.00046819155 0.0014733284
-0.0032767323 -0.012856493 -0.003732356 -0.0056862747 -0.0021101783 0.015133362 0.014865553 0.016784225
0.020371087 -0.0061820676 0.0062871086 -0.012599702 -0.013503464 0.008420271 0.017510217 -0.00034692552
0.021086484 -0.0021828234 0.015729535 -0.0035955776 0.002848529 0.021595005 -0.0041628308 0.006179346
0.012667692 0.01623017 0.004427045 0.0015043261 0.007098803 -0.0054180436 0.01292888 0.008537649
0.01457597 -0.0037761 -0.0068118963 0.007873148 -0.009810716 -0.01709313 -0.008111328 0.022265183
0.016845878 -0.01338727 -0.009060448 -0.0039514615 0.0061614946 0.0018214344 -0.009187242 0.0016542054
0.023133965 0.009122968 0.0018147558 0.0064022364 -0.007271024 -0.002271165 0.0098438915 -0.002773022
0.010312448 0.010386978 0.008878991 -0.0019147646 -0.0033579504 -0.0063558132 -0.007413921 -0.0052457973
-0.0024861982 0.009824955 -0.006297232 -0.017660648 -0.0016139763 -0.013399185 0.01903424 0.004282918

action_model._continuous_distribution.log_sigma f4 [1, 2]
00000000: a49c c8bb 9bd0 fdbb
-0.0061221886 -0.007745815

action_model._continuous_distribution.mu.weight f4 [2, 128]
00000000: 0650 a73c 9083 93bc a307 21bc f081 39bc
00000010: a418 4abc 61a6 583c c5de f13b 200d 92bb
00000020: a259 09bd 8943 783c 36dc 843c 3b41 9e3b
00000030: ea18 12bc a672 293b 17b5 083d fc90 833a
00000040: b7ce a83c 80de 5d3c 032e b63c b521 873b
00000050: e216 d83b d8d3 d33c eb23 3fbb 1714 b93b
00000060: 8288 a93b 3a8d efbc a5fe 963c 701d 203d
00000070: 34cb 253c 2cb1 963b c78b 303b 8361 1cbc
00000080: 3eb7 d0bc d877 6dbb f48a 19bc 0a33 443c
00000090: 96f3 b0bc 2ec9 37bd 55d0 ed3c 38b0 d3bc
000000a0: e674 08bb 7e52 1a3c 7b07 40bd 095b 043d
000000b0: 9c2d 0d3c 3815 113b adb8 e7b9 6433 153c
000000c0: f973 87bc 9bf4 2bbb f541 23bc 300a 8539
000000d0: ee11 2ebc df55 c0bc a8b2 743c b949 27bd
000000e0: 08c8 2c3b b1b2 443c 6844 03bc 97fd c53a
000000f0: 5e7d 373c 910c a1bb c348 9d3c aaed 91bc
00000100: 08fd 613c 3a9b 97bb 1db8 25bc d708 163a
00000110: 838b 61bc ffc3 ecbc fa62 cc3c aebd 403b
00000120: be19 f9bc 2a3b 9a3c 3022 983b c2bd 7bbc
00000130: c15c aa3c 9f97 bb3c acb9 7a3c 427f a7bc
00000140: 78f0 98bc e27c 5e3d efd2 0a3d 3b84 6cbc
00000150: 4b13 2bbd 35f3 91bc b970 a13c 816d db3b
00000160: 7b99 32bd 1947 ff3c 55c4 0fbd 2bde 843b
00000170: a8ef 663c 43ea c5b9 3108 553b c69f 573c
00000180: b07d 65bc 724c b6bb ed98 f1bb 9209 183b
00000190: a7a9 d73c 165c 5bbc 685f 72bc c83f 9c3c
000001a0: c229 103d c2e5 25bd 7b41 4abc 34f2 7b3c
000001b0: afa0 27bc 9919 96bb dc64 72bc 49ff 23bc
000001c0: 596b 0b3d a288 a43c 3c88 7fbd b539 a636
000001d0: c079 e9bc d702 0ebc 9777 40bc e651 f8ba
000001e0: 8d87 80bc 1ce6 c63c 8425 2bb6 e8e2 1a3b
000001f0: 775f 113c 2676 1e3b 9c3d 563d 7d57 c6bc
00000200: fb13 2dbc adbc 40bd 5204 9cbc 551a d8bb
00000210: 5996 9f3c e0f2 103c a35f 483c aaac 90bc
00000220: 908a 94bc 29c3 c4bc d0ef 9a3c bdd5 823c
00000230: bfcc dbbb 2062 563c a668 8f3c b43c 87bc
00000240: a11e c4bc 2489 843c a212 58bd 3c92 553c
00000250: c15e 603b 0f77 883c d099 d33c 0a09 f53c
00000260: 7013 7bbc e153 85b9 c10a 013d b915 ff3b
00000270: b07b 1b3d 9941 6b3c c770 fe3b b9d5 e63b
00000280: 4290 3bbc 7b5b 633d c156 d5bb 7032 ac3b
00000290: f627 d23c 3081 bfbc 2c05 5e3d b381 27bc
000002a0: cafb a6bc 914f 4cbb 296a c13c 7a38 b3bc
000002b0: a6ac 38bd f48c 9ebc 3070 ef3a dfff 3cbc
000002c0: 65f6 ee39 36e6 933a 6860 13bb eda0 a3bb
000002d0: d34c 223d a215 91bc 3060 a03c 9285 df3c
000002e0: 333f 8a3c 59d2 103a 6a8b 5a3b 6d22 bf3b
000002f0: abe9 c53a 000d d1bb 54ce 8ebc b059 fabc
00000300: d3ba eabc 01f9 fa3c 4964 42bc 53d2 ea39
00000310: efaa 483c 0f9d 2c3c 5a05 febc 1312 dd3c
00000320: 0b9e 04bd d3af f53b 8791 a2bc fe36 e23c
00000330: 9372 5cbb a1be 90bb 7284 093d f395 43bc
00000340: 197e eebc 694e 5ab9 997b 8a3a 0f26 34bc
00000350: e374 153c 0868 a03c 6226 13bd 21db 0ebd
00000360: e971 c6bc fc93 223b 1bdc dc3b c5d9 efbb
00000370: e571 953b b95c 063c f840 a03c 6053 8abc
00000380: 81e2 13bc 5a1e 733c 32ef ab3b 1a33 883d
00000390: bab6 1dbc 48c1 183d 31ea 523d 547f 293d
000003a0: d108 b2bc f8e3 85bc 98d2 723c 49d1 32bc
000003b0: 505c 343d fdf0 fdbb 50fc f0bc 019e 91ba
000003c0: 7cb1 e13b cc5a 49bc 66d3 e53b 7570 c2bb
000003d0: 5ec7 7c3c 0e7f 533b 99a4 af3b 70a7 c23b
000003e0: e21a 7ebb a66a f53c a029 d73c 64f1 603b
000003f0: af3f 2bbc 7a88 c13c a01b 54bc 0a14 a13a
0.0204239 -0.01800707 -0.009828481 -0.011322483 -0.012334976 0.013223262 0.0073812925 -0.004457131
-0.033532746 0.01515282 0.016218286 0.0048295534 -0.008917073 0.002585569 0.033375826 0.0010037716
0.020606382 0.013541818 0.022238737 0.0041238912 0.0065945247 0.02585785 -0.0029165696 0.005648147
0.0051737437 -0.029242147 0.01843197 0.039090574 0.010119248 0.0045987573 0.0026938783 -0.009544733
-0.025478002 -0.0036234763 -0.009371508 0.011975059 -0.021600526 -0.044869594 0.029030005 -0.025840864
-0.002082163 0.009419082 -0.046882134 0.03231338 0.008616831 0.0022137892 -0.00044197348 0.009106491
-0.016534792 -0.0026238326 -0.009964456 0.00025375327 -0.010624392 -0.023478447 0.014935173 -0.04084179
0.0026364345 0.012005494 -0.008011915 0.0015105483 0.011199323 -0.004914828 0.019199735 -0.017813522
0.0137932375 -0.0046266587 -0.010114697 0.0005723363 -0.013766172 -0.028902052 0.02494954 0.0029409933
-0.030407783 0.01882704 0.0046427473 -0.015365066 0.020796182 0.022899447 0.015303057 -0.020446423
-0.018669352 0.054318316 0.03389257 -0.014435823 -0.041766446 -0.017816165 0.01970707 0.0066964035
-0.0436034 0.031161832 -0.035099346 0.004054805 0.014095224 -0.00037749307 0.0032506103 0.013160652
-0.014007017 -0.005563312 -0.0073729665 0.0023199064 0.026326014 -0.013388654 -0.014793254 0.019073382
0.035196073 -0.040502317 -0.012344713 0.01537757 -0.010231181 -0.004580688 -0.014794555 -0.010009595
0.03403792 0.020084683 -0.062385783 4.9539035e-06 -0.028500438 -0.008667669 -0.011747262 -0.0018945306
-0.015689636 0.024279647 -2.5502823e-06 0.0023633782 0.008872858 0.0024179309 0.05230485 -0.02421164
-0.010563846 -0.047054935 -0.019045029 -0.006594936 0.019480871 0.008846968 0.012229833 -0.017660458
-0.018132478 -0.02401884 0.01891318 0.015971059 -0.0067077572 0.013084918 0.017505955 -0.016508438
-0.023940386 0.016178675 -0.052752145 0.013035353 0.0034236165 0.016658334 0.02583018 0.029911537
-0.0153244585 -0.00025430231 0.031504396 0.007784572 0.037959754 0.014358901 0.007764909 0.0070445207
-0.011447968 0.055507164 -0.006510586 0.005255036 0.02565382 -0.023377031 0.05420415 -0.010223794
-0.020383734 -0.0031175355 0.023610191 -0.021877516 -0.045086525 -0.019354321 0.0018267687 -0.011535614
0.00045578476 0.0011283818 -0.0022487883 -0.004993549 0.039624047 -0.01771051 0.019577116 0.027285371
0.016875839 0.00055245083 0.0033347257 0.0058329613 0.0015099546 -0.0063797235 -0.01743237 -0.030560344
-0.028653538 0.030636312 -0.01186473 0.00044788662 0.012247785 0.010535493 -0.031008411 0.026986158
-0.032377284 0.0074977665 -0.019844783 0.027614113 -0.0033637627 -0.004417256 0.033573575 -0.011937606
-0.029112862 -0.0002081931 0.00105654 -0.010995402 0.009122106 0.019580856 -0.035925277 -0.034876946
-0.024224238 0.0024807444 0.006740106 -0.0073196613 0.0045606964 0.008200818 0.01956223 -0.01688546
-0.009026171 0.014838779 0.00524702 0.06650372 -0.009626085 0.037293702 0.051492874 0.041381195
-0.02173272 -0.016344056 0.014820717 -0.010914155 0.04403335 -0.0077496753 -0.029417187 -0.0011109711
0.006887613 -0.012289714 0.007013726 -0.005933816 0.015428392 0.0032271775 0.0053601977 0.0059403703
-0.0038773348 0.02995808 0.026264966 0.0034323568 -0.010452195 0.023624647 -0.012946039 0.0012289297

action_model._continuous_distribution.mu.bias f4 [2]
00000000: c0af 9e3b df38 2fbc
0.0048427284 -0.0106947115

onnx::Div_46 f4 [8]
00000000: e315 a53d 61ce ad3d 6f93 9f3f 401f db3e
00000010: 88f0 9e3f fe6e 8c3f 1c19 943f 3be8 8e3f
0.08060815 0.08486629 1.2466868 0.4279728 1.2417154 1.0971372 1.1570163 1.1164621
