results/Long_LowLR/3DBall/3DBall-1849949.pt (torch, 49335 bytes, 32 tensors)

network_body.observation_encoder.processors.0.normalizer.running_mean f4 [8]
-0.00671759 0.011286768 0.059112646 3.084335 0.15932831 0.08457172 -0.96002173 0.21213588
00000000: 3b1f dcbb 23ec 383c 1a20 723d bf65 4540
00000010: f626 233e f033 ad3d fcc3 75bf 263a 593e

network_body.observation_encoder.processors.0.normalizer.running_variance f4 [8]
12020.373 13323.872 2.8752445e+06 338838.2 2.8523585e+06 2.2268038e+06 2.4765035e+06 2.30594e+06
00000000: 7ed1 3b46 7d2f 5046 b27d 2f4a c672 a548
00000010: 1a18 2e4a cfe9 074a 5e27 174a 50be 0c4a

network_body.processors.0.normalizer.running_mean f4 [8]
-0.00671759 0.011286768 0.059112646 3.084335 0.15932831 0.08457172 -0.96002173 0.21213588
00000000: 3b1f dcbb 23ec 383c 1a20 723d bf65 4540
00000010: f626 233e f033 ad3d fcc3 75bf 263a 593e

network_body.processors.0.normalizer.running_variance f4 [8]
12020.373 13323.872 2.8752445e+06 338838.2 2.8523585e+06 2.2268038e+06 2.4765035e+06 2.30594e+06
00000000: 7ed1 3b46 7d2f 5046 b27d 2f4a c672 a548
00000010: 1a18 2e4a cfe9 074a 5e27 174a 50be 0c4a

network_body._body_endoder.seq_layers.0.weight f4 [128, 8]
0.10037101 -0.1469587 0.29749072 0.30221164 0.07495604 0.009867686 -0.46400234 -0.2095496
-0.2889193 -0.15396024 0.4347312 0.0484784 0.470348 -0.10126733 0.32900676 0.32135305
-0.09065558 0.30132928 -0.18594643 0.9220566 0.054422073 0.2163732 -0.28366998 0.3594446
-0.4259147 -0.09960888 -0.35810015 -0.72361547 -0.07695547 0.099494405 0.25373235 0.12928513
0.004311583 -0.3158557 -0.18147509 0.3515658 -0.06625789 0.062278707 -0.3632046 -0.1854818
-0.005474138 -0.29867375 0.37182206 0.17830294 -0.28340158 0.067936845 0.52185845 -0.19022056
0.20290928 -0.010466129 0.05392075 0.6560099 0.41886014 0.4369503 0.33050394 -0.7872005
-0.041933343 -0.525322 -0.20402052 0.08215093 -0.13763005 -0.15075338 -0.111401096 0.2537604
0.6504896 0.023049926 0.18835822 -0.33243713 -0.76233304 -0.1526101 -0.06778434 -0.0134354895
0.22156407 0.15713258 0.08984063 0.7266124 0.23324886 -0.74055547 -0.46217382 -0.48489168
0.036663048 -0.3643283 0.09967605 -0.05972395 0.2371953 -0.4339994 -0.12195522 -0.41650748
-0.37576205 -0.042995583 -0.06168069 0.2063698 0.0266894 0.032479923 0.053027052 -0.50388014
0.13305143 -0.22765294 0.19830027 -0.19645338 0.5189474 -0.17804343 -0.13899139 0.18472123
-0.43818548 -0.2585685 -0.58080786 0.37824106 -0.77469635 0.59038657 0.3707514 0.07874621
0.40852132 -0.24012055 0.22396025 -0.579667 0.083682746 -0.044682756 -0.39054912 -0.9736484
0.44128835 -0.30735055 0.17055647 0.43255356 0.036587097 -0.581446 -0.10794362 -0.08343721
-0.036859885 0.4300722 -0.25605825 0.46478283 -0.44116032 0.45627332 0.8793214 0.8760864
-0.2139304 -0.08582409 0.6925202 -0.1450805 0.1562199 -0.354853 0.46660557 -0.0062170397
-0.27228114 -0.095072575 0.34084958 0.31824294 0.57365775 -0.3013667 -0.20264995 -0.24245141
-0.37751898 -0.14771967 0.059972167 -0.1551615 0.16531551 -0.38632652 0.14616399 -0.14867496
-0.17018397 0.04657277 -0.029607784 0.17233025 -0.0093144225 0.42427748 0.04871921 -0.40820533
-0.4043628 0.0005174242 -0.06241882 -0.22500432 -0.32681915 0.23318373 -0.5204914 -0.4583136
-0.37672073 -0.1822156 -0.073425815 0.18052967 -0.8984562 -0.01808103 -0.21142271 0.13621025
-0.21713167 -0.2450554 -0.19897144 0.6174781 -0.61905354 -0.18059562 -0.5101591 0.09621806
0.060502317 -0.33936515 -0.6293414 -0.0828355 0.74414676 -0.24692427 0.48526713 -0.40720716
0.6854384 -0.51006246 -0.40538073 -0.2445027 -0.4691184 0.08849428 0.36534268 0.46891096
0.0061037564 0.23802646 0.756143 0.048121445 0.32614332 -0.091359235 0.6972262 0.18910262
-0.49555686 -0.22314042 0.41329733 0.3611117 0.05350693 -0.07414036 0.2855948 0.61546534
-0.36954537 -0.23552819 -0.45426545 0.1978411 0.40544078 -0.41370037 0.13910162 -0.3397551
0.40945223 0.14828518 -0.073018864 -0.05602195 -0.34989694 -0.24801145 -0.29127812 0.05716008
0.3551659 -0.66553575 -0.17720298 -0.06050575 0.17047621 0.017943589 -0.27100825 -0.33735526
0.12203573 -0.6471459 0.07525507 -0.34817988 0.79972076 -0.116768934 0.23633316 0.23655672
00000000: 518f cd3d 577c 16be b450 983e 7cbb 9a3e
00000010: 8d82 993d 13ac 213c b791 edbe 2c94 56be
00000020: 3bed 93be c1a7 1dbe 1695 de3e 4991 463d
00000030: 74d1 f03e 3f65 cfbd 9373 a83e 6388 a43e
00000040: a2a9 b9bd d547 9a3e be68 3ebe e70b 6c3f
00000050: aee9 5e3d f090 5d3e 313d 91be 1f09 b83e
00000060: 7e11 dabe beff cbbd e758 b7be dd3e 39bf
00000070: d49a 9dbd b9c3 cb3d 35e9 813e 5263 043e
00000080: 2e48 8d3b d7b7 a1be 9bd4 39be 6f00 b43e
00000090: 37b2 87bd f517 7f3d f4f5 b9be f1ee 3dbe
000000a0: 6660 b3bb c4eb 98be 765f be3e 0c95 363e
000000b0: 031a 91be 7922 8b3d 8498 053f 2ec9 42be
000000c0: 73c7 4f3e 207a 2bbc 01dc 5c3d 44f0 273f
000000d0: d674 d63e f3b7 df3e d037 a93e f985 49bf
000000e0: 4cc2 2bbd 817b 06bf c1ea 50be bf3e a83d
000000f0: e4ee 0cbe 185f 1abe 4226 e4bd e2ec 813e
00000100: 7d86 263f 33d3 bc3c fae0 403e 3335 aabe
00000110: 4228 43bf d245 1cbe 84d2 8abd 8720 5cbc
00000120: b1e1 623e 5de7 203e 5dfe b73d 4503 3a3f
00000130: cad8 6e3e 0b95 3dbf 0ca2 ecbe b943 f8be
00000140: fe2b 163d 3d89 babe f522 cc3d 1aa1 74bd
00000150: 53e3 723e 2b35 debe a9c3 f9bd 7840 d5be
00000160: e263 c0be 231c 30bd e4a4 7cbd 9b52 533e
00000170: bba3 da3c ab09 053d e532 593d 4afe 00bf
00000180: a23e 083e da1d 69be 3a0f 4b3e 132b 49be
00000190: bdd9 043f 0451 36be c253 0ebe 9027 3d3e
000001a0: d959 e0be 1763 84be d3af 14bf d0a8 c13e
000001b0: 8052 46bf 9323 173f 21d3 bd3e b145 a13d
000001c0: b529 d13e 29e2 75be d655 653e 0e65 14bf
000001d0: dc61 ab3d 4405 37bd 0ef6 c7be 0641 79bf
000001e0: 8cf0 e13e 0d5d 9dbe 5ba6 2e3e a977 dd3e
000001f0: 5adc 153d a5d9 14bf 8b11 ddbd 21e1 aabd
00000200: 64fa 16bd 6c32 dc3e 111a 83be 04f8 ed3e
00000210: c4df e1be a89c e93e 351b 613f 3347 603f
00000220: 9210 5bbe 8ac4 afbd 0149 313f fc8f 14be
00000230: 1cf8 1f3e 4baf b5be ede6 ee3e 4fb8 cbbb
00000240: 6f68 8bbe 69b5 c2bd d683 ae3e bdf0 a23e
00000250: 3cdb 123f bc4c 9abe 7883 4fbe 2f45 78be
00000260: 2b4a c1be d343 17be 60a5 753d a8e2 1ebe
00000270: 7848 293e 97cc c5be 03ac 153e 403e 18be
00000280: b544 2ebe 17c3 3e3d 068c f2bc 5777 303e
00000290: 859b 18bc e63a d93e cb8d 473d 4a00 d1be
000002a0: a408 cfbe c0a3 073a e0aa 7fbd 8867 66be
000002b0: d754 a7be b7c7 6e3e ed3e 05bf 15a8 eabe
000002c0: 8ae1 c0be ba96 3abe 4660 96bd c5dc 383e
000002d0: 3a01 66bf ab1e 94bc 327f 58be b37a 0b3e
000002e0: c457 5ebe ceef 7abe 2bbf 4bbe 0b13 1e3f
000002f0: 4b7a 1ebf 0fee 38be c999 02bf f90d c53d
00000300: 47d1 773d 45c1 adbe 851c 21bf a9a5 a9bd
00000310: 6780 3e3f b7d9 7cbe ef74 f83e 757d d0be
00000320: e478 2f3f 7493 02bf 108e cfbe ea5e 7abe
00000330: 4930 f0be 7d3c b53d 320e bb3e 1915 f03e
00000340: 0502 c83b 35bd 733e 9692 413f fe1a 453d
00000350: 42fc a63e 8d1a bbbd 6b7d 323f 1ea4 413e
00000360: a1b9 fdbe ec7e 64be b59b d33e a2e3 b83e
00000370: 152a 5b3d e7d6 97bd 7b39 923e 238f 1d3f
00000380: 0d35 bdbe 4d2e 71be 7b95 e8be db96 4a3e
00000390: ef95 cf3e 89d0 d3be a870 0e3e 61f4 adbe
000003a0: b9a3 d13e 12d8 173e ea8a 95bd 4677 65bd
000003b0: b125 b3be b7f6 7dbe 6822 95be b020 6a3d
000003c0: 4ed8 b53e 8d60 2abf b374 35be e1d4 77bd
000003d0: 5191 2e3e 6ffe 923c 98c1 8abe d4b9 acbe
000003e0: deed f93d 5bab 25bf 551f 9a3d a244 b2be
000003f0: 80ba 4c3f 8d24 efbd 5201 723e ed3b 723e

network_body._body_endoder.seq_layers.0.bias f4 [128]
0.0068654986 0.0067403256 0.008416904 -0.0052182553 -0.0035353515 0.007295717 -0.002923104 0.0010351372
0.0049849316 -0.00056274806 -0.0038416577 -0.004300837 0.005790544 -0.0043482436 0.00020767702 -0.0008347715
0.019719096 -0.002543989 0.013767262 -0.005595461 0.000725482 0.011259635 -0.002054097 -0.0038659968
0.0003244731 0.011390442 -0.011507308 0.010617699 -0.008465493 -0.011733752 -0.004872067 -0.006652544
0.008970568 0.010718567 0.00047161453 -0.005626636 -0.011950193 0.016899394 -2.0488134e-05 0.011012591
0.008707759 0.008026225 -0.00066223036 0.015049376 0.014692504 -0.010376247 -0.017704416 -0.00018659174
0.00011773242 -0.00822861 -0.0066286954 -0.0029593448 -0.0017998798 0.007950991 -0.00046819155 0.0014733284
-0.0032767323 -0.012856493 -0.003732356 -0.0056862747 -0.0021101783 0.015133362 0.014865553 0.016784225
0.020371087 -0.0061820676 0.0062871086 -0.012599702 -0.013503464 0.008420271 0.017510217 -0.00034692552
0.021086484 -0.0021828234 0.015729535 -0.0035955776 0.002848529 0.021595005 -0.0041628308 0.006179346
0.012667692 0.01623017 0.004427045 0.0015043261 0.007098803 -0.0054180436 0.01292888 0.008537649
0.01457597 -0.0037761 -0.0068118963 0.007873148 -0.009810716 -0.01709313 -0.008111328 0.022265183
0.016845878 -0.01338727 -0.009060448 -0.0039514615 0.0061614946 0.0018214344 -0.009187242 0.0016542054
0.023133965 0.009122968 0.0018147558 0.0064022364 -0.007271024 -0.002271165 0.0098438915 -0.002773022
0.010312448 0.010386978 0.008878991 -0.0019147646 -0.0033579504 -0.0063558132 -0.007413921 -0.0052457973
-0.0024861982 0.009824955 -0.006297232 -0.017660648 -0.0016139763 -0.013399185 0.01903424 0.004282918
00000000: faf7 e03b f3dd dc3b 0ee7 093c e6fd aabb
00000010: 5bb1 67bb e910 ef3b 8c91 3fbb 71ad 873a
00000020: a358 a33b 6285 13ba 52c4 7bbb 09ee 8cbb
00000030: 9bbe bd3b b67b 8ebb e0c3 5939 91d4 5aba
00000040: f189 a13c 0eb9 26bb 1590 613c 215a b7bb
00000050: 462e 3e3a 557a 383c 079e 06bb aa5c 7dbb
00000060: 0b1e aa39 fa9e 3a3c 2689 3cbc dbf5 2d3c
00000070: dab2 0abc ec3e 40bc dca5 9fbb 95fd d9bb
00000080: 4af9 123c ee9c 2f3c 0843 f739 a55f b8bb
00000090: beca 43bc 9970 8a3c efdd abb7 286e 343c
000000a0: fdaa 0e3c 6d80 033c 8799 2dba a891 763c
000000b0: d4b8 703c 2201 2abc da08 91bc d7a7 43b9
000000c0: 1de7 f638 4bd1 06bc 8735 d9bb 91f1 41bb
000000d0: f2e9 ebba e044 023c 9b77 f5b9 b31c c13a
000000e0: 72be 56bb 0aa4 52bc 8b9a 74bb ee53 babb
000000f0: eb4a 0abb ecf1 773c a68e 733c 127f 893c
00000100: 44e1 a63c f192 cabb 1704 ce3b fb6e 4ebc
00000110: a23d 5dbc 2df5 093c 9671 8f3c 8ee3 b5b9
00000120: 90bd ac3c b30d 0fbb 3adb 803c c8a3 6bbb
00000130: 63ae 3a3b 02e8 b03c 5b68 88bb 1c7c ca3b
00000140: 278c 4f3c 22f5 843c bf10 913b cf2c c53a
00000150: 139d e83b d889 b1bb a7d3 533c 7fe1 0b3c
00000160: 0dd0 6e3c 7278 77bb 5436 dfbb 60fe 003c
00000170: 20bd 20bc e406 8cbc 60e5 04bc 7965 b63c
00000180: 5e00 8a3c 4856 5bbc 4672 14bc 437b 81bb
00000190: 5de6 c93b 32bd ee3a 1686 16bc ecd1 d83a
000001a0: 7183 bd3c 8078 153c 1add ed3a dac9 d13b
000001b0: c541 eebb d3d7 14bb 4648 213c 97bb 35bb
000001c0: 8bf5 283c 252e 2a3c 3079 113c d7f8 faba
000001d0: 0f11 5cbb 6d44 d0bb 7af0 f2bb f0e4 abbb
000001e0: 7cef 22bb d9f8 203c 0359 cebb 10ad 90bc
000001f0: 0f8c d3ba 4188 5bbc b2ed 9b3c b857 8c3b

action_model._continuous_distribution.log_sigma f4 [1, 2]
-0.0061221886 -0.007745815
00000000: a49c c8bb 9bd0 fdbb

action_model._continuous_distribution.mu.weight f4 [2, 128]
0.0204239 -0.01800707 -0.009828481 -0.011322483 -0.012334976 0.013223262 0.0073812925 -0.004457131
-0.033532746 0.01515282 0.016218286 0.0048295534 -0.008917073 0.002585569 0.033375826 0.0010037716
0.020606382 0.013541818 0.022238737 0.0041238912 0.0065945247 0.02585785 -0.0029165696 0.005648147
0.0051737437 -0.029242147 0.01843197 0.039090574 0.010119248 0.0045987573 0.0026938783 -0.009544733
-0.025478002 -0.0036234763 -0.009371508 0.011975059 -0.021600526 -0.044869594 0.029030005 -0.025840864
-0.002082163 0.009419082 -0.046882134 0.03231338 0.008616831 0.0022137892 -0.00044197348 0.009106491
-0.016534792 -0.0026238326 -0.009964456 0.00025375327 -0.010624392 -0.023478447 0.014935173 -0.04084179
0.0026364345 0.012005494 -0.008011915 0.0015105483 0.011199323 -0.004914828 0.019199735 -0.017813522
0.0137932375 -0.0046266587 -0.010114697 0.0005723363 -0.013766172 -0.028902052 0.02494954 0.0029409933
-0.030407783 0.01882704 0.0046427473 -0.015365066 0.020796182 0.022899447 0.015303057 -0.020446423
-0.018669352 0.054318316 0.03389257 -0.014435823 -0.041766446 -0.017816165 0.01970707 0.0066964035
-0.0436034 0.031161832 -0.035099346 0.004054805 0.014095224 -0.00037749307 0.0032506103 0.013160652
-0.014007017 -0.005563312 -0.0073729665 0.0023199064 0.026326014 -0.013388654 -0.014793254 0.019073382
0.035196073 -0.040502317 -0.012344713 0.01537757 -0.010231181 -0.004580688 -0.014794555 -0.010009595
0.03403792 0.020084683 -0.062385783 4.9539035e-06 -0.028500438 -0.008667669 -0.011747262 -0.0018945306
-0.015689636 0.024279647 -2.5502823e-06 0.0023633782 0.008872858 0.0024179309 0.05230485 -0.02421164
-0.010563846 -0.047054935 -0.019045029 -0.006594936 0.019480871 0.008846968 0.012229833 -0.017660458
-0.018132478 -0.02401884 0.01891318 0.015971059 -0.0067077572 0.013084918 0.017505955 -0.016508438
-0.023940386 0.016178675 -0.052752145 0.013035353 0.0034236165 0.016658334 0.02583018 0.029911537
-0.0153244585 -0.00025430231 0.031504396 0.007784572 0.037959754 0.014358901 0.007764909 0.0070445207
-0.011447968 0.055507164 -0.006510586 0.005255036 0.02565382 -0.023377031 0.05420415 -0.010223794
-0.020383734 -0.0031175355 0.023610191 -0.021877516 -0.045086525 -0.019354321 0.0018267687 -0.011535614
0.00045578476 0.0011283818 -0.0022487883 -0.004993549 0.039624047 -0.01771051 0.019577116 0.027285371
0.016875839 0.00055245083 0.0033347257 0.0058329613 0.0015099546 -0.0063797235 -0.01743237 -0.030560344
-0.028653538 0.030636312 -0.01186473 0.00044788662 0.012247785 0.010535493 -0.031008411 0.026986158
-0.032377284 0.0074977665 -0.019844783 0.027614113 -0.0033637627 -0.004417256 0.033573575 -0.011937606
-0.029112862 -0.0002081931 0.00105654 -0.010995402 0.009122106 0.019580856 -0.035925277 -0.034876946
-0.024224238 0.0024807444 0.006740106 -0.0073196613 0.0045606964 0.008200818 0.01956223 -0.01688546
-0.009026171 0.014838779 0.00524702 0.06650372 -0.009626085 0.037293702 0.051492874 0.041381195
-0.02173272 -0.016344056 0.014820717 -0.010914155 0.04403335 -0.0077496753 -0.029417187 -0.0011109711
0.006887613 -0.012289714 0.007013726 -0.005933816 0.015428392 0.0032271775 0.0053601977 0.0059403703
-0.0038773348 0.02995808 0.026264966 0.0034323568 -0.010452195 0.023624647 -0.012946039 0.0012289297
00000000: 0650 a73c 9083 93bc a307 21bc f081 39bc
00000010: a418 4abc 61a6 583c c5de f13b 200d 92bb
00000020: a259 09bd 8943 783c 36dc 843c 3b41 9e3b
00000030: ea18 12bc a672 293b 17b5 083d fc90 833a
00000040: b7ce a83c 80de 5d3c 032e b63c b521 873b
00000050: e216 d83b d8d3 d33c eb23 3fbb 1714 b93b
00000060: 8288 a93b 3a8d efbc a5fe 963c 701d 203d
00000070: 34cb 253c 2cb1 963b c78b 303b 8361 1cbc
00000080: 3eb7 d0bc d877 6dbb f48a 19bc 0a33 443c
00000090: 96f3 b0bc 2ec9 37bd 55d0 ed3c 38b0 d3bc
000000a0: e674 08bb 7e52 1a3c 7b07 40bd 095b 043d
000000b0: 9c2d 0d3c 3815 113b adb8 e7b9 6433 153c
000000c0: f973 87bc 9bf4 2bbb f541 23bc 300a 8539
000000d0: ee11 2ebc df55 c0bc a8b2 743c b949 27bd
000000e0: 08c8 2c3b b1b2 443c 6844 03bc 97fd c53a
000000f0: 5e7d 373c 910c a1bb c348 9d3c aaed 91bc
00000100: 08fd 613c 3a9b 97bb 1db8 25bc d708 163a
00000110: 838b 61bc ffc3 ecbc fa62 cc3c aebd 403b
00000120: be19 f9bc 2a3b 9a3c 3022 983b c2bd 7bbc
00000130: c15c aa3c 9f97 bb3c acb9 7a3c 427f a7bc
00000140: 78f0 98bc e27c 5e3d efd2 0a3d 3b84 6cbc
00000150: 4b13 2bbd 35f3 91bc b970 a13c 816d db3b
00000160: 7b99 32bd 1947 ff3c 55c4 0fbd 2bde 843b
00000170: a8ef 663c 43ea c5b9 3108 553b c69f 573c
00000180: b07d 65bc 724c b6bb ed98 f1bb 9209 183b
00000190: a7a9 d73c 165c 5bbc 685f 72bc c83f 9c3c
000001a0: c229 103d c2e5 25bd 7b41 4abc 34f2 7b3c
000001b0: afa0 27bc 9919 96bb dc64 72bc 49ff 23bc
000001c0: 596b 0b3d a288 a43c 3c88 7fbd b539 a636
000001d0: c079 e9bc d702 0ebc 9777 40bc e651 f8ba
000001e0: 8d87 80bc 1ce6 c63c 8425 2bb6 e8e2 1a3b
000001f0: 775f 113c 2676 1e3b 9c3d 563d 7d57 c6bc
00000200: fb13 2dbc adbc 40bd 5204 9cbc 551a d8bb
00000210: 5996 9f3c e0f2 103c a35f 483c aaac 90bc
00000220: 908a 94bc 29c3 c4bc d0ef 9a3c bdd5 823c
00000230: bfcc dbbb 2062 563c a668 8f3c b43c 87bc
00000240: a11e c4bc 2489 843c a212 58bd 3c92 553c
00000250: c15e 603b 0f77 883c d099 d33c 0a09 f53c
00000260: 7013 7bbc e153 85b9 c10a 013d b915 ff3b
00000270: b07b 1b3d 9941 6b3c c770 fe3b b9d5 e63b
00000280: 4290 3bbc 7b5b 633d c156 d5bb 7032 ac3b
00000290: f627 d23c 3081 bfbc 2c05 5e3d b381 27bc
000002a0: cafb a6bc 914f 4cbb 296a c13c 7a38 b3bc
000002b0: a6ac 38bd f48c 9ebc 3070 ef3a dfff 3cbc
000002c0: 65f6 ee39 36e6 933a 6860 13bb eda0 a3bb
000002d0: d34c 223d a215 91bc 3060 a03c 9285 df3c
000002e0: 333f 8a3c 59d2 103a 6a8b 5a3b 6d22 bf3b
000002f0: abe9 c53a 000d d1bb 54ce 8ebc b059 fabc
00000300: d3ba eabc 01f9 fa3c 4964 42bc 53d2 ea39
00000310: efaa 483c 0f9d 2c3c 5a05 febc 1312 dd3c
00000320: 0b9e 04bd d3af f53b 8791 a2bc fe36 e23c
00000330: 9372 5cbb a1be 90bb 7284 093d f395 43bc
00000340: 197e eebc 694e 5ab9 997b 8a3a 0f26 34bc
00000350: e374 153c 0868 a03c 6226 13bd 21db 0ebd
00000360: e971 c6bc fc93 223b 1bdc dc3b c5d9 efbb
00000370: e571 953b b95c 063c f840 a03c 6053 8abc
00000380: 81e2 13bc 5a1e 733c 32ef ab3b 1a33 883d
00000390: bab6 1dbc 48c1 183d 31ea 523d 547f 293d
000003a0: d108 b2bc f8e3 85bc 98d2 723c 49d1 32bc
000003b0: 505c 343d fdf0 fdbb 50fc f0bc 019e 91ba
000003c0: 7cb1 e13b cc5a 49bc 66d3 e53b 7570 c2bb
000003d0: 5ec7 7c3c 0e7f 533b 99a4 af3b 70a7 c23b
000003e0: e21a 7ebb a66a f53c a029 d73c 64f1 603b
000003f0: af3f 2bbc 7a88 c13c a01b 54bc 0a14 a13a

action_model._continuous_distribution.mu.bias f4 [2]
0.0048427284 -0.0106947115
00000000: c0af 9e3b df38 2fbc

exp_avg f4 [128, 8]
0.00021056179 -0.00014046243 -9.3974515e-05 -7.959483e-05 -0.00011038492 -9.752971e-05 -1.2247863e-05 -0.00010459971
-0.00025944642 -0.0003183896 4.4543383e-05 4.4970868e-05 -0.0006573008 2.2577333e-05 -2.9782039e-05 -0.0006306522
-0.00015056551 -0.00013516944 9.003411e-05 -2.8059274e-05 -0.00020527156 2.207564e-05 -4.0510718e-06 -0.00014394321
-8.9287336e-05 -4.0856823e-05 0.000100722194 3.353579e-05 -3.475792e-05 0.00010022571 2.1064918e-05 -4.4614437e-05
-8.63088e-05 0.00022717527 -2.053391e-05 6.7083885e-05 0.0002046877 5.62555e-05 -7.289322e-05 0.00019933304
0.00018844873 8.7035296e-05 -0.00013244056 -2.6529853e-05 8.485986e-05 -0.00015285733 -7.192867e-06 0.00011746849
0.000157617 0.00014450493 -0.00011022429 2.643643e-05 0.0001614915 -7.5477765e-05 -1.3905517e-05 0.00014686128
-8.081499e-05 -0.00013126986 9.0307054e-05 2.2586468e-05 -0.00019671931 4.5776353e-05 5.7827176e-05 -0.00018272673
-0.00046687326 -8.0353304e-05 0.000319185 9.784989e-05 -8.877505e-05 0.00033403712 4.0831354e-05 -0.00011067797
9.496165e-05 -0.00035614258 4.0102128e-05 -0.00014512255 -0.00021496431 3.2800617e-06 5.740275e-05 -0.0001674555
0.00023568551 0.00014683895 -0.00022979765 -2.5929892e-05 0.00019916151 -0.00018290663 -8.348765e-05 0.00016041136
8.1579e-05 0.00018989817 -0.00013744764 1.5961366e-05 0.00015124741 -7.067712e-05 -1.1425233e-05 0.00015458452
-0.00010357497 -2.981503e-05 4.9396327e-05 5.426583e-06 -6.805572e-05 4.3451975e-05 4.3415017e-05 -5.56891e-05
3.6033634e-05 0.00017821639 -0.000100079254 2.6058484e-05 7.306666e-05 -3.2860204e-05 3.8628492e-05 0.000135392
0.00047115813 0.00013876957 -0.0003924527 -3.5053352e-05 0.00014307647 -0.00034712607 -0.00013263222 0.00014016681
-5.641907e-05 -0.00017944127 5.332482e-05 -2.561649e-05 -0.00017323722 2.8704015e-05 3.6838486e-05 -0.00014739353
0.00010739325 -0.00041132575 -5.7127454e-05 -0.00015429434 -0.00016277723 -0.00022048145 -0.0003613172 -0.00030861434
0.00017819839 0.0001476578 -9.759851e-05 -1.9806725e-05 0.00018029482 -0.0001129967 1.1962378e-05 0.0002276662
0.000141263 -0.0004125957 -3.3117063e-05 -0.000121857556 -0.00087082654 -8.8883855e-05 0.00012287917 -0.00063183607
5.852388e-05 0.00011471351 -8.231763e-05 -1.1417898e-05 0.00014096934 -5.7045767e-05 -8.802897e-06 0.00013540436
8.05911e-05 2.4631603e-05 -6.316696e-05 -2.1072641e-05 4.379624e-05 -5.547101e-05 -2.8130107e-05 3.9569342e-05
0.00030249823 0.00011355036 -0.00027131123 -0.00015065688 0.0001586922 -0.00018414052 -0.00015142499 0.00016793874
2.5943033e-05 0.00036510482 -0.00012621685 3.3817356e-05 7.868057e-05 -2.2448161e-05 -1.724398e-05 0.0002222028
0.00014178951 0.00032043256 -0.00022316139 3.928765e-06 0.00018583545 -0.0001033709 -0.00011881124 0.00021895692
7.145712e-06 -0.00015100678 2.9246483e-05 -8.468291e-06 -0.00024078027 -3.213506e-05 4.1039325e-06 -0.00019204157
-0.00033295588 7.38618e-05 0.00017148476 1.251213e-05 0.00010283852 0.00029915516 9.371928e-05 0.00014091514
0.00028234656 0.000286497 -8.342481e-05 -2.2996683e-06 0.00034631026 -9.780956e-05 0.000109364395 0.0004001045
0.000391533 -1.1086993e-05 -0.00021186382 -0.00015113654 8.486035e-05 -0.0002482331 -0.00012444763 7.9109544e-05
0.00014294017 0.0003517738 -0.000323958 5.924992e-05 0.00039991742 -0.00018102936 -5.2575015e-05 0.00029139273
0.00011746375 0.00013464222 -0.0001005207 3.0664455e-07 7.467542e-05 -6.516944e-05 -9.053841e-06 7.999029e-05
5.698655e-05 6.435332e-05 -5.7618137e-05 -1.8866551e-06 9.859308e-05 -3.371891e-05 -5.2228923e-05 8.095742e-05
-7.292797e-05 3.969099e-05 4.3617878e-05 -7.642968e-06 0.00017006167 7.50053e-05 3.55432e-05 0.0001370971
00000000: 40ca 5c39 1949 13b9 2f14 c5b8 26ec a6b8
00000010: 747e e7b8 dd88 ccb8 2c7c 4db7 8b5c dbb8
00000020: 4f06 88b9 87ed a6b9 18d4 3a38 1a9f 3c38
00000030: b64e 2cba 7464 bd37 71d4 f9b7 5a52 25ba
00000040: 1fe1 1db9 45bc 0db9 b2d0 bc38 d560 ebb7
00000050: 2a3e 57b9 132f b937 71ee 87b6 76ef 16b9
00000060: c63f bbb8 ae5d 2bb8 d13a d338 c8a8 0c38
00000070: 08c9 11b8 4530 d238 91b4 b037 6320 3bb8
00000080: af00 b5b8 e635 6e39 3c40 acb7 63af 8c38
00000090: 70a1 5639 e2f3 6b38 40de 98b8 0e04 5139
000000a0: 529a 4539 b886 b638 bedf 0ab9 6d8c deb7
000000b0: caf6 b138 5448 20b9 425a f1b6 6a59 f638
000000c0: fe45 2539 3f86 1739 3728 e7b8 cdc3 dd37
000000d0: 0b56 2939 d149 9eb8 be4b 69b7 c6fe 1939
000000e0: 387b a9b8 7ca5 09b9 3b63 bd38 1278 bd37
000000f0: 7046 4eb9 fcff 3f38 758b 7238 559a 3fb9
00000100: abc6 f4b9 5a83 a8b8 4958 a739 c234 cd38
00000110: be2c bab8 b421 af39 5542 2b38 c81b e8b8
00000120: 2626 c738 a6b8 bab9 5533 2838 0a2c 18b9
00000130: 0b68 61b9 081f 5c36 bcc3 7038 fe96 2fb9
00000140: 5922 7739 c8f8 1939 d6f5 70b9 0584 d9b7
00000150: 03d6 5039 a0ca 3fb9 1716 afb8 1934 2839
00000160: 6415 ab38 671f 4739 d21f 10b9 c6e4 8537
00000170: 2b98 1e39 7d38 94b8 01af 3fb7 f717 2239
00000180: 6336 d9b8 4a1b fab7 e72e 4f38 fe15 b636
00000190: 23b9 8eb8 3440 3638 8518 3638 b793 69b8
000001a0: d222 1738 99df 3a39 a4e1 d1b8 2b98 da37
000001b0: 5d3b 9938 60d3 09b8 0705 2238 03f8 0d39
000001c0: c605 f739 ac82 1139 1cc2 cdb9 4006 13b8
000001d0: cc06 1639 79fe b5b9 3113 0bb9 bef9 1239
000001e0: 84a3 6cb8 6628 3cb9 17a9 5f38 fee2 d6b7
000001f0: 03a7 35b9 67c9 f037 0683 1a38 a68d 1ab9
00000200: 5038 e138 35a7 d7b9 239c 6fb8 12ca 21b9
00000210: 2eaf 2ab9 0a31 67b9 2c6f bdb9 84cd a1b9
00000220: c4da 3a39 97d4 1a39 cdad ccb8 9e26 a6b7
00000230: 860d 3d39 a4f8 ecb8 06b2 4837 aeb9 6e39
00000240: ff1f 1439 a851 d8b9 2de7 0ab8 c78d ffb8
00000250: 2e48 64ba 2867 bab8 20d9 0039 cda1 25ba
00000260: 8a77 7538 5992 f038 f1a1 acb8 808f 3fb7
00000270: 2bd1 1339 6d44 6fb8 28b0 13b7 55fb 0d39
00000280: 0403 a938 f79f ce37 8178 84b8 27c5 b0b7
00000290: dbb1 3738 8ba9 68b8 f2f8 ebb7 42f7 2538
000002a0: a098 9e39 e321 ee38 c73e 8eb9 a6f9 1db9
000002b0: 9d66 2639 d815 41b9 d6c7 1eb9 b618 3039
000002c0: 3da0 d937 8a6b bf39 1459 04b9 1cd7 0d38
000002d0: 4f01 a538 0f4f bcb7 2aa7 90b7 1cff 6839
000002e0: 55ad 1439 bbff a739 6e00 6ab9 d6d3 8336
000002f0: d3dc 4239 d4c8 d8b8 4c2a f9b8 cd97 6539
00000300: 33c5 ef36 9357 1eb9 5856 f537 0813 0eb7
00000310: f679 7cb9 c2c8 06b8 83b4 8936 c45e 49b9
00000320: 9590 aeb9 40e6 9a38 97d0 3339 30eb 5137
00000330: 03ab d738 edd7 9c39 288b c438 9fc2 1339
00000340: ea07 9439 fa34 9639 5bf4 aeb8 0054 1ab6
00000350: fa90 b539 1c1f cdb8 905a e538 1ec5 d139
00000360: ab46 cd39 4602 3ab7 c327 5eb9 687a 1eb9
00000370: 0ef7 b138 4825 82b9 287e 02b9 9de7 a538
00000380: 36e2 1539 486e b839 e8d8 a9b9 1e83 7838
00000390: 02ac d139 b3d2 3db9 fe83 5cb8 12c6 9839
000003a0: df56 f638 bf2e 0d39 a4ce d2b8 e8a0 a434
000003b0: 109b 9c38 94ab 88b8 f3e5 17b7 76c0 a738
000003c0: d804 6f38 6df5 8638 01ab 71b8 fa38 fdb5
000003d0: c2c3 ce38 676d 0db8 6110 5bb8 afc7 a938
000003e0: e8f0 98b8 e079 2638 57f2 3638 4c3a 00b7
000003f0: 9552 3239 2a4c 9d38 3814 1538 b9c1 0f39

exp_avg_sq f4 [128, 8]
8.98568e-08 6.326309e-08 8.122647e-08 9.961618e-08 8.415564e-08 5.333376e-08 1.6395255e-07 4.71403e-08
1.8198524e-07 3.2991966e-07 2.1504187e-07 1.3600435e-07 3.362432e-07 1.8145283e-07 2.0810148e-07 3.7242515e-07
4.9907264e-08 7.0456466e-08 4.287537e-08 4.9986873e-08 4.7805482e-08 2.4939444e-08 4.3733607e-08 3.85872e-08
2.0394095e-08 1.602534e-08 2.3786317e-08 2.736513e-08 2.3929925e-08 2.5618558e-08 3.859119e-08 1.8855555e-08
5.8311187e-08 7.99842e-08 4.7709996e-08 6.936238e-08 7.6379074e-08 3.1727115e-08 1.05268896e-07 5.244254e-08
3.3061603e-08 2.567137e-08 2.7719866e-08 1.1466898e-08 2.303516e-08 3.5340054e-08 1.2505285e-08 2.331163e-08
2.189678e-08 3.533888e-08 2.0581538e-08 1.8275328e-08 2.3770774e-08 1.5650983e-08 1.4193885e-08 2.5807074e-08
2.3763334e-08 6.151092e-08 3.2931993e-08 3.894922e-08 4.8720416e-08 1.8648809e-08 5.8270285e-08 4.635611e-08
2.717034e-07 1.850721e-07 2.5557893e-07 2.4116756e-07 2.947218e-07 2.2772078e-07 4.2277205e-07 1.8467938e-07
1.0614813e-07 1.6643266e-07 8.8995755e-08 1.2202455e-07 1.3913044e-07 5.4972443e-08 1.7631373e-07 9.535543e-08
8.048789e-08 8.0924934e-08 8.0004384e-08 7.9987466e-08 7.7804465e-08 6.489035e-08 1.337949e-07 6.210709e-08
1.7160035e-08 4.506263e-08 2.1568967e-08 1.8519156e-08 3.329762e-08 1.3408375e-08 2.1949917e-08 3.413255e-08
1.6716768e-08 1.1410519e-08 1.599594e-08 1.5621227e-08 1.572699e-08 1.3082863e-08 2.6489563e-08 1.1800973e-08
1.375434e-08 3.5885044e-08 1.8008542e-08 1.44443995e-08 2.5943649e-08 1.0900136e-08 1.3939238e-08 2.9782397e-08
2.5260343e-07 1.8307739e-07 2.7450838e-07 2.621601e-07 2.9235318e-07 2.0742407e-07 5.312396e-07 1.949009e-07
2.7743777e-08 6.1570184e-08 2.5025358e-08 3.1641292e-08 4.2267736e-08 1.559649e-08 3.9578232e-08 4.071645e-08
1.00176926e-07 1.1241941e-07 7.304979e-08 7.3851865e-08 9.8159745e-08 8.640783e-08 9.738604e-08 1.2691176e-07
3.579651e-08 4.833034e-08 3.958738e-08 1.3728727e-08 4.0028954e-08 4.4394913e-08 2.3249887e-08 5.330228e-08
2.567453e-07 4.7212586e-07 2.4616367e-07 3.5689368e-07 4.5182406e-07 1.4423344e-07 4.5844246e-07 3.121816e-07
8.2860945e-09 2.1013417e-08 1.1940955e-08 8.122793e-09 1.6436598e-08 9.107517e-09 1.2970262e-08 1.9532717e-08
5.3644063e-09 4.242411e-09 4.847821e-09 2.5217886e-09 4.7292663e-09 4.8676565e-09 3.7823145e-09 3.8118984e-09
1.3728949e-07 1.2929942e-07 1.5154461e-07 1.7025879e-07 1.9930584e-07 9.921835e-08 3.1886384e-07 1.2290687e-07
6.135493e-08 1.4419241e-07 6.9313e-08 9.649955e-08 1.3431236e-07 4.197003e-08 1.403647e-07 1.0815869e-07
8.3771e-08 2.1326099e-07 1.05583624e-07 1.4823684e-07 1.6973438e-07 5.2475563e-08 2.0466688e-07 1.17645605e-07
2.2889873e-08 3.9658907e-08 2.1462254e-08 1.7644597e-08 4.414484e-08 1.743917e-08 2.5152334e-08 4.4917712e-08
1.4056864e-07 5.1072302e-08 1.02256266e-07 6.043904e-08 7.306126e-08 1.5109214e-07 9.1900155e-08 5.86043e-08
1.2916425e-07 1.9070247e-07 1.3760462e-07 6.732455e-08 1.5640666e-07 1.3342952e-07 9.10887e-08 2.1700392e-07
2.4256062e-07 1.12696696e-07 1.6791321e-07 9.768776e-08 1.3760383e-07 2.0278772e-07 8.384567e-08 1.09368926e-07
1.0202607e-07 2.4795546e-07 1.7471115e-07 1.1680245e-07 1.8809801e-07 1.03200506e-07 1.4217188e-07 1.9240564e-07
3.2094928e-08 4.620166e-08 3.2972338e-08 5.0391918e-08 4.7452886e-08 1.9758838e-08 8.234427e-08 3.330503e-08
7.922237e-09 1.0239492e-08 8.47368e-09 1.1128797e-08 9.9775574e-09 4.918617e-09 1.8244304e-08 7.4359354e-09
1.9140924e-08 1.6435704e-08 1.792156e-08 1.810975e-08 2.5850433e-08 1.7160893e-08 2.8739631e-08 2.0059966e-08
00000000: 4cf7 c033 40db 8733 b96e ae33 93ec d533
00000010: 0db9 b433 1711 6533 ef0a 3034 4f77 4a33
00000020: b967 4334 d01f b134 42e6 6634 9708 1234
00000030: ea84 b434 60d5 4234 8072 5f34 b9f1 c734
00000040: 9e59 5633 da4d 9733 f825 3833 26b1 5633
00000050: af52 4d33 6b3a d632 9cd5 3b33 13bb 2533
00000060: 172f af32 18a8 8932 aa52 cc32 8f10 eb32
00000070: 768e cd32 ce0f dc32 76bf 2533 cef7 a132
00000080: d471 7a33 c7c3 ab33 b2e9 4c33 5ff4 9433
00000090: d705 a433 5544 0833 3010 e233 2f3d 6133
000000a0: 9eff 0d33 f183 dc32 a11c ee32 f3ff 4432
000000b0: dade c532 cdc8 1733 d3d6 5632 d13e c832
000000c0: 8717 bc32 82c7 1733 48cb b032 dffb 9c32
000000d0: 7c30 cc32 e070 8632 5ed9 7332 5bae dd32
000000e0: 2020 cc32 fc17 8433 1c71 0d33 1f49 2733
000000f0: aa40 5133 2a31 a032 db44 7a33 1519 4733
00000100: a2de 9134 3bb8 4634 8036 8934 d179 8134
00000110: 413a 9e34 6983 7434 59f9 e234 484c 4634
00000120: 8df3 e333 a9b4 3234 ef1d bf33 da05 0334
00000130: e263 1534 d71a 6c33 c050 3d34 34c6 cc33
00000140: afd8 ac33 f4c8 ad33 e0ce ab33 93c5 ab33
00000150: 7515 a733 d959 8b33 43a9 0f34 bc5f 8533
00000160: 5167 9332 e38a 4133 a946 b932 0e14 9f32
00000170: 1f03 0f33 a85a 6632 618c bc32 2399 1233
00000180: 9098 8f32 fe07 4432 7267 8932 712f 8632
00000190: 0418 8732 0ac3 6032 2a8b e332 3abd 4a32
000001a0: 3a4c 6c32 0620 1a33 34b1 9a32 2427 7832
000001b0: b0da de32 4e43 3b32 6b79 6f32 2fd4 ff32
000001c0: 8d9d 8734 ee93 4434 2560 9334 03bf 8c34
000001d0: b7f4 9c34 4bb8 5e34 829a 0e35 f445 5134
000001e0: 3651 ee32 9138 8433 58f7 d632 f8e5 0733
000001f0: de89 3533 0bf9 8532 bafc 2933 36e0 2e33
00000200: d920 d733 396b f133 8cdf 9c33 7e98 9e33
00000210: e4cb d233 358f b933 8b22 d133 3d45 0834
00000220: aebe 1933 c593 4f33 c906 2a33 94db 6b32
00000230: 4dec 2b33 b9ac 3e33 0bb7 c732 7aee 6433
00000240: ced6 8934 7c78 fd34 7a28 8434 189b bf34
00000250: 3a92 f234 96de 1a34 da1f f634 ea99 a734
00000260: a15a 0e32 fe80 b432 e024 4d32 6c8c 0b32
00000270: 7630 8d32 4977 1c32 d1d3 5e32 e6c8 a732
00000280: d151 b831 a4c4 9131 e291 a631 c64b 2d31
00000290: 117f a231 5c40 a731 97f5 8131 d0f9 8231
000002a0: d969 1334 8ed5 0a34 44b8 2234 61d0 3634
000002b0: c600 5634 dd11 d533 5030 ab34 62f8 0334
000002c0: 3bc2 8333 4fd3 1a34 3ad9 9433 303b cf33
000002d0: 8037 1034 8942 3433 28b7 1634 de44 e833
000002e0: 98e5 b333 bcfc 6434 36bd e233 082b 1f34
000002f0: 3b40 3634 7e61 6133 67c2 5b34 5ba4 fc33
00000300: 5d9f c432 6e55 2a33 ff5b b832 e190 9732
00000310: c499 3d33 24cd 9532 910e d832 8ceb 4033
00000320: 37ef 1634 975a 5b33 fa97 db33 b7ca 8133
00000330: dae5 9c33 e43b 2234 a55a c533 1cb4 7b33
00000340: 66b0 0a34 e5c3 4c34 78c0 1334 1094 9033
00000350: bcf0 2734 d444 0f34 8b9c c333 9501 6934
00000360: 4739 8234 aa03 f233 a24b 3434 6ac8 d133
00000370: 41c0 1334 ddbd 5934 a50e b433 34de ea33
00000380: 6d19 db33 bd1e 8534 3c98 3b34 d3d4 fa33
00000390: fdf7 4934 149f dd33 e9a7 1834 0f98 4e34
000003a0: bfd8 0933 436f 4633 789d 0d33 806e 5833
000003b0: 00cf 4b33 25ba a932 3ed5 b033 450b 0f33
000003c0: 5e1a 0832 c3e9 2f32 a493 1132 f830 3f32
000003d0: c369 2b32 9d00 a931 a6b7 9c32 2e7f ff31
000003e0: 566b a432 7f2e 8d32 edf1 9932 c38f 9b32
000003f0: b40d de32 3469 9332 1edf f632 5550 ac32

exp_avg f4 [128]
-0.0001328397 -0.00038139668 -0.00018943369 2.302996e-05 9.2004004e-05 -9.930602e-05 9.325056e-06 -6.769758e-05
-0.00010124864 -0.00015492919 4.407262e-05 -4.150695e-06 -5.175549e-05 -3.088288e-06 6.6514267e-06 -9.456206e-05
-0.0005905138 -1.2039316e-05 -0.0005826239 4.4458542e-05 -4.7057445e-05 -0.00018590224 7.423907e-06 3.9689272e-05
-0.00013707086 -9.143331e-05 0.00021594233 -0.00042035215 0.00022487662 0.00011442584 1.5277405e-05 9.690046e-05
-0.00012971087 -0.00020686116 1.4148556e-05 6.8194154e-06 0.00030579985 -0.00040309466 6.4857704e-05 -6.389087e-05
-0.00012044407 -6.20685e-05 4.3767846e-05 -0.00068115245 -0.00059315027 9.499318e-05 3.595398e-05 -8.7510896e-05
2.5092026e-05 1.6358992e-05 9.682985e-06 -1.4422774e-05 0.00023554792 -0.00016783868 3.0827174e-05 0.00018625715
3.910615e-05 6.924326e-05 1.9978488e-05 2.0632017e-06 -1.461358e-05 -0.000100294026 -0.00031227124 -0.00033665847
-0.00050948444 0.00020087112 -9.801162e-05 4.971067e-06 0.0002190987 -3.6443504e-05 -0.0004950259 1.6781421e-05
-0.0006162344 -7.42026e-05 -0.00036550424 0.00018923974 -0.00017986508 -0.00033613545 9.210041e-05 -9.98078e-05
-0.0003605181 -0.0006446342 -8.518978e-05 -7.212997e-06 1.9519666e-05 0.000116621595 -0.0004082291 -0.00029466546
-0.00025987838 -0.00014696448 0.00025302256 -7.725988e-05 3.49413e-05 0.000111849324 9.293821e-05 -0.00038465438
-0.00014398382 0.00017758289 4.2239953e-05 0.00013679262 -0.00022715962 8.592235e-05 0.00037840084 -8.7270295e-05
-0.00081487116 -3.7369602e-05 6.081259e-06 -0.00013283851 0.00034714848 -1.3399265e-05 -0.00014975082 2.7347876e-05
-0.00019845014 -0.00025925436 -0.0001435904 -1.1123487e-05 0.00017971089 4.3497348e-05 0.00010779807 2.320771e-05
5.1688763e-05 -0.00021636652 9.474739e-05 4.4998193e-05 -0.00016419738 0.00015778768 -0.0007179735 1.803203e-05
00000000: e34a 0bb9 32f6 c7b9 b8a2 46b9 7630 c137
00000010: 46f2 c038 8342 d0b8 d072 1c37 ddf8 8db8
00000020: 7355 d4b8 7d74 22b9 9eda 3838 3346 8bb6
00000030: 0914 59b8 6240 4fb6 522f df36 9f4f c6b8
00000040: b6cc 1aba 78fc 49b7 3abb 18ba ff78 3a38
00000050: 8c5f 45b8 c1ee 42b9 e01a f936 0878 2638
00000060: aeba 0fb9 e2bf bfb8 946e 6239 b662 dcb9
00000070: dccc 6b39 e8f7 ef38 fa27 8037 0a37 cb38
00000080: ff02 08b9 dfe8 58b9 965f 6d37 55d2 e436
00000090: c353 a039 7356 d3b9 3704 8838 26fd 85b8
000000a0: eb96 fcb8 c62a 82b8 5e93 3738 5e8f 32ba
000000b0: a47d 1bba 1337 c738 4bcd 1638 0e86 b7b8
000000c0: b77c d237 ab3a 8937 1b74 2237 58f9 71b7
000000d0: 6afd 7639 dafd 2fb9 6d4c 0138 064e 4339
000000e0: e905 2438 b136 9138 7a97 a737 8975 0a36
000000f0: d92c 75b7 f254 d2b8 56b8 a3b9 8981 b0b9
00000100: ec8e 05ba eea0 5239 968b cdb8 24cd a636
00000110: dcbd 6539 eada 18b8 a0c4 01ba d4c5 8c37
00000120: ca8a 21ba 389d 9bb8 26a1 bfb9 a86e 4639
00000130: 2a9a 3cb9 563b b0b9 0826 c138 e84f d1b8
00000140: ec03 bdb9 abfc 28ba eaa7 b2b8 2c07 f2b6
00000150: 2abe a337 be92 f438 9507 d6b9 547d 9ab9
00000160: 4940 88b9 7a1a 1ab9 1da8 8439 9506 a2b8
00000170: ef8d 1238 a690 ea38 d2e7 c238 70ab c9b9
00000180: 5dfa 16b9 8b35 3a39 ce2a 3138 fd6f 0f39
00000190: b231 6eb9 3631 b438 1a64 c639 e204 b7b8
000001a0: 149d 55ba 4ebd 1cb8 9e0d cc36 914a 0bb9
000001b0: 7b01 b639 68cd 60b7 6e06 1db9 1e69 e537
000001c0: 0e17 50b9 88ec 87b9 c190 16b9 039f 3ab7
000001d0: c670 3c39 ec70 3638 a611 e238 2dae c237
000001e0: 63cc 5838 72e0 62b9 1eb3 c638 71bc 3c38
000001f0: 662c 2cb9 cf73 2539 6336 3cba 7d43 9737

exp_avg_sq f4 [128]
6.0587155e-08 2.6243012e-07 5.8885732e-08 1.4770761e-08 4.837539e-08 2.455639e-08 1.899136e-08 3.0359157e-08
1.5258311e-07 8.9782226e-08 5.0644918e-08 2.0365173e-08 9.369228e-09 1.782454e-08 1.4498147e-07 3.246098e-08
2.8438916e-07 3.2429536e-08 4.4329937e-07 1.2070786e-08 4.308238e-09 1.1471321e-07 6.908265e-08 9.901379e-08
3.2967193e-08 7.38145e-08 1.6579703e-07 2.0694463e-07 1.6635302e-07 3.2814878e-08 5.7640723e-09 1.847422e-08
7.905353e-08 3.310865e-07 1.222233e-08 1.6138706e-08 1.6322149e-07 3.4732048e-07 2.713179e-07 6.0081334e-08
5.2281518e-08 1.07791305e-08 2.9075082e-07 3.237184e-07 3.9527472e-07 5.016723e-08 8.91858e-09 2.5361699e-08
2.5243477e-08 6.9040995e-10 8.247686e-09 4.2428296e-09 1.594226e-07 9.299753e-08 5.010421e-08 2.2128081e-07
2.2176108e-08 2.428353e-08 7.77419e-09 2.251088e-09 1.1946417e-08 8.833467e-09 1.0115637e-07 2.2831433e-07
2.2317268e-07 9.584014e-08 1.7729487e-08 9.981789e-10 6.864422e-08 9.333767e-08 2.7395208e-07 7.804675e-08
4.5682896e-07 2.9566337e-08 1.0501538e-07 1.2717213e-07 4.9189882e-08 1.3683028e-07 1.6454935e-07 4.9884925e-08
1.5725705e-07 5.862582e-07 1.2663132e-07 3.0358862e-08 1.3624057e-07 8.492849e-08 2.5700774e-07 1.4537186e-07
3.6484946e-07 9.506663e-08 1.6880058e-07 9.5985415e-09 2.817608e-08 2.0428992e-08 4.1548784e-08 1.14989156e-07
3.9820726e-08 4.1736225e-08 1.1309764e-08 4.5836472e-07 8.086108e-08 1.2482721e-07 3.5435065e-07 2.1173393e-07
5.144947e-07 1.7166381e-07 3.851843e-08 4.7044075e-08 2.1810659e-07 7.56731e-09 1.5710138e-07 9.487143e-09
1.03682964e-07 9.075376e-08 3.8377144e-07 5.6983502e-09 7.911858e-08 8.595679e-09 2.2174019e-08 2.8555904e-09
2.3006155e-08 1.7172887e-07 5.6081955e-08 6.850895e-09 2.5966262e-08 5.9610734e-08 6.126298e-07 3.696247e-08
00000000: 241c 8233 1fe4 8c34 8ce9 7c33 7ec2 7d32
00000010: 4ec5 4f33 13f0 d232 7122 a332 3f64 0233
00000020: bad5 2334 4dce c033 ad84 5933 7def ae32
00000030: 4df6 2032 941c 9932 34ac 1b34 3a6b 0b33
00000040: 26ae 9834 a748 0b33 9afe ed34 e15f 4f32
00000050: aa07 9431 4158 f633 975a 9433 68a1 d433
00000060: d097 0d33 f383 9e33 f105 3234 8234 5e34
00000070: c59e 3234 57f0 0c33 510d c631 3db1 9e32
00000080: 23c4 a933 2fc0 b134 60fa 5132 64a1 8a32
00000090: fb41 2f34 5d77 ba34 a6a9 9134 1006 8133
000000a0: 238c 6033 1e2f 3932 7d18 9c34 85cb ad34
000000b0: 2536 d434 7477 5733 5438 1932 f7da d932
000000c0: fed6 d832 48c7 3d30 b5b1 0d32 53c8 9131
000000d0: c02d 2b34 efb5 c733 2932 5733 3599 6d34
000000e0: c77d be32 0c98 d032 408f 0532 8fb1 1a31
000000f0: e63c 4d32 00c2 1732 4d3b d933 9126 7534
00000100: 3da1 6f34 add0 cd33 8e4b 9832 4c30 8930
00000110: 8f69 9333 ed70 c833 b013 9334 a89a a733
00000120: 1842 f534 10f9 fd32 d184 e133 cf8c 0834
00000130: d944 5333 9feb 1234 fbae 3034 0e41 5633
00000140: 7dda 2834 5b5f 1d35 27f8 0734 ec63 0233
00000150: 8649 1234 ee61 b633 e0fa 8934 8317 1c34
00000160: 87e0 c334 6f27 cc33 8d3f 3534 d5e6 2432
00000170: db07 f232 d47b af32 5f73 3233 f5ef f633
00000180: 5a07 2b33 7741 3333 de4c 4232 2b15 f634
00000190: d9a5 ad33 3e08 0634 953d be34 fb58 6334
000001a0: ce1b 0a35 9752 3834 766f 2533 820d 4a33
000001b0: af30 6a34 6201 0232 b3af 2834 e5fc 2232
000001c0: 50a8 de33 68e4 c233 2509 ce34 38cb c331
000001d0: e6e7 a933 32ac 1332 2f79 be32 143c 4431
000001e0: 129f c532 7964 3834 c3de 7033 1c65 eb31
000001f0: 6a0c df32 5903 8033 9973 2435 aac0 1e33

exp_avg f4 [1, 2]
0.009003838 0.0056841876
00000000: d584 133c 6c42 ba3b

exp_avg_sq f4 [1, 2]
0.0005349066 0.0005661471
00000000: f938 0c3a 7d69 143a

exp_avg f4 [2, 128]
0.00018197071 -0.006780409 -0.0057453043 -0.0005408853 0.0017535636 -0.004937218 -0.004359187 0.0028968125
0.008320321 0.004393103 0.004763648 -0.0042603803 0.0007078877 -0.009229879 0.00689862 0.008713494
-0.012768515 -0.0051497277 -0.0037102937 -0.00035581386 -0.005814008 -0.0028178953 -0.004604292 -0.0020940364
0.006408974 0.0092104385 -0.008421917 -0.009175214 0.0027743198 0.006648009 0.0075493343 -0.0018661702
0.0015519417 0.0057142284 -0.00073653733 -0.00014602856 0.0034038485 0.004353081 -0.0011731829 0.0031504198
0.00094285875 -0.00010099809 0.0018308521 -0.0046330565 -0.0061874483 0.0034167494 -0.00979308 -0.004662796
-0.000817687 9.752868e-06 0.0023347784 0.0056831283 0.0024922346 -0.0032300635 0.0025251168 0.006829161
-0.0014299208 0.011157359 0.0012052387 -0.002149274 0.0035892553 0.006138551 -0.0057992553 -0.0056415503
-0.004089958 0.00068354583 -0.0007742766 0.0012964159 -0.0063069244 0.009700632 -0.0066127805 -0.0052154185
0.008325544 -0.0044308202 -0.0055980766 -0.0013891426 -0.0019370007 -0.011745391 0.0012100886 -0.0015658123
0.0051127207 -0.011372792 0.0014571834 -0.0027906506 0.0063063195 -0.00529672 -0.0047828266 -0.0049771033
-0.001783677 -0.0016995333 -0.0035888753 0.0015015687 0.005599789 -0.0052812095 -0.0011139461 -0.009639992
0.0050028013 -0.00013217481 -0.0025675688 -0.0043868846 -0.00047653195 0.008463397 0.0012254242 -0.0009557473
-0.012137746 0.003704696 0.0052746395 -0.0025704422 0.0018039889 -0.004819806 -0.00057892234 0.0016188741
-0.0028973103 -0.006903951 0.010737298 0.0024355869 0.0030667256 -0.00028698408 -0.0005348723 0.0016053439
-0.00027462927 -0.0039490405 0.0014788052 -0.0045520146 0.0041821846 -0.006558461 -0.008299488 0.004538047
-0.0019657 0.008420925 0.0093324715 0.0005297241 -0.0036844194 -0.008015993 -0.0015085328 -0.0026619132
-0.0024916234 0.0045463666 -0.0045777825 -0.0055615995 0.0073782555 -0.004221017 -0.009642088 -0.0010936302
0.018652488 0.00038091233 0.0035638197 -0.0020111543 -0.0038601006 -0.007142723 -0.0069141705 -0.0042363983
0.0044307597 -7.424707e-05 0.0111264875 0.005896755 0.0013128209 0.0016708203 -0.005157627 0.010576308
0.0138620995 -0.013301825 -0.00069016556 0.0047461158 0.011742951 0.010175066 -0.0025250092 0.004326867
0.0019518948 -0.0011540328 -0.012201157 0.016269907 0.008874615 -0.013598163 0.015492247 -0.00489696
0.004214601 -0.0006366047 0.006969863 -0.0042688996 -0.0016585647 0.012623219 -0.0045747724 0.0010314994
-0.0030170353 0.0061428617 -0.008267263 -0.005531751 -0.006783853 0.009385191 0.0018136355 0.010668371
0.010336494 -0.00045228546 0.0058620824 0.007554359 0.0013398377 -0.006783999 0.0010631008 -0.006825267
0.011923159 0.003156384 0.014808345 -0.0013955184 0.009777519 -0.0012317328 0.0012085658 0.015551738
0.006972867 -0.0024172724 -0.0019193817 0.004107694 -0.0023736318 -0.0039479723 0.00015106774 0.0003609971
0.011724394 0.0070032645 0.0053887935 0.0044250377 0.0053071673 0.0072776354 0.0011698188 0.014531227
0.008409219 0.00838916 -0.008472149 -0.004839288 0.0059906626 -0.004240679 0.0039620497 -0.0062992335
0.012580673 0.0019192501 0.00010186294 -0.0028017177 0.001168062 0.0005759646 0.0049637067 -0.005165591
0.00011579697 -0.000403859 -0.0027241483 -0.00629736 0.0013538748 0.0019593346 0.0049913554 -0.004344501
-0.0023461264 -0.009934211 -0.0038854796 0.016115628 0.013116663 0.0033882274 0.0031491271 0.0011368368
00000000: 64cf 3e39 312e debb 1b43 bcbb 33ca 0dba
00000010: d5d7 e53a 63c8 a1bb 83d7 8ebb 73d8 3d3b
00000020: f551 083c 05f4 8f3b 6018 9c3b a99a 8bbb
00000030: 8a91 393a eb38 17bc d20d e23b 0bc3 0e3c
00000040: 0933 51bc 0cbf a8bb 6628 73bb 878c bab9
00000050: 6f83 bebb 70ac 38bb 9adf 96bb 1a3c 09bb
00000060: 5f02 d23b 61e7 163c 15fc 09bc a353 16bc
00000070: 5dd1 353b 8bd7 d93b 6860 f73b 489a f4ba
00000080: 866a cb3a 6c3e bb3b 2f14 41ba 3e1f 19b9
00000090: 1a13 5f3b 4aa4 8e3b 7cc5 99ba 4677 4e3b
000000a0: 2e2a 773a f0ce d3b8 34f9 ef3a e5d0 97bb
000000b0: 14c0 cabb 8beb 5f3b 2873 20bc 5eca 98bb
000000c0: 0c5a 56ba 40a0 2337 1503 193b 8939 ba3b
000000d0: c254 233b 79af 53bb 6e7c 253b 28c7 df3b
000000e0: 2e6c bbba 5bcd 363c 1af9 9d3a d6da 0cbb
000000f0: b639 6b3b e625 c93b ae07 bebb c1dc b8bb
00000100: 0e05 86bb fc2f 333a d3f8 4aba 80ec a93a
00000110: 51aa cebb 66ef 1e3c 06b0 d8bb 1ae6 aabb
00000120: dd67 083c 6a30 91bb 1270 b7bb e413 b6ba
00000130: f5e2 fdba be6f 40bc d69b 9e3a f13b cdba
00000140: 9c88 a73b f254 3abc f6fe be3a 59e3 36bb
00000150: 3ea5 ce3b 1c90 adbb 42b9 9cbb f816 a3bb
00000160: 45ca e9ba e0c2 deba 5633 6bbb 49d0 c43a
00000170: 6f7e b73b ff0d adbb d401 92ba 0ff1 1dbc
00000180: 8aee a33b 6898 0ab9 a844 28bb dbbf 8fbb
00000190: 09d7 f9b9 0faa 0a3c 6a9e a03a 1e8b 7aba
000001a0: 66dd 46bc 7cca 723b e2d6 ac3b dd74 28bb
000001b0: d373 ec3a 77ef 9dbb d2c2 17ba 6730 d43a
000001c0: cde0 3dbb 8a3a e2bb 7eeb 2f3c 5e9e 1f3b
000001d0: 1efb 483b 5a76 96b9 ac36 0cba 676a d23a
000001e0: 1efc 8fb9 f466 81bb 78d4 c13a 1129 95bb
000001f0: b50a 893b 5ce8 d6bb 93fa 07bc e6b3 943b
00000200: f9d2 00bb ebf7 093c 39e7 183c 2fdd 0a3a
00000210: 4d76 71bb 8355 03bc f6b9 c5ba 7e73 2ebb
00000220: 814a 23bb b0f9 943b 3901 96bb 143e b6bb
00000230: 4bc5 f13b 7550 8abb d9f9 1dbc 2458 8fba
00000240: 1acd 983c 30b5 c739 f98e 693b 92cd 03bb
00000250: bef9 7cbb 810d eabb 4490 e2bb 7cd1 8abb
00000260: e82f 913b 18b5 9bb8 df4b 363c 9139 c13b
00000270: f612 ac3a 6dff da3a 5001 a9bb 4048 2d3c
00000280: dc1d 633c e6ef 59bc 3aec 34ba 4e85 9b3b
00000290: 8265 403c 52b5 263c a07a 25bb 64c8 8d3b
000002a0: b9d6 ff3a ea42 97ba 5de7 47bc 7848 853c
000002b0: d566 113c d4ca 5ebc 32d3 7d3c ae76 a0bb
000002c0: a31a 8a3b d1e1 26ba 7363 e43b 20e2 8bbb
000002d0: 3264 d9ba 9ed1 4e3c f9e7 95bb 6033 873a
000002e0: 74b9 45bb 0f4a c93b 6a73 07bc b143 b5bb
000002f0: 154b debb 58c4 193c 82b7 ed3a 64ca 2e3c
00000300: 665a 293c ba20 edb9 b616 c03b 8e8a f73b
00000310: 7e9d af3a 4f4c debb be57 8b3a 7da6 dfbb
00000320: 5a59 433c 56db 4e3b b39e 723c d4e9 b6ba
00000330: e331 203c 1872 a1ba bd68 9e3a b8cc 7e3c
00000340: a67c e43b 1a6b 1ebb c393 fbba d699 863b
00000350: ef8e 1bbb fe5d 81bb f067 1e39 3644 bd39
00000360: ac17 403c a47b e53b 7a94 b03b e8ff 903b
00000370: bfe7 ad3b 3b79 ee3b 9b54 993a 6214 6e3c
00000380: d2c6 093c b072 093c c5ce 0abc e492 9ebb
00000390: 524d c43b 65f5 8abb 15d4 813b cd69 cebb
000003a0: 2b1f 4e3c 598f fb3a 409f d538 069d 37bb
000003b0: a819 993a 54fc 163a 97a6 a23b 1e44 a9bb
000003c0: 06d8 f238 0abd d3b9 a087 32bb 165a cebb
000003d0: 8074 b13a 2e68 003b 868e a33b 515c 8ebb
000003e0: 78c1 19bb 1ac3 22bc 88a3 7ebb ec04 843c
000003f0: 46e7 563c 060d 5e3b 9661 4e3b ea01 953a
