results/Long_LowLR/3DBall/3DBall-1999999.onnx (onnx, 10026 bytes, 7 tensors)

network_body.observation_encoder.processors.0.normalizer.running_mean f4 [8]
000000 af 60 d9 bb 23 1f 34 3c 85 33 77 3d 7b 92 45 40
       -0.00663384 0.010993752 0.060351867 3.0870655
000010 66 48 24 3e 5f 1a af 3d d0 68 74 bf b6 04 58 3e
       0.16043243 0.08549952 -0.9547243 0.21095547

network_body._body_endoder.seq_layers.0.weight f4 [128, 8]
000000 ee 4d cd 3d b2 68 16 be da 58 98 3e 37 c0 9a 3e
       0.100246295 -0.14688376 0.29755288 0.30224773
000010 f9 86 99 3d 5a 41 23 3c 28 93 ed be 27 8c 56 be
       0.07496447 0.0099643115 -0.46401334 -0.20951901
000020 e8 e5 93 be 6f 83 1d be 3e 8e de 3e 74 7e 46 3d
       -0.28886342 -0.15382169 0.43467897 0.04846044
000030 d8 db f0 3e 61 8d cf bd 31 76 a8 3e 54 97 a4 3e
       0.47042727 -0.10134388 0.32902673 0.32146704
000040 f8 7b b9 bd 46 5c 9a 3e 6f 7d 3e be 7e 0f 6c 3f
       -0.09056848 0.30148524 -0.18602537 0.9221114
000050 be 18 5f 3d e3 79 5d 3e b8 40 91 be 8a 14 b8 3e
       0.054466955 0.21628527 -0.2836969 0.3595317
000060 64 02 da be cd d4 cb bd f5 64 b7 be 3b 3f 39 bf
       -0.4257995 -0.09952698 -0.35819212 -0.7236211
000070 c5 78 9d bd d8 7d cb 3d 25 e8 81 3e f6 75 04 3e
       -0.076890506 0.09936112 0.25372425 0.12935624
000080 a1 c8 90 3b cc c8 a1 be 5a d8 39 be b8 f8 b3 3e
       0.004418448 -0.31598508 -0.18148938 0.35150695
000090 2f c9 87 bd 12 c7 7e 3d 95 f0 b9 be fa 03 3e be
       -0.066301696 0.062201567 -0.36316362 -0.18556204
0000a0 bc c8 b7 bb 2b fe 98 be b9 6f be 3e da 96 36 3e
       -0.005608646 -0.29881415 0.37194613 0.17830983
0000b0 db 22 91 be fe 71 8b 3d cc 9b 05 3f 18 e5 42 be
       -0.28346905 0.06808852 0.5219085 -0.19032705
0000c0 2a b0 4f 3e 55 fb 2d bc 8f 45 5d 3d 42 ed 27 3f
       0.20282045 -0.010619004 0.054021414 0.655964
0000d0 53 6b d6 3e 72 c7 df 3e 80 41 a9 3e a0 8c 49 bf
       0.41878757 0.43706852 0.33057785 -0.787302
0000e0 c1 87 2b bd 79 73 06 bf 36 fc 50 be ae 3e a8 3d
       -0.041877512 -0.5251995 -0.20408711 0.0821508
0000f0 8b da 0c be 24 73 1a be 82 2d e4 bd 34 fb 81 3e
       -0.13755243 -0.15082985 -0.111414924 0.25386965
000100 4b 8f 26 3f 3c 62 bd 3c b8 c8 40 3e 4d 32 aa be
       0.650624 0.02311813 0.18826568 -0.332415
000110 14 25 43 bf 76 68 1c be a1 d6 8a bd e8 f8 5a bc
       -0.7622845 -0.15274224 -0.067792185 -0.013365008
000120 a8 c9 62 3e c4 0b 21 3e 55 0a b8 3d 8d 08 3a 3f
       0.22147238 0.15727144 0.08986346 0.726693
000130 6d e0 6e 3e fa 91 3d bf 46 a9 ec be 0c 3b f8 be
       0.23327799 -0.7405087 -0.46222895 -0.4848255
000140 11 bf 15 3d ec 98 ba be c7 54 cc 3d 14 98 74 bd
       0.03655917 -0.36444795 0.099771075 -0.059715346
000150 8b cf 72 3e bf 25 de be d7 b5 f9 bd 02 4d d5 be
       0.23711984 -0.43388173 -0.12192886 -0.41660315
000160 0d 69 c0 be 64 bd 30 bd d8 40 7c bd 3b 43 53 3e
       -0.37580147 -0.043149367 -0.061585277 0.20631115
000170 85 f4 d9 3c 25 72 05 3d cc 5b 59 3d 1f 05 01 bf
       0.026605854 0.03257956 0.05306606 -0.5039844
000180 02 5c 08 3e 7d 03 69 be e9 fa 4a 3e 18 31 49 be
       0.13316348 -0.22755237 0.19822277 -0.19647634
000190 b0 dc 04 3f a7 6c 36 be fb 5b 0e be 90 38 3d 3e
       0.5189924 -0.17814885 -0.13902275 0.18478608
0001a0 39 5c e0 be 42 77 84 be 8a aa 14 bf 6b a0 c1 3e
       -0.4382036 -0.25872236 -0.5807272 0.37817702
0001b0 24 56 46 bf ad 27 17 3f 86 d2 bd 3e a7 0b a1 3d
       -0.7747519 0.59044915 0.3707468 0.07863551
0001c0 85 19 d1 3e 2f f4 75 be 4d 6d 65 3e c0 65 14 bf
       0.40839782 -0.2401893 0.22404976 -0.5796776
0001d0 37 44 ab 3d cb 88 36 bd 7b f2 c7 be 8d 45 79 bf
       0.0836262 -0.04456405 -0.39052185 -0.9737175
0001e0 6f f1 e1 3e fa 4a 9d be af 9f 2e 3e 7f 7d dd 3e
       0.44129512 -0.30721265 0.17053102 0.43259808
0001f0 af 1d 16 3d e6 db 14 bf a6 21 dd bd ea a9 aa bd
       0.036649402 -0.5814804 -0.107974336 -0.0833319
000200 07 69 17 bd 0c 47 dc 3e bb 13 83 be f2 02 ee 3e
       -0.036965396 0.43022954 -0.2560099 0.46486622
000210 f3 da e1 be 1d ac e9 3e 1b 23 61 3f f2 4f 60 3f
       -0.44112357 0.45639125 0.8794419 0.87621987
000220 7d 2c 5b be 75 0f b0 bd 74 4f 31 3f e9 88 14 be
       -0.2140369 -0.08596698 0.6926186 -0.14505352
000230 8f e2 1f 3e 2e 9e b5 be 34 e8 ee 3e 3e 87 cf bb
       0.15613769 -0.35472244 0.46661532 -0.006333261
000240 49 74 8b be 28 72 c2 bd f7 85 ae 3e 30 f7 a2 3e
       -0.27237156 -0.0949443 0.34086582 0.31829214
000250 6f e0 12 3f e2 46 9a be d9 8a 4f be c9 2a 78 be
       0.5737371 -0.30132204 -0.2026781 -0.24235071
000260 db 50 c1 be c4 6a 17 be 56 fe 75 3d 97 e4 1e be
       -0.37757 -0.14786822 0.060057007 -0.15516888
000270 fe 2c 29 3e c6 be c5 be 4e aa 15 3e d4 5e 18 be
       0.1652107 -0.3862211 0.14615747 -0.14879924
000280 05 6d 2e be 88 45 3e 3d 01 86 f1 bc ed 78 30 3e
       -0.17033775 0.04645303 -0.029482843 0.1723363
000290 fa f5 19 bc 80 4f d9 3e 4a d2 47 3d ac 0c d1 be
       -0.009397024 0.42443466 0.04878453 -0.4082998
0002a0 9f 18 cf be 15 7c e3 39 87 51 7f bd f9 66 66 be
       -0.40448472 0.00043389262 -0.06233361 -0.22500218
0002b0 4d 5e a7 be 61 e6 6e 3e c3 3c 05 bf e5 b1 ea be
       -0.32689133 0.2333007 -0.5204584 -0.45838848
0002c0 50 dd c0 be ca bb 3a be fd 4d 96 bd b7 c9 38 3e
       -0.37668848 -0.18235698 -0.07339094 0.18045698
0002d0 4c 03 66 bf 1e 05 94 bc 78 7c 58 be 3d 62 0b 3e
       -0.8984878 -0.018068846 -0.21141231 0.13611694
0002e0 2f 61 5e be 5c 14 7b be a5 ad 4b be 84 0e 1e 3f
       -0.2171676 -0.24519485 -0.19890459 0.617409
0002f0 f5 7c 1e bf 99 dc 38 be 5a 97 02 bf d3 e2 c4 3d
       -0.6190942 -0.18052901 -0.51012194 0.09613576
000300 32 7c 77 3d d3 b1 ad be a4 1d 21 bf dc a0 a9 bd
       0.060421176 -0.33924732 -0.62935853 -0.082826346
000310 d6 86 3e 3f 76 cd 7c be 38 77 f8 3e 78 6e d0 be
       0.74424493 -0.24687752 0.48528457 -0.4070928
000320 fa 81 2f 3f 1b 93 02 bf fb 9c cf be 13 5a 7a be
       0.68557703 -0.51005715 -0.40549454 -0.24448423
000330 4c 32 f0 be 55 ef b4 3d 9a 08 bb 3e 27 0f f0 3e
       -0.46913373 0.088347115 0.3653 0.4688656
000340 69 3c c5 3b 11 97 73 3e 15 97 41 3f 31 10 45 3d
       0.0060191643 0.23788096 0.7562116 0.048111144
000350 71 f3 a6 3e 9b e2 ba bd de 7b 32 3f 89 86 41 3e
       0.32607606 -0.09125253 0.69720256 0.18898977
000360 fa ca fd be 58 91 64 be 89 a8 d3 3e 58 ed b8 3e
       -0.4956892 -0.22321069 0.4133952 0.3611858
000370 c6 0d 5b 3d 09 93 97 bd d0 41 92 3e fc 8d 1d 3f
       0.053479932 -0.074010916 0.28565836 0.61544776
000380 4c 38 bd be db 52 71 be 96 8a e8 be 6a 8f 4a 3e
       -0.36957014 -0.23566763 -0.45418233 0.1978127
000390 43 8b cf 3e 8c c5 d3 be 1a 74 0e 3e 1b 01 ae be
       0.40535936 -0.41361654 0.13911477 -0.33985218
0003a0 bf 99 d1 3e 4f b7 17 3e ce 70 95 bd d5 99 65 bd
       0.4093761 0.1481602 -0.072969064 -0.05605491
0003b0 de 2b b3 be a3 e3 7d be 46 20 95 be 70 bf 69 3d
       -0.34994406 -0.24793868 -0.29126185 0.057067335
0003c0 1d d0 b5 3e f2 68 2a bf fb 62 35 be 04 ce 77 bd
       0.3551034 -0.66566384 -0.1771354 -0.060499206
0003d0 a3 78 2e 3e a0 9d 93 3c 83 bb 8a be 4a c9 ac be
       0.17038207 0.018019497 -0.27096185 -0.3374732
0003e0 ae 24 fa 3d 9e ae 25 bf c2 fe 99 3d 8a 42 b2 be
       0.12214027 -0.6471957 0.07519294 -0.3481639
0003f0 7d b5 4c 3f d8 5a ef bd d3 f6 71 3e dc 22 72 3e
       0.7996443 -0.11687249 0.23629312 0.2364611

network_body._body_endoder.seq_layers.0.bias f4 [128]
000000 97 0f e4 3b 30 7e df 3b f0 f3 0b 3c 82 a7 ac bb
       0.0069598663 0.0068204626 0.008542046 -0.005268992
000010 2b 86 6c bb 61 a1 f2 3b de ac 3e bb 15 00 8d 3a
       -0.0036090713 0.007404492 -0.0029094736 0.0010757471
000020 be 7e a4 3b 6c 79 00 ba 4c 63 7c bb a8 28 8d bb
       0.0050199917 -0.0004900906 -0.0038511334 -0.004307825
000030 93 82 bf 3b 6e eb 8e bb a5 cc 71 39 1f 07 49 ba
       0.005844423 -0.0043615615 0.00023059787 -0.00076686026
000040 2e d2 a2 3c a0 72 25 bb c9 88 63 3c cb 28 b9 bb
       0.019875612 -0.0025245324 0.013887593 -0.005650615
000050 7e 4f 5f 3a c6 fd 39 3c 22 fa 09 bb da 66 80 bb
       0.000851862 0.011352008 -0.0021053632 -0.003918511
000060 26 f0 cc 39 78 30 3b 3c 4e 97 3d bc df 41 30 3c
       0.00039088837 0.01142513 -0.011571718 0.010757892
000070 3b d8 0b bc ea ef 41 bc eb 1d 9f bb 92 90 dc bb
       -0.00853544 -0.011836985 -0.0048558614 -0.0067311013
000080 3f 11 14 3c 5e 6b 30 3c 77 05 ed 39 31 4a b9 bb
       0.009037315 0.010767786 0.00045208234 -0.0056545963
000090 10 8e 45 bc 05 5c 8b 3c 3e a8 10 b7 ec 47 35 3c
       -0.012057796 0.017011652 -8.622241e-06 0.011064511
0000a0 15 80 10 3c 2b 26 05 3c 42 19 39 ba 76 0a 79 3c
       0.0088196 0.008126776 -0.00070609536 0.015200248
0000b0 0f cc 72 3c 13 cb 2a bc 90 7c 91 bc b8 ce a6 b8
       0.014819159 -0.010424393 -0.017759591 -7.954001e-05
0000c0 87 8d e2 38 1c 74 08 bc 1f 1c d9 bb 7e 9d 41 bb
       0.00010802881 -0.008328464 -0.0066256667 -0.0029543336
0000d0 cd 71 f3 ba 4f f0 03 3c ad ef e7 b9 93 1e bc 3a
       -0.0018573344 0.0080528995 -0.00044238326 0.0014352374
0000e0 60 9a 57 bb c7 e2 53 bc 26 ff 77 bb 22 f3 ba bb
       -0.003289841 -0.012932486 -0.003784129 -0.005705253
0000f0 42 9c 06 bb 2c 57 7a 3c df e2 75 3c da a0 8a 3c
       -0.0020539914 0.015279572 0.015007704 0.016922403
000100 f5 2a a8 3c 24 f6 cc bb 6e 8b d0 3b c0 e1 4e bc
       0.020528296 -0.006254928 0.0063642776 -0.012627065
000110 ca 40 5f bc 0b 25 0a 3c cd a9 90 3c 53 6d bb b9
       -0.013626287 0.008431683 0.017659092 -0.00035748872
000120 81 e8 ad 3c 95 11 0a bb d4 21 82 3c 4b 65 70 bb
       0.02122903 -0.0021067609 0.015885271 -0.003668147
000130 fb d5 41 3b 76 29 b2 3c e7 fd 89 bb 37 29 cd 3b
       0.0029577005 0.021748286 -0.0042111757 0.0062610167
000140 ad 4e 51 3c fa 27 86 3c 66 5f 93 3b 51 9a c5 3a
       0.012775105 0.016376484 0.0044974564 0.0015075897
000150 af 6e e8 3b b1 70 b3 bb a4 0a 56 3c b7 bb 0d 3c
       0.0070932726 -0.0054760803 0.01306406 0.008650712
000160 4f 84 70 3c 17 07 75 bb bd 01 e2 bb c8 8c 02 3c
       0.014679982 -0.003738826 -0.00689718 0.007968135
000170 7d 9a 21 bc f9 08 8d bc 27 19 06 bc 2e a5 b7 3c
       -0.009863493 -0.017216193 -0.008184708 0.022417631
000180 f9 0a 8b 3c 02 6f 5d bc 75 da 15 bc f1 4f 83 bb
       0.016973006 -0.013515236 -0.0091463225 -0.0040073325
000190 03 af cd 3b b3 cc ea 3a 7c 03 18 bc 10 96 d8 3a
       0.0062769665 0.0017913788 -0.0092781745 0.0016524214
0001a0 41 e0 be 3c b7 e6 15 3c 2b 75 e9 3a 64 38 d5 3b
       0.023300292 0.009149245 0.0017811408 0.0065069664
0001b0 ee 86 f1 bb 54 c6 12 bb 3e e0 22 3c fe 17 39 bb
       -0.007370821 -0.0022396045 0.009941159 -0.002824306
0001c0 96 de 2a 3c 64 4d 2c 3c f0 a8 11 3c 0f 3c f9 ba
       0.010429045 0.010516498 0.0088903755 -0.0019015091
0001d0 41 e0 60 bb ec 00 d3 bb 87 f8 f5 bb 79 55 ae bb
       -0.0034313353 -0.006439319 -0.0075064334 -0.0053202477
0001e0 52 ff 26 bb e9 4c 22 3c 22 d9 d0 bb 03 4e 91 bc
       -0.0025481773 0.009906032 -0.0063735405 -0.017737394
0001f0 a9 8a c3 ba ec fa 5c bc be 25 9d 3c 06 69 8c 3b
       -0.0014918643 -0.013487559 0.019183036 0.0042849807

action_model._continuous_distribution.log_sigma f4 [1, 2]
000000 e2 53 ca bb 5d 26 00 bc
       -0.0061745504 -0.0078216465

action_model._continuous_distribution.mu.weight f4 [2, 128]
000000 0a 72 a7 3c 94 9b 92 bc f1 bf 1f bc f3 62 38 bc
       0.02044012 -0.017896451 -0.009750352 -0.01125406
000010 8f 28 4a bc 32 96 5a 3c f9 83 f4 3b 59 0f 94 bb
       -0.0123387715 0.013341473 0.0074620214 -0.004518431
000020 27 a0 09 bd cf d3 76 3c 2f 14 84 3c 73 f5 a1 3b
       -0.0336 0.015065148 0.016122906 0.00494259
000030 ed 8e 12 bc 00 8b 31 3b 43 9c 08 3d de 35 66 3a
       -0.008945209 0.0027090907 0.033352148 0.00087818305
000040 83 cd a9 3c 8a b8 5f 3c 88 c4 b6 3c 6f 9e 87 3b
       0.020727878 0.013654837 0.02231051 0.00413876
000050 bc ae dc 3b 91 64 d4 3c 28 68 39 bb 22 4f ba 3b
       0.006734697 0.02592686 -0.0028290842 0.005685703
000060 88 90 a6 3b 5b 88 f0 bc 72 e7 97 3c af b3 20 3d
       0.0050831474 -0.029361894 0.018542979 0.03923386
000070 96 e6 24 3c d8 59 93 3b 39 4c 2b 3b 5a 49 1c bc
       0.010064742 0.004496794 0.0026137962 -0.009538973
000080 5c 21 d1 bc 8a 5f 6f bb 12 44 19 bc b9 d6 43 3c
       -0.025528602 -0.0036525452 -0.009354608 0.011953049
000090 62 a1 b1 bc d1 3f 38 bd 7e 69 ee 3c 77 9a d4 bc
       -0.021683399 -0.044982735 0.029103037 -0.02595256
0000a0 f3 f3 07 bb 2d e9 1a 3c fa db 3f bd d0 84 04 3d
       -0.002074477 0.0094550075 -0.046840645 0.032353222
0000b0 42 a8 0e 3c 65 94 12 3b 6a 1e aa b9 9d 84 17 3c
       0.008707108 0.0022366282 -0.00032447587 0.009247926
0000c0 9b c4 87 bc 3c 76 2c bb 39 0d 24 bc 24 8d 5a 39
       -0.016573241 -0.002631559 -0.010012918 0.00020842679
0000d0 76 7d 2e bc 20 47 c0 bc 93 6c 74 3c 8a b1 27 bd
       -0.010650029 -0.023471415 0.014918464 -0.0409408
0000e0 b2 d1 30 3b 3a 0d 43 3c bb 2a 03 bc 19 b2 d1 3a
       0.0026980457 0.011905009 -0.008005793 0.0015998512
0000f0 44 3e 37 3c d3 88 a3 bb 30 6e 9e 3c f6 da 91 bc
       0.011184279 -0.004990676 0.01933965 -0.017804604
000100 88 d9 62 3c 14 4a 97 bb e0 84 25 bc 6a be 07 3a
       0.013845809 -0.004616985 -0.010102481 0.0005178215
000110 af 42 5f bc fe 93 ed bc bb 9b cd 3c e6 c1 46 3b
       -0.013626738 -0.029001232 0.025098672 0.0030327975
000120 84 2d fa bc 31 1a 9b 3c ce 21 99 3b 5a ca 7a bc
       -0.030539282 0.018933387 0.0046732193 -0.015307033
000130 e2 95 aa 3c 5c b5 bc 3c 52 8f 7a 3c 50 9b a7 bc
       0.020823423 0.023035698 0.015292959 -0.020459801
000140 59 be 99 bc 9b 1a 5f 3d 4e e9 0a 3d f2 b1 6b bc
       -0.018767523 0.054468732 0.033913903 -0.014385687
000150 a5 90 2b bd 8b 4c 91 bc 27 42 a2 3c 98 a9 de 3b
       -0.04188599 -0.017736694 0.019806935 0.0067951195
000160 d7 da 32 bd 20 0c ff 3c 41 93 0f bd 9d 0f 85 3b
       -0.043665733 0.031133711 -0.03505254 0.004060699
000170 e2 81 65 3c 90 26 a5 b9 6d 8c 57 3b c3 89 59 3c
       0.014008017 -0.00031499984 0.0032890097 0.013277474
000180 c5 ce 66 bc bc ab b6 bb 75 a4 ef bb f7 d6 1c 3b
       -0.014087384 -0.0055746716 -0.007313306 0.002393184
000190 2d a6 d7 3c b3 5a 5d bc 36 f7 72 bc 6c 80 9c 3c
       0.026324356 -0.013510394 -0.0148294475 0.019104205
0001a0 ce c1 10 3d e5 45 26 bd 6f 02 4b bc e8 26 7d 3c
       0.035341077 -0.040594 -0.012390717 0.0154511705
0001b0 aa e9 27 bc 47 28 93 bb ad 92 72 bc cd 4d 24 bc
       -0.010248581 -0.0044908854 -0.014805478 -0.010028315
0001c0 54 f1 0b 3d 4a 9f a5 3c 25 fb 7f bd bf 59 9c b7
       0.034165695 0.020217557 -0.06249537 -1.863844e-05
0001d0 dc 5b ea bc 0a 21 0e bc b5 a9 40 bc ea ca f7 ba
       -0.028608255 -0.008674869 -0.011759211 -0.0018905078
0001e0 bc 57 80 bc ae a4 c7 3c e4 14 85 b8 9c e3 1d 3b
       -0.015666835 0.024370518 -6.3458254e-05 0.0024091965
0001f0 27 21 10 3c 90 c1 25 3b 70 d1 56 3d 19 88 c7 bc
       0.008796967 0.0025292374 0.05244583 -0.024356889
000200 f1 a8 2c bc da 0d 41 bd a7 27 9d bc 46 04 d8 bb
       -0.010538326 -0.04713235 -0.019183947 -0.0065923063
000210 6c 40 a0 3c 68 fd 12 3c 10 42 49 3c 27 ce 8f bc
       0.019561969 0.00897155 0.012283817 -0.017554356
000220 ac 3f 94 bc 07 68 c5 bc fa da 9b 3c 1b 79 83 3c
       -0.018096767 -0.024097456 0.019025315 0.016048959
000230 ed 2e dd bb a7 ff 56 3c da fd 8f 3c 10 db 86 bc
       -0.0067499788 0.013122476 0.0175771 -0.016461879
000240 47 4d c5 bc e6 8f 84 3c c6 39 58 bd e2 a8 56 3c
       -0.0240847 0.016181897 -0.052789472 0.013101788
000250 6a e8 64 3b 14 d4 88 3c ea 0b d4 3c 61 13 f5 3c
       0.0034928569 0.01670269 0.025884587 0.029916467
000260 ed 01 7b bc b3 42 60 b9 98 9b 00 3d 97 68 fc 3b
       -0.015320283 -0.00021387152 0.031398386 0.007702898
000270 b0 81 1b 3d b6 af 6a 3c 55 e2 00 3c 31 10 e6 3b
       0.037965477 0.014324119 0.007866462 0.007020973
000280 7e 40 3d bc 46 e2 63 3d 3d 7e d4 bb c6 bc a9 3b
       -0.011551021 0.055635713 -0.0064847753 0.0051799743
000290 f2 22 d1 3c b7 8f c0 bc df 78 5e 3d d1 2b 29 bc
       0.025529359 -0.023506029 0.05431449 -0.010325388
0002a0 90 4b a7 bc 06 f8 4a bb 9e 8b c2 3c 0e 72 b4 bc
       -0.020421773 -0.0030970587 0.023748215 -0.022027042
0002b0 38 e0 38 bd a1 d6 9d bc bf e8 dd 3a b5 16 3b bc
       -0.045135707 -0.019267382 0.0016930326 -0.011418988
0002c0 91 e3 c2 39 8e ac 90 3a a7 94 1a bb 51 1a a1 bb
       0.00037172114 0.0011037753 -0.002358714 -0.0049164672
0002d0 da ad 22 3d b7 63 92 bc 10 5d a1 3c 5d dd df 3c
       0.03971658 -0.017869813 0.019697696 0.027327234
0002e0 20 fe 8a 3c 8d dc 03 3a 9e d8 60 3b fe e8 c1 3b
       0.01696688 0.0005030118 0.0034308801 0.0059176674
0002f0 c6 d6 d3 3a 09 78 d3 bb 8f ff 8e bc ad 70 fb bc
       0.001616203 -0.0064535183 -0.017455844 -0.030693376
000300 21 c4 eb bc 47 74 fb 3c 6c ff 43 bc fe d1 b0 39
       -0.028780045 0.030695094 -0.011962753 0.00033725792
000310 2d 33 49 3c 30 2a 2e 3c e3 b3 fe bc 69 cf dd 3c
       0.012280268 0.0106301755 -0.031091636 0.02707644
000320 5f 20 05 bd cb 1f f3 3b 45 c5 a3 bc 6e bf e2 3c
       -0.032501575 0.0074195615 -0.019991526 0.027679171
000330 83 12 64 bb a9 70 90 bb 9e 85 09 3d 03 84 45 bc
       -0.0034801073 -0.0044079614 0.033574693 -0.0120554
000340 01 23 ef bc ac 70 1b b9 a7 c8 8b 3a 4b 61 35 bc
       -0.029191496 -0.00014823925 0.0010664657 -0.01107056
000350 91 5f 17 3c bf 03 a1 3c 8c 2b 13 bd 8a d8 0e bd
       0.009239093 0.019655107 -0.0359302 -0.034874476
000360 18 a0 c7 bc b2 62 1a 3b 41 6b dd 3b 91 45 ef bb
       -0.02436833 0.0023557362 0.0067571704 -0.007301994
000370 1e e0 93 3b 44 27 04 3c cb 0d a0 3c dc 21 8b bc
       0.004512801 0.008066002 0.019537827 -0.016983919
000380 f4 8a 15 bc 51 d4 71 3c ba 17 ae 3b ff 45 88 3d
       -0.009127367 0.014760093 0.005312887 0.06653976
000390 48 67 1f bc 74 25 19 3d 47 e5 52 3d 94 9a 29 3d
       -0.009729214 0.037389234 0.051488187 0.041407183
0003a0 aa 3d b3 bc 75 34 86 bc 7d b1 72 3c 61 cc 31 bc
       -0.02187999 -0.016382435 0.014812824 -0.01085195
0003b0 1c 70 34 3d 2b 9c fe bb 75 75 f1 bc 00 93 86 ba
       0.04405223 -0.0077700815 -0.029474953 -0.0010267198
0003c0 3f 2a e3 3b 31 9e 48 bc 7d e2 e8 3b c8 c1 be bb
       0.0069325264 -0.012244747 0.0071070776 -0.0058214404
0003d0 cb 86 7c 3c 59 d4 4f 3b 42 31 ae 3b 7b 1d c4 3b
       0.0154129965 0.0031712262 0.0053159306 0.0059849597
0003e0 9e 4e 79 bb 55 26 f6 3c 48 ec d7 3c d4 7e 58 3b
       -0.0038041244 0.030047575 0.026357785 0.003303458
0003f0 9d 02 2d bc 20 3b c1 3c fb 19 54 bc 89 7f 9d 3a
       -0.010559705 0.023587763 -0.012945647 0.0012016158

action_model._continuous_distribution.mu.bias f4 [2]
000000 7e 81 a1 3b 1f 01 31 bc
       0.0049287667 -0.01080349

onnx::Div_46 f4 [8]
000000 66 ba a3 3d 72 63 ac 3d 2b 90 9f 3f f7 eb d9 3e
       0.07994537 0.08417405 1.2465872 0.4256284
000010 19 c3 9e 3f f0 76 8b 3f 51 b3 94 3f c2 d3 8d 3f
       1.2403289 1.0895672 1.1617223 1.1080248
