results/Long_LowLR/3DBall/3DBall-1949956.pt (torch, 49335 bytes, 32 tensors)

network_body.observation_encoder.processors.0.normalizer.running_mean f4 [8]
-0.0066628917 0.011092098 0.060272835 3.086168 0.16071571 0.085155934 -0.9562343 0.21239562
00000000: 6354 dabb a2bb 353c a6e0 763d c783 4540
00000010: a992 243e 3c66 ae3d c5cb 74bf 3d7e 593e

network_body.observation_encoder.processors.0.normalizer.running_variance f4 [8]
12519.485 13892.123 3.0292338e+06 354431.06 3.0020408e+06 2.3239892e+06 2.623653e+06 2.406315e+06
00000000: f19d 4346 7e10 5946 c7e3 384a e20f ad48
00000010: e33a 374a 55d8 0d4a 9422 204a acde 124a

network_body.processors.0.normalizer.running_mean f4 [8]
-0.0066628917 0.011092098 0.060272835 3.086168 0.16071571 0.085155934 -0.9562343 0.21239562
00000000: 6354 dabb a2bb 353c a6e0 763d c783 4540
00000010: a992 243e 3c66 ae3d c5cb 74bf 3d7e 593e

network_body.processors.0.normalizer.running_variance f4 [8]
12519.485 13892.123 3.0292338e+06 354431.06 3.0020408e+06 2.3239892e+06 2.623653e+06 2.406315e+06
00000000: f19d 4346 7e10 5946 c7e3 384a e20f ad48
00000010: e33a 374a 55d8 0d4a 9422 204a acde 124a

network_body._body_endoder.seq_layers.0.weight f4 [128, 8]
0.10025556 -0.1468881 0.29754534 0.30224815 0.07496022 0.009953508 -0.4640142 -0.20952463
-0.28887045 -0.15383126 0.43468568 0.048465632 0.47041875 -0.101337604 0.32902384 0.32145613
-0.09057894 0.3014733 -0.18601649 0.9221101 0.054460272 0.2162939 -0.28369522 0.35952127
-0.42581064 -0.09953305 -0.35818332 -0.72362065 -0.07689688 0.09937255 0.25372458 0.12934874
0.004410411 -0.31597582 -0.18148905 0.35150886 -0.06629405 0.062208425 -0.3631638 -0.18555127
-0.0055941828 -0.29880255 0.37193644 0.17830499 -0.2834607 0.06807522 0.5219047 -0.19031477
0.20283227 -0.010607518 0.054013256 0.6559626 0.41879636 0.43705764 0.33057147 -0.7872905
-0.041884918 -0.5252081 -0.20407897 0.08215373 -0.13756289 -0.1508227 -0.11141403 0.25385693
0.6506137 0.023110732 0.18827447 -0.33241895 -0.7622889 -0.15273045 -0.06779209 -0.013371859
0.22147812 0.1572602 0.089863606 0.726688 0.23327252 -0.7405088 -0.46222907 -0.4848338
0.03656963 -0.36443892 0.09976172 -0.059716783 0.23712891 -0.43389368 -0.121931314 -0.41659263
-0.37579644 -0.0431367 -0.06159375 0.20631124 0.02661521 0.03257049 0.053064533 -0.50397325
0.13315387 -0.22755744 0.19823205 -0.19647625 0.51898855 -0.17813884 -0.1390211 0.1847808
-0.43820095 -0.25870985 -0.5807348 0.3781776 -0.774745 0.59044456 0.37075013 0.078648075
0.40840814 -0.24018358 0.22404112 -0.57967496 0.08363234 -0.044575375 -0.39052415 -0.9737106
0.44128984 -0.30722392 0.17053491 0.43259677 0.03664151 -0.58147466 -0.107974194 -0.08334317
-0.036955748 0.43021673 -0.25600994 0.46486259 -0.4411299 0.4563805 0.8794294 0.8762081
-0.21402577 -0.085956 0.6926087 -0.1450577 0.15614522 -0.35473475 0.46661687 -0.0063228533
-0.2723656 -0.09495445 0.3408662 0.31829223 0.5737277 -0.3013267 -0.20267682 -0.24236222
-0.37756377 -0.1478564 0.060047626 -0.15517294 0.16522199 -0.3862309 0.1461582 -0.14878628
-0.17032196 0.0464627 -0.029493349 0.1723322 -0.009388596 0.42442024 0.04877625 -0.40828875
-0.4044731 0.0004413129 -0.06234197 -0.22500221 -0.32688415 0.23328951 -0.5204624 -0.45838037
-0.37669122 -0.1823456 -0.07339472 0.1804602 -0.8984835 -0.018070938 -0.2114093 0.13612682
-0.21716247 -0.24518384 -0.19891138 0.6174112 -0.61908764 -0.18053672 -0.5101231 0.09614633
0.06042565 -0.33925748 -0.6293522 -0.082824975 0.74423397 -0.24688014 0.48528093 -0.40710562
0.68556684 -0.5100572 -0.4054849 -0.2444897 -0.46913344 0.08835916 0.36530173 0.46886858
0.0060290187 0.23789215 0.7562047 0.048109844 0.3260817 -0.091261975 0.69720715 0.1889998
-0.495675 -0.22320683 0.41338667 0.36117807 0.05348217 -0.07402328 0.28565204 0.61544985
-0.36956522 -0.23565684 -0.45419174 0.19781101 0.40537006 -0.41362512 0.13911377 -0.33983988
0.40938413 0.14817007 -0.07297466 -0.05605273 -0.34993818 -0.24794665 -0.29126176 0.057077177
0.35511073 -0.6656555 -0.17714244 -0.060501352 0.17039399 0.018012898 -0.27096492 -0.3374591
0.1221337 -0.6471921 0.075198285 -0.3481695 0.79965353 -0.11686125 0.2362952 0.23647222
00000000: c952 cd3d d669 16be dd57 983e 45c0 9a3e
00000010: be84 993d 0a14 233c 4593 edbe a08d 56be
00000020: d4e6 93be f185 1dbe 1f8f de3e e683 463d
00000030: bada f03e 178a cfbd d075 a83e e695 a43e
00000040: 7481 b9bd b55a 9a3e 1b7b 3ebe 680f 6c3f
00000050: bc11 5f3d 267c 5d3e 8040 91be 2c13 b83e
00000060: da03 dabe fcd7 cbbd ce63 b7be 343f 39bf
00000070: 1d7c 9dbd d683 cb3d 30e8 813e ff73 043e
00000080: 3685 903b 95c7 a1be 44d8 39be f8f8 b33e
00000090: 2dc5 87bd 43ce 7e3d 9bf0 b9be 2701 3ebe
000000a0: 684f b7bb a6fc 98be 746e be3e 9595 363e
000000b0: c321 91be 056b 8b3d 8c9b 053f e0e1 42be
000000c0: 43b3 4f3e 28cb 2dbc 013d 5d3d 2aed 273f
000000d0: 7a6c d63e 05c6 df3e aa40 a93e df8b 49bf
000000e0: 858f 2bbd 0a74 06bf 14fa 50be 3740 a83d
000000f0: 49dd 0cbe 4471 1abe 0a2d e4bd 89f9 813e
00000100: 9f8e 263f b852 bd3c 06cb 403e d132 aabe
00000110: 5e25 43bf 5f65 1cbe 94d6 8abd a415 5bbc
00000120: 29cb 623e d108 213e 690a b83d 3a08 3a3f
00000130: fede 6e3e fc91 3dbf 4aa9 ecbe 233c f8be
00000140: 09ca 153d bd97 babe df4f cc3d 9699 74bd
00000150: ecd1 723e 5027 debe 20b7 f9bd a14b d5be
00000160: 6468 c0be 1cb0 30bd ba49 7cbd 4143 533e
00000170: 2408 da3c a268 053d 325a 593d 6404 01bf
00000180: 7d59 083e d104 69be 58fd 4a3e 1231 49be
00000190: 6fdc 043f 076a 36be 8c5b 0ebe 2e37 3d3e
000001a0: e05b e0be 9e75 84be 09ab 14bf 7fa0 c13e
000001b0: b055 46bf 6027 173f f6d2 bd3e 3e12 a13d
000001c0: df1a d13e aff2 75be 096b 653e 9465 14bf
000001d0: 6f47 ab3d ab94 36bd c8f2 c7be 1945 79bf
000001e0: bef0 e13e 744c 9dbe b4a0 2e3e 537d dd3e
000001f0: 6815 163d 86db 14bf 9321 ddbd d3af aabd
00000200: e95e 17bd 5e45 dc3e bc13 83be 7802 ee3e
00000210: c7db e1be b4aa e93e 4922 613f 2d4f 603f
00000220: 9229 5bbe b309 b0bd ce4e 313f 018a 14be
00000230: 88e4 1f3e cb9f b5be 68e8 ee3e f02f cfbb
00000240: 8173 8bbe 7b77 c2bd 0486 ae3e 33f7 a23e
00000250: d2df 123f 7e47 9abe 838a 4fbe cd2d 78be
00000260: 0a50 c1be ab67 17be 80f4 753d a8e5 1ebe
00000270: f42f 293e 0ec0 c5be 7faa 153e 6e5b 18be
00000280: e168 2ebe ac4f 3e3d 099c f1bc da77 303e
00000290: a0d2 19bc 9c4d d93e 9bc9 473d 390b d1be
000002a0: 1917 cfbe 0460 e739 4b5a 7fbd fb66 66be
000002b0: 5c5d a7be 72e3 6e3e 063d 05bf d5b0 eabe
000002c0: acdd c0be ceb8 3abe f94f 96bd 8fca 383e
000002d0: 0403 66bf 8109 94bc ae7b 58be d464 0b3e
000002e0: d75f 5ebe 7911 7bbe 6daf 4bbe a90e 1e3f
000002f0: 877c 1ebf 9ede 38be 6d97 02bf 5ee8 c43d
00000300: e380 773d 28b3 adbe 3a1d 21bf 24a0 a9bd
00000310: 1e86 3e3f 26ce 7cbe be76 f83e 2670 d0be
00000320: 4f81 2f3f 1c93 02bf b89b cfbe 825b 7abe
00000330: 4232 f0be a6f5 b43d d408 bb3e 8b0f f03e
00000340: 138f c53b 009a 733e a296 413f d40e 453d
00000350: 2ef4 a63e 8fe7 babd 2b7c 323f 2a89 413e
00000360: 1dc9 fdbe 5590 64be 6ba7 d33e 55ec b83e
00000370: 1f10 5b3d 8499 97bd fc40 923e 1f8e 1d3f
00000380: a737 bdbe 0750 71be d28b e8be f88e 4a3e
00000390: aa8c cf3e acc6 d3be d773 0e3e 7eff adbe
000003a0: cc9a d13e e5b9 173e bd73 95bd 8c97 65bd
000003b0: 192b b3be bae5 7dbe 4320 95be c2c9 693d
000003c0: 13d1 b53e 6668 2abf d464 35be 44d0 77bd
000003d0: c37b 2e3e c98f 933c eabb 8abe 70c7 acbe
000003e0: 3c21 fa3d 62ae 25bf 8f01 9a3d 4643 b2be
000003f0: 18b6 4c3f f354 efbd 5ef7 713e c625 723e

network_body._body_endoder.seq_layers.0.bias f4 [128]
0.0069514327 0.0068117464 0.00853168 -0.0052637667 -0.0036025036 0.0073941564 -0.002910859 0.0010699048
0.005017063 -0.00049540267 -0.0038499672 -0.0043081213 0.0058387895 -0.004360834 0.00022821121 -0.000773822
0.01986018 -0.0025260244 0.013876203 -0.0056438986 0.0008396449 0.011342498 -0.0021023126 -0.0039157467
0.0003800757 0.011424426 -0.011565082 0.010744644 -0.008527494 -0.011827218 -0.0048554614 -0.0067205285
0.009031473 0.010764813 0.00045444502 -0.0056542074 -0.012047543 0.017001553 -8.071945e-06 0.0110607585
0.008810438 0.008115687 -0.0006985713 0.015185932 0.014807203 -0.010421685 -0.017754339 -9.137551e-05
0.00010983085 -0.008319079 -0.0066251014 -0.0029565077 -0.0018472716 0.008044312 -0.00044402233 0.0014414656
-0.0032882462 -0.012925669 -0.0037796102 -0.0057046423 -0.0020601198 0.015265812 0.014992788 0.016910532
0.020512812 -0.0062448652 0.0063560526 -0.012624818 -0.013613195 0.0084321145 0.017645434 -0.0003558888
0.021216111 -0.0021142408 0.01586989 -0.0036580667 0.0029465589 0.021734405 -0.0042054714 0.0062543917
0.012762991 0.016362268 0.004490689 0.0015075473 0.007096378 -0.005466534 0.01305066 0.008639651
0.014671394 -0.003743781 -0.006887419 0.0079582855 -0.009859184 -0.017204557 -0.008179204 0.022401901
0.016962042 -0.013502994 -0.009138884 -0.004003524 0.0062649497 0.0017975797 -0.009269204 0.0016509464
0.023284664 0.009147381 0.0017836267 0.006496515 -0.0073589734 -0.0022416308 0.009934124 -0.0028182385
0.010417666 0.01050307 0.008890428 -0.0019051204 -0.003420536 -0.0064313733 -0.0074955844 -0.005311948
-0.0025413 0.009897756 -0.0063664727 -0.017730167 -0.0015050271 -0.013478445 0.019168414 0.0042861593
00000000: d8c8 e33b 1235 df3b 76c8 0b3c ad7b acbb
00000010: fb17 6cbb ae4a f23b 1cc4 3ebb 0c3c 8c3a
00000020: 2d66 a43b e9dd 01ba bb4f 7cbb 242b 8dbb
00000030: 5153 bf3b 54e5 8ebb fb4b 6f39 51da 4aba
00000040: d1b1 a23c a88b 25bb 0459 633c 74f0 b8bb
00000050: 9e1b 5c3a e2d5 393c f4c6 09bb aa4f 80bb
00000060: e644 c739 842d 3b3c 787b 3dbc 4e0a 303c
00000070: e7b6 0bbc f3c6 41bc 901a 9fbb e137 dcbb
00000080: bef8 133c e65e 303c 9442 ee39 ee46 b9bb
00000090: 0f63 45bc d746 8b3c bd6c 07b7 2f38 353c
000000a0: a859 103c a9f7 043c 5420 37ba 6ace 783c
000000b0: e999 723c b7bf 2abc 8c71 91bc daa0 bfb8
000000c0: fd54 e638 bf4c 08bc 6117 d9bb f8c1 41bb
000000d0: 2620 f2ba 4acc 033c abcb e8b9 8fef bc3a
000000e0: 9e7f 57bb 2fc6 53bc 56b3 77bb 02ee babb
000000f0: 1303 07bb 751d 7a3c 50a4 753c f587 8a3c
00000100: 7c0a a83c baa1 ccbb 6f46 d03b 53d8 4ebc
00000110: e109 5fbc da26 0a3c 288d 903c 9696 bab9
00000120: 69cd ad3c 138f 0abb 9201 823c 2dbc 6fbb
00000130: 0e1b 413b 5a0c b23c 0dce 89bb a4f1 cc3b
00000140: dd1b 513c 2a0a 863c a126 933b e598 c53a
00000150: bc88 e83b 9c20 b3bb 6fd2 553c 538d 0d3c
00000160: 4960 703c 395a 75bb dcaf e1bb 7863 023c
00000170: 6a88 21bc 92f0 8cbc 1102 06bc 3184 b73c
00000180: fbf3 8a3c a93b 5dbc 42bb 15bc fe2f 83bb
00000190: 354a cd3b c49c eb3a dcdd 17bc 9264 d83a
000001a0: 7bbf be3c e6de 153c 95c8 e93a b8e0 d43b
000001b0: 8b23 f1bb 53e8 12bb bcc2 223c 32b2 38bb
000001c0: dcae 2a3c 1215 2c3c 28a9 113c 3cb5 f9ba
000001d0: 122b 60bb 45be d2bb 859d f5bb d90f aebb
000001e0: f08b 26bb 332a 223c d89d d0bb db3e 91bc
000001f0: 5444 c5ba b2d4 5cbc 1407 9d3c e972 8c3b

action_model._continuous_distribution.log_sigma f4 [1, 2]
-0.006171192 -0.007813478
00000000: b637 cabb 1a04 00bc

action_model._continuous_distribution.mu.weight f4 [2, 128]
0.020440333 -0.017906904 -0.009756636 -0.011263212 -0.012335392 0.013329813 0.007452782 -0.004511629
-0.03359469 0.015075357 0.016132096 0.0049308455 -0.008945015 0.0026959814 0.033353165 0.00089028385
0.020716956 0.013644531 0.022304907 0.0041359398 0.0067212223 0.02592147 -0.0028365424 0.005684449
0.005089672 -0.029352177 0.018532818 0.039221104 0.010067886 0.0045067356 0.0026209508 -0.009540751
-0.025524823 -0.0036511703 -0.009355591 0.0119546335 -0.021674875 -0.04497368 0.02909795 -0.025943875
-0.0020734011 0.009451438 -0.04684622 0.03234745 0.008698537 0.0022336808 -0.00033743464 0.009235346
-0.016570654 -0.002630595 -0.010008065 0.00021132606 -0.0106501365 -0.023471477 0.014919322 -0.040932894
0.0026931702 0.011913427 -0.008004332 0.0015937228 0.011183585 -0.0049846023 0.019326257 -0.017805655
0.013838619 -0.0046176873 -0.010105739 0.00052000914 -0.013639607 -0.028994394 0.025084872 0.0030217385
-0.030528098 0.018922906 0.0046684286 -0.015312145 0.020820778 0.023023512 0.015290619 -0.020461846
-0.01876202 0.054454476 0.033914525 -0.0143921785 -0.04187541 -0.01774426 0.01979595 0.0067842635
-0.043658882 0.03113512 -0.035057575 0.004060438 0.014013608 -0.00032330857 0.0032875836 0.013266453
-0.01407925 -0.0055735395 -0.0073182057 0.0023855814 0.026325189 -0.0135011375 -0.014824975 0.019104108
0.035327416 -0.040586155 -0.01238521 0.01544402 -0.010248659 -0.004497996 -0.014803864 -0.010027673
0.03415406 0.020205265 -0.062485114 -1.8564682e-05 -0.028599665 -0.008674546 -0.011758862 -0.0018918164
-0.015669642 0.02436063 -5.6415287e-05 0.0024017363 0.008802163 0.0025167859 0.05243248 -0.024343243
-0.0105435075 -0.047124326 -0.019174172 -0.0065862546 0.019551234 0.0089607695 0.012277168 -0.01756119
-0.018100057 -0.024092747 0.019016065 0.016038844 -0.00674309 0.013117926 0.017570583 -0.016464578
-0.024071535 0.01618228 -0.05278804 0.013097513 0.0034838386 0.016696874 0.025876647 0.029911049
-0.0153157925 -0.00021083848 0.031408347 0.007708944 0.03796621 0.014326056 0.007859189 0.0070277327
-0.011539571 0.055623587 -0.0064885146 0.0051869545 0.025539443 -0.023492401 0.054306384 -0.010313298
-0.020420732 -0.0030989228 0.02373808 -0.022014568 -0.045131538 -0.019275028 0.0017048606 -0.011427331
0.00037707278 0.0011046327 -0.0023508016 -0.004922839 0.03971233 -0.017856864 0.019688785 0.027327057
0.016958417 0.00050824106 0.003419186 0.0059062564 0.0016093989 -0.0064456677 -0.017451458 -0.030681971
-0.02876621 0.030693946 -0.011949017 0.0003483131 0.01227991 0.010621933 -0.031088106 0.02706658
-0.032489493 0.0074270437 -0.019977596 0.027676973 -0.0034706956 -0.0044118986 0.03357633 -0.0120414
-0.029179689 -0.00015277215 0.0010630228 -0.01106182 0.009232575 0.019651512 -0.035928756 -0.034874044
-0.024356985 0.0023673663 0.006758965 -0.007301781 0.0045193983 0.008078434 0.019537322 -0.016973386
-0.009118923 0.014767504 0.0053051505 0.06653258 -0.009720925 0.03738346 0.05148902 0.041401207
-0.02186783 -0.016376385 0.014810556 -0.010858062 0.044052303 -0.007770151 -0.029471746 -0.0010330484
0.006931943 -0.012247788 0.0071007176 -0.0058300598 0.015420084 0.0031751266 0.0053217835 0.0059809675
-0.0038103736 0.030037383 0.026346957 0.0033153507 -0.010548523 0.023594137 -0.012943079 0.0012037558
00000000: 7c72 a73c 80b1 92bc 4cda 1fbc 5689 38bc
00000010: 621a 4abc 4a65 5a3c 7736 f43b 4ad6 93bb
00000020: 969a 09bd a1fe 763c 7527 843c ee92 a13b
00000030: 1d8e 12bc 10af 303b 549d 083d f061 693a
00000040: 9bb6 a93c 508d 5f3c c8b8 b63c c786 873b
00000050: b33d dc3b 4359 d43c 49e5 39bb 9d44 ba3b
00000060: 43c7 a63b fa73 f0bc 23d2 973c 4fa6 203d
00000070: c6f3 243c 3dad 933b 42c4 2b3b cf50 1cbc
00000080: 6f19 d1bc 7948 6fbb 3148 19bc 5edd 433c
00000090: 828f b1bc 5236 38bd d35e ee3c 4088 d4bc
000000a0: e6e1 07bb 34da 1a3c d2e1 3fbd c27e 043d
000000b0: 4f84 0e3c f262 123b b6e9 b0b9 d94f 173c
000000c0: 2ebf 87bc 0f66 2cbb def8 23bc 6897 5d39
000000d0: e97d 2ebc 4147 c0bc 2c70 743c 40a9 27bd
000000e0: e67f 303b 8930 433c 9a24 03bc 77e4 d03a
000000f0: 5b3b 373c e055 a3bb 1952 9e3c 2add 91bc
00000100: 60bb 623c f84f 97bb 8b92 25bc 3951 083a
00000110: a878 5fbc a785 edbc ca7e cd3c 5c08 463b
00000120: 1016 fabc 3604 9b3c 9ef9 983b cbdf 7abc
00000130: 5690 aa3c ce9b bc3c 8185 7a3c 9a9f a7bc
00000140: cfb2 99bc a80b 5f3d f5e9 0a3d 2ccd 6bbc
00000150: 8d85 2bbd 695c 91bc 1e2b a23c 874e de3b
00000160: a8d3 32bd 140f ff3c 8898 0fbd 6c0d 853b
00000170: 5599 653c be81 a9b9 8074 573b 895b 593c
00000180: a8ac 66bc 3da2 b6bb 8fcd efbb 6a57 1c3b
00000190: eca7 d73c e033 5dbc 74e4 72bc 3880 9c3c
000001a0: 7bb3 103d ab3d 26bd 56eb 4abc ea08 7d3c
000001b0: fee9 27bc ed63 93bb e88b 72bc 1c4b 24bc
000001c0: 21e5 0b3d 8385 a53c 64f0 7fbd 5abb 9bb7
000001d0: d849 eabc af1f 0ebc 3ea8 40bc d3f6 f7ba
000001e0: 9f5d 80bc f28f c73c 749f 6cb8 7366 1d3b
000001f0: f336 103c a9f0 243b 71c3 563d 7b6b c7bc
00000200: adbe 2cbc 7005 41bd 2713 9dbc 82d1 d7bb
00000210: e929 a03c 31d0 123c 2d26 493c 7cdc 8fbc
00000220: 9246 94bc 275e c5bc 94c7 9b3c e563 833c
00000230: 24f5 dcbb 92ec 563c 2ff0 8f3c b9e0 86bc
00000240: ab31 c5bc b390 843c 4638 58bd f396 563c
00000250: 1d51 643b e2c7 883c 43fb d33c 0408 f53c
00000260: 17ef 7abc 8614 5db9 0aa6 003d 4f9b fc3b
00000270: 7582 1b3d d6b7 6a3c d4c3 003c e548 e63b
00000280: 7810 3dbc 8fd5 633d 9b9d d4bb 54f7 a93b
00000290: 1838 d13c 2373 c0bc 5f70 5e3d 1bf9 28bc
000002a0: 6149 a7bc 4c17 4bbb 5d76 c23c e557 b4bc
000002b0: d9db 38bd aae6 9dbc a175 df3a b339 3bbc
000002c0: dab1 c539 53c9 903a e80f 1abb c44f a1bb
000002d0: 65a9 223d 8f48 92bc 604a a13c fedc df3c
000002e0: 61ec 8a3c 7b3b 053a 6c14 603b 4589 c13b
000002f0: 77f2 d23a 2e36 d3bb 5cf6 8ebc c258 fbbc
00000300: 1da7 ebbc df71 fb3c cfc5 43bc cb9d b639
00000310: ad31 493c 9e07 2e3c 7cac febc bbba dd3c
00000320: b413 05bd 8f5e f33b 0ea8 a3bc d2ba e23c
00000330: 9c74 63bb b091 90bb 5587 093d 4b49 45bc
00000340: 3e0a efbc 7631 20b9 2055 8b3a a33c 35bc
00000350: 3a44 173c 35fc a03c 082a 13bd 16d8 0ebd
00000360: 4d88 c7bc d125 1b3b 4f7a dd3b c743 efbb
00000370: 7617 943b 685b 043c bc0c a03c c50b 8bbc
00000380: 8967 15bc 67f3 713c d4d6 ad3b 3c42 883d
00000390: 8444 1fbc 661f 193d 27e6 523d 5094 293d
000003a0: 2a24 b3bc c527 86bc f9a7 723c 03e6 31bc
000003b0: 3070 343d c09c febb bb6e f1bc 5a67 87ba
000003c0: 5a25 e33b f2aa 48bc 23ad e83b 160a bfbb
000003d0: 85a4 7c3c c915 503b 5b62 ae3b fefb c33b
000003e0: 76b7 79bb f510 f63c 93d5 d73c 5b46 593b
000003f0: b6d3 2cbc 7e48 c13c 350f 54bc 58c7 9d3a

action_model._continuous_distribution.mu.bias f4 [2]
0.0049193706 -0.01079232
00000000: ac32 a13b 45d2 30bc

exp_avg f4 [128, 8]
0.0001395072 -0.00014284799 -0.000105898805 -4.4910325e-05 1.6332968e-05 -0.00012265431 -1.653079e-05 -5.800408e-05
2.6994818e-05 -0.0004646606 0.0002463432 7.645712e-05 -0.0003129106 0.00019807044 -0.00011493338 -0.00038141632
-0.00011610571 -0.00026399302 0.00014612351 -3.8815695e-05 -8.969571e-05 0.000100949816 3.5263347e-06 -0.000137022
-6.7379304e-05 -4.7408383e-05 0.00011164276 -5.9725644e-06 -9.8796736e-05 0.00012238379 3.7812147e-06 -8.873656e-05
-9.564105e-05 0.00024572655 -3.5666384e-05 7.017374e-05 6.460084e-05 1.1845348e-05 -4.573863e-05 0.00013840066
0.00015224307 0.00017986659 -0.00011501114 -3.9311348e-05 8.3487095e-05 -0.000120224875 -3.5931647e-05 0.00010398785
8.301334e-05 0.00019536976 -6.807549e-05 1.1291073e-05 8.781295e-05 -6.625065e-05 -3.8205217e-05 0.00012408057
-4.5748777e-05 -0.00017679705 0.00013249122 2.5640466e-05 -0.00013087274 9.370909e-05 3.2056978e-05 -0.0001668263
-0.00033518934 -0.00024235228 0.00033859446 -0.00012843756 -6.764635e-05 0.00030317073 -5.130262e-05 -0.00014221453
0.00012716996 -0.00037377662 6.981118e-05 -0.0001341277 9.964639e-06 3.604642e-05 0.00014892175 -0.00011038016
0.00011395461 0.0001703806 -0.00021544244 -2.9772105e-05 0.0002049766 -0.00017686978 -7.1705756e-05 0.00020692681
5.215835e-05 0.000212125 -7.185003e-05 -8.874589e-06 0.00014443662 -5.4079042e-05 -4.791197e-05 0.00016758603
-2.5922996e-05 -3.2753233e-05 0.00011071731 -9.922005e-06 -5.733907e-05 9.28221e-05 3.6265765e-06 -4.2151267e-05
4.9360926e-05 0.00020166487 -5.7346493e-05 -3.3067845e-06 9.358703e-05 -3.332973e-05 -1.4435239e-05 0.00015781974
0.00021725874 0.000115602925 -0.0003099843 1.6455957e-05 0.00018372454 -0.00028983655 -9.3389775e-05 0.00018209315
-1.4420567e-05 -0.00020693826 6.600395e-05 -3.0132836e-05 -5.0802562e-05 4.8072878e-05 3.2723336e-05 -0.00013433304
0.00011701373 -0.00026684997 -0.0002260264 -4.3962977e-05 -6.880468e-05 -0.0002184041 -0.00023844828 -0.00030416314
7.216561e-05 0.0002047931 -0.00013341215 -2.509568e-05 0.000121809964 -0.00013050469 2.0407157e-05 0.0001521558
0.00029305776 -0.00053356553 1.3411118e-05 -0.00014989456 -0.00023681039 -7.570795e-05 -5.839276e-05 -0.00033600914
1.8792607e-05 0.00011827727 -6.930256e-05 -2.429026e-05 0.00012022849 -5.536961e-05 -9.136744e-06 0.00013537158
6.714456e-05 6.0879815e-05 -4.787475e-05 -7.101543e-06 4.0692525e-05 -5.0348168e-05 -1.8243616e-05 3.8991653e-05
0.00022402391 0.00016775115 -0.00019939362 -1.6538372e-05 0.00021804457 -0.00018359516 -0.0001241271 0.00019079157
5.278243e-05 0.00037591736 -0.000101128404 5.4908127e-05 0.000117004856 -5.304215e-05 -4.3943634e-05 0.00023554407
0.00016952529 0.000440386 -0.00020544352 7.5212076e-05 0.00016411909 -0.00015034311 -0.00014311093 0.00024749857
7.837267e-05 -0.00011423562 1.5708305e-05 3.9092947e-06 -8.59134e-05 -1.3815248e-05 -8.024389e-06 -0.00014624333
-0.00022208312 -3.6545818e-05 0.00031986035 -6.7424364e-05 -2.1283478e-05 0.000320932 4.6675625e-05 4.9415074e-05
7.540459e-05 0.00043470936 -0.00019647337 1.4744201e-05 0.0001025598 -0.00019590998 0.0001328823 0.00024445
0.00026715355 0.00018684097 -0.0003854715 -0.00012049584 0.00019794269 -0.00037693806 -0.00012306034 7.869417e-05
4.745581e-05 0.00034589256 -0.00023133321 -5.4154443e-05 0.0003569306 -0.00017801678 -0.00013403305 0.00039462527
8.629491e-05 0.00017879125 -0.000107424836 5.2975414e-05 3.0742733e-05 -7.578893e-05 -1.0015365e-05 0.000105784406
1.6638027e-05 7.663688e-05 -6.706794e-05 -3.5114322e-06 5.8434067e-05 -4.4641645e-05 -2.6278953e-05 7.272951e-05
-6.932586e-05 6.266739e-05 7.93564e-05 -9.048121e-06 1.10472865e-05 9.8802935e-05 8.16071e-05 6.4619584e-05
00000000: ae48 1239 77c9 15b9 fd15 deb8 185e 3cb8
00000010: c802 8937 c49c 00b9 9aab 8ab7 6849 73b8
00000020: ee72 e237 b19d f3b9 a027 8139 9b57 a038
00000030: 260e a4b9 21b1 4f39 6308 f1b8 d5f8 c7b9
00000040: c77d f3b8 8b68 8ab9 bb38 1939 09ce 22b8
00000050: 051b bcb8 05b5 d338 f8a5 6c36 90ad 0fb9
00000060: fd4d 8db8 5dd8 46b8 c021 ea38 f067 c8b6
00000070: 1831 cfb8 2654 0039 c6c0 7d36 1418 bab8
00000080: e692 c8b8 dcd4 8039 7d98 15b8 3d2a 9338
00000090: 507a 8738 62bb 4637 7bd7 3fb8 a51f 1139
000000a0: 70a3 1f39 929a 3c39 2332 f1b8 3de2 24b8
000000b0: cb15 af38 3d21 fcb8 50b5 16b8 0d14 da38
000000c0: 7317 ae38 2cdc 4c39 c0c3 8eb8 ca6e 3d37
000000d0: 3828 b838 0cf0 8ab8 8a3e 20b8 a01b 0239
000000e0: 60e2 3fb8 9962 39b9 57ed 0a39 7b16 d737
000000f0: e23a 09b9 af85 c438 eb74 0638 18ee 2eb9
00000100: 5abc afb9 f21f 7eb9 6185 b139 32ad 06b9
00000110: 5cdd 8db8 e3f2 9e39 c52d 57b8 6c1f 15b9
00000120: ed58 0539 73f7 c3b9 9867 9238 a1a4 0cb9
00000130: cc2d 2737 8c30 1738 e127 1c39 e67b e7b8
00000140: eafa ee38 32a8 3239 64e8 61b9 1cbf f9b7
00000150: fdee 5639 1f76 39b9 bc60 96b8 7efa 5839
00000160: 9ac4 5a38 df6d 5e39 31ae 96b8 12e4 14b7
00000170: e973 1739 eed2 62b8 16f5 48b8 08ba 2f39
00000180: 3675 d9b7 8460 09b8 e730 e838 b076 26b7
00000190: 5c7f 70b8 7ca9 c238 1c60 7336 94cb 30b8
000001a0: e408 4f38 0076 5339 5487 70b8 20ea 5db6
000001b0: 2744 c438 86cb 0bb8 e12e 72b7 6a7c 2539
000001c0: f3cf 6339 d96f f238 6385 a2b9 e60a 8a37
000001d0: 2ea6 4039 34f5 97b9 41da c3b8 42f0 3e39
000001e0: ddef 71b7 91fd 58b9 9a6b 8a38 c6c5 fcb7
000001f0: d614 55b8 dca1 4938 6a40 0938 c0db 0cb9
00000200: 4565 f538 ffe7 8bb9 8001 6db9 e364 38b8
00000210: 3b4b 90b8 6703 65b9 f907 7ab9 1678 9fb9
00000220: 9e57 9738 bbbd 5639 8de4 0bb9 9084 d2b7
00000230: 3a74 ff38 16d8 08b9 0930 ab37 038c 1f39
00000240: 8ca5 9939 fade 0bba 5000 6137 042d 1db9
00000250: 4e50 78b9 65c5 9eb8 c0ea 74b8 622a b0b9
00000260: d1a4 9d37 a00b f838 8756 91b8 f0c2 cbb7
00000270: 2e23 fc38 ab3c 68b8 044a 19b7 88f2 0d39
00000280: f6cf 8c38 3459 7f38 1fcd 48b8 ca49 eeb6
00000290: 44ad 2a38 ef2c 53b8 de09 99b7 f88a 2338
000002a0: f6e7 6a39 5be6 2f39 5114 51b9 e2bb 8ab7
000002b0: e5a2 6439 7383 40b9 1d28 02b9 390f 4839
000002c0: b462 5d38 c616 c539 e614 d4b8 274d 6638
000002d0: 8160 f538 9379 5eb8 1e50 38b8 61fc 7639
000002e0: 99c2 3139 9ce3 e639 536c 57b9 2dbb 9d38
000002f0: 6217 2c39 6ca5 1db9 0c10 16b9 b2c2 8139
00000300: 025c a438 c891 efb8 54c5 8337 962c 8336
00000310: 682c b4b8 0ac8 67b7 7da0 06b7 e558 19b9
00000320: fcde 68b9 c648 19b8 eeb2 a739 2e66 8db8
00000330: ec89 b2b7 c442 a839 92c5 4338 0843 4f38
00000340: 8822 9e38 b4e9 e339 6b04 4eb9 dc5d 7737
00000350: 6015 d738 2f6d 4db9 5256 0b39 8629 8039
00000360: be10 8c39 beea 4339 1c19 cab9 b6b2 fcb8
00000370: d68e 4f39 c59f c5b9 c209 01b9 9c08 a538
00000380: 4a0b 4738 ea58 b539 0992 72b9 e423 63b8
00000390: 6a22 bb39 04aa 3ab9 398b 0cb9 b5e5 ce39
000003a0: 3af9 b438 e979 3b39 4549 e1b8 eb31 5e38
000003b0: c2f1 0038 dff0 9eb8 aa07 28b7 92d8 dd38
000003c0: e491 8b37 1db8 a038 d3a6 8cb8 f2a5 6bb6
000003d0: 1a17 7538 9a3d 3bb8 9f71 dcb7 5c86 9838
000003e0: 0a63 91b8 4c6c 8338 256c a638 62cd 17b7
000003f0: bc57 3937 6c34 cf38 7a24 ab38 6084 8738

exp_avg_sq f4 [128, 8]
9.5393325e-08 6.665884e-08 8.0596536e-08 1.0441137e-07 8.187825e-08 5.1588707e-08 1.6005222e-07 4.7604992e-08
1.8115783e-07 3.602711e-07 2.2019088e-07 1.326455e-07 3.450748e-07 1.7966414e-07 2.0135441e-07 3.782617e-07
4.8959627e-08 8.1040405e-08 4.4566285e-08 4.915859e-08 4.9844544e-08 2.586262e-08 4.3127454e-08 4.0302556e-08
2.0049209e-08 1.6045758e-08 2.3140144e-08 2.5320675e-08 2.3700188e-08 2.5678629e-08 3.5550524e-08 1.8256715e-08
6.050044e-08 8.835567e-08 4.8546124e-08 7.1769485e-08 7.7199935e-08 3.1602724e-08 1.0173053e-07 5.243759e-08
3.422901e-08 3.056132e-08 3.0908016e-08 1.1765422e-08 2.34117e-08 3.778295e-08 1.3075385e-08 2.5253815e-08
2.2147077e-08 4.031731e-08 2.2270179e-08 1.7958651e-08 2.4552378e-08 1.6480536e-08 1.4261834e-08 2.6060015e-08
2.2910596e-08 6.189585e-08 3.234156e-08 3.578559e-08 4.6724313e-08 1.8678662e-08 5.3334638e-08 4.422816e-08
2.92369e-07 1.803748e-07 2.612751e-07 2.3311429e-07 2.9486958e-07 2.3087411e-07 4.161624e-07 1.9287683e-07
1.063312e-07 1.7874868e-07 8.866435e-08 1.2709916e-07 1.3670356e-07 5.358141e-08 1.686406e-07 9.2796675e-08
7.83149e-08 8.483511e-08 8.032011e-08 7.7871114e-08 7.933328e-08 6.453858e-08 1.307569e-07 6.3931424e-08
1.7697495e-08 5.0863438e-08 2.2942563e-08 1.8551216e-08 3.6684533e-08 1.452939e-08 2.227823e-08 3.581932e-08
1.74545e-08 1.23254305e-08 1.6709292e-08 1.5961747e-08 1.6113527e-08 1.30961135e-08 2.6687532e-08 1.2473855e-08
1.4094249e-08 4.027538e-08 1.8845668e-08 1.4557427e-08 2.7425864e-08 1.1256036e-08 1.3683031e-08 3.0684333e-08
2.5914713e-07 1.840859e-07 2.7404775e-07 2.5598808e-07 3.0122305e-07 2.05657e-07 5.2667144e-07 2.0413373e-07
2.6751637e-08 6.386865e-08 2.48798e-08 3.0240493e-08 4.059186e-08 1.557962e-08 3.6924835e-08 3.8803993e-08
1.0733689e-07 1.302944e-07 8.1494754e-08 7.835331e-08 1.0460989e-07 8.964443e-08 9.6503165e-08 1.4339929e-07
3.6084586e-08 5.2615714e-08 4.2041098e-08 1.3875761e-08 4.0717865e-08 4.5767948e-08 2.3059119e-08 5.4242904e-08
2.688685e-07 5.032364e-07 2.5422628e-07 3.5770054e-07 4.5277415e-07 1.4529093e-07 4.3712362e-07 3.0952197e-07
8.280452e-09 2.2897542e-08 1.2318478e-08 8.0439975e-09 1.7350187e-08 9.648983e-09 1.2767224e-08 1.9821329e-08
6.0489485e-09 5.003176e-09 5.367078e-09 2.7263334e-09 5.4191913e-09 5.5032228e-09 4.2632524e-09 4.3832786e-09
1.4196361e-07 1.3108055e-07 1.5091042e-07 1.6610105e-07 2.0812314e-07 1.02081195e-07 3.1684834e-07 1.2834133e-07
6.074744e-08 1.5728371e-07 7.038366e-08 9.666633e-08 1.375584e-07 4.2303025e-08 1.329551e-07 1.1156969e-07
8.1730015e-08 2.3124323e-07 1.0709929e-07 1.4573331e-07 1.7471996e-07 5.4027364e-08 1.936403e-07 1.2037502e-07
2.2824024e-08 4.0095234e-08 2.1739591e-08 1.6930983e-08 4.2888058e-08 1.7107789e-08 2.3830875e-08 4.383888e-08
1.5162517e-07 5.6382078e-08 1.1469066e-07 6.38643e-08 7.870833e-08 1.5826194e-07 9.6853455e-08 6.558729e-08
1.278407e-07 2.0607676e-07 1.4146644e-07 6.3311454e-08 1.586073e-07 1.3397198e-07 8.5528995e-08 2.1794263e-07
2.4415294e-07 1.2184634e-07 1.7409755e-07 1.0399029e-07 1.381924e-07 2.0635662e-07 8.5312365e-08 1.14663685e-07
9.780906e-08 2.6424811e-07 1.7387833e-07 1.13772785e-07 1.8763026e-07 1.04266626e-07 1.3678877e-07 1.854437e-07
3.1220583e-08 4.7747843e-08 3.19342e-08 4.6293625e-08 4.6578332e-08 1.965029e-08 7.589553e-08 3.326557e-08
7.821925e-09 1.1162491e-08 8.652189e-09 1.0764514e-08 1.0294647e-08 4.9586775e-09 1.8011859e-08 7.674047e-09
2.0068704e-08 1.734183e-08 1.8483608e-08 1.8163151e-08 2.5949454e-08 1.7003405e-08 2.773965e-08 2.046862e-08
00000000: 09db cc33 1626 8f33 6a14 ad33 c238 e033
00000010: 0bd5 af33 6292 5d33 d2da 2b34 3e76 4c33
00000020: 4984 4234 486b c134 9c6d 6c34 516d 0e34
00000030: b842 b934 b4e9 4034 e133 5834 e413 cb34
00000040: ae47 5233 6f08 ae33 2669 3f33 7122 5333
00000050: a814 5633 8128 de32 233b 3933 2119 2d33
00000060: ad38 ac32 ffd4 8932 b7c5 c632 c180 d932
00000070: 4495 cb32 e793 dc32 37b0 1833 f1d2 9c32
00000080: 78ec 8133 0bbe bd33 0781 5033 b11f 9a33
00000090: 1dc9 a533 90bb 0733 f376 da33 bd37 6133
000000a0: 3203 1333 8742 0333 b9bf 0433 e020 4a32
000000b0: df1a c932 cb46 2233 27a2 6032 baed d832
000000c0: f03d be32 5a29 2d33 a44c bf32 7e43 9a32
000000d0: 40e7 d232 1591 8d32 3604 7532 94da df32
000000e0: efcc c432 9aeb 8433 ece7 0a33 acb2 1933
000000f0: edad 4833 d072 a032 0e12 6533 60f5 3d33
00000100: e4f6 9c34 0cad 4134 6045 8c34 f84d 7a34
00000110: 914e 9e34 31e6 7734 ed6c df34 9419 4f34
00000120: 3258 e433 10ee 3f34 be67 be33 c078 0834
00000130: cac8 1234 6221 6633 9313 3534 8347 c733
00000140: 122e a833 982e b633 737c ac33 193a a733
00000150: ef5d aa33 7698 8a33 2f66 0c34 ac4a 8933
00000160: 3405 9832 f174 5a33 3b13 c532 8e5a 9f32
00000170: 128f 1d33 ef9c 7932 595e bf32 c2d7 1933
00000180: daee 9532 d1bf 5332 1f88 8f32 411c 8932
00000190: 056a 8a32 51fd 6032 813e e532 984c 5632
000001a0: 2a23 7232 40fb 2c33 10e2 a132 3e18 7a32
000001b0: 1d96 eb32 9260 4132 9b12 6b32 c8c9 0333
000001c0: e920 8b34 26a9 4534 d620 9334 bc6e 8934
000001d0: c8b7 a134 91d2 5c34 9660 0d35 da2f 5b34
000001e0: 79cb e532 2928 8933 42b7 d532 c6e1 0133
000001f0: 3957 2e33 f2d3 8532 4997 1e33 71a9 2633
00000200: 1481 e633 0de7 0b34 3702 af33 3043 a833
00000210: e5a5 e033 8c82 c033 2d3d cf33 4cf9 1934
00000220: 6cfb 1a33 97fb 6133 ad90 3433 3e62 6e32
00000230: c4e1 2e33 6492 4433 8a13 c632 b4f8 6833
00000240: 0159 9034 2416 0735 987c 8834 fd09 c034
00000250: ce14 f334 4401 1c34 d0ad ea34 602c a634
00000260: d041 0e32 3ab0 c432 3da1 5332 e031 0a32
00000270: 7709 9532 adc4 2532 d856 5b32 9043 aa32
00000280: 1dd7 cf31 67e8 ab31 5169 b831 2a5a 3b31
00000290: b633 ba31 dc16 bd31 f77b 9231 ba9b 9631
000002a0: a96e 1834 26bf 0c34 f109 2234 8259 3234
000002b0: 7478 5f34 bb37 db33 4e1b aa34 32ce 0934
000002c0: 4274 8233 d1e1 2834 d425 9733 e096 cf33
000002d0: c4b3 1334 abb0 3533 6bc2 0e34 1698 ef33
000002e0: 8d83 af33 a84b 7834 75fe e533 de7a 1c34
000002f0: a89a 3b34 b70b 6833 71eb 4f34 6f40 0134
00000300: 8f0e c432 2d35 2c33 debd ba32 a06f 9132
00000310: eb33 3833 6df4 9232 a6b4 cc32 5c49 3c33
00000320: 69ce 2234 c028 7233 db4b f633 c525 8933
00000330: 5d06 a933 b6ee 2934 c0fd cf33 fed8 8c33
00000340: 9644 0934 f345 5d34 00e6 1734 d7f5 8733
00000350: a54d 2a34 f0d9 0f34 10ac b733 9d03 6a34
00000360: 2014 8334 ded4 0234 92ef 3a34 4451 df33
00000370: 0a62 1434 e092 5d34 f834 b733 073d f633
00000380: 190b d233 fcdd 8d34 50b3 3a34 4053 f433
00000390: 6a77 4934 2fe9 df33 36e0 1234 601e 4734
000003a0: 6517 0633 4f13 4d33 0628 0933 61d4 4633
000003b0: 6b0d 4833 72cb a832 02fc a233 e2df 0e33
000003c0: 3161 0632 28c5 3f32 bba4 1432 d5ee 3832
000003d0: 56dc 3032 fd60 aa31 7fb8 9a32 d1d6 0332
000003e0: 8c63 ac32 16f7 9432 e2c5 9e32 3105 9c32
000003f0: 74e7 de32 e20e 9232 2348 ee32 f9d2 af32

exp_avg f4 [128]
-0.00013184299 -0.00026642773 -0.00016570583 2.2647204e-05 6.756907e-05 -0.00011979137 -2.6408368e-05 -3.7740938e-05
-1.08811946e-07 -0.00011370537 -1.4583563e-05 -4.524245e-06 -2.0423151e-05 2.1195912e-05 -0.000113041635 -5.9537793e-05
-0.0004643821 -3.158085e-05 -0.0003858466 3.485518e-05 -4.7865586e-05 -0.00019128025 7.972393e-05 6.3888605e-05
-6.496688e-05 -7.6607375e-06 0.00016719355 -0.0003694537 0.0001495141 9.906111e-05 -1.5790756e-05 5.8500045e-05
-8.772458e-05 -0.00019671205 2.5789584e-05 1.588215e-05 0.0002525735 -0.00043342976 -3.9568622e-05 -7.783774e-05
-0.00013018289 -4.9126535e-05 0.00025201804 -0.000513191 -0.000483826 7.537432e-05 2.6349913e-05 -0.00010376884
1.6416729e-05 1.4813389e-05 6.109963e-06 2.0651787e-06 0.00016844684 -0.00018758916 -6.151104e-05 0.00015838438
-1.1597843e-05 3.801396e-05 3.153074e-05 -6.2796346e-07 -4.8125545e-05 -8.468602e-05 -0.00026632784 -0.00040744737
-0.00044518875 0.00013155093 -6.9152964e-05 4.092797e-06 0.00017858506 9.368232e-07 -0.0004217785 -1.03567345e-05
-0.00054209965 -5.142662e-05 -0.00029029846 0.00017566729 -0.00017433059 -0.00031696277 0.0001550846 -0.00015913264
-0.00024503077 -0.0006066277 -0.00015696122 -3.9128445e-06 5.141221e-05 8.3554056e-05 -0.0004067617 -0.000223992
-0.000303798 -8.910428e-05 0.00021769862 -4.781551e-05 6.251869e-05 0.00010018205 6.1759856e-05 -0.00032501778
-0.0001456084 0.00013824213 5.5728444e-05 0.00015993354 -0.00017478276 9.507428e-05 0.00025587043 -7.636385e-05
-0.0006689598 -3.5739038e-05 3.5751113e-05 -0.0001264971 0.00029888394 -1.8894849e-05 -0.00017574934 5.007418e-05
-0.00018583142 -0.00022682667 -4.6577232e-05 -2.032226e-06 0.00014416336 4.2014715e-05 8.422582e-05 2.583237e-05
6.864666e-05 -0.00018976268 8.9969355e-05 3.557639e-05 -0.00013091463 0.00012230112 -0.0006186159 1.599488e-05
00000000: 553f 0ab9 53af 8bb9 52c1 2db9 80fa bd37
00000010: deb3 8d38 8138 fbb8 8a87 ddb7 064c 1eb8
00000020: 00ac e9b3 1b75 eeb8 edab 74b7 f8ce 97b6
00000030: 6252 abb7 e0cd b137 c410 edb8 38b8 79b8
00000040: 4f78 f3b9 ae75 04b8 744b cab9 7731 1238
00000050: 48c3 48b8 6792 48b9 7631 a738 effb 8538
00000060: d43e 88b8 9e86 00b7 ad50 2f39 3cb3 c1b9
00000070: e3c6 1c39 07bf cf38 6476 84b7 f25d 7538
00000080: c6f8 b7b8 7d44 4eb9 b656 d837 a83a 8537
00000090: d76b 8439 f53d e3b9 7cf6 25b8 d23c a3b8
000000a0: b481 08b9 370d 4eb8 4a21 8439 aa87 06ba
000000b0: 07aa fdb9 4812 9e38 020a dd37 799e d9b8
000000c0: a8b6 8937 0587 7837 2f04 cd36 8097 0a36
000000d0: 1ba1 3039 95b3 44b9 7dff 80b8 fc13 2639
000000e0: 5b94 42b7 2e71 1f38 e03f 0438 5291 28b5
000000f0: 69da 49b8 7699 b1b8 eba1 8bb9 a99e d5b9
00000100: 3968 e9b9 eff0 0939 3706 91b8 dc54 8936
00000110: 9042 3b39 007a 7b35 2722 ddb9 d6c1 2db7
00000120: b11b 0eba eab2 57b8 3333 98b9 5433 3839
00000130: 83cc 36b9 062e a6b9 359e 2239 d8dc 26b9
00000140: 7977 80b9 1906 1fba f595 24b9 144b 83b6
00000150: 71a3 5738 be39 af38 a242 d5b9 65df 6ab9
00000160: 1447 9fb9 7fdd bab8 0746 6439 838d 48b8
00000170: 771c 8338 d418 d238 1285 8138 2667 aab9
00000180: 75ae 18b9 17f5 1039 f6bd 6938 d5b3 2739
00000190: e445 37b9 9e62 c738 5926 8639 8825 a0b8
000001a0: 225d 2fba 80e6 15b8 77f3 1538 4fa4 04b9
000001b0: 86b3 9c39 6180 9eb7 5b49 38b9 be06 5238
000001c0: bedb 42b9 52d8 6db9 ec5b 43b8 6061 08b6
000001d0: 8f2a 1739 f538 3038 65a2 b038 98b2 d837
000001e0: 65f6 8f38 08fb 46b9 eead bc38 dc37 1538
000001f0: 2146 09b9 f53d 0039 9c2a 22ba be2c 8637

exp_avg_sq f4 [128]
6.316754e-08 2.6374218e-07 6.255386e-08 1.4346064e-08 5.0323273e-08 2.7407298e-08 1.9127503e-08 2.8757166e-08
1.5290644e-07 9.248917e-08 4.896184e-08 2.0260124e-08 9.614215e-09 1.7748066e-08 1.4308361e-07 3.1526987e-08
3.0334496e-07 3.2507153e-08 4.540775e-07 1.2021378e-08 5.053958e-09 1.1491903e-07 6.9581205e-08 9.6724406e-08
3.1947454e-08 7.6819425e-08 1.5869551e-07 2.2661067e-07 1.6076892e-07 3.1912545e-08 5.7489977e-09 1.8378628e-08
8.042389e-08 3.225448e-07 1.2196134e-08 1.5075859e-08 1.665217e-07 3.5120533e-07 2.7422516e-07 6.2251836e-08
5.421426e-08 1.118801e-08 2.922192e-07 3.450628e-07 4.0353805e-07 4.6272056e-08 6.918631e-09 2.5960732e-08
2.6611579e-08 7.610195e-10 8.669236e-09 3.6639225e-09 1.551928e-07 9.7321795e-08 5.077801e-08 2.2687821e-07
2.208318e-08 2.3070829e-08 8.060429e-09 2.3168587e-09 1.2279259e-08 9.61783e-09 1.0645747e-07 2.3963005e-07
2.3807145e-07 9.53249e-08 1.8375404e-08 7.551331e-10 6.696337e-08 9.6702e-08 2.9492236e-07 7.6037495e-08
4.7157147e-07 3.1954368e-08 1.11740015e-07 1.2310443e-07 5.3100766e-08 1.4895689e-07 1.5799634e-07 5.116443e-08
1.5695545e-07 6.33883e-07 1.3409004e-07 3.0044056e-08 1.4209832e-07 8.452618e-08 2.6302084e-07 1.466906e-07
3.7407878e-07 9.326473e-08 1.7032387e-07 9.694165e-09 2.6407687e-08 1.9007398e-08 4.0152027e-08 1.2114499e-07
4.2586382e-08 4.220219e-08 1.1212804e-08 4.5135693e-07 8.504958e-08 1.2222328e-07 3.576721e-07 2.039543e-07
5.554759e-07 1.7263912e-07 3.9842575e-08 4.8725262e-08 2.1719514e-07 7.3004367e-09 1.5850168e-07 9.663836e-09
1.1333402e-07 9.5892084e-08 4.0626907e-07 4.93354e-09 8.026405e-08 9.240916e-09 2.2486924e-08 2.8863898e-09
2.32327e-08 1.728469e-07 5.6460145e-08 5.768746e-09 2.733658e-08 5.7305936e-08 6.4661464e-07 3.8959577e-08
00000000: b9a6 8733 7398 8d34 5955 8633 a876 7632
00000010: 0623 5833 496d eb32 d34d a432 ad05 f732
00000020: 9a2e 2434 759e c633 1d4a 5233 7c08 ae32
00000030: c42b 2532 6974 9832 86a2 1934 4a68 0733
00000040: 6adb a234 fe9d 0b33 f0c7 f334 9486 4e32
00000050: 16a7 ad31 68c9 f633 ac6c 9533 ceb6 cf33
00000060: 9936 0933 edf7 a433 e465 2a34 4452 7334
00000070: d39f 2c34 3710 0933 b888 c531 08df 9d32
00000080: 80b5 ac33 382a ad34 2a87 5132 2a80 8132
00000090: 23cd 3234 4b8d bc34 3839 9334 4faf 8533
000000a0: 36d9 6833 6335 4032 4de2 9c34 1241 b934
000000b0: d9a5 d834 aabc 4633 ecb8 ed31 4100 df32
000000c0: 7b97 e432 fd2f 5130 b4ef 1432 68c8 7b31
000000d0: 12a3 2634 39ff d033 0317 5a33 cf9b 7334
000000e0: 6db1 bd32 4a2d c632 247a 0a32 9c36 1f31
000000f0: c1f4 5232 aa3b 2532 9d9d e433 81a6 8034
00000100: 95a0 7f34 6bb5 cc33 f1d7 9d32 c591 4f30
00000110: 81cd 8f33 7daa cf33 d255 9e34 0e4a a333
00000120: 4a2c fd34 333e 0933 b9f5 ef33 b02e 0434
00000130: e910 6433 f5f0 1f34 b4a5 2934 e3bf 5b33
00000140: 9687 2834 1c28 2a35 64fa 0f34 ca09 0133
00000150: b093 1834 c284 b533 4f35 8d34 0182 1d34
00000160: ffd4 c834 d448 c833 45e2 3634 638b 2632
00000170: 1ed7 e232 b645 a332 9f73 2c33 1514 0234
00000180: 39e8 3633 cc41 3533 6fa2 4032 0652 f234
00000190: 80a4 b633 7b3c 0334 1406 c034 88fe 5a34
000001a0: 031c 1535 ae5e 3934 601f 2b33 fe45 5133
000001b0: 2536 6934 52d7 fa31 9c30 2a34 0006 2632
000001c0: 0962 f333 3bed cd33 321d da34 e083 a931
000001d0: a15d ac33 fac1 1e32 4529 c132 e859 4631
000001e0: 3f91 c732 cb97 3934 967e 7233 6d36 c631
000001f0: c6d1 ea32 8b20 7633 0593 2d35 8254 2733

exp_avg f4 [1, 2]
0.0048520193 0.009404244
00000000: b0fd 9e3b 4214 1a3c

exp_avg_sq f4 [1, 2]
0.0005379843 0.0005795896
00000000: 8407 0d3a 9aef 173a

exp_avg f4 [2, 128]
-0.00089332764 -0.0050432715 -0.0019253787 -0.0014166889 0.00047345218 -0.007035781 -0.0026217601 0.0025293464
0.0029290956 0.004112548 0.003828506 -0.0043100566 0.0027670343 -0.009139468 0.0015537235 0.006443265
-0.004960427 -0.005482225 -0.00064606324 6.535901e-05 -0.004847248 -0.005227669 -0.0058374377 -0.0030834712
0.008541753 0.005936402 -0.0076449667 -0.008665665 0.003362334 0.0042036823 0.005465695 0.0035144887
0.002537157 0.00017737423 -0.0015606306 -0.0003131989 0.0065758214 0.005868541 -0.0013797701 0.004614188
-0.0016737502 -0.0011621992 -0.0048889564 -0.0022101614 -0.009567107 -0.0022801105 -0.008317886 -0.008003996
0.00069132156 -7.247616e-05 0.00017701747 0.0021429174 0.0014482347 0.0011374726 1.4850128e-05 0.0032341126
-0.001578131 0.008691319 -0.00071926985 -0.0026865848 -0.0009700776 0.0056576855 -0.005290837 -0.0004179331
0.0010518723 0.0012956689 0.0005696116 0.0016114997 -0.0063508814 0.004145362 -0.0049889274 -0.0046686223
0.008238458 -0.0023100632 0.0027021978 -0.0044759093 -0.0044109114 -0.0114516085 0.0003808888 0.0061544934
0.0033622491 -0.011172568 -0.0010176841 -0.00094148936 0.0041073617 -0.0014740744 -0.007891988 -0.005849947
0.0033216677 0.0009148797 -0.0019683684 0.00035677163 0.0055601043 -0.0015064052 -0.0013483075 -0.011542402
0.0047048917 0.0018748054 -0.0041358634 -0.0033021742 -0.00014203065 0.004465814 0.0037275334 -0.0026391954
-0.008909001 0.0031777094 0.0029061707 -0.002400352 0.00039233745 -0.0040573254 -0.00046629272 -0.000677464
-0.0023122479 -0.007814766 0.0077081807 -0.00033435982 0.002901987 0.00023009034 0.00069841306 -0.000890428
-0.0006384142 -0.005894838 0.000111699905 -0.003765768 0.003624335 -0.0056215837 -0.00816204 0.003946992
-0.003444611 0.00420335 0.009385494 0.0011269895 -0.0040592486 -0.00701714 -0.005001397 -0.002905342
-0.0011729447 0.004612239 -0.0056255753 -0.0050743977 0.0004924477 -0.007266025 -0.010805817 -0.0023092087
0.016967576 0.00058961444 0.00041751124 -0.0012832015 -0.0035404693 -0.00590116 -0.0061105755 -0.0021126282
-0.0003173257 -6.239932e-05 0.007891093 0.0037407563 -0.0003937513 0.003159088 -0.008144382 0.00097589596
0.007699068 -0.012333804 -0.0023799965 0.005350777 0.013272213 0.009677734 -0.0041440413 0.0036958707
0.0043662647 -0.0015845251 -0.010506548 0.012353711 0.0017967959 -0.012772046 0.010137967 -0.004785238
0.0052993083 0.00093066366 0.0068347733 -0.007480592 -0.003614078 0.013228269 -0.0072390805 -0.0027953102
-0.0057328045 0.004694259 -0.007573073 -0.004650463 -0.0077141225 0.0067468593 0.0016085446 0.013966112
0.009981795 -0.0015176921 0.0029150145 0.0072354996 -0.0003049131 -0.008362931 0.0012677644 -0.008781442
0.010118332 0.0027275393 0.012365846 -0.0016680872 0.008465552 -0.003021793 -0.0014518697 0.011952223
0.0036468094 -0.0033929762 -0.0026192758 0.0024027687 -0.0042972444 -0.0063180896 -0.0006464397 -0.0012787817
0.013878877 0.008166297 -0.0020631864 -0.0028719523 0.0053701885 0.0076168724 -0.0012865686 0.007751554
0.010674788 0.0067712152 -0.007542152 -0.0041540153 0.00645382 -0.003673072 -0.0012311342 -0.0053066695
0.011754692 0.001306152 0.001254894 -0.0029329571 0.00037740858 0.0016492947 0.0074141556 -0.004028542
-0.00088949664 -0.0010197437 -0.006028293 -0.006239513 0.0007552282 0.0033304512 0.0022462506 -0.0037006151
-0.0017481107 -0.009882205 -0.002638958 0.009460239 0.0075092483 0.001545623 0.00031621318 0.00031595663
00000000: 342e 6aba 0742 a5bb fd5c fcba 31b0 b9ba
00000010: ad39 f839 698c e6bb d6d1 2bbb 64c3 253b
00000020: 12f6 3f3b 8ec2 863b ace7 7a3b 603b 8dbb
00000030: 2257 353b b5bd 15bc 4fa6 cb3a 0622 d33b
00000040: 148b a2bb 3da4 b3bb 925c 29ba 5a11 8938
00000050: aad5 9ebb de4c abbb fa47 bfbb 1014 4abb
00000060: b5f2 0b3c 2686 c23b a182 fabb 6ffa 0dbc
00000070: 9b5a 5c3b 0bbf 893b 9319 b33b 5653 663b
00000080: 6e46 263b 88fd 3939 138e ccba d834 a4b9
00000090: fd79 d73b e44c c03b 67d9 b4ba 9d32 973b
000000a0: bd61 dbba ef54 98ba 8a33 a0bb 5bd8 10bb
000000b0: 5bbf 1cbc e86d 15bb be47 08bc 3123 03bc
000000c0: ce39 353a 58fe 97b8 c49d 3939 3070 0c3b
000000d0: b1d2 bd3a 3f17 953a d024 7937 68f3 533b
000000e0: 4ad9 ceba 0966 0e3c 628d 3cba 6a11 30bb
000000f0: ce4c 7eba 1b64 b93b c25e adbb 081e dbb9
00000100: fade 893a 6fd3 a93a fd51 153a f538 d33a
00000110: 0e1b d0bb d1d5 873b 287a a3bb 3efb 98bb
00000120: 99fa 063c 6e64 17bb 5b17 313b a6aa 92bb
00000130: 6889 90bb 879f 3bbc 08b2 c739 a2ab c93b
00000140: 2e59 5c3b 260d 37bc d063 85ba 48ce 76ba
00000150: 0c97 863b bb35 c1ba 664d 01bc eab0 bfbb
00000160: 56b0 593b 8ad4 6f3a beff 00bb 140d bb39
00000170: 8931 b63b 9272 c5ba b1b9 b0ba 581c 3dbc
00000180: 7e2b 9a3b 08bc f53a 2386 87bb 4a69 58bb
00000190: 10ee 14b9 f755 923b a249 743b 5af6 2cbb
000001a0: 0ff7 11bc 1e41 503b 7475 3e3b 394f 1dbb
000001b0: a4b2 cd39 50f3 84bb c078 f4b9 d797 31ba
000001c0: 1589 17bb 8109 00bc e894 fc3b 044d afb9
000001d0: 432f 3e3b 6844 7139 b515 373a 9d6b 69ba
000001e0: 405b 27ba 7c29 c1bb 6e40 ea38 1acb 76bb
000001f0: 4086 6d3b 4335 b8bb 14ba 05bc c555 813b
00000200: fcbe 61bb 41bc 893b 9dc5 193c 7eb7 933a
00000210: 7203 85bb 09f0 e5bb c2e2 a3bb 8d67 3ebb
00000220: 7ebd 99ba 4422 973b bf56 b8bb 2247 a6bb
00000230: 9b17 013a d617 eebb e20a 31bc 1856 17bb
00000240: 96ff 8a3c 5b90 1a3a 69e5 da39 1931 a8ba
00000250: 3807 68bb 855e c1bb 393b c8bb 0574 0abb
00000260: bc5e a6b9 61dc 82b8 a549 013c 7a27 753b
00000270: 6870 ceb9 b408 4f3b 0470 05bc 45d3 7f3a
00000280: 7748 fc3b b913 4abc b7f9 1bbb 9255 af3b
00000290: b273 593c 5c8f 1e3c bdca 87bb 6c36 723b
000002a0: e212 8f3b d7af cfba a823 2cbc 3867 4a3c
000002b0: 7782 eb3a d841 51bc b719 263c 7ccd 9cbb
000002c0: d2a5 ad3b c8f7 733a 3cf6 df3b c11f f5bb
000002d0: 2bda 6cbb 62bb 583c cf35 edbb 8631 37bb
000002e0: 40da bbbb 4cd2 993b 8a27 f8bb e962 98bb
000002f0: c0c6 fcbb c214 dd3b cdd5 d23a 1fd2 643c
00000300: af8a 233c 4ced c6ba d409 3f3b c517 ed3b
00000310: bedc 9fb9 ad04 09bc 1d2b a63a 0ae0 0fbc
00000320: 5cc7 253c 84c0 323b 1e9a 4a3c b8a3 daba
00000330: 19b3 0a3c 4609 46bb aa4c beba 42d3 433c
00000340: 4fff 6e3b b25c 5ebb 28a8 2bbb c577 1d3b
00000350: e6cf 8cbb fa07 cfbb d575 29ba cb9c a7ba
00000360: 3b64 633c efcb 053c 8636 07bb 5d37 3cbb
00000370: 68f8 af3b f596 f93b 14a2 a8ba bf00 fe3b
00000380: 4ee5 2e3c 12e1 dd3b 2824 f7bb 681e 88bb
00000390: 917a d33b ecb7 70bb 025e a1ba 92e3 adbb
000003a0: c096 403c 3033 ab3a 417b a43a db36 40bb
000003b0: ecde c539 262d d83a 72f2 f23b dc01 84bb
000003c0: 1c2d 69ba eca8 85ba fd88 c5bb d474 ccbb
000003d0: 82fa 453a b343 5a3b d535 133b 0586 72bb
000003e0: dd20 e5ba f9e8 21bc 5ef2 2cbb 1eff 1a3c
000003f0: 2410 f63b 8096 ca3a 6ac9 a539 fba6 a539
