results/Long_LowLR/3DBall/3DBall-1899995.pt (torch, 49335 bytes, 32 tensors)

network_body.observation_encoder.processors.0.normalizer.running_mean f4 [8]
000000 79 2e db bb 1e 4b 37 3c 1a 95 71 3d be 75 45 40
       -0.0066888896 0.011187343 0.058980085 3.0853114
000010 4c a8 23 3e a3 d6 ac 3d a9 3e 75 bf cc 90 59 3e
       0.15982169 0.08439376 -0.95798737 0.21246642

network_body.observation_encoder.processors.0.normalizer.running_variance f4 [8]
000000 b5 b5 3f 46 91 a2 54 46 9b 3b 34 4a ec 3b a9 48
       12269.427 13608.642 2.9529348e+06 346591.38
000010 68 a4 32 4a c4 e4 0a 4a b8 a1 1b 4a d3 cf 0f 4a
       2.926874e+06 2.275633e+06 2.54987e+06 2.3562128e+06

network_body.processors.0.normalizer.running_mean f4 [8]
000000 79 2e db bb 1e 4b 37 3c 1a 95 71 3d be 75 45 40
       -0.0066888896 0.011187343 0.058980085 3.0853114
000010 4c a8 23 3e a3 d6 ac 3d a9 3e 75 bf cc 90 59 3e
       0.15982169 0.08439376 -0.95798737 0.21246642

network_body.processors.0.normalizer.running_variance f4 [8]
000000 b5 b5 3f 46 91 a2 54 46 9b 3b 34 4a ec 3b a9 48
       12269.427 13608.642 2.9529348e+06 346591.38
000010 68 a4 32 4a c4 e4 0a 4a b8 a1 1b 4a d3 cf 0f 4a
       2.926874e+06 2.275633e+06 2.54987e+06 2.3562128e+06

network_body._body_endoder.seq_layers.0.weight f4 [128, 8]
000000 aa 64 cd 3d cd 6d 16 be 9d 55 98 3e ca bd 9a 3e
       0.10028966 -0.14690323 0.29752818 0.30222923
000010 d6 80 99 3d ec 99 22 3c 33 93 ed be f3 90 56 be
       0.07495277 0.009924393 -0.46401367 -0.20953731
000020 d9 e7 93 be 74 90 1d be 83 91 de 3e 94 91 46 3d
       -0.28887823 -0.15387136 0.43470392 0.048478678
000030 35 d8 f0 3e 04 80 cf bd 97 76 a8 3e 40 92 a4 3e
       0.47039953 -0.10131839 0.32902977 0.3214283
000040 49 8b b9 bd e6 54 9a 3e 1c 74 3e be 79 0e 6c 3f
       -0.0905977 0.30142897 -0.1859898 0.92209584
000050 a0 03 5f 3d c0 81 5d 3e 2f 3f 91 be bb 0f b8 3e
       0.054446816 0.21631527 -0.28368518 0.359495
000060 d3 07 da be f0 e2 cb bd 38 60 b7 be c1 3e 39 bf
       -0.42584094 -0.09955394 -0.35815597 -0.7236138
000070 54 84 9d bd 90 96 cb 3d 57 e9 81 3e 90 6e 04 3e
       -0.07691255 0.09940827 0.25373337 0.12932801
000080 50 5f 8f 3b 92 c3 a1 be cb d6 39 be 5f fc b3 3e
       0.004375376 -0.3159452 -0.18148343 0.3515348
000090 65 ba 87 bd 10 eb 7e 3d b8 f1 b9 be b0 f9 3d be
       -0.06627349 0.06223589 -0.3631723 -0.1855228
0000a0 9b 3c b6 bb 4e f6 98 be da 69 be 3e 6e 91 36 3e
       -0.005561424 -0.29875416 0.37190133 0.17828915
0000b0 84 20 91 be 01 58 8b 3d 0b 9a 05 3f 0a db 42 be
       -0.2834512 0.06803895 0.52188176 -0.1902887
0000c0 ca b7 4f 3e aa 05 2d bc 82 1f 5d 3d b6 ed 27 3f
       0.20284954 -0.010560432 0.053985126 0.65597093
0000d0 e5 6e d6 3e a9 c2 df 3e 41 3d a9 3e f8 89 49 bf
       0.4188148 0.437032 0.33054546 -0.7872615
0000e0 54 97 2b bd 40 76 06 bf d3 f4 50 be 25 42 a8 3d
       -0.041892365 -0.52524185 -0.20405893 0.08215741
0000f0 5f e3 0c be 9d 6c 1a be e9 27 e4 bd 35 f5 81 3e
       -0.1375861 -0.15080495 -0.11140425 0.2538239
000100 62 8c 26 3f c3 28 bd 3c f8 d1 40 3e e9 32 aa be
       0.6505796 0.023090726 0.18830097 -0.33241966
000110 3e 26 43 bf f4 5c 1c be 24 d5 8a bd a5 6b 5b bc
       -0.7623023 -0.15269834 -0.067789346 -0.013392364
000120 43 d3 62 3e 99 ff 20 3e 48 08 b8 3d ff 05 3a 3f
       0.22150902 0.15722503 0.089859545 0.726654
000130 e2 da 6e 3e 14 93 3d bf be a7 ec be 2a 3f f8 be
       0.23325685 -0.7405255 -0.46221727 -0.4848569
000140 fe e2 15 3d 7f 93 ba be 1a 42 cc 3d 09 a5 74 bd
       0.03659343 -0.36440656 0.09973545 -0.059727702
000150 8c d8 72 3e 1c 2b de be 67 be f9 bd 3e 47 d5 be
       0.23715419 -0.43392265 -0.121945195 -0.41655916
000160 25 68 c0 be c2 84 30 bd 8c 63 7c bd 53 47 53 3e
       -0.37579456 -0.043095358 -0.061618373 0.20632677
000170 65 3e da 3c 38 57 05 3d a4 4e 59 3d 2d 02 01 bf
       0.02664108 0.03255388 0.053053513 -0.50393945
000180 48 52 08 3e 01 0d 69 be dc 03 4b 3e 0b 2d 49 be
       0.13312638 -0.22758867 0.19825691 -0.19646089
000190 8c db 04 3f 04 62 36 be 42 57 0e be 54 32 3d 3e
       0.518975 -0.17810827 -0.13900474 0.1847623
0001a0 5d 5c e0 be 30 70 84 be 6e ac 14 bf 5e a2 c1 3e
       -0.43820468 -0.25866842 -0.58075607 0.3781919
0001b0 6c 54 46 bf e4 26 17 3f 95 d2 bd 3e c5 24 a1 3d
       -0.7747257 0.5904372 0.37074724 0.07868341
0001c0 c9 1e d1 3e 3d ee 75 be 0c 65 65 3e ea 65 14 bf
       0.408438 -0.24016662 0.22401828 -0.5796801
0001d0 0b 50 ab 3d 47 b2 36 bd 56 f4 c7 be b2 43 79 bf
       0.08364876 -0.044603612 -0.390536 -0.9736892
0001e0 8f f1 e1 3e 58 51 9d be 63 a3 2e 3e 89 7b dd 3e
       0.44129607 -0.30726123 0.17054515 0.43258312
0001f0 f6 fd 15 3d 1a db 14 bf 1d 1b dd bd 3c c1 aa bd
       0.03661915 -0.5814682 -0.10796187 -0.08337638
000200 e8 38 17 bd 4b 40 dc 3e 01 15 83 be d9 fe ed 3e
       -0.036919504 0.43017802 -0.25601962 0.46483496
000210 5d dd e1 be 2e a6 e9 3e 34 20 61 3f f4 4c 60 3f
       -0.441142 0.45634598 0.87939763 0.8761742
000220 4b 23 5b be 7f f2 af bd de 4c 31 3f 9b 8f 14 be
       -0.21400182 -0.08591174 0.69257915 -0.14507906
000230 8f e9 1f 3e 0a a4 b5 be a3 e6 ee 3e f6 36 ce bb
       0.1561644 -0.35476714 0.46660337 -0.006293173
000240 4c 6f 8b be a7 87 c2 bd dc 85 ae 3e 77 f4 a2 3e
       -0.2723335 -0.0949853 0.34086502 0.31827137
000250 41 de 12 3f b2 49 9a be 4f 88 4f be ea 34 78 be
       0.5737038 -0.3013435 -0.20266841 -0.24238935
000260 26 4f c1 be 85 5d 17 be 42 dc 75 3d 1d e6 1e be
       -0.37755698 -0.14781769 0.060024507 -0.15517469
000270 16 38 29 3e fa c2 c5 be a0 a9 15 3e a4 51 18 be
       0.16525301 -0.38625318 0.14615488 -0.14874893
000280 c1 5e 2e be 6d 77 3e 3d ea dd f1 bc e7 74 30 3e
       -0.17028333 0.046500612 -0.029524762 0.17232095
000290 ab 8f 19 bc e6 48 d9 3e 29 b5 47 3d fa 07 d1 be
       -0.009372632 0.4243843 0.048756752 -0.40826398
0002a0 33 13 cf be e2 c2 f0 39 85 70 7f bd 42 69 66 be
       -0.40444335 0.00045921566 -0.062363166 -0.2250109
0002b0 91 5a a7 be cb dc 6e 3e dd 3d 05 bf b0 ad ea be
       -0.32686284 0.23326413 -0.5204752 -0.45835638
0002c0 da df c0 be 9c af 3a be 15 56 96 bd 24 d1 38 3e
       -0.37670785 -0.18231052 -0.073406376 0.18048531
0002d0 dc 01 66 bf ca fe 93 bc 5d 7b 58 be 87 6d 0b 3e
       -0.8984659 -0.018065829 -0.2114081 0.13616
0002e0 72 5f 5e be e9 07 7b be 26 b5 4b be 33 10 1e 3f
       -0.21716097 -0.24514736 -0.19893321 0.6174347
0002f0 64 7b 1e bf 01 e2 38 be ee 97 02 bf 01 f8 c4 3d
       -0.6190703 -0.18054964 -0.51013076 0.096176155
000300 75 a0 77 3d 71 b7 ad be f7 1c 21 bf 08 a6 a9 bd
       0.060455758 -0.33929017 -0.6293482 -0.08283621
000310 4f 84 3e 3f 13 d2 7c be d5 75 f8 3e 49 74 d0 be
       0.74420637 -0.24689512 0.485274 -0.4071372
000320 e5 7e 2f 3f e0 93 02 bf a6 96 cf be cb 5a 7a be
       0.68553 -0.5100689 -0.40544623 -0.24448697
000330 d8 30 f0 be 0e 0c b5 3d ed 0a bb 3e 57 11 f0 3e
       -0.46912265 0.0884019 0.36531773 0.4688823
000340 ed 27 c6 3b d9 a5 73 3e ff 94 41 3f bb 0b 45 3d
       0.00604724 0.23793735 0.75617975 0.04810689
000350 09 f6 a6 3e 61 f6 ba bd 49 7c 32 3f 64 90 41 3e
       0.32609585 -0.09129024 0.69720894 0.18902737
000360 86 c4 fd be f1 87 64 be 63 a3 d3 3e 32 e8 b8 3e
       -0.49563998 -0.22317483 0.41335592 0.3611465
000370 a1 10 5b 3d 00 ad 97 bd 98 3d 92 3e 41 8e 1d 3f
       0.053482655 -0.07406044 0.28562617 0.6154519
000380 7a 37 bd be ef 45 71 be 8e 8e e8 be 2d 91 4a 3e
       -0.36956388 -0.23561834 -0.4542126 0.19781943
000390 ed 8f cf 3e 0d c9 d3 be 06 72 0e 3e 46 fb ad be
       0.40539494 -0.41364327 0.13910684 -0.3398077
0003a0 28 9d d1 3e 14 c2 17 3e da 7a 95 bd 1b 8f 65 bd
       0.40940213 0.14820129 -0.07298823 -0.05604468
0003b0 97 28 b3 be 68 e9 7d be c6 20 95 be 82 ec 69 3d
       -0.34991905 -0.24796069 -0.29126567 0.057110317
0003c0 75 d2 b5 3e 19 66 2a bf 67 69 35 be 43 d6 77 bd
       0.35512128 -0.6656204 -0.17715989 -0.06050707
0003d0 96 83 2e 3e ff 6c 93 3c 26 be 8a be 73 c2 ac be
       0.17042384 0.01799631 -0.27098197 -0.33742103
0003e0 66 10 fa 3d cd ad 25 bf bf 0c 9a 3d 1c 43 b2 be
       0.12210159 -0.64718324 0.075219624 -0.34816825
0003f0 39 b7 4c 3f 53 43 ef bd 4b fb 71 3e a6 2b 72 3e
       0.79967076 -0.11682763 0.23631017 0.23649463

network_body._body_endoder.seq_layers.0.bias f4 [128]
000000 9f e0 e2 3b 35 90 de 3b 0f 44 0b 3c c1 1e ac bb
       0.0069237496 0.006792093 0.008500113 -0.0052526896
000010 75 ba 6a bb 69 20 f1 3b 30 74 3f bb ea 04 8b 3a
       -0.0035816703 0.0073586 -0.002921354 0.0010606323
000020 0c 13 a4 3b e5 b3 06 ba 92 82 7c bb b6 2f 8d bb
       0.0050071534 -0.0005138501 -0.0038529974 -0.004308666
000030 58 09 bf 3b 52 c1 8e bb 1d f3 68 39 cf 81 4e ba
       0.0058299713 -0.0043565417 0.00022215811 -0.00078776194
000040 cc 55 a2 3c eb 5b 26 bb af c8 62 3c 91 87 b8 bb
       0.019816302 -0.0025384377 0.013841792 -0.005631395
000050 5b 36 52 3a 05 74 39 3c 05 fc 08 bb d6 d0 7f bb
       0.0008018964 0.011319165 -0.0020902168 -0.0039034388
000060 6d e0 bd 39 1a 10 3b 3c 98 45 3d bc a9 50 2f 3c
       0.000362161 0.011417413 -0.011552237 0.010700383
000070 c5 6e 0b bc 58 5f 41 bc 2e 60 9f bb 97 5d db bb
       -0.008510296 -0.011802517 -0.0048637604 -0.0066945064
000080 62 c9 13 3c 2b 0f 30 3c e2 85 f5 39 c5 f7 b8 bb
       0.009020181 0.010745804 0.00046829792 -0.005644771
000090 b1 f5 44 bc 0d 06 8b 3c 24 41 69 b7 0f 0f 35 3c
       -0.012021468 0.016970659 -1.3903049e-05 0.0110509535
0000a0 37 dc 0f 3c d6 86 04 3c c3 ba 33 ba 10 1b 78 3c
       0.008780531 0.008088788 -0.0006856138 0.015143171
0000b0 b3 06 72 3c 7d 7d 2a bc 5d 4f 91 bc 54 e8 00 b9
       0.014772105 -0.010405895 -0.017738039 -0.0001229358
0000c0 10 b8 f1 38 97 d9 07 bc 54 16 d9 bb ea ae 41 bb
       0.0001152606 -0.008291624 -0.006624976 -0.002955372
0000d0 b6 75 f0 ba 80 65 03 3c a7 40 ef b9 57 70 be 3a
       -0.0018345627 0.008019805 -0.00045633802 0.001452933
0000e0 77 54 57 bb 41 6f 53 bc f3 b1 76 bb de d3 ba bb
       -0.0032856741 -0.012904943 -0.0037642687 -0.005701526
0000f0 d9 1b 08 bb b4 7b 79 3c 7e fd 74 3c b7 3a 8a 3c
       -0.0020768552 0.015227247 0.014953015 0.0168737
000100 d8 ae a7 3c 5e f1 cb bb ed b7 cf 3b 4a b9 4e bc
       0.020469114 -0.0062238416 0.0063390643 -0.012617419
000110 70 71 5e bc 67 1b 0a 3c 82 33 90 3c 06 74 ba b9
       -0.01357685 0.008429385 0.017602686 -0.0003556313
000120 5a 81 ad 3c b4 23 0c bb 2b aa 81 3c cd a5 6e bb
       0.021179844 -0.0021383585 0.015828213 -0.0036414743
000130 58 05 3f 3b 82 ac b1 3c 82 66 89 bb a9 39 cc 3b
       0.0029147472 0.021688703 -0.004193128 0.0062324596
000140 22 ae 50 3c bc b0 85 3c d5 95 92 3b 5f 61 c6 3a
       0.012736829 0.016319625 0.004473428 0.001513522
000150 88 bc e8 3b e3 7d b2 bb 28 3d 55 3c b8 0a 0d 3c
       0.007102553 -0.005447136 0.013015069 0.008608513
000160 20 f6 6f 3c 52 f5 75 bb fb bd e0 bb 23 eb 01 3c
       0.014646083 -0.0037530256 -0.006858585 0.007929596
000170 7e 4a 21 bc 2f a9 8c bc a5 ae 05 bc dc 28 b7 3c
       -0.0098444205 -0.017170517 -0.008159314 0.02235835
000180 c4 a9 8a 3c 68 a3 5c bc 23 5a 15 bc ab c3 82 bb
       0.016926654 -0.013466693 -0.009115729 -0.0039906106
000190 ed 58 cc 3b 3f c3 eb 3a d1 75 17 bc 32 51 d8 3a
       0.0062361867 0.0017987265 -0.009244398 0.001650369
0001a0 a8 5b be 3c 2e e4 15 3c 9d 72 ea 3a 4e f5 d3 3b
       0.023237064 0.009148641 0.0017886941 0.0064684516
0001b0 10 5a f0 bb dd 7d 13 bb 66 59 22 3c 40 9c 37 bb
       -0.007334955 -0.002250544 0.00990901 -0.0028016716
0001c0 bc 1b 2a 3c c8 70 2b 3c fc ae 11 3c 79 f5 f9 ba
       0.010382589 0.010463901 0.008891817 -0.0019070349
0001d0 87 cb 5e bb 17 f5 d1 bb fe ac f4 bb 95 8c ad bb
       -0.0033995823 -0.006407391 -0.0074669113 -0.0052962997
0001e0 1c 4f 25 bb 9c c0 21 3c fb 12 d0 bb dc 12 91 bc
       -0.0025224155 0.009872582 -0.006349919 -0.017709188
0001f0 cb d3 c9 ba 67 61 5c bc a8 a9 9c 3c 8a 84 8c 3b
       -0.0015398202 -0.013450957 0.019123867 0.004288261

action_model._continuous_distribution.log_sigma f4 [1, 2]
000000 0f 98 c9 bb 2d 56 ff bb
       -0.00615216 -0.0077922554

action_model._continuous_distribution.mu.weight f4 [2, 128]
000000 b6 63 a7 3c 20 00 93 bc 4e 55 20 bc fc bb 38 bc
       0.020433288 -0.017944396 -0.009785963 -0.011275288
000010 b6 2b 4a bc 67 cd 59 3c 69 2d f3 3b db 58 93 bb
       -0.012339523 0.013293601 0.007421185 -0.0044966764
000020 a0 83 09 bd e3 45 77 3c f7 5b 84 3c f3 73 a0 3b
       -0.033572793 0.015092346 0.016157134 0.0048966347
000030 b4 62 12 bc f5 8a 2e 3b 71 a9 08 3d b3 bf 70 3a
       -0.0089346655 0.0026633118 0.033364717 0.0009183839
000040 da 74 a9 3c cd f4 5e 3c 3c 80 b6 3c e5 43 87 3b
       0.020685602 0.01360817 0.022277944 0.0041279667
000050 1a ff da 3b 0e 3d d4 3c 40 25 3b bb fd e6 b9 3b
       0.0066832425 0.02590802 -0.0028556138 0.005673288
000060 4a 64 a7 3b db 2d f0 bc d8 8a 97 3c f1 74 20 3d
       0.005108391 -0.02931874 0.018498823 0.039174024
000070 44 10 25 3c 44 b4 94 3b 22 33 2d 3b b5 59 1c bc
       0.010074679 0.004538091 0.0026428183 -0.009542872
000080 2a 03 d1 bc 81 8a 6e bb 5f 83 19 bc 5d 08 44 3c
       -0.025514204 -0.0036398473 -0.0093697 0.011964885
000090 68 58 b1 bc f3 0f 38 bd 34 1b ee 3c 04 48 d4 bc
       -0.0216486 -0.044937085 0.029065706 -0.025913246
0000a0 62 c3 07 bb d3 c4 1a 3c b1 f0 3f bd be 73 04 3d
       -0.0020715822 0.009446341 -0.0468604 0.032336943
0000b0 6e fd 0d 3c f4 78 12 3b d2 7f c3 b9 85 9e 16 3c
       0.008666379 0.0022349926 -0.00037288532 0.009193067
0000c0 f4 ac 87 bc 85 ff 2b bb 45 c1 23 bc a5 5b 6d 39
       -0.016561963 -0.002624483 -0.0099948095 0.00022636222
0000d0 46 5d 2e bc ec 4b c0 bc 45 66 74 3c ae 92 27 bd
       -0.010642355 -0.023473702 0.014916961 -0.04091137
0000e0 b1 ff 2e 3b 3b ae 43 3c a7 2f 03 bc 92 e9 cd 3a
       0.0026702697 0.011943395 -0.008006967 0.0015709868
0000f0 64 4c 37 3c b5 75 a2 bb e4 fe 9d 3c 4b da 91 bc
       0.011187647 -0.0049578794 0.01928658 -0.017804286
000100 b6 8c 62 3c a3 bb 97 bb d0 b2 25 bc cf 2b 0e 3a
       0.013827493 -0.0046305223 -0.010113433 0.0005423398
000110 be 32 60 bc 0e 4e ed bc 3c 1d cd 3c b2 08 44 3b
       -0.013683973 -0.028967883 0.025038354 0.002991241
000120 7c c6 f9 bc a6 c0 9a 3c 3e a8 98 3b ac 2c 7b bc
       -0.030490153 0.01889069 0.004658728 -0.015330475
000130 a6 7f aa 3c fc 44 bc 3c 5a a3 7a 3c 90 8a a7 bc
       0.02081282 0.022982113 0.015297735 -0.020451814
000140 df 74 99 bc f5 df 5e 3d 8d e7 0a 3d 50 22 6c bc
       -0.018732486 0.0544128 0.03391223 -0.014412478
000150 96 69 2b bd e5 8d 91 bc a7 f7 a1 3c bf 7c dd 3b
       -0.04184874 -0.017767856 0.01977141 0.0067592557
000160 e5 c5 32 bd f0 28 ff 3c 99 aa 0f bd d5 ab 84 3b
       -0.04364576 0.03114745 -0.035074804 0.0040488043
000170 09 11 66 3c 1d 19 b2 b9 9b ba 56 3b ba bc 58 3c
       0.014042147 -0.00033969517 0.0032765034 0.01322859
000180 06 3e 66 bc 1c 68 b6 bb f6 39 f0 bb 00 e3 1a 3b
       -0.0140528735 -0.00556661 -0.007331128 0.0023633838
000190 50 b2 d7 3c a6 a0 5c bc cb ca 72 bc d8 73 9c 3c
       0.026330143 -0.013466036 -0.014818857 0.019098207
0001a0 c9 88 10 3d 44 2b 26 bd 94 b0 4a bc 54 c7 7c 3c
       0.0352867 -0.040568605 -0.012371201 0.015428383
0001b0 48 b9 27 bc 39 ff 93 bb 5a 6f 72 bc 22 32 24 bc
       -0.010237046 -0.004516509 -0.014797056 -0.010021718
0001c0 ff bb 0b 3d ed 26 a5 3c db d5 7f bd 64 44 bd b7
       0.034114834 0.020160163 -0.062459808 -2.2562403e-05
0001d0 50 10 ea bc 78 08 0e bc 04 b1 40 bc 65 39 f7 ba
       -0.028572232 -0.008669011 -0.011760954 -0.0018861709
0001e0 18 60 80 bc bf 60 c7 3c 27 4e 39 b8 a8 a7 1c 3b
       -0.015670821 0.024338124 -4.4180222e-05 0.0023903642
0001f0 be 87 10 3c 1d 1f 23 3b 15 95 56 3d 49 1b c7 bc
       0.008821426 0.002489037 0.05238827 -0.024305003
000200 fa da 2c bc cc f1 40 bd bb b9 9c bc 54 b0 d7 bb
       -0.010550255 -0.047105595 -0.019131532 -0.0065822992
000210 0d fd 9f 3c 4c 2f 12 3c e8 e5 48 3c b5 13 90 bc
       0.019529844 0.008922409 0.012261845 -0.017587522
000220 41 6a 94 bc dc 37 c5 bc 9f 81 9b 3c 65 3a 83 3c
       -0.018117072 -0.024074487 0.018982707 0.016019056
000230 48 90 dc bb 65 cd 56 3c 91 bf 8f 3c 16 09 87 bc
       -0.006731067 0.013110493 0.0175474 -0.016483825
000240 6c dd c4 bc 1d 83 84 3c 1d 29 58 bd 6f 50 56 3c
       -0.024031363 0.016175801 -0.052773584 0.0130807
000250 fe 51 63 3b 93 aa 88 3c 79 d5 d3 3c b1 03 f5 3c
       0.0034686322 0.016682899 0.025858628 0.029908987
000260 6f ff 7a bc a0 2d 70 b9 d5 be 00 3d 8f 51 fd 3b
       -0.015319689 -0.0002290518 0.03143199 0.00773067
000270 be 81 1b 3d c2 c0 6a 3c 72 4a 00 3c 05 6d e6 3b
       0.03796553 0.014328184 0.007830249 0.007032039
000280 e9 b2 3c bc cd aa 63 3d 38 09 d5 bb b9 6c aa 3b
       -0.011517265 0.05558281 -0.006501343 0.005200949
000290 7e 78 d1 3c 5e 2e c0 bc 75 53 5e 3d 8f 8b 28 bc
       0.02557015 -0.02345961 0.05427881 -0.01028718
0002a0 e2 3a a7 bc 53 8a 4b bb 81 1f c2 3c 3e 04 b4 bc
       -0.02041382 -0.003105779 0.023696663 -0.02197468
0002b0 17 d1 38 bd 0c 1d 9e bc 3c ae e4 3a 01 b7 3b bc
       -0.04512128 -0.01930096 0.0017446945 -0.011457206
0002c0 c0 9f d0 39 b6 82 91 3a 82 37 18 bb 84 1b a2 bb
       0.00039791875 0.0011101577 -0.0023226445 -0.004947128
0002d0 69 8b 22 3d 94 ec 91 bc d0 fe a0 3c 04 b6 df 3c
       0.039683733 -0.017813005 0.019652754 0.027308472
0002e0 72 bf 8a 3c ae 5a 08 3a af fa 5d 3b 72 bc c0 3b
       0.016936991 0.00052015006 0.0033871343 0.0058818394
0002f0 d6 28 cf 3a ed 92 d2 bb 72 ec 8e bc e9 11 fb bc
       0.0015805017 -0.0064262063 -0.01744673 -0.030648189
000300 3f 59 eb bc b3 51 fb 3c 75 5f 43 bc 27 51 c5 39
       -0.02872908 0.030678606 -0.011924614 0.0003763523
000310 a6 06 49 3c 82 7f 2d 3c 43 75 fe bc 21 82 dd 3c
       0.0122696515 0.010589482 -0.031061774 0.02703959
000320 c1 f3 04 bd 39 54 f4 3b 90 51 a3 bc e7 84 e2 3c
       -0.032459024 0.007456329 -0.019936353 0.027651263
000330 01 ae 61 bb 20 5d 90 bb ea 83 09 3d 5f c3 44 bc
       -0.003443599 -0.0044056326 0.03357307 -0.012009471
000340 96 e2 ee bc 41 d4 2d b9 de f3 8a 3a 60 ec 34 bc
       -0.029160779 -0.00016577636 0.0010601243 -0.011042684
000350 ca 9e 16 3c 7b d6 a0 3c 8a 25 13 bd 2e d3 0e bd
       0.009193132 0.019633522 -0.035924472 -0.034869365
000360 70 38 c7 bc 5b 1e 1d 3b 04 43 dd 3b f0 6e ef bb
       -0.024318904 0.0023974392 0.0067523737 -0.007306926
000370 2f 5d 94 3b c4 f1 04 3c ac 23 a0 3c e4 da 8a bc
       0.00452771 0.008114282 0.01954826 -0.016950078
000380 ff 02 15 bc 9e 40 72 3c 30 2d ad 3b 10 3b 88 3d
       -0.009094953 0.014785914 0.005284928 0.0665189
000390 6d d7 1e bc 24 fc 18 3d b7 e7 52 3d b3 87 29 3d
       -0.009694916 0.037349835 0.05149051 0.04138918
0003a0 d5 cf b2 bc 06 1d 86 bc c7 8c 72 3c 8a 38 32 bc
       -0.021827618 -0.016371261 0.014804072 -0.010877738
0003b0 5d 67 34 3d 28 7d fe bb 78 55 f1 bc 5f a1 8b ba
       0.044043887 -0.0077663846 -0.0294597 -0.0010652951
0003c0 85 17 e3 3b 26 f3 48 bc 17 b3 e7 3b be 20 c0 bb
       0.006930294 -0.012265002 0.0070709097 -0.005863278
0003d0 b6 9d 7c 3c 20 1b 51 3b 4f 97 ae 3b 33 7b c3 3b
       0.015418461 0.0031907037 0.005328096 0.005965614
0003e0 fd 73 7b bb 95 da f5 3c 21 91 d7 3c 5b 83 5b 3b
       -0.0038368695 0.030011455 0.02631432 0.0033495042
0003f0 0b 6a 2c bc 3a 70 c1 3c b4 fa 53 bc 37 9d 9d 3a
       -0.0105233295 0.023613084 -0.01293819 0.0012025003

action_model._continuous_distribution.mu.bias f4 [2]
000000 ce 5a a0 3b 2b 5d 30 bc
       0.0048936373 -0.0107644005

exp_avg f4 [128, 8]
000000 6a 83 97 39 42 56 8b b8 be 8f c9 b8 3b 9a 16 b8
       0.00028898875 -6.644103e-05 -9.611201e-05 -3.5906425e-05
000010 90 fc 0e b7 c5 2c 23 b9 05 36 6c b7 89 c9 1c 38
       -8.522664e-06 -0.0001556157 -1.4079274e-05 3.7380993e-05
000020 cf 82 b3 b9 42 a8 fe b9 ba c1 08 39 e0 d6 8d 38
       -0.00034239 -0.00048572017 0.0001304214 6.7634275e-05
000030 0b 24 1c ba 19 0a 8a 39 35 d4 d1 38 ef 29 33 ba
       -0.00059562986 0.00026328934 0.00010005423 -0.00068345567
000040 29 9b 1c b9 d9 47 97 b9 84 e4 5c 39 22 81 f4 b8
       -0.00014935121 -0.00028854495 0.00021065964 -0.000116588795
000050 ec 57 7e b8 f6 12 2b 39 2b 5a 10 38 8f 12 1e b9
       -6.0640203e-05 0.00016314894 3.441625e-05 -0.00015074968
000060 1e 39 e0 b8 bf b0 01 b9 f5 c0 eb 38 fb 0a 0f b8
       -0.00010691791 -0.00012368242 0.00011241614 -3.4104083e-05
000070 1d 2f b8 b8 27 d7 2f 39 ba 8d c9 b6 bf 23 c7 b8
       -8.782579e-05 0.00016769451 -6.006766e-06 -9.495718e-05
000080 50 99 27 b9 70 27 5b 39 72 3f e4 37 b8 82 8e 38
       -0.00015983474 0.00020900159 2.7209262e-05 6.795436e-05
000090 48 ee e1 36 cc 9d 07 39 d3 72 d7 b8 c0 f1 ea b4
       6.733262e-06 0.00012933387 -0.000102733866 -4.3761793e-07
0000a0 71 07 41 39 7a 45 62 39 16 a1 21 b9 f3 29 17 38
       0.00018408686 0.00021578922 -0.00015414166 3.6040274e-05
0000b0 c7 2f 3d 38 4a 89 5a b9 90 97 34 b8 16 19 f5 38
       4.5105608e-05 -0.00020841244 -4.3056498e-05 0.00011687183
0000c0 9a cd e0 38 a1 e9 5f 39 fc 14 de b8 9d 3b 8a 38
       0.000107194486 0.00021353971 -0.000105896936 6.5914566e-05
0000d0 aa bb 17 38 ca c1 cb b8 dd 48 85 b8 56 aa 81 38
       3.617598e-05 -9.71589e-05 -6.355506e-05 6.182927e-05
0000e0 56 ae ba b8 73 ff 52 b9 04 24 98 38 2a b2 1c b8
       -8.901644e-05 -0.00020122323 7.254633e-05 -3.7359227e-05
0000f0 87 27 13 b9 02 53 95 38 bc 58 48 38 77 0e 39 b9
       -0.00014033738 7.120335e-05 4.7766356e-05 -0.00017648363
000100 ac c0 17 ba e8 c0 a6 b9 b3 c0 ff 38 76 de a7 b8
       -0.0005788903 -0.00031805714 0.000121952406 -8.004617e-05
000110 e2 5d a5 b8 e8 d2 ae 39 f7 d8 68 39 90 57 2c b9
       -7.8853e-05 0.00033345004 0.0002220607 -0.00016435818
000120 b6 57 01 39 e0 79 ba b9 ce a1 21 b8 86 3b 1c b9
       0.00012335074 -0.00035567489 -3.8536084e-05 -0.00014899494
000130 20 67 df b6 6e c1 cd b8 d0 a5 f0 38 df 5c 6c b8
       -6.657923e-06 -9.811191e-05 0.00011474977 -5.6353278e-05
000140 cb 0d 7f 39 a8 2e 85 39 db 82 e1 b8 00 10 a8 b7
       0.00024323833 0.00025402498 -0.0001075321 -2.0034611e-05
000150 fa 82 23 39 93 16 27 b9 d3 7f 3a b9 f2 56 2b 39
       0.00015593684 -0.0001593477 -0.0001778596 0.0001634022
000160 0c 0d 26 38 86 0d 86 39 21 f5 0d b9 d1 0f a0 38
       3.9589635e-05 0.00025568547 -0.00013538125 7.6323406e-05
000170 6f 9a 39 37 11 6e ae b8 05 53 79 b8 85 72 06 38
       1.1062816e-05 -8.317468e-05 -5.9443544e-05 3.2054744e-05
000180 ac f1 0d b9 53 bd 7e b8 4b 80 01 38 80 02 c5 37
       -0.00013536838 -6.073464e-05 3.087548e-05 2.3485394e-05
000190 93 06 d5 b8 52 4c 97 38 aa 42 90 38 db 50 e6 b8
       -0.00010157856 7.214457e-05 6.878872e-05 -0.00010982315
0001a0 3a b9 af 37 3a ab 7f 39 13 a7 0a b9 30 dc 97 38
       2.0947879e-05 0.00024382482 -0.00013222946 7.241254e-05
0001b0 53 03 aa b7 56 5a a0 b8 a4 89 bd b7 56 e4 2f 38
       -2.0267127e-05 -7.646221e-05 -2.259465e-05 4.1935906e-05
0001c0 c2 59 06 3a 1f d7 a8 39 e7 9e b9 b8 84 16 3e 38
       0.00051250693 0.00032203735 -8.851085e-05 4.53205e-05
0001d0 de c1 c8 38 86 88 79 b9 7e 52 c4 b9 4f 79 be 38
       9.572854e-05 -0.0002379735 -0.00037445495 9.0825015e-05
0001e0 60 77 4f b8 3a 72 64 b9 18 f1 07 38 b2 c5 76 b8
       -4.9463823e-05 -0.00021786327 3.2411044e-05 -5.883509e-05
0001f0 26 64 c6 b8 2e f5 13 38 f2 1e 3e 38 df 16 0f b9
       -9.46003e-05 3.5275873e-05 4.532835e-05 -0.00013646063
000200 38 ab 10 39 b6 a2 af b9 95 38 16 b8 38 13 d8 b8
       0.00013796694 -0.0003349983 -3.5815483e-05 -0.000103032624
000210 a0 86 49 b7 b3 c8 09 b9 1d bf 20 b9 a7 66 21 b9
       -1.2011878e-05 -0.00013140104 -0.00015329984 -0.00015392397
000220 62 6c 4e 39 55 c3 7a 39 01 ac f4 b8 3b ce 96 b7
       0.00019686067 0.00023914625 -0.00011666865 -1.7977427e-05
000230 6d 83 2b 39 60 58 4a b9 86 6f 58 b8 84 1a 75 39
       0.00016356791 -0.00019297143 -5.1602277e-05 0.00023374899
000240 ec 42 11 39 2b b9 c5 b9 6e 53 81 b9 ce 7e 9c b8
       0.00013853208 -0.0003771273 -0.00024666957 -7.462279e-05
000250 0a fd f8 b9 a2 1b 84 b9 d4 94 85 39 e1 52 ab b9
       -0.00047490775 -0.0002519759 0.00025478622 -0.0003267741
000260 64 05 3f 38 b8 a1 2b 39 04 cc 97 b8 be 5b 19 38
       4.554297e-05 0.00016368076 -7.238242e-05 3.6563484e-05
000270 79 6b ab 38 73 c5 92 b8 60 c9 b4 36 51 5f e1 38
       8.173934e-05 -6.9986e-05 5.387861e-06 0.0001074659
000280 06 11 aa 38 e2 2a af 38 ce 97 91 b8 7f 02 34 37
       8.1094026e-05 8.352638e-05 -6.9424146e-05 1.0729417e-05
000290 a2 cf 98 37 9f 7a b2 b8 e9 da 2b b8 80 b9 04 38
       1.8216499e-05 -8.5105414e-05 -4.0973453e-05 3.1644013e-05
0002a0 a7 0f c3 39 b4 99 ab 39 ba 24 00 b9 76 a3 55 37
       0.0003720496 0.0003273018 -0.00012220713 1.2733848e-05
0002b0 70 ee c2 38 74 d5 5a b9 0f 55 9b b9 5a 1f 48 38
       9.295053e-05 -0.00020869618 -0.00029627277 4.7712914e-05
0002c0 3e 00 1e b8 16 b4 df 39 81 39 14 b9 1e 4a 18 39
       -3.767036e-05 0.0004266805 -0.00014135802 0.0001452346
0002d0 46 7e e6 b8 6b f3 e4 b7 cd 2c 93 b8 20 b8 cf 36
       -0.00010990775 -2.7293068e-05 -7.017851e-05 6.1905157e-06
0002e0 84 ae 9d 38 b2 77 06 3a 78 43 82 b9 c3 be 6b 39
       7.5188495e-05 0.00051295303 -0.000248458 0.0002248241
0002f0 be 7b be b8 4d 39 01 b9 9f 4c fd b8 fa 1f d5 37
       -9.082955e-05 -0.00012323745 -0.00012078252 2.5406469e-05
000300 3f 8a 27 38 68 91 2c b9 04 30 c8 37 5c da 6b b8
       3.9944654e-05 -0.00016457366 2.3864217e-05 -5.623173e-05
000310 2e 32 ee b8 4e 2b 3d b8 41 40 bb b7 b5 43 12 b9
       -0.00011358071 -4.5101442e-05 -2.2322058e-05 -0.00013948868
000320 ac 18 c7 b9 07 88 8a b8 98 d3 4f 39 e6 f8 fc b8
       -0.0003797462 -6.60569e-05 0.00019819883 -0.00012062657
000330 27 7d 9a b8 74 b7 bb 39 6e cf 57 38 12 48 02 b9
       -7.366604e-05 0.00035804103 5.145318e-05 -0.00012424614
000340 05 f8 a8 39 47 fe ee 39 1a 92 16 b9 94 09 09 38
       0.00032228246 0.0004558435 -0.00014359542 3.2672266e-05
000350 d9 b3 9c 39 f2 9a 98 b9 04 e1 16 38 7c 90 f3 39
       0.00029888636 -0.00029107142 3.597235e-05 0.0004645622
000360 f7 f0 eb 39 db f8 6c 39 2a f8 cd b9 b7 b1 8a b6
       0.00045002226 0.0002259942 -0.00039285544 -4.133409e-06
000370 02 3f 4e 39 c3 5a 01 ba f2 b3 65 37 cf 45 ab 39
       0.00019669163 -0.0004934484 1.369136e-05 0.00032667673
000380 58 cd 9e 37 57 91 0e 3a 72 82 c0 b9 8e e2 85 39
       1.8930688e-05 0.00054385274 -0.00036718283 0.00025536533
000390 b0 53 3a 39 e7 15 66 b9 84 9c dc 38 af 0f 8f 39
       0.00017769518 -0.00021942669 0.00010519571 0.0002728677
0003a0 57 b0 02 39 f1 d2 63 39 44 f2 18 b8 c4 ea 1b 38
       0.00012463458 0.00021726989 -3.646525e-05 3.7173522e-05
0003b0 5a 9d 8a 36 f0 90 83 b8 d6 4a a4 b8 18 70 8b 38
       4.1310386e-06 -6.2735635e-05 -7.834069e-05 6.6489156e-05
0003c0 a6 e9 60 38 ed e3 aa 38 9a c3 7d b6 a5 be 03 b7
       5.3623364e-05 8.148686e-05 -3.7813793e-06 -7.852596e-06
0003d0 4a ca 93 38 22 73 81 b7 5f 7c aa b8 be ad 79 38
       7.0471855e-05 -1.5431611e-05 -8.1293976e-05 5.9528036e-05
0003e0 98 5a b4 b8 bb 19 a1 37 44 7f a9 38 b6 c8 ab b7
       -8.599943e-05 1.9204677e-05 8.082253e-05 -2.0478252e-05
0003f0 b6 a9 94 38 00 b8 c2 38 78 34 10 37 af 8d 3f 38
       7.088801e-05 9.2849135e-05 8.595285e-06 4.56699e-05

exp_avg_sq f4 [128, 8]
000000 73 14 cd 33 1a 8f 8c 33 55 01 ac 33 0e 89 d6 33
       9.549776e-08 6.545288e-08 8.0096164e-08 9.990082e-08
000010 84 f2 b4 33 54 32 61 33 f2 64 2d 34 3c 45 4d 33
       8.4260165e-08 5.2432668e-08 1.6148604e-07 4.779325e-08
000020 52 fb 46 34 a7 63 bd 34 f3 89 66 34 62 6b 0f 34
       1.8531617e-07 3.52765e-07 2.1470605e-07 1.3356978e-07
000030 e3 2c ba 34 87 ac 44 34 ad 65 5d 34 4e 54 d0 34
       3.467786e-07 1.8316688e-07 2.0619218e-07 3.880436e-07
000040 25 04 57 33 bc a9 a5 33 4f f6 3b 33 d0 c2 52 33
       5.0062358e-08 7.714286e-08 4.3763347e-08 4.9071616e-08
000050 7b 33 4c 33 25 53 e1 32 a7 ee 35 33 ac 46 28 33
       4.7544273e-08 2.6231257e-08 4.23594e-08 3.9179824e-08
000060 3c 04 af 32 9b 7e 8b 32 41 17 c7 32 61 16 e0 32
       2.0374607e-08 1.6239303e-08 2.3177224e-08 2.6087209e-08
000070 f2 75 cd 32 f7 f5 de 32 5d 5e 1d 33 ba f3 a0 32
       2.3918776e-08 2.5956053e-08 3.6640234e-08 1.8737286e-08
000080 12 5d 7f 33 c7 26 ba 33 bd c9 4b 33 7c 09 95 33
       5.945646e-08 8.6683535e-08 4.74481e-08 6.9400784e-08
000090 9f 11 a3 33 fb 53 06 33 6e f5 dd 33 d7 e5 5d 33
       7.593484e-08 3.1275686e-08 1.0335758e-07 5.166461e-08
0000a0 1f df 12 33 40 15 ea 32 5f a6 fe 32 dc 18 45 32
       3.41962e-08 2.7250849e-08 2.9645149e-08 1.1472562e-08
0000b0 47 d9 c5 32 30 80 23 33 7c 03 59 32 14 ea d0 32
       2.3032625e-08 3.806798e-08 1.2631855e-08 2.4320833e-08
0000c0 48 1f be 32 8c 96 20 33 f0 ef b9 32 f8 73 9b 32
       2.2133136e-08 3.7389825e-08 2.1645945e-08 1.8097111e-08
0000d0 79 81 ca 32 90 3c 8f 32 92 b4 71 32 ec 3c db 32
       2.3574772e-08 1.6674932e-08 1.4069103e-08 2.552266e-08
0000e0 fe 19 ca 32 56 a5 86 33 67 e2 09 33 41 53 1f 33
       2.3527715e-08 6.269936e-08 3.210371e-08 3.709579e-08
0000f0 f3 6f 47 33 46 60 9f 32 23 25 6f 33 7c 1f 40 33
       4.6435115e-08 1.8553816e-08 5.56803e-08 4.473212e-08
000100 42 e4 9c 34 74 83 43 34 36 6b 89 34 d5 78 7b 34
       2.9223344e-07 1.8208613e-07 2.5596245e-07 2.3420155e-07
000110 1b ba 9e 34 e9 f5 7b 34 cf eb dc 34 34 f2 4c 34
       2.9565203e-07 2.3465658e-07 4.1149767e-07 1.9087094e-07
000120 c4 1a e1 33 6e 23 3e 34 c5 03 bb 33 a0 da 00 34
       1.04822476e-07 1.7708018e-07 8.708552e-08 1.2000464e-07
000130 29 bb 13 34 9e fd 69 33 3b ce 3a 34 e3 7a c9 33
       1.375853e-07 5.4480203e-08 1.7397626e-07 9.382145e-08
000140 7d ed ac 33 74 c2 b4 33 d6 6a a9 33 04 37 a7 33
       8.052573e-08 8.417274e-08 7.889109e-08 7.786551e-08
000150 7b 6a a4 33 b9 4e 8b 33 28 ef 0b 34 d9 cd 84 33
       7.656214e-08 6.4870115e-08 1.3032388e-07 6.1841725e-08
000160 21 22 96 32 49 7d 51 33 ed 92 c2 32 dd 4e 9f 32
       1.7477818e-08 4.877555e-08 2.2651387e-08 1.8545899e-08
000170 09 d9 10 33 8f 01 7a 32 d2 ac b9 32 06 7f 13 33
       3.3725005e-08 1.455227e-08 2.1615424e-08 3.434163e-08
000180 fe 8a 97 32 42 a5 4d 32 92 56 89 32 e1 71 87 32
       1.764192e-08 1.1970146e-08 1.5988267e-08 1.5767855e-08
000190 0a 53 89 32 2f 81 5e 32 28 16 e2 32 ae cd 55 32
       1.598666e-08 1.2951474e-08 2.6319938e-08 1.2444998e-08
0001a0 f7 e6 6f 32 62 1d 27 33 5e 88 a1 32 3f 4c 78 32
       1.3964146e-08 3.890944e-08 1.880488e-08 1.4452836e-08
0001b0 1d 7e dc 32 19 2f 43 32 10 7b 6e 32 eb 26 fe 32
       2.566872e-08 1.1361203e-08 1.38814045e-08 2.958719e-08
0001c0 73 56 8d 34 43 5f 47 34 fb 15 92 34 df 73 88 34
       2.6326197e-07 1.8567975e-07 2.7210612e-07 2.541628e-07
0001d0 57 8a a0 34 de 27 61 34 a1 5e 0b 35 3b 4d 59 34
       2.9902978e-07 2.0969262e-07 5.191924e-07 2.0237796e-07
0001e0 74 aa e8 32 e3 d7 88 33 61 f5 d0 32 65 ca 03 33
       2.7085868e-08 6.372263e-08 2.4325972e-08 3.068489e-08
0001f0 05 23 2e 33 a9 9d 84 32 7e 32 23 33 8e bd 28 33
       4.0544382e-08 1.5438518e-08 3.7997317e-08 3.9287947e-08
000200 20 bc dc 33 8c 32 07 34 fb 20 aa 33 0a fe a1 33
       1.0278768e-07 1.2591244e-07 7.922241e-08 7.543356e-08
000210 06 0e d6 33 98 26 bd 33 56 d9 cf 33 f1 49 12 34
       9.9677024e-08 8.8080185e-08 9.678722e-08 1.362421e-07
000220 da fa 1e 33 9d ee 58 33 3c af 2d 33 85 4e 6b 32
       3.701539e-08 5.0508437e-08 4.0439076e-08 1.3696654e-08
000230 3e 99 2f 33 e5 b2 46 33 06 e9 c2 32 ab 6a 6c 33
       4.0884736e-08 4.626317e-08 2.269054e-08 5.5045046e-08
000240 c4 19 8c 34 50 2f 06 35 e3 0e 85 34 d2 52 bd 34
       2.609578e-07 4.998774e-07 2.4784012e-07 3.5264253e-07
000250 fa 46 f1 34 d1 2e 1d 34 66 34 f0 34 3a 26 a9 34
       4.494139e-07 1.4638796e-07 4.4741608e-07 3.1506517e-07
000260 10 75 0f 32 63 98 c2 32 b6 f8 51 32 1d f5 0a 32
       8.350312e-09 2.265387e-08 1.22219515e-08 8.0883895e-09
000270 dd 0c 8c 32 a4 b9 25 32 49 0f 5e 32 b5 6a a7 32
       1.6303995e-08 9.646474e-09 1.2925576e-08 1.9489883e-08
000280 a7 d8 c8 31 2d 06 9c 31 18 05 b3 31 98 de 31 31
       5.8453966e-09 4.5408997e-09 5.2101647e-09 2.588342e-09
000290 77 8e af 31 74 29 bb 31 51 c3 86 31 6d 3b 8d 31
       5.1093667e-09 5.447129e-09 3.922118e-09 4.110396e-09
0002a0 4d 59 18 34 a4 82 0e 34 b7 fb 1f 34 d4 6e 31 34
       1.418859e-07 1.3272307e-07 1.4899602e-07 1.6524729e-07
0002b0 d8 58 5a 34 89 a0 dd 33 28 d1 a5 34 1c ee 06 34
       2.0335153e-07 1.03203156e-07 3.0885826e-07 1.2566346e-07
0002c0 a1 ad 81 33 02 04 26 34 e5 e8 96 33 81 ef cc 33
       6.0386135e-08 1.5461413e-07 7.0272826e-08 9.543056e-08
0002d0 28 cd 0d 34 0b c6 36 33 45 6c 10 34 6f 92 e5 33
       1.3206284e-07 4.2555296e-08 1.3450433e-07 1.06902796e-07
0002e0 6c 10 b0 33 c7 ad 73 34 fe c0 e3 33 4c 8d 1c 34
       8.198626e-08 2.2694358e-07 1.0605616e-07 1.4580036e-07
0002f0 d2 55 33 34 0e 26 68 33 45 d6 51 34 63 43 f8 33
       1.6701895e-07 5.405132e-08 1.9542593e-07 1.15606575e-07
000300 aa ea c1 32 85 15 2d 33 ee 91 b9 32 fc 59 94 32
       2.257487e-08 4.0299273e-08 2.1603196e-08 1.7270388e-08
000310 94 8c 37 33 dc 6a 93 32 23 87 d4 32 3f 46 3e 33
       4.2735863e-08 1.7161646e-08 2.4741501e-08 4.430171e-08
000320 f0 4a 22 34 60 22 61 33 54 73 e4 33 76 fd 88 33
       1.5114688e-07 5.241816e-08 1.06380554e-07 6.379098e-08
000330 c3 a3 a4 33 74 36 27 34 1b fb cd 33 c5 2c 88 33
       7.666633e-08 1.5572897e-07 9.591732e-08 6.341137e-08
000340 59 b9 0c 34 38 89 54 34 71 37 13 34 1f 42 8c 33
       1.3105945e-07 1.9793958e-07 1.3710611e-07 6.5312854e-08
000350 14 72 2d 34 28 13 12 34 85 ca b9 33 4d 5d 71 34
       1.6153382e-07 1.3604279e-07 8.651572e-08 2.2478817e-07
000360 d1 9d 84 34 c5 20 f2 33 a4 5e 36 34 17 2c d3 33
       2.4701743e-07 1.1274964e-07 1.6984501e-07 9.833473e-08
000370 0b c5 13 34 3c 43 5e 34 de 9d af 33 5b e1 f6 33
       1.3762126e-07 2.0699821e-07 8.1777884e-08 1.14962596e-07
000380 25 b7 d4 33 bf 31 8c 34 8a 4f 3c 34 3b 4c f8 33
       9.905333e-08 2.6113227e-07 1.75378e-07 1.1562266e-07
000390 98 5b 43 34 fc 63 e1 33 ca 40 17 34 aa 7b 46 34
       1.8194112e-07 1.0495566e-07 1.4086541e-07 1.8485176e-07
0003a0 22 27 07 33 2a 31 4e 33 a2 4e 09 33 d9 1f 4e 33
       3.1467728e-08 4.8007827e-08 3.1969314e-08 4.7992078e-08
0003b0 87 83 42 33 1a 90 aa 32 44 80 a5 33 e9 0b 0b 33
       4.528877e-08 1.9856135e-08 7.7067426e-08 3.237429e-08
0003c0 c1 58 07 32 9b 50 3b 32 da 1d 0f 32 57 0b 3b 32
       7.8782145e-09 1.090316e-08 8.330483e-09 1.0887411e-08
0003d0 d6 77 29 32 9c 7c a7 31 3d 35 9a 32 0f 04 fe 31
       9.864342e-09 4.874506e-09 1.795217e-08 7.3928343e-09
0003e0 3a 74 aa 32 37 60 8e 32 0f 71 9d 32 47 ac 9e 32
       1.9843458e-08 1.657473e-08 1.8328619e-08 1.8471964e-08
0003f0 3d 7b de 32 d7 27 92 32 96 52 f3 32 4a f4 af 32
       2.5900244e-08 1.7014754e-08 2.8326479e-08 2.0483771e-08

exp_avg f4 [128]
000000 2f 97 12 b9 c6 d9 b2 b9 3d ee 9b b9 c7 14 a7 37
       -0.00013979965 -0.0003411306 -0.00029741405 1.9917627e-05
000010 b4 fa 09 39 b1 cc c1 b8 24 6c 95 37 1a e1 9f b8
       0.00013158732 -9.241084e-05 1.7812541e-05 -7.623639e-05
000020 1a db 45 b9 8f a0 27 b9 5c 95 a2 38 cd 13 2b 38
       -0.00018869006 -0.00015986174 7.752582e-05 4.0788018e-05
000030 81 d0 8d b8 e9 de 21 38 02 27 78 b8 06 73 f2 b8
       -6.762241e-05 3.8592992e-05 -5.9164136e-05 -0.00011560884
000040 93 31 d7 b9 51 a9 4b 37 4e 68 0b ba 40 28 6c 38
       -0.0004104493 1.2139165e-05 -0.0005317972 5.630427e-05
000050 21 a3 2e b8 98 51 07 b9 fa 8b 06 39 fd 58 4e 39
       -4.163676e-05 -0.00012905 0.00012831381 0.00019678842
000060 07 28 96 b8 4b 4d 0e b9 60 0e 64 39 a8 68 84 b9
       -7.160013e-05 -0.00013570969 0.0002174913 -0.00025254977
000070 a4 53 74 39 98 80 3c 39 cb 2c 3b 37 14 01 6d 38
       0.00023300812 0.00017976982 1.1156498e-05 5.6506207e-05
000080 2e f0 6e b9 1a d6 0b b8 75 20 c3 b7 78 83 9b 38
       -0.00022786923 -3.333958e-05 -2.3260925e-05 7.415464e-05
000090 6d c8 86 39 59 cd 30 ba d3 2b 8c 38 1f 83 5c b9
       0.000257078 -0.00067444664 6.683883e-05 -0.00021029681
0000a0 28 02 71 b9 36 a6 8f b8 e2 2b 2b 39 f7 88 cc b9
       -0.00022984354 -6.8497306e-05 0.00016324178 -0.0003901196
0000b0 5e d1 03 ba e7 c3 69 37 2a 56 ff 37 9c 16 ca b8
       -0.00050284516 1.3933494e-05 3.0438492e-05 -9.636322e-05
0000c0 6e 6a 84 b8 a4 8a 17 37 c3 65 5e b8 6a 82 a3 b7
       -6.3140746e-05 9.032581e-06 -5.3023698e-05 -1.9491843e-05
0000d0 a7 40 4e 39 30 a7 cc b9 37 0b db 37 06 ae a8 38
       0.00019669776 -0.00039034477 2.6112057e-05 8.043279e-05
0000e0 e1 13 52 38 aa b4 0a 39 8b 43 06 38 e4 b9 b8 37
       5.0086415e-05 0.00013228008 3.2010994e-05 2.2021071e-05
0000f0 21 88 ea b7 34 41 0a b9 d0 3b 89 b9 85 29 16 ba
       -2.7958364e-05 -0.00013184996 -0.0002617524 -0.0005728233
000100 5f 6e df b9 fd 3c 10 39 d9 6f e7 b8 03 44 0b 37
       -0.00042616107 0.0001375563 -0.000110357716 8.300881e-06
000110 62 66 41 39 c0 ac 1a b8 84 f1 e8 b9 26 31 81 38
       0.00018444055 -3.6877347e-05 -0.0004443043 6.160354e-05
000120 20 0a 67 ba 6f 94 9e b6 07 aa ac b9 3e 43 21 39
       -0.00088134594 -4.726047e-06 -0.00032933077 0.00015379206
000130 7d e3 50 b8 b3 f2 a5 b9 14 95 6c 39 d4 49 6e b9
       -4.980293e-05 -0.00031652077 0.0002256225 -0.00022724952
000140 80 02 c2 b9 fb 99 2b ba 49 a0 bd b8 26 d1 94 b8
       -0.00037004426 -0.0006546077 -9.042078e-05 -7.096147e-05
000150 40 50 2a b8 cb 83 0a 39 c2 01 e8 b9 25 eb a2 b9
       -4.0605897e-05 0.00013209802 -0.00044251798 -0.00031074244
000160 38 28 48 ba d6 9b a4 38 59 3c 2c 39 8e aa 7b b8
       -0.00076353876 7.849156e-05 0.0001642568 -6.0001905e-05
000170 e8 70 ee 38 4a ea f4 38 5d 4d 1a 39 74 56 9a b9
       0.00011369755 0.000116784664 0.00014715405 -0.00029437582
000180 43 b8 8d b9 a1 23 48 39 a2 15 8f 38 95 d6 c9 39
       -0.000270309 0.00019086759 6.822801e-05 0.00038497584
000190 00 20 09 b9 aa dd 05 39 a8 a4 c9 39 f2 a5 29 39
       -0.00013077259 0.00012766445 0.00038460386 0.00016178915
0001a0 54 85 1a ba 57 37 82 b9 ed d5 62 38 25 46 2d b9
       -0.0005894501 -0.00024836764 5.4081833e-05 -0.00016524697
0001b0 00 69 c5 39 b9 07 37 b8 e6 b3 ca b9 d2 79 7e 37
       0.00037653 -4.3637792e-05 -0.00038662477 1.5167943e-05
0001c0 79 f2 22 b9 a6 1d 5f b9 4d de 16 b9 bb 2b 3b b7
       -0.00015539852 -0.00021277982 -0.00014387928 -1.115625e-05
0001d0 e2 a5 9b 38 4b 59 a1 37 9c 33 6b 38 3e 60 15 38
       7.421874e-05 1.9234276e-05 5.607643e-05 3.5614e-05
0001e0 9a cb d7 37 5c f8 0d b9 ca c4 2b 39 73 20 62 38
       2.5724807e-05 -0.00013539329 0.0001638114 5.391282e-05
0001f0 5b df ca b8 97 b2 23 39 3c 91 26 ba ee b8 97 b8
       -9.673714e-05 0.00015611421 -0.0006354039 -7.234687e-05

exp_avg_sq f4 [128]
000000 9c b0 84 33 a5 54 8e 34 a6 8f 85 33 b6 2f 7e 32
       6.178854e-08 2.6511148e-07 6.2194246e-08 1.4795594e-08
000010 70 35 53 33 ba df dc 32 8b bc a0 32 fb 0e fb 32
       4.9175867e-08 2.571311e-08 1.8712191e-08 2.9227058e-08
000020 be c6 24 34 63 01 c6 33 85 a9 54 33 3a 91 ac 32
       1.5345992e-07 9.220346e-08 4.9514274e-08 2.0089477e-08
000030 d2 21 27 32 c6 b8 97 32 3a 93 1a 34 20 00 09 33
       9.728369e-09 1.7662739e-08 1.4395928e-07 3.1897912e-08
000040 18 ea 9e 34 27 6b 0b 33 44 cf ee 34 61 4f 50 32
       2.960012e-07 3.2460914e-08 4.448176e-07 1.2125242e-08
000050 5d ab a1 31 aa ae f4 33 c9 98 94 33 4e ae cf 33
       4.7051985e-09 1.13939066e-07 6.9195785e-08 9.6708945e-08
000060 8b 7d 09 33 11 71 a7 33 47 91 2f 34 88 47 66 34
       3.201198e-08 7.79711e-08 1.6350997e-07 2.1446442e-07
000070 bd 42 2f 34 be ce 0b 33 df dd c1 31 40 39 9c 32
       1.6322424e-07 3.255149e-08 5.642263e-09 1.8186824e-08
000080 95 40 b0 33 74 8e ab 34 e8 92 4f 32 f7 e0 86 32
       8.207386e-08 3.195488e-07 1.2082388e-08 1.5701955e-08
000090 c9 1e 35 34 68 64 bf 34 65 13 92 34 a7 83 87 33
       1.6868138e-07 3.5649578e-07 2.720873e-07 6.310375e-08
0000a0 98 6d 64 33 4d 88 3f 32 dc 62 9e 34 58 82 b2 34
       5.318506e-08 1.1148654e-08 2.9501723e-07 3.324992e-07
0000b0 e5 b0 d5 34 00 f2 4b 33 61 c6 04 32 80 38 dd 32
       3.980305e-07 4.748472e-08 7.728517e-09 2.575348e-08
0000c0 e5 60 e3 32 d1 95 4d 30 58 cd 14 32 8e 9f 84 31
       2.647034e-08 7.479147e-10 8.661424e-09 3.859845e-09
0000d0 aa ce 28 34 f7 b2 d4 33 9e 38 56 33 d8 92 71 34
       1.5721403e-07 9.904573e-08 4.987725e-08 2.2498295e-07
0000e0 4f 9b ba 32 ed dd ce 32 28 9a 08 32 18 71 19 31
       2.1723876e-08 2.4082476e-08 7.951293e-09 2.2328717e-09
0000f0 94 87 52 32 33 37 22 32 86 a7 df 33 4a 01 80 34
       1.2254436e-08 9.442192e-09 1.0414719e-07 2.3842796e-07
000100 e0 43 79 34 d8 f2 ca 33 fb a5 9e 32 ca 50 6b 30
       2.3214625e-07 9.450531e-08 1.84691e-08 8.560731e-10
000110 70 38 90 33 e6 85 d0 33 49 27 99 34 a6 8c a3 33
       6.7157885e-08 9.710111e-08 2.8527054e-07 7.615863e-08
000120 6e 08 00 35 7e 93 05 33 cc 9b ec 33 30 80 07 34
       4.769598e-07 3.110062e-08 1.1017946e-07 1.2619489e-07
000130 be 2f 5c 33 91 52 18 34 5d cc 2c 34 ae 23 5e 33
       5.1266163e-08 1.418614e-07 1.6093095e-07 5.1720853e-08
000140 d8 b3 2a 34 d5 b1 24 35 bb 02 0e 34 ea a6 02 33
       1.589791e-07 6.135354e-07 1.3225774e-07 3.041979e-08
000150 e9 33 18 34 6b 2e b2 33 9c fc 8c 34 61 a8 1b 34
       1.4174988e-07 8.297214e-08 2.626083e-07 1.4496756e-07
000160 1d 3a cc 34 c3 0d ce 33 be 73 33 34 dd 00 23 32
       3.8040244e-07 9.595126e-08 1.6712781e-07 9.488045e-09
000170 0d 14 ec 32 45 6d a9 32 63 88 2c 33 f3 be fc 33
       2.7483134e-08 1.972388e-08 4.0170914e-08 1.1769398e-07
000180 25 f2 34 33 fe 8b 34 33 d3 61 41 32 9a 3b f3 34
       4.2129745e-08 4.2036838e-08 1.1256321e-08 4.5305643e-07
000190 e9 a3 b6 33 75 b4 05 34 b6 ee be 34 e9 ca 57 34
       8.5048505e-08 1.245224e-07 3.5563943e-07 2.0097254e-07
0001a0 02 a1 0f 35 d9 0f 3c 34 45 4e 2b 33 01 8b 4f 33
       5.350595e-07 1.751463e-07 3.9885226e-08 4.8322367e-08
0001b0 e5 cc 6b 34 45 1c fb 31 21 1f 2a 34 0d 92 26 32
       2.196062e-07 7.3082753e-09 1.5843808e-07 9.69568e-09
0001c0 32 93 eb 33 81 34 c8 33 c9 2f d8 34 5c 80 b4 31
       1.0969815e-07 9.322776e-08 4.0267904e-07 5.2532823e-09
0001d0 f3 fb ac 33 0c 4d 1d 32 78 1e c1 32 01 0a 46 31
       8.0552034e-08 9.156121e-09 2.2482013e-08 2.8818479e-09
0001e0 9a fc c8 32 6c 15 35 34 c3 2d 72 33 24 bc d6 31
       2.3397934e-08 1.6864732e-07 5.6386636e-08 6.249609e-09
0001f0 19 87 e4 32 25 6d 78 33 8d f1 27 35 3f 6f 27 33
       2.6604129e-08 5.7841266e-08 6.256385e-07 3.8983895e-08

exp_avg f4 [1, 2]
000000 8f f3 9e 3b a0 16 57 3b
       0.004850812 0.0032819882

exp_avg_sq f4 [1, 2]
000000 0d 3b 0c 3a 4e 57 18 3a
       0.00053493754 0.0005811349

exp_avg f4 [2, 128]
000000 72 10 21 3a f1 00 8e bb 73 ca 07 3a 6d f2 87 bb
       0.0006144113 -0.0043336083 0.00051800086 -0.0041487725
000010 75 c0 00 b9 fc eb 0e bc 6d 38 e8 bb c6 b6 f8 3a
       -0.00012278727 -0.008723255 -0.0070868046 0.0018975369
000020 68 09 e9 3b 71 e7 16 3c a0 fa 28 3b 1d de c5 bb
       0.007111717 0.009210453 0.002578415 -0.006038441
000030 f4 1c 82 3b ff c9 38 bc 11 33 35 3b 8c f6 1b 3c
       0.0039707366 -0.011278628 0.0027648846 0.009519231
000040 dc b5 ac b9 c5 79 b4 bb 28 5a 34 bb 9c 9d e6 b9
       -0.00032941892 -0.00550768 -0.0027519558 -0.00043986447
000050 69 7a 0b bc 5b 18 00 bc ed aa cf bb 98 fb 03 ba
       -0.008513072 -0.007818307 -0.0063375146 -0.0005034744
000060 fe 55 12 3c 07 8c 07 3c c4 65 a1 bb 51 91 d4 bb
       0.008931635 0.008273131 -0.0049254615 -0.0064870496
000070 ad 03 b5 3b 27 94 01 3c 4e a5 82 3b ec 81 21 3b
       0.00552412 0.007908857 0.003986991 0.002464409
000080 f6 4e 04 3c 5b 41 90 ba 00 a2 58 ba 03 41 1f 3b
       0.008075466 -0.0011005806 -0.0008263886 0.0024300225
000090 f8 7e 27 3c e7 cc 0d 3c e9 4a 31 bb e1 b4 f2 3b
       0.010223143 0.00865481 -0.0027052707 0.0074068164
0000a0 ca 82 25 3b 31 de 60 bb 1a 7d bf bb 7d 4f df 3a
       0.0025254958 -0.0034312124 -0.0058437707 0.0017037239
0000b0 08 84 8b bb 25 82 e5 bb 59 b8 f8 bb 03 2a 0c bc
       -0.0042576827 -0.00700404 -0.0075903353 -0.008554938
0000c0 c5 81 0d 3c a1 15 19 3b 43 a8 e4 3b 96 66 11 3b
       0.0086368965 0.002335884 0.006978066 0.002218639
0000d0 e3 c7 9d ba 2a d2 9b 3b c6 6f e8 b9 cf 36 e6 3b
       -0.001203772 0.004755278 -0.00044333766 0.0070255767
0000e0 30 76 82 bb 52 ab 8c 3c 16 23 a2 b9 44 6d 8a bb
       -0.003981374 0.017171536 -0.0003092519 -0.0042244513
0000f0 04 a2 60 39 e8 fa 17 3c 67 cc cb bb 6b 22 bc 3b
       0.0002142266 0.009276129 -0.006219435 0.0057414076
000100 ad ec 43 3b 92 15 b1 3a 3b ae 83 3a 9b 16 ad 3b
       0.0029895708 0.0013510457 0.0010046432 0.005282236
000110 26 82 fe bb 03 51 ed 3b 01 e0 a3 bb f7 e9 ea bb
       -0.0077669797 0.0072423234 -0.0050010686 -0.007169004
000120 70 95 67 3c 22 56 eb ba 20 b5 c7 3b a1 54 82 bb
       0.01413475 -0.0017954747 0.00609459 -0.0039773737
000130 3c 39 70 3b 60 b7 79 bc 3b ec 0f 3b 60 a6 e1 3b
       0.0036655208 -0.015241474 0.0021960873 0.0068862885
000140 d5 20 ef 3b d8 c7 71 bc 16 72 61 ba c1 a4 94 3a
       0.007297615 -0.014757119 -0.0008600069 0.0011340604
000150 af b2 94 3b a0 41 3b bc 09 2c da bb 17 16 ca bb
       0.0045379023 -0.01142922 -0.0066580814 -0.006167184
000160 df 74 17 3c 9c 66 ca 3b d8 29 2e bb 67 2a 55 3a
       0.009244173 0.006176783 -0.0026575234 0.00081316236
000170 da 02 3f 3c 4c bb 2f 39 04 b2 21 ba 1b 80 c0 bb
       0.011658395 0.00016759074 -0.0006168189 -0.0058746464
000180 96 6f 1f 3c ed 5b 5f 3b 0a ca 6e bb 3f 3e 5b bb
       0.009731194 0.0034081892 -0.0036436343 -0.003345385
000190 21 f5 9a 3a 73 2e bc 3b 50 c8 89 3b a8 7c 9e ba
       0.0011822322 0.005742842 0.0042047873 -0.0012091594
0001a0 e8 03 d1 bb d1 14 01 3c c8 ac ee 3b 71 ae 9c bb
       -0.0063786395 0.007878498 0.0072837807 -0.004781537
0001b0 d1 ff 28 ba 4c cf a9 bb c2 4c e8 3b 63 25 67 39
       -0.0006446811 -0.0051821824 0.0070892284 0.00022043804
0001c0 cd 1f 8f bb 16 20 f7 bb a7 4d f3 3b 74 f8 c1 39
       -0.0043678046 -0.0075416667 0.0074250284 0.0003699694
0001d0 9b f6 87 3b 06 fc 85 3b 10 e1 00 3b 47 a0 80 ba
       0.0041492707 0.0040888814 0.0019665398 -0.0009813391
0001e0 e3 09 a5 ba 73 59 15 bc cc a4 f1 3a 87 96 0d 3b
       -0.0012591447 -0.009115565 0.0018435954 0.0021604614
0001f0 4a e4 30 3c 7e 38 14 bc 07 28 2d bc ff 73 b8 3b
       0.010796616 -0.009046672 -0.010568625 0.005629062
000200 0c 11 c0 3a b2 82 8d 3b 8d 3c 42 3c c6 b4 10 bb
       0.0014653518 0.0043185586 0.011855257 -0.0022080406
000210 9e e6 e9 ba 87 45 eb bb dc 26 44 ba 8f 4d 80 bb
       -0.0017845219 -0.007179919 -0.0007482597 -0.0039154957
000220 19 ed 1c 3b 3f 76 e6 3b fe 08 97 bb d1 50 cb ba
       0.0023945032 0.007033139 -0.0046092262 -0.0015511756
000230 30 d5 c4 3b 48 8c 93 b9 a8 27 09 ba 69 af 60 ba
       0.0060068592 -0.00028142543 -0.00052320445 -0.000857106
000240 eb f6 88 3c 82 67 9d ba 54 94 0e 3b 5c e2 35 bb
       0.016719302 -0.0012008997 0.002175589 -0.002775333
000250 91 e7 4e ba a4 e7 ce 3a cc 2c c2 b9 26 4e 2f 3b
       -0.00078927825 0.0015785587 -0.0003703594 0.002674946
000260 50 2b 06 b8 e9 ba 09 bb 02 06 de 3b 41 4a 27 3b
       -3.1988428e-05 -0.0021015948 0.0067756185 0.0025526437
000270 1c bb 71 39 52 5f 9a 3b 2c 66 b9 bb b8 e0 c0 3b
       0.00023053255 0.00471107 -0.005657932 0.0058861636
000280 31 c6 3c 3c 18 1b fc bb ea ab ad b9 be d1 e0 3b
       0.011521862 -0.0076936595 -0.00033125217 0.0068609407
000290 14 23 89 3c 18 e1 25 3c 5a 79 90 bb 01 d7 ab 3b
       0.01674036 0.010124467 -0.0044089975 0.0052441363
0002a0 a1 72 0c 3c 5a 4b 71 3a 61 e5 52 bc ae a3 6c 3c
       0.008572252 0.00092046487 -0.012872071 0.014443321
0002b0 c8 6a 90 3b e7 2a ec bb 71 28 26 3c a5 b4 eb bb
       0.0044072606 -0.007207263 0.010141478 -0.0071931654
0002c0 4a 66 2f 3c ee 89 ec 3a ba cc 24 3c 7a 0f 58 ba
       0.01070554 0.0018046477 0.010058576 -0.0008242052
0002d0 3e bb 71 bb f4 66 73 3c 70 ac 97 bb 52 2d 87 b9
       -0.0036885287 0.014856089 -0.0046287104 -0.00025782973
0002e0 2c e2 0d bb 72 d1 22 3c 41 3d 11 bb ae d5 c3 ba
       -0.0021649702 0.009937631 -0.0022161754 -0.0014941001
0002f0 3b f4 d3 bb 45 ec 1b 3c f5 c5 da b9 a9 70 87 3c
       -0.0064683235 0.00951678 -0.0004172769 0.016533213
000300 af 61 12 3c 08 ee 1f bb 0b 2e 36 3b fe 89 27 3c
       0.008934422 -0.0024403352 0.002779844 0.010225771
000310 8a ee 10 bb 8e c1 63 bb c8 e9 b4 3a 64 cb 4e bb
       -0.0022114837 -0.0034752819 0.0013802582 -0.0031554336
000320 bf c4 57 3c 46 6b 69 3b fd 20 7b 3c 84 36 a3 bb
       0.0131694665 0.0035616918 0.015327689 -0.004980864
000330 e0 77 1b 3c fb 10 b7 b9 54 8c 8a 3b 6a 36 45 3c
       0.00948903 -0.0003491713 0.004228154 0.012036899
000340 84 32 c6 3b 6c 4b 8e bb 96 76 45 3b 87 8c 47 3b
       0.0060485024 -0.004342487 0.0030130497 0.003044875
000350 07 3e 82 bb 36 ef af bb 47 7e e1 3a ad ca 04 3b
       -0.0039746794 -0.0053690923 0.0017203771 0.0020262406
000360 0a 4a 8b 3c ca 8c 39 3c 34 5f 2e 3b f6 0e c3 3a
       0.017003078 0.011325071 0.0026607038 0.0014881778
000370 4b 42 8d 3b f1 b9 d1 3b 96 82 7a 3b 9c a7 01 3c
       0.0043108813 0.00640034 0.0038224808 0.007913496
000380 a2 ae 42 3c 11 3a d4 3b 3c 66 36 3a 47 be 7d 3a
       0.011882456 0.0064766486 0.0006957983 0.00096795376
000390 da a7 f0 3b d9 e0 78 bb 30 b9 48 3b c4 28 06 3b
       0.007344228 -0.0037975817 0.0030627958 0.0020471076
0003a0 ac 1c 19 3c 3c 7f 13 3b 62 e2 15 3c 48 54 0b 39
       0.009345215 0.0022506258 0.009148212 0.0001328747
0003b0 1a be a1 3a c4 93 90 3b d7 5c 83 3c f2 dc 3e bb
       0.001233998 0.0044121463 0.01603548 -0.0029123393
0003c0 79 5b d7 ba 5c 8f 6c bb 2f 1a 96 bb d4 2f d3 bb
       -0.0016430459 -0.003609619 -0.004580758 -0.0064449105
0003d0 1a 04 c1 b8 d1 32 ce 3b bc 89 35 3b 4c 27 21 38
       -9.203721e-05 0.006292679 0.0027700504 3.842199e-05
0003e0 56 08 82 ba 5f a5 e5 ba cb 70 07 bb f1 aa 7d 3c
       -0.0009920697 -0.0017520598 -0.0020666595 0.01548265
0003f0 98 ae 5b 3c e7 03 0e 3b 36 66 80 ba 04 b2 db 3a
       0.013408326 0.0021669806 -0.0009796086 0.0016761427
