results/Long_HighBatch#/3DBall/3DBall-1849453.pt (torch, 49335 bytes, 32 tensors)

network_body.observation_encoder.processors.0.normalizer.running_mean f4 [8]
000000 00 fd 56 bb 1f 91 cb 3a 13 e5 a0 bf 37 7d 45 40
       -0.0032804608 0.001553092 -1.2569908 3.0857675
000010 e8 6b 00 bf a6 1f a4 bc f5 08 eb be 89 6e 7b bc
       -0.5016465 -0.020034622 -0.4590527 -0.015346178

network_body.observation_encoder.processors.0.normalizer.running_variance f4 [8]
000000 4a 25 76 45 10 3f ad 45 94 61 97 49 b7 e8 8c 47
       3938.3306 5543.883 1.2401145e+06 72145.43
000010 03 77 1e 49 3e ca 83 48 b6 68 5f 49 15 81 c1 48
       649072.2 269905.94 915083.4 396296.66

network_body.processors.0.normalizer.running_mean f4 [8]
000000 00 fd 56 bb 1f 91 cb 3a 13 e5 a0 bf 37 7d 45 40
       -0.0032804608 0.001553092 -1.2569908 3.0857675
000010 e8 6b 00 bf a6 1f a4 bc f5 08 eb be 89 6e 7b bc
       -0.5016465 -0.020034622 -0.4590527 -0.015346178

network_body.processors.0.normalizer.running_variance f4 [8]
000000 4a 25 76 45 10 3f ad 45 94 61 97 49 b7 e8 8c 47
       3938.3306 5543.883 1.2401145e+06 72145.43
000010 03 77 1e 49 3e ca 83 48 b6 68 5f 49 15 81 c1 48
       649072.2 269905.94 915083.4 396296.66

network_body._body_endoder.seq_layers.0.weight f4 [128, 8]
000000 1f ef 7f be fd 75 b8 be 96 07 e0 3d 3c 1f 00 3f
       -0.24993561 -0.36027518 0.10938947 0.5004766
000010 87 10 07 3e 3b af 4b bf 46 5c 07 be 2d 72 8b 3e
       0.13189898 -0.79564255 -0.13218793 0.27235547
000020 3b 72 77 be f7 14 8a bd b2 b2 2b 3c 10 b2 1f bf
       -0.24164669 -0.0674228 0.010479616 -0.62381077
000030 5e be 09 bf db c8 b5 3e 28 12 a3 3f 2d d6 0e 3f
       -0.538061 0.35504803 1.2739916 0.55795556
000040 ad ae c9 be e0 62 7c be 53 7f ac be ff b8 a4 3d
       -0.3939108 -0.24647093 -0.3369089 0.08043098
000050 da 48 d4 3e 51 66 4e bf c4 9d ce be cf 22 82 3e
       0.4146183 -0.8062487 -0.4035474 0.25417182
000060 8d 9a 55 be cd 37 ab be e3 8c 43 bd 67 91 15 bf
       -0.20859738 -0.3344101 -0.047741782 -0.5842499
000070 42 31 98 3d bb f5 82 be b6 d6 3f bf 8d 11 96 3c
       0.0743127 -0.25578102 -0.74937 0.018318916
000080 94 74 f5 3e 48 3a ad 3e 0e a0 96 3d 4e e6 ad be
       0.47940505 0.33833528 0.07354747 -0.3396477
000090 38 7d 0f 3f 9a 5b 7f bf c2 10 63 bd a5 85 3f 3f
       0.56050444 -0.9974915 -0.055435903 0.748133
0000a0 02 04 c7 bc 57 68 ab 3e 43 aa 1a be 09 2f d7 3e
       -0.024293903 0.33478042 -0.15104012 0.42028072
0000b0 46 91 b8 3d 7b 56 be bc ab 84 03 bf c2 16 69 3c
       0.09012084 -0.023234596 -0.5137431 0.014226617
0000c0 6f 54 29 3f cf 6f 98 3d 3f 37 bd be 6d 1b e7 bb
       0.6614446 0.07443201 -0.36956212 -0.00705283
0000d0 31 07 18 be ff dd 50 be 54 c8 03 bc aa 77 17 bf
       -0.14846493 -0.20397185 -0.008043367 -0.5916697
0000e0 97 ed 1e be ee d9 d5 3d 70 e7 09 bf d6 9d 1c 3f
       -0.15520321 0.104419574 -0.5386877 0.6117834
0000f0 a1 58 37 3f 3c 4b 3d 3e 18 78 a7 3e 31 86 c3 3e
       0.7161961 0.18485731 0.32708812 0.38188317
000100 0e 01 87 3e 74 5a 43 be b3 81 da 3e e1 a7 d7 be
       0.26367992 -0.19077474 0.42677078 -0.4212027
000110 23 7b 10 3e f4 39 44 bd b9 78 88 be f5 6f 53 be
       0.14109473 -0.04790683 -0.26654604 -0.20648177
000120 df bf fd 3d a1 da 91 bc e0 43 a8 3e 9a 6f 3e be
       0.12390112 -0.017804446 0.32864285 -0.1859726
000130 8a 42 b1 be 7f 13 0c 3e 9e 66 75 3e 5a b4 83 bd
       -0.34621078 0.13679312 0.23964927 -0.06430884
000140 27 4c 39 be 51 5e cf 3c 05 e1 10 bf 59 46 4d be
       -0.18095456 0.025313528 -0.5659335 -0.20046367
000150 ea d5 a4 3e 81 e7 17 be 5a 06 ca 3e 27 63 6b bf
       0.32194453 -0.14834405 0.3945797 -0.9194817
000160 a0 8e 23 bf 8e 45 7c 3e ba 0c 2a be 46 ef ec 3d
       -0.63889503 0.24635908 -0.16606417 0.11569075
000170 e6 18 06 bf 0e 35 10 3e c6 76 1f be c7 bc f0 3e
       -0.5238174 0.14082739 -0.15572652 0.47019026
000180 f0 e2 91 be 4a 22 78 be 6a 76 12 3f 54 9e d1 ba
       -0.28493452 -0.2423183 0.57211936 -0.001599262
000190 02 59 2f bf ef 76 6f be 31 2e 90 3e d3 12 a5 be
       -0.6849519 -0.23385213 0.2816024 -0.32240924
0001a0 bf c8 8a bd 87 a2 ce be 26 51 12 bf 59 e1 f3 3d
       -0.067765705 -0.40358374 -0.5715507 0.11908216
0001b0 b1 d4 b5 be 32 a0 ad 3e ab 26 06 bf 1a e1 02 bf
       -0.35513833 0.33911282 -0.5240275 -0.5112473
0001c0 c9 47 cb be 6c 7f 47 bf 53 53 93 3e 24 dc 82 3d
       -0.39703205 -0.77928805 0.2877451 0.06389645
0001d0 16 01 98 bd e3 ba e8 3d a2 18 37 3f 06 03 05 be
       -0.07422082 0.11363771 0.7152196 -0.12989435
0001e0 81 41 be 3e f1 3c 02 bf 6b 13 ae bc 7d 38 5b 3e
       0.3715935 -0.5087424 -0.021249494 0.21408267
0001f0 6b c4 2b bf fd 48 5a be 5e bc f8 3d 85 a5 5c bd
       -0.67096585 -0.21316905 0.12145303 -0.05386879
000200 a8 86 12 bd a4 15 ce 3e 12 7f 4e 3d 6f 28 c8 3d
       -0.03577295 0.40250885 0.050414152 0.09773337
000210 f9 94 b5 3b a0 f3 a6 be 77 60 11 3e 17 1f 02 3e
       0.0055414406 -0.32607746 0.14196955 0.12707172
000220 bb 41 05 bf 4a 9e 21 bf 75 a7 18 3f 8f 2c 1c bd
       -0.5205342 -0.63132155 0.5963052 -0.038128432
000230 8b 94 20 be 5e aa 8f bd 6e 7f fe be fe 46 1c 3f
       -0.15681665 -0.07014917 -0.49706596 0.61045825
000240 7f 3d 88 be fb 43 15 bf 7d ea cc 3d df 76 63 be
       -0.26609418 -0.58306855 0.100056626 -0.22213314
000250 4c 57 c1 3e 7f 38 dc be d0 21 86 3e 2e 4f 02 3e
       0.37761915 -0.43011853 0.26197672 0.12725517
000260 04 39 b5 3d b5 f7 14 3f 45 2b 5c 3f 33 09 ce 3e
       0.088487655 0.5819047 0.86003524 0.40241393
000270 c6 89 54 3c b3 3f fe be d4 9d d7 3e 3f 4b bc be
       0.012972301 -0.49657974 0.421126 -0.36776158
000280 a7 f5 46 3f df 8a b4 be 0a 93 4b be fc 2b a6 be
       0.77718586 -0.352622 -0.1988031 -0.32455432
000290 72 0a 82 be 28 9b c2 3c 11 cf d9 be 7f 07 af bd
       -0.25398594 0.023755625 -0.42540792 -0.08546352
0002a0 ff bc 35 be c1 21 9f be 15 9f ff bd 03 eb 8f 3c
       -0.17747878 -0.3108044 -0.12481514 0.017568117
0002b0 2a b0 fa 3d b0 f5 2e bf fb 86 48 3d 05 ba e0 bd
       0.12240632 -0.6834364 0.048956852 -0.109729804
0002c0 b3 b8 1a 3f ec 95 17 3e 32 08 c4 be f4 de d6 3d
       0.6043808 0.14803284 -0.38287503 0.10491744
0002d0 1a 75 13 bf a2 a8 42 3e 74 f4 28 3f e7 ba 79 bf
       -0.5760056 0.19009641 0.65998006 -0.97550815
0002e0 4f f5 f9 3d 87 69 ac 3e 98 c7 cc be 63 49 32 3e
       0.12204992 0.3367426 -0.39996028 0.17410807
0002f0 ff 50 85 bc 78 4b 2e 3d ec ce ee be c2 ac 8c be
       -0.016273974 0.04255244 -0.46642244 -0.27475554
000300 3b 12 c2 3e 3c 7d 4a 3e 47 46 26 be 78 46 c5 bb
       0.37904534 0.19774336 -0.16237746 -0.0060203634
000310 e7 f4 86 be 67 5a ef 3e c0 14 1c bc 22 45 9e 3e
       -0.2635872 0.4674866 -0.009526432 0.3091212
000320 82 01 4f 3e f8 4a b3 3e 5f b8 36 3d 9b 19 aa 3e
       0.20215419 0.35018134 0.044609424 0.3322266
000330 3e fe 10 3e 85 9d bc be 73 81 e1 bd af fd 5b 3f
       0.14159486 -0.36838928 -0.110110186 0.85933965
000340 f8 c8 4b 3f fb d6 63 3f ad d8 0c bf 22 41 b4 3b
       0.7960353 0.8899991 -0.5501812 0.0055009285
000350 96 df 07 3d 93 63 80 3e 29 c3 96 3d c8 62 f6 bc
       0.033172213 0.2507597 0.073614426 -0.0300764
000360 82 af 06 bf 89 02 b0 be f1 fc 57 be 7f a9 67 bd
       -0.52611554 -0.34376934 -0.21092583 -0.05655813
000370 63 29 e8 be 8e cd ab 3e 65 fe 97 3d 63 7e 48 bd
       -0.45344076 0.33555263 0.07421569 -0.048948657
000380 bb 49 0d be 73 ac 35 bf 16 9a ff 3d 4d 74 ac be
       -0.13797657 -0.7096626 0.124805614 -0.3368248
000390 4a 66 98 3e 30 4b a5 be 47 d7 1a 3e f1 52 b4 be
       0.2976554 -0.32283926 0.15121184 -0.3521953
0003a0 a0 f0 a7 3d e5 a3 7c 3e 61 ce 93 be 60 22 ef bd
       0.082001925 0.24671896 -0.28868392 -0.116764784
0003b0 03 8b 17 3f 90 16 e2 bd a8 00 4c be d5 85 08 bf
       0.5919649 -0.1103946 -0.19922125 -0.5332921
0003c0 e5 4b 12 3f 71 b6 8e 3e fd 5f 2c bf 3d 72 3b 3f
       0.57147056 0.27873567 -0.67333966 0.7322119
0003d0 46 22 ea 3d c0 5b f8 bb e3 47 88 be 5b ad cd 3d
       0.114323184 -0.007579297 -0.26617345 0.100428306
0003e0 69 4b 7e be 5a 32 33 bf c6 cc 33 be cb ab 0e 3e
       -0.24833454 -0.69998705 -0.17558584 0.13932721
0003f0 af bb 64 3e 25 7d 8f 3e 56 28 bf 3d cb cd e0 3e
       0.2233722 0.28025165 0.09333865 0.43907008

network_body._body_endoder.seq_layers.0.bias f4 [128]
000000 34 44 6e bd 6a f0 01 3e c9 06 d4 bc ef f1 96 bd
       -0.058170512 0.12689367 -0.025882142 -0.07370364
000010 b4 4d 7a 3d 68 90 3d bd a1 92 a7 bc f0 f2 a3 3d
       0.06110926 -0.046280295 -0.02045566 0.08005321
000020 b9 c1 9a bd 18 d6 7d 3d 3d 1c 65 bc ce 79 fb 3d
       -0.07556481 0.061971754 -0.013983783 0.12279092
000030 76 52 de 3d c5 08 41 3d 99 f8 d1 3d a1 fe b1 bc
       0.10855572 0.047127504 0.10252494 -0.021727862
000040 99 1b ab bb fc c5 d1 3d 19 9d 9e bc 99 f9 20 3d
       -0.0052217958 0.10242841 -0.01936202 0.039300535
000050 6c 5a 85 bc 8e 7e 40 bd e7 ef ae 3c 50 74 7d bd
       -0.016278468 -0.046995692 0.021354629 -0.061878502
000060 c6 a6 3b 3d d7 85 20 3d 07 68 ce bc 86 fc f2 3d
       0.045813344 0.03919014 -0.025196088 0.11864571
000070 8d bc 09 bc 86 f2 4e bd 6b d6 8e bc d0 f3 f1 3d
       -0.00840677 -0.050524257 -0.017436227 0.11814082
000080 92 9f ed bc 87 45 93 bc d1 02 1b 3e ff 25 37 bd
       -0.029006753 -0.01797749 0.15137793 -0.04471397
000090 da 7f 9c bc ad 77 fc 3d 5d 4a 2c 3e d2 76 d1 bc
       -0.019103933 0.12327514 0.16825242 -0.025569353
0000a0 d4 5c f3 3d 27 f4 dd 3d c7 dd cb bc 38 8e 19 bd
       0.1188294 0.10837584 -0.024886025 -0.037489146
0000b0 c8 8b b0 bc a4 2a 44 bb 0d 07 de 3d f4 39 22 3d
       -0.021551028 -0.0029932642 0.108411886 0.03960605
0000c0 d3 62 02 3e 99 95 fb bc 0a 80 87 bd 71 d7 01 3e
       0.12733011 -0.030710982 -0.066162184 0.1267984
0000d0 25 58 56 3d c3 86 75 bd 71 06 55 3d 56 d4 49 3d
       0.052330155 -0.059942972 0.052008096 0.049274765
0000e0 a5 24 9a bb 86 41 26 3e 3b 41 75 bd 4f c6 70 bd
       -0.0047040754 0.16235933 -0.05987666 -0.05878287
0000f0 06 c0 21 3e 2c 23 ab ba 7a 9b be 3b d9 9a 46 3d
       0.15795907 -0.0013056747 0.005816874 0.048487518
000100 37 dc 1c 3e 50 0b 74 bd dd 70 ed 3d 0e 24 16 bd
       0.1531838 -0.0595811 0.115937926 -0.03665548
000110 b7 4f 81 3d df 49 be bb 1b 27 93 3d 2e 3b 88 3c
       0.063140325 -0.005807146 0.07185193 0.016629782
000120 22 d7 80 3d 96 7f 8a 3d ed e3 03 3e c6 a4 42 bc
       0.06291033 0.06762616 0.12879916 -0.011880105
000130 d6 a3 6f bb 58 2c b0 3c 0d 6f a3 3b 73 89 3b bd
       -0.003656616 0.02150552 0.0049876035 -0.04578538
000140 b2 ac 59 bb 3b d7 b1 3b df f5 6f bd fd 2a dd bc
       -0.0033214507 0.005427269 -0.05858409 -0.026998037
000150 a5 35 17 3e 76 05 1b 3d c4 23 84 3d 2f 07 57 bd
       0.14766558 0.037847005 0.06452134 -0.052497085
000160 90 85 6b bd ea 52 05 bd 35 ed 58 bd 23 ba b4 3d
       -0.057500422 -0.032549776 -0.052960593 0.08824565
000170 5a d7 08 3e 9a 66 f6 bc fc 6b 93 3d 01 e9 1e 3e
       0.133634 -0.030078221 0.07198331 0.15518571
000180 b2 dc 07 3d 92 6b 73 bd 37 fb 3b 3d 85 58 85 bb
       0.033169456 -0.05942876 0.045893874 -0.0040693902
000190 d8 52 c2 bc 42 30 2c bd 13 57 33 3d 07 f4 01 bb
       -0.023721144 -0.04203821 0.043784212 -0.001982929
0001a0 10 4f 60 3d 95 2a fe 3d 37 c8 dc 3d f1 dc 9b 3c
       0.0547629 0.12410466 0.107803755 0.019026252
0001b0 45 e8 0d 3d 84 ba 23 3e 4f c9 f6 3d b1 59 1e 3e
       0.034645338 0.15989119 0.12050115 0.15463902
0001c0 70 eb 75 3d bf 97 84 bd 44 6f 97 3d 00 1f 22 bd
       0.060038984 -0.06474256 0.07394269 -0.039580345
0001d0 81 34 34 bd b6 cc 00 3e 11 2c 1b bd 8d 62 40 3c
       -0.043995384 0.12578091 -0.037883822 0.011742246
0001e0 93 e9 23 3e 15 90 af 3c 7f 14 62 3d 35 1f 1d 3e
       0.1600707 0.021431008 0.055195328 0.15343936
0001f0 94 70 29 3d a6 89 2a 3e 09 0a 32 bd 6c 0d 85 bd
       0.04136713 0.16654071 -0.0434666 -0.06496701

action_model._continuous_distribution.log_sigma f4 [1, 2]
000000 72 15 c7 bd d3 29 11 bd
       -0.09720887 -0.035440277

action_model._continuous_distribution.mu.weight f4 [2, 128]
000000 ea 6c 64 bc ef f6 c8 3d b8 a4 7d bd 2b f0 14 bd
       -0.013941983 0.09812724 -0.061924666 -0.036361855
000010 84 15 8a bd 31 2c 99 bc b6 1b 91 bd f2 51 74 3c
       -0.06742385 -0.01869783 -0.070853636 0.014912115
000020 1d 6d 28 bc 97 40 85 3d 81 45 bb ba 8f 32 a3 3d
       -0.010279921 0.0650646 -0.0014287682 0.07968628
000030 06 e1 af 3d 69 b3 0b 3d 78 1d d6 3d 3c 94 34 bd
       0.08587842 0.034106646 0.104548395 -0.04408668
000040 05 08 1c bd 2e 41 13 3d ae 43 94 bb ea 14 80 3c
       -0.038093586 0.035950832 -0.0045246696 0.015634973
000050 8b ec 84 bd 85 40 d4 bd 47 8e 59 3c 42 c3 d7 bc
       -0.064904295 -0.103638686 0.0132785505 -0.026338223
000060 16 99 84 3c 13 a2 01 bd a3 77 24 bd 31 2d e2 3d
       0.016186278 -0.031648707 -0.040153157 0.11043776
000070 9d 1b 1b bb 1e b2 ba bc bf 1a ae bd 1a 00 53 3d
       -0.0023667582 -0.022790011 -0.08501195 0.05151377
000080 dd dc 1d ba 6a ff 97 bd 8f 31 c0 3d 60 27 34 bc
       -0.0006021986 -0.07421763 0.093844526 -0.010995716
000090 18 eb 91 bd a4 60 ba 3d de f6 c8 3d e7 00 cd bd
       -0.07124919 0.09100464 0.09812711 -0.10009938
0000a0 e3 1f 80 3d 60 59 0c 3d 8e 07 28 bd 7e e4 36 bd
       0.06256082 0.034264922 -0.04102283 -0.0446515
0000b0 9d d3 2b bd bd 3e 95 3c d0 3e e3 3d ec bf 52 bd
       -0.041949857 0.018218393 0.11095965 -0.051452562
0000c0 68 72 b4 3d d2 cb 8c 3c 4f 5b f2 bc 7f c6 6f 3d
       0.08810884 0.017187033 -0.029584555 0.05853891
0000d0 41 d4 16 3a fb fd b9 bd 96 67 0e 3d 79 08 ce 3c
       0.0005753674 -0.09081646 0.034766756 0.025150524
0000e0 6a ff 22 bd 2d 71 a9 3d e2 83 20 bd 8b 4c 96 bd
       -0.039794363 0.0827354 -0.039188273 -0.07338818
0000f0 dd d1 b2 3d be 25 e4 bb 0a 59 10 bd 69 26 79 bc
       0.087314345 -0.006962507 -0.035241164 -0.015206912
000100 db 56 d7 3d 03 c0 08 bd 13 62 71 3d ca a8 b6 bc
       0.10514613 -0.03338624 0.05893142 -0.022297282
000110 71 d8 d1 3c 38 2b 67 bd 91 a9 b1 3c 50 65 12 ba
       0.025615903 -0.0564377 0.0216873 -0.0005584555
000120 a6 94 39 3c 7e 40 63 3d 45 b9 5c 3d 04 7a a4 3c
       0.011326944 0.055481426 0.053887624 0.020077713
000130 aa 2b 4b bd 66 7e b6 bc de 0e 0c 3b 86 5d 3d bd
       -0.04960219 -0.022277068 0.0021371166 -0.04623177
000140 17 47 e8 bd 18 3a 3d 3c 02 7f a4 bd 0a 35 cc bd
       -0.11341684 0.011549495 -0.08032037 -0.09971054
000150 bd 73 ce 3d a2 1f cc bd 15 52 50 3d a6 64 30 bc
       0.10080669 -0.09966971 0.05085953 -0.010766184
000160 e9 6c 23 bd 04 d7 f7 bc f7 fb 0f bd f3 a3 6b 3d
       -0.039898787 -0.030253895 -0.0351524 0.0575294
000170 8c 2b a5 3d 2d 03 0a bd 72 13 70 3d 4b 62 b3 3d
       0.080649465 -0.033694435 0.058612294 0.08758982
000180 99 88 fe 3c 8a 10 49 bd 0f df af bc cd 55 96 bc
       0.031070994 -0.04908804 -0.021468667 -0.01835146
000190 a1 c6 61 bb 30 e0 60 bd 62 ca 15 3d 2e 0b 95 3c
       -0.0034450667 -0.0549013 0.03656996 0.018193807
0001a0 c7 41 0c bd 8a 1f be 3d 5b 0c 8b 3d db 66 33 3c
       -0.034242418 0.09283359 0.06789466 0.010949816
0001b0 ed 5f 32 bd 02 ff a7 3d 9f 2b 89 3d 57 cf d0 3d
       -0.043548513 0.08202936 0.06697773 0.10195797
0001c0 f9 82 3d 3d 2c 8e 66 bd 37 cd 06 3d 04 6d 6d bd
       0.046267483 -0.05628793 0.032910552 -0.057965294
0001d0 76 40 de bd 56 e4 77 3d ad 36 d9 bd 17 2e d2 bd
       -0.10852139 0.060520492 -0.10606132 -0.10262697
0001e0 41 56 43 3d 24 31 b4 3c 78 cf 16 3d e0 d0 a0 3d
       0.04768968 0.021996088 0.03681895 0.0785234
0001f0 df 09 a1 3c 53 c3 f1 3d f3 b3 4f bd 85 a5 da bc
       0.019658027 0.11804833 -0.050708722 -0.026690254
000200 26 5e 7c bb 11 c3 7b bd 99 2a 71 bc d8 db 1b 3c
       -0.0038508265 -0.061465327 -0.014719629 0.009512864
000210 20 78 66 bd 93 c8 73 bc 46 fe d0 3c 92 84 90 bd
       -0.056266904 -0.014879364 0.025511872 -0.07056536
000220 bf 2a a5 3c f6 cd 1e 3d fd 5f 1b 3d 18 82 18 bd
       0.020161984 0.03877064 0.03793334 -0.037233442
000230 f8 b5 32 3d 07 8b 33 3d 64 71 42 3d 3b 0b 69 3d
       0.04363057 0.04383376 0.04747142 0.056895476
000240 4e 22 22 bd 36 fd 49 bc 15 3e 81 bc 8b bd 0f 3c
       -0.039583497 -0.012328437 -0.015776673 0.008773218
000250 b7 75 15 3d 6a 74 92 3c 4c f1 14 3d ae 0b af 3c
       0.036489215 0.017877776 0.03636293 0.021367874
000260 05 1e 8a bc 56 2b 95 bc 88 28 f0 bc 6d 30 ee 3c
       -0.016860018 -0.01820914 -0.029316202 0.029075826
000270 65 a6 ed 3c df 8d d6 bb 5b 99 f9 bc 30 3f a7 bc
       0.029010007 -0.006547674 -0.030468633 -0.020415872
000280 f4 7f 97 3d 30 8e 7d 3d 52 02 bd bc 12 1b ff bc
       0.07397452 0.06190318 -0.023072395 -0.031140838
000290 2e e8 81 bc 8a 74 a1 bd 2c f6 7e bb 1f 25 00 bc
       -0.015857782 -0.07883556 -0.0038904054 -0.00782135
0002a0 2f bf fb bc 43 12 33 bc ff c3 1c bd b0 1d 3c 3d
       -0.030730812 -0.010929647 -0.038272854 0.04592675
0002b0 59 38 7f 3d 64 37 05 3c b9 fa 5e 3c 88 8c a5 bd
       0.062309597 0.008130882 0.013609582 -0.08083445
0002c0 2b a6 9d 3c be 36 2c 3d 67 45 05 3c 1f 76 2e bd
       0.019244274 0.042044394 0.008134223 -0.042593118
0002d0 90 63 30 bd 52 61 9a 3b f2 a4 60 b9 50 9c 81 3d
       -0.0430637 0.0047113085 -0.00021423752 0.06328642
0002e0 76 41 26 bd 47 92 1f bc b8 97 db 3c 48 63 df 3c
       -0.040589772 -0.009739465 0.026805744 0.02726902
0002f0 4d 66 fd bc 79 49 3c bd 91 83 25 bd e9 69 1e bd
       -0.03093257 -0.045968506 -0.040408675 -0.038675223
000300 91 63 80 bc 3c 65 e3 3c 6a 26 a4 bc fe d1 b1 bc
       -0.015672477 0.027758233 -0.020037849 -0.021706577
000310 f2 84 c7 3b 94 b0 00 bd c0 29 80 3b de 5b b7 bc
       0.0060888464 -0.031418398 0.003911227 -0.022382673
000320 8e a2 34 bd 3f d2 58 3d 86 8d 3b bd 66 95 49 3d
       -0.044100337 0.05293488 -0.045789264 0.049214743
000330 d7 be 93 3d d3 9e 69 bd c9 6e 82 3d 64 31 4a 3d
       0.07214134 -0.057036232 0.06368787 0.04936351
000340 73 40 eb 39 e9 36 35 3d 5d 61 b3 bc f6 5a 35 bd
       0.0004487071 0.04424182 -0.021897012 -0.0442762
000350 a3 0c 30 bd f9 58 42 bd 47 01 dd 3c cb 64 4b ba
       -0.0429808 -0.047448132 0.026978148 -0.0007758855
000360 fe dd 05 bc e5 2c fb 3c f9 37 cd 3c 44 db 91 3b
       -0.008170603 0.030661056 0.025051104 0.0044511873
000370 47 ac 69 3c e8 a0 db bc 75 1f 5e 3d b8 d2 60 3c
       0.0142622655 -0.026810125 0.05422922 0.013722114
000380 76 97 ef 3b 59 91 62 3c 74 0f 61 bd d6 f8 0d bd
       0.0073117567 0.013828599 -0.054946378 -0.034661137
000390 f9 db 21 3d f4 e3 b3 bc f5 ba e3 3c 5e 42 ce 3c
       0.039516423 -0.021959282 0.027799109 0.02517813
0003a0 77 01 c7 bd cc 84 03 bd 11 71 59 3b 43 ff a3 3c
       -0.09717076 -0.032109067 0.0033178965 0.02001918
0003b0 3f 5f a7 bd 75 af bf bc 05 a7 75 3c 4f 2a ff bc
       -0.081724636 -0.023399094 0.014993434 -0.031148104
0003c0 86 a9 9f 3d 5f 43 02 3c 4b 6c 34 bc 6b 5c 66 3d
       0.07796006 0.007950633 -0.011012147 0.05624048
0003d0 e8 c9 3f 3c cb fc ef 3b c3 93 ae 3c 4e c9 6a bc
       0.011705853 0.0073238364 0.021310693 -0.014330221
0003e0 63 a4 2b bc 28 8d 80 3c 02 ad 5b 3b 6f 0e 98 bc
       -0.010476205 0.015692309 0.0033519869 -0.01856157
0003f0 93 69 bc bc e9 40 bc bc 8f 93 b8 3b 3b 59 c6 3b
       -0.02299956 -0.02298017 0.0056328247 0.0060531176

action_model._continuous_distribution.mu.bias f4 [2]
000000 8d 74 be 3d 6a e0 13 bd
       0.09299574 -0.03610269

exp_avg f4 [128, 8]
000000 4e fe 07 b8 b8 b0 94 b6 b6 22 0d b6 2c db cb 38
       -3.2423348e-05 -4.4313165e-06 -2.1030842e-06 9.720618e-05
000010 90 1d 5e 37 de 3d 93 b7 ff 78 bb 37 99 15 95 b6
       1.3239114e-05 -1.7552575e-05 2.234848e-05 -4.4430603e-06
000020 11 15 7d 38 f1 14 ca 38 63 4f d2 38 b4 a5 dc 38
       6.033952e-05 9.636011e-05 0.00010028367 0.00010521282
000030 90 ca 7b 38 dc ee 1a b9 20 84 dd b9 a2 ac f6 39
       6.0031714e-05 -0.00014775567 -0.00042250846 0.00047049398
000040 1a 11 29 b9 80 4e a5 b7 60 3a 2f b9 bd fb 4f 39
       -0.00016123467 -1.9706087e-05 -0.00016711047 0.00019834838
000050 14 72 3c 38 c1 f4 2c b8 f2 41 9d 38 68 09 88 b6
       4.4928936e-05 -4.123594e-05 7.498627e-05 -4.054211e-06
000060 b4 34 97 38 6d 99 04 b9 41 2d 48 b9 17 e3 40 b8
       7.210058e-05 -0.00012645657 -0.00019090345 -4.598786e-05
000070 fa c3 b2 b7 5c d6 4e 38 f0 50 84 b9 9e 9c c5 37
       -2.1310512e-05 4.9313865e-05 -0.00025237305 2.355716e-05
000080 4b 1f 85 b9 18 1c b2 39 7e 8b cc b8 86 11 0d 3a
       -0.00025391052 0.00033971737 -9.7534605e-05 0.00053813343
000090 38 5d 3e 38 fd 40 88 b8 14 f8 de 39 a5 44 0a b9
       4.5386347e-05 -6.49709e-05 0.00042527972 -0.00013186278
0000a0 d4 7b 98 b7 22 da 0f 38 ae b6 12 38 2e 40 32 39
       -1.8177474e-05 3.429701e-05 3.4979246e-05 0.00016999312
0000b0 cc 72 96 36 ed 4a 18 b8 2a be 07 39 6c e3 bd b7
       4.4837125e-06 -3.6309404e-05 0.00012945445 -2.2636457e-05
0000c0 d1 e6 ce 39 92 b3 ab 38 b0 c4 b8 b9 76 29 44 38
       0.00039463353 8.187363e-05 -0.00035241758 4.6768655e-05
0000d0 06 0e 5e b9 86 0b fc 37 cd 97 a5 b9 7f 15 30 b9
       -0.00021176794 3.0046107e-05 -0.00031584353 -0.00016792676
0000e0 2e 71 b7 b9 97 57 5e 39 90 50 a2 39 4e 34 0c 3a
       -0.00034988805 0.000212042 0.00030959072 0.000534837
0000f0 38 02 b7 37 95 b8 57 b9 6c 17 7c 39 4a ee 40 39
       2.1816333e-05 -0.0002057276 0.00024041318 0.00018399316
000100 3e cc ec 38 a3 8b 28 b9 4d 7f 8f b8 ee 52 a6 b8
       0.000112914 -0.00016073747 -6.842483e-05 -7.930944e-05
000110 c8 ca c5 36 f8 65 a8 35 cd 89 3b b9 d0 fb 37 b6
       5.8946644e-06 1.2546652e-06 -0.00017885045 -2.74157e-06
000120 da 44 9c 37 af a6 8e b9 2e 7d 84 38 8c b3 8d b9
       1.862871e-05 -0.0002720854 6.317567e-05 -0.0002702739
000130 32 8d 20 39 57 5d 57 b8 d8 cb 1b b9 5e c7 82 b6
       0.00015311388 -5.1346924e-05 -0.0001485789 -3.8975113e-06
000140 28 f4 ef 38 33 f1 44 b9 ea e5 dc b8 f9 c7 0f b9
       0.00011441886 -0.0001878187 -0.00010533242 -0.00013712038
000150 0b 88 50 38 6c bf c1 38 94 04 5a b8 86 1c 3f b9
       4.9717764e-05 9.238612e-05 -5.1979514e-05 -0.00018225805
000160 52 59 e2 b8 08 3c 2a 39 44 82 e7 39 56 89 19 39
       -0.00010793157 0.00016234827 0.0004415681 0.00014642379
000170 bc 1d 17 39 75 f3 7b b8 7e 3c b6 39 74 ed b0 38
       0.00014411559 -6.00698e-05 0.00034758815 8.436563e-05
000180 f4 d5 ed 38 6a f6 44 b9 6a d5 5a 38 0c f2 0b ba
       0.000113408925 -0.00018783813 5.2174008e-05 -0.0005338497
000190 f5 e2 ec 38 c9 d6 d6 38 f6 d0 47 b9 b0 cc 36 37
       0.00011295631 0.00010244322 -0.00019055963 1.0895703e-05
0001a0 c3 7f 5e 39 c8 e7 97 b9 30 44 e1 b8 81 4b 7f b9
       0.00021219165 -0.00028973655 -0.00010741537 -0.00024346822
0001b0 f8 0b 23 39 ea 4e 93 38 47 25 d7 b9 43 9c b2 b8
       0.0001554935 7.024205e-05 -0.0004103577 -8.5168074e-05
0001c0 04 9c fc 39 ab 8e 80 b9 90 50 0c 38 ce 6e 1f ba
       0.00048181426 -0.00024520358 3.345363e-05 -0.000608188
0001d0 4a c5 41 38 2a 92 de 38 1d 06 63 b9 dd a5 5b b9
       4.6198526e-05 0.0001061301 -0.00021650684 -0.00020947256
0001e0 ca 98 e3 39 d7 30 a5 b9 04 47 77 b9 8f 59 8b b9
       0.0004341065 -0.0003150764 -0.00023582211 -0.00026578872
0001f0 26 5f b5 b8 6b 1f e8 38 9d cd 00 ba 7c 8e 51 b9
       -8.648475e-05 0.00011068474 -0.0004913451 -0.00019984873
000200 84 36 b0 b8 15 07 02 39 68 3a 33 b7 31 f0 b2 39
       -8.402488e-05 0.00012400404 -1.068283e-05 0.00034129762
000210 b5 b4 00 38 48 2b b1 b8 1a 4d 65 39 b1 b7 ad b7
       3.0685875e-05 -8.4480795e-05 0.00021867864 -2.0708745e-05
000220 94 0c 7b b8 28 bb 31 39 56 eb ac 38 8b f5 ed 37
       -5.9854778e-05 0.00016949757 8.245434e-05 2.8366941e-05
000230 32 55 fa 36 7a 1f 12 b8 06 10 71 39 30 d9 3a b7
       7.4604986e-06 -3.4838427e-05 0.0002298952 -1.1137032e-05
000240 4f ad ab b8 82 b6 e6 38 2a 64 54 36 73 9c fb 38
       -8.186197e-05 0.000110012494 3.1648765e-06 0.000119977536
000250 46 e9 10 b7 1e 8a f5 b7 1c 43 6e 38 74 ab 59 38
       -8.637382e-06 -2.9270592e-05 5.6806122e-05 5.189651e-05
000260 4d c2 58 b7 f8 13 5d b8 be 54 7d b7 a8 78 03 b9
       -1.2919842e-05 -5.2709103e-05 -1.5099706e-05 -0.00012538082
000270 8e ab f3 b6 ce 70 77 37 3e 8a 99 b7 ce a7 96 37
       -7.261936e-06 1.4748612e-05 -1.8303395e-05 1.7959534e-05
000280 21 e8 e6 39 da 79 87 b9 c8 9e da b9 fc 18 ad b8
       0.00044041968 -0.00025839993 -0.000416985 -8.2539365e-05
000290 22 9a 0a b9 ac 10 ea 38 5f 2c 23 ba e0 71 ef 37
       -0.00013218125 0.00011161095 -0.00062245684 2.8544047e-05
0002a0 c8 2b f3 b8 6a 83 e8 b8 99 ba ab b9 4c 07 a4 38
       -0.00011595298 -0.000110871 -0.00032754688 7.8214885e-05
0002b0 65 4e 7d b8 28 8f 2e 36 8a 12 e3 b8 ea 04 22 b9
       -6.039291e-05 2.6011348e-06 -0.00010827657 -0.00015451355
0002c0 08 95 d4 38 0c 42 82 b9 97 ab ac b8 b6 35 e1 b8
       0.00010136707 -0.0002484474 -8.23356e-05 -0.000107388405
0002d0 a4 47 d5 38 f0 e4 cd 37 86 34 71 b8 c1 9f 27 b9
       0.000101699756 2.4544512e-05 -5.7507794e-05 -0.00015985874
0002e0 06 8b 3d 39 58 09 f7 b7 40 0b 78 b9 ac 91 c6 b8
       0.00018076235 -2.9449046e-05 -0.00023655314 -9.468509e-05
0002f0 f4 36 bc b8 ad 5c ba 37 e4 77 a8 b9 4b 87 1d b8
       -8.9747744e-05 2.2216083e-05 -0.00032132783 -3.755772e-05
000300 fd f9 1f b9 c7 19 43 38 d8 a5 e3 38 0a 02 4f 38
       -0.0001525655 4.651563e-05 0.00010855094 4.9354545e-05
000310 2b 0f 08 38 0e 7d 03 b8 c1 09 4f 39 35 be 26 37
       3.2439053e-05 -3.13493e-05 0.00019744692 9.938657e-06
000320 3a 10 ff b7 72 0f 5d 38 8e 8e ff b6 bb 0b 88 39
       -3.0405925e-05 5.270489e-05 -7.6161878e-06 0.0002594868
000330 60 f5 cb 37 b7 86 c3 b7 2a c9 16 39 4e fb f1 b7
       2.4313747e-05 -2.3308543e-05 0.00014380054 -2.8846462e-05
000340 fe f1 31 38 36 d7 3b 39 40 9c 1b 35 84 47 95 38
       4.242546e-05 0.00017913882 5.7969373e-07 7.1181945e-05
000350 34 8e c7 b8 a0 cc b9 35 cd aa 24 39 d0 a1 63 b8
       -9.515547e-05 1.3843128e-06 0.00015703887 -5.4271717e-05
000360 b0 33 6a 39 40 7b 5e 36 4e 09 c7 39 b4 a4 fc b8
       0.00022335234 3.3152319e-06 0.0003796317 -0.00012046975
000370 f3 cd 59 39 fa 0f 4f 38 1e 41 25 b9 00 24 69 b8
       0.00020771455 4.9367525e-05 -0.00015759884 -5.5585057e-05
000380 09 c1 00 39 1c d1 75 b9 8a 60 3d b8 7f 42 4c b9
       0.00012278942 -0.0002344292 -4.515102e-05 -0.00019479728
000390 9d b2 02 38 76 b5 23 38 98 74 f7 b8 fc 96 e7 b8
       3.1160762e-05 3.9031227e-05 -0.00011799595 -0.000110430614
0003a0 b0 48 3e b7 61 a0 98 38 00 70 2d b8 87 c7 83 38
       -1.1341806e-05 7.277798e-05 -4.1350722e-05 6.283732e-05
0003b0 77 a9 ad b7 93 9c dc b7 be 7c 19 38 b0 4f 41 36
       -2.070212e-05 -2.6298954e-05 3.6594218e-05 2.8805625e-06
0003c0 56 5e f3 38 37 31 7d 39 9a 32 8b b8 88 ed e6 39
       0.000116047144 0.00024146294 -6.637462e-05 0.00044045993
0003d0 b2 4e 40 b9 7a 88 c0 b8 b0 1f a7 38 ac 9c 4f b8
       -0.00018339863 -9.180694e-05 7.969083e-05 -4.9498558e-05
0003e0 86 a8 cb b7 a9 a2 86 39 15 e3 45 39 d4 3f 16 39
       -2.427796e-05 0.00025679663 0.00018871979 0.00014328893
0003f0 90 67 b2 b7 28 50 47 b8 78 09 62 39 30 e4 ce 36
       -2.1267479e-05 -4.751995e-05 0.00021556567 6.165843e-06

exp_avg_sq f4 [128, 8]
000000 9c 92 cb 32 2d 66 99 32 d5 46 db 32 61 e1 ce 32
       2.369898e-08 1.7858008e-08 2.5527166e-08 2.4084047e-08
000010 a2 c7 27 32 19 20 8f 32 59 c7 d7 32 92 e3 1e 32
       9.766071e-09 1.6661987e-08 2.5119947e-08 9.248554e-09
000020 6b 16 da 34 06 03 3e 35 84 ee 6d 35 ec b7 c8 34
       4.0621975e-07 7.0784915e-07 8.8636466e-07 3.7386724e-07
000030 0d 8b f6 34 3e 37 4c 34 96 d5 93 34 2d 2d d2 34
       4.5922243e-07 1.9019078e-07 2.7536288e-07 3.9148418e-07
000040 4d 7b c4 34 c0 4d b5 34 a6 1d df 34 64 68 b7 34
       3.6597558e-07 3.3770448e-07 4.155856e-07 3.416236e-07
000050 6f ec 32 34 3a 7e 77 34 ec ba 1a 35 7a 12 50 34
       1.6663556e-07 2.3049589e-07 5.764148e-07 1.9378231e-07
000060 16 bb f0 33 f0 89 2c 34 c4 e2 ff 33 8b e5 04 34
       1.12099016e-07 1.606893e-07 1.1915611e-07 1.2376965e-07
000070 79 f2 b0 33 b5 bd 73 33 bd e5 9c 34 e1 3e be 33
       8.239744e-08 5.6750384e-08 2.922442e-07 8.859002e-08
000080 8a 14 fe 34 98 d8 d9 34 28 2d 09 35 9d 0c 06 35
       4.732613e-07 4.0576992e-07 5.110219e-07 4.9937245e-07
000090 38 a1 63 34 62 58 bc 34 38 d1 40 35 6c 70 86 34
       2.1199673e-07 3.5082036e-07 7.1830027e-07 2.5041243e-07
0000a0 8f 5e 3f 33 c4 4d 80 33 1d e1 3a 33 37 2d 9b 33
       4.4556653e-08 5.97461e-08 4.351124e-08 7.2259745e-08
0000b0 89 5a 28 33 42 d8 ae 32 ba 78 ce 33 82 42 0a 33
       3.919789e-08 2.0354609e-08 9.6145826e-08 3.2191117e-08
0000c0 a9 d8 a2 34 72 ed 36 35 7e 6a f9 34 39 c4 fd 34
       3.0332492e-07 6.814581e-07 4.6457347e-07 4.7267693e-07
0000d0 d1 63 ff 34 15 7c 16 34 21 d7 36 35 08 23 00 35
       4.7570077e-07 1.401498e-07 6.811334e-07 4.7734693e-07
0000e0 71 e8 86 34 56 9d d3 34 a3 9f c8 34 6b 55 c3 34
       2.5128568e-07 3.941629e-07 3.7369054e-07 3.638373e-07
0000f0 6c 56 5a 34 a9 f5 f2 33 d3 e6 32 34 99 1a 39 34
       2.0334272e-07 1.13136885e-07 1.6661515e-07 1.7239144e-07
000100 11 aa 27 33 94 80 80 33 4b a9 0c 33 9b 6e 8f 33
       3.9037392e-08 5.983853e-08 3.275026e-08 6.6790754e-08
000110 fc bc 0c 33 41 54 a9 32 4c c6 cb 33 d2 97 2f 33
       3.276817e-08 1.9712504e-08 9.488994e-08 4.0883442e-08
000120 4a 88 f6 33 1e 3e 6b 34 26 30 36 34 08 8b 4a 34
       1.14800585e-07 2.1908679e-07 1.6967587e-07 1.8863295e-07
000130 c3 22 20 34 87 6a 78 33 50 a9 3c 34 e4 79 30 34
       1.4913807e-07 5.7838886e-08 1.757046e-07 1.6435621e-07
000140 1e 79 e0 33 77 d8 32 34 02 1a 01 34 ac 52 21 34
       1.0452844e-07 1.6656291e-07 1.2023523e-07 1.502437e-07
000150 41 10 bb 33 d7 05 75 33 30 7d 18 34 84 b3 fc 33
       8.7108226e-08 5.704882e-08 1.4201646e-07 1.1767318e-07
000160 b4 5d 42 35 56 91 90 35 5f b5 82 35 57 6d 95 35
       7.240699e-07 1.0771134e-06 9.738541e-07 1.1133187e-06
000170 5b 5e 54 35 f1 3c a7 34 cf 8f c4 35 31 05 1b 35
       7.911346e-07 3.1150515e-07 1.4644992e-06 5.7749554e-07
000180 25 84 b8 34 e9 89 27 35 da 98 fd 34 9e 00 22 35
       3.4368819e-07 6.2413034e-07 4.7236136e-07 6.03506e-07
000190 0c d8 e8 34 c7 97 91 34 52 a5 ff 34 a4 53 10 35
       4.3370562e-07 2.7118787e-07 4.7617738e-07 5.3765893e-07
0001a0 98 00 c6 34 53 29 06 35 ed 05 df 34 e7 98 01 35
       3.6880806e-07 4.9979025e-07 4.1541298e-07 4.8278747e-07
0001b0 72 b1 9a 34 24 7c 25 34 76 79 42 35 47 37 9f 34
       2.8813844e-07 1.5411985e-07 7.244738e-07 2.9656277e-07
0001c0 06 f9 db 34 b3 48 42 35 9f 95 1c 35 26 4d e2 34
       4.0973117e-07 7.2376423e-07 5.8332256e-07 4.2151913e-07
0001d0 61 d6 8a 34 64 72 8f 34 91 48 52 34 5b fc f9 34
       2.5860484e-07 2.6719056e-07 1.9584174e-07 4.6563477e-07
0001e0 54 f0 5a 34 1d 70 de 34 ce 87 be 34 bf 7d 91 34
       2.0390263e-07 4.1432295e-07 3.548907e-07 2.7099847e-07
0001f0 e2 66 86 34 4f b8 df 33 e9 a5 8f 34 eb 13 5a 34
       2.5034302e-07 1.0417772e-07 2.675654e-07 2.0310078e-07
000200 9d b0 1e 34 a7 4d 89 34 47 2e 51 34 79 30 7c 34
       1.4779148e-07 2.5574738e-07 1.9481477e-07 2.3486963e-07
000210 ee 1c 27 34 fd 8a ec 33 aa 2a 51 34 56 31 04 34
       1.5563612e-07 1.1014888e-07 1.9480163e-07 1.2311406e-07
000220 76 5e b1 33 05 29 97 33 2d 64 b3 33 a9 b5 b0 33
       8.259387e-08 7.038947e-08 8.353559e-08 8.2286824e-08
000230 e5 67 00 33 d1 7c 3f 33 94 b2 23 34 4b 92 fe 32
       2.9896814e-08 4.4584173e-08 1.5245524e-07 2.9636018e-08
000240 15 96 42 32 03 87 81 32 e7 d9 41 32 61 ab 16 32
       1.1326411e-08 1.5078973e-08 1.1283624e-08 8.770116e-09
000250 18 8b a4 31 8b b1 1a 32 f2 b6 33 32 a0 67 05 32
       4.7888413e-09 9.004348e-09 1.0460768e-08 7.7651805e-09
000260 fb fc 34 32 87 69 d5 32 84 c5 82 32 21 68 ba 32
       1.05349e-08 2.4844452e-08 1.5223812e-08 2.1700602e-08
000270 ee 05 88 32 9a 60 2d 32 89 fe 2a 32 96 84 73 32
       1.583518e-08 1.009189e-08 9.953177e-09 1.4174608e-08
000280 88 b7 c3 34 88 3c 2a 35 eb 76 ef 34 f3 54 fa 34
       3.6455117e-07 6.341802e-07 4.4603743e-07 4.6627937e-07
000290 56 cd d2 34 0a 54 07 34 c3 04 80 35 c0 57 d5 34
       3.926495e-07 1.2603428e-07 9.538129e-07 3.9738188e-07
0002a0 c7 80 68 35 72 78 5d 35 1d bf 86 35 5d 44 42 35
       8.661413e-07 8.2504187e-07 1.0039399e-06 7.2370113e-07
0002b0 23 69 ce 34 c4 b8 1e 35 ff 0b 7d 35 56 3f 0c 35
       3.8446987e-07 5.9128456e-07 9.42673e-07 5.224623e-07
0002c0 12 58 ac 33 8a a6 6a 34 9a fb 0d 34 ed 3e 27 34
       8.025394e-08 2.1853535e-07 1.322318e-07 1.5575979e-07
0002d0 06 3f 0f 34 cd 51 11 33 c5 27 07 34 e7 82 16 34
       1.334084e-07 3.383484e-08 1.2587323e-07 1.401746e-07
0002e0 f4 fe c1 33 11 29 12 34 8d d1 e4 33 13 08 15 34
       9.0336385e-08 1.361225e-07 1.06551944e-07 1.3879644e-07
0002f0 97 f0 ce 33 3c f7 1b 33 d8 ce 66 34 77 fb b1 33
       9.6363856e-08 3.6313608e-08 2.1495669e-07 8.287946e-08
000300 b0 dd e1 32 8e 81 6f 33 a6 3c 43 33 ef 38 22 33
       2.629426e-08 5.5764353e-08 4.5457135e-08 3.7770345e-08
000310 4e 97 30 33 63 3b fb 31 40 2c 85 33 1e d3 cc 32
       4.1115804e-08 7.311813e-09 6.201344e-08 2.384473e-08
000320 9c a8 a6 33 f1 8a da 33 e6 0e eb 33 c4 18 e9 33
       7.760647e-08 1.01766894e-07 1.094575e-07 1.0854413e-07
000330 07 70 92 33 98 0a 52 33 c1 b5 ea 33 20 cd 55 33
       6.8190324e-08 4.890407e-08 1.0929535e-07 4.9779487e-08
000340 4b b5 fd 33 db 54 97 34 14 45 3c 34 6c a5 7d 34
       1.18142076e-07 2.8187682e-07 1.7533995e-07 2.3622641e-07
000350 6c fd 55 34 ba b9 2a 33 e1 14 92 34 8f 77 30 34
       1.9929365e-07 3.9750127e-08 2.720981e-07 1.6434772e-07
000360 a8 da 8c 35 48 c4 a6 35 4e 97 ae 35 a0 48 ab 35
       1.049445e-06 1.2425089e-06 1.3008046e-06 1.276163e-06
000370 4b 1f 59 35 74 d2 eb 34 fe fc d9 35 4f 07 5a 35
       8.0884337e-07 4.3925286e-07 1.624139e-06 8.1221964e-07
000380 e4 7d 62 33 73 32 a0 33 03 80 6f 33 36 b7 51 33
       5.2734222e-08 7.459757e-08 5.576295e-08 4.8828234e-08
000390 b5 12 db 32 78 6a 1c 33 5a 5b 84 33 0c f2 2e 33
       2.5503462e-08 3.6418413e-08 6.163346e-08 4.0732672e-08
0003a0 da 8b 18 33 40 bc 52 33 f3 ab 18 33 7f 89 55 33
       3.5517452e-08 4.9065648e-08 3.5546645e-08 4.971798e-08
0003b0 39 dc f8 32 0c ac a3 32 d9 05 a8 33 23 fc 28 33
       2.8971145e-08 1.9053935e-08 7.824173e-08 3.9344865e-08
0003c0 7d 65 05 35 b0 e3 61 35 d4 8d 48 35 19 23 3c 35
       4.9694046e-07 8.415036e-07 7.4712193e-07 7.008653e-07
0003d0 62 83 23 35 5a 3d 5e 34 fe 83 5f 35 a8 4b df 34
       6.091342e-07 2.0697681e-07 8.326605e-07 4.1592034e-07
0003e0 08 bd 09 34 a1 69 68 34 95 5d 4c 34 6b fa 04 34
       1.2827888e-07 2.1645111e-07 1.9033025e-07 1.238456e-07
0003f0 80 bb 94 33 5d 42 70 33 0d b9 28 34 c9 76 b9 33
       6.925893e-08 5.593971e-08 1.571354e-07 8.636341e-08

exp_avg f4 [128]
000000 71 d1 1f 38 c0 f5 00 ba 34 56 16 39 ba cc 5e 39
       3.810361e-05 -0.0004919432 0.00014337228 0.00021247836
000010 78 07 ae 37 6f 24 49 38 cd 41 25 3a 17 89 a2 b8
       2.0745894e-05 4.7956066e-05 0.00063040556 -7.750297e-05
000020 87 b4 42 39 81 93 03 b9 cc d4 36 39 90 0e 05 ba
       0.00018568533 -0.00012548083 0.00017436146 -0.00050757173
000030 6c 24 9d b9 aa dc 40 39 fa 35 8c b9 09 ff 0d 3a
       -0.0002997251 0.0001839275 -0.00026743097 0.00054167263
000040 32 17 22 39 a0 ff 3c b9 82 b5 43 b8 96 c0 93 b8
       0.00015458165 -0.00018024305 -4.6660665e-05 -7.045378e-05
000050 71 5a 27 3a 8d 34 f2 39 ee 0c d5 38 07 2e 97 39
       0.0006384021 0.0004619699 0.0001015904 0.00028835257
000060 fd 85 34 b9 de 55 ee 38 2e 8f b4 38 60 c0 f5 b9
       -0.00017216052 0.000113647184 8.609738e-05 -0.00046873372
000070 8c b0 4a 39 16 04 96 38 df 79 dc 39 a1 70 99 b9
       0.0001932999 7.1533184e-05 0.0004205247 -0.0002926635
000080 42 5f b0 39 fc 03 3e 3a b2 32 15 ba 34 f2 5a b9
       0.00033640309 0.00072485185 -0.0005691453 -0.00020880328
000090 83 2d ab 39 67 15 19 ba 0e e6 f1 b9 68 19 ef 39
       0.0003264957 -0.0005839676 -0.00046138506 0.00045604561
0000a0 3d 04 9e b9 30 92 20 b9 38 be 68 36 f4 27 1d 3a
       -0.00030139266 -0.00015313248 3.4681416e-06 0.0005995028
0000b0 93 d8 11 3a 02 e8 3d b8 a4 0c 15 ba 09 38 63 39
       0.0005563583 -4.5277186e-05 -0.00056857825 0.00021669282
0000c0 56 2f e3 b9 63 78 95 39 9f 04 06 39 4e 25 c8 b9
       -0.00043332082 0.0002850919 0.00012780957 -0.00038174767
0000d0 3b d8 65 b8 99 fa f1 39 e7 2e 28 b9 e0 7b c7 39
       -5.4799235e-05 0.00046153812 -0.00016039201 0.00038048532
0000e0 e6 39 96 b8 55 6f a1 b9 01 e2 ce 39 d3 bc d1 39
       -7.163342e-05 -0.00030791262 0.00039459768 0.0004000427
0000f0 68 1b a2 b9 4f e5 9c b9 90 da 79 b5 80 d3 45 b8
       -0.00030919467 -0.00029925487 -9.307778e-07 -4.7165435e-05
000100 6e e2 30 ba 73 7a 9d 39 d6 ae b6 b9 b6 fb be 38
       -0.0006747608 0.00030036605 -0.00034844008 9.106791e-05
000110 1f 2f f7 b8 a3 c0 75 39 04 d7 ce b8 56 e8 78 b8
       -0.00011786655 0.00023436784 -9.862895e-05 -5.9344187e-05
000120 51 cc 50 b9 3e ea 1c 38 45 52 6a b9 6c 24 77 38
       -0.0001991254 3.7411453e-05 -0.00022346627 5.892331e-05
000130 ad 82 5a 3a e6 5c c9 37 78 57 71 39 d5 96 bc 39
       0.0008335512 2.4004326e-05 0.00023016136 0.00035970533
000140 59 3d 0b 3a a1 cc 71 39 4d 33 8e 39 cc a2 73 39
       0.0005311571 0.00023059781 0.00027122573 0.00023234932
000150 f8 4a 21 ba 8d 02 b5 39 87 d2 e4 b8 3a 20 26 38
       -0.0006152834 0.0003452491 -0.00010911101 3.9607497e-05
000160 2f 9e 28 39 c7 be d3 39 34 06 68 39 9d b5 91 b9
       0.00016080656 0.00040387196 0.00022127555 -0.00027791868
000170 c4 4a b0 b9 79 71 31 39 f8 35 a9 b8 03 26 ac b9
       -0.0003362504 0.00016922307 -8.0686004e-05 -0.00032834717
000180 52 35 9c b8 41 2b a7 39 78 ed 4d b8 09 4a 9e 38
       -7.448591e-05 0.0003188495 -4.909697e-05 7.547817e-05
000190 70 a2 30 39 56 a9 52 39 d4 8f 7b 37 57 d8 e0 37
       0.0001684518 0.00020090243 1.4994253e-05 2.6803622e-05
0001a0 ba 79 93 b9 ea f3 1a ba 81 da b5 b9 88 d7 25 39
       -0.00028128718 -0.000591098 -0.00034685808 0.00015815918
0001b0 e8 15 e0 b8 c4 96 0e ba 7a f3 26 b9 65 0e 1e ba
       -0.00010685233 -0.0005439336 -0.00015921696 -0.00060293666
0001c0 34 24 dd 38 9c 0e 9e 39 03 e6 f6 b8 8b 70 23 3a
       0.000105448446 0.00030146993 -0.00011773037 0.0006234727
0001d0 1c e0 13 3a 91 94 94 b9 ed 1b 2e 3a 0d 2b 1c 3a
       0.0005641 -0.0002833945 0.00066417345 0.0005957343
0001e0 5c 28 28 b9 f8 f3 65 b8 25 50 2c b9 67 ce 9d b9
       -0.00016036764 -5.482507e-05 -0.00016433054 -0.00030099155
0001f0 09 11 0f b9 95 e2 f0 b9 a0 b4 83 39 27 82 36 39
       -0.00013643889 -0.00045945184 0.00025120843 0.00017405358

exp_avg_sq f4 [128]
000000 99 9d 80 32 c9 96 5d 35 09 0d 96 34 7e fb c4 33
       1.4972828e-08 8.2548337e-07 2.7949162e-07 9.1727074e-08
000010 c5 eb c9 34 27 26 03 33 a5 fe dc 34 95 b4 93 34
       3.7610712e-07 3.0535514e-08 4.1163472e-07 2.7512274e-07
000020 8d 2e cb 32 69 93 28 34 43 0c be 33 b9 42 3d 35
       2.365348e-08 1.5699847e-07 8.849795e-08 7.050508e-07
000030 92 c1 ca 34 b0 bd a1 34 47 c9 0b 35 ca 25 a1 34
       3.7766273e-07 3.0126603e-07 5.207443e-07 3.0016082e-07
000040 cc 23 18 34 11 b0 6e 33 2f 2d 0f 32 53 39 46 32
       1.4169126e-07 5.5573825e-08 8.333969e-09 1.1538151e-08
000050 25 5f d4 34 25 a0 33 35 0b 2c f1 33 b1 fd ac 33
       3.9557304e-07 6.691574e-07 1.12304484e-07 8.05552e-08
000060 6d 2d 2a 33 62 2e bc 33 93 90 2d 34 c1 11 80 35
       3.9622524e-08 8.762869e-08 1.6164476e-07 9.54191e-07
000070 84 74 42 33 2f 5f dd 32 d8 8e 29 35 30 b1 2c 34
       4.5275115e-08 2.577107e-08 6.316527e-07 1.6083209e-07
000080 10 27 5c 34 3c 99 39 35 81 61 ee 34 c5 e7 f1 32
       2.0503307e-07 6.9140856e-07 4.4401898e-07 2.816149e-08
000090 94 76 ed 34 35 3b 7b 35 1e 2d b4 34 83 81 27 35
       4.4230967e-07 9.3590944e-07 3.356044e-07 6.240081e-07
0000a0 eb 46 77 34 69 5c 74 33 44 a9 02 34 bb c6 e1 34
       2.3029467e-07 5.6894724e-08 1.2168772e-07 4.205411e-07
0000b0 5a 31 96 34 9c 4c e8 32 23 6c 36 35 f4 2d 02 35
       2.7975585e-07 2.7043193e-08 6.7957643e-07 4.8495644e-07
0000c0 7f bc 11 35 a9 45 e4 33 eb 05 ea 32 64 69 03 34
       5.429101e-07 1.06297485e-07 2.7243876e-08 1.2238667e-07
0000d0 8c 81 fd 33 76 73 0f 35 d3 66 d4 33 bc e1 a9 34
       1.1804795e-07 5.343967e-07 9.890723e-08 3.1642946e-07
0000e0 69 7e e4 33 3f a2 97 34 cf ff 1e 34 b1 ac ac 34
       1.0640071e-07 2.824399e-07 1.480796e-07 3.2163146e-07
0000f0 5a 26 95 34 63 66 90 33 65 fd ae 33 0b c6 e5 33
       2.7781317e-07 6.7241466e-08 8.1485986e-08 1.0699667e-07
000100 7d b7 21 35 38 ac e4 33 9d d5 78 34 09 8c 74 33
       6.0244184e-07 1.0648404e-07 2.3174512e-07 5.693804e-08
000110 86 a5 45 33 18 81 ed 34 44 05 17 33 bf 41 e1 32
       4.601818e-08 4.4238618e-07 3.5162216e-08 2.6223345e-08
000120 ab d4 ed 33 1d 8a 53 34 97 17 3b 34 aa 16 28 34
       1.10748566e-07 1.9701152e-07 1.7424314e-07 1.5654464e-07
000130 b3 2d 11 35 20 c9 43 34 cd 6b ab 34 d9 57 89 34
       5.408321e-07 1.8233959e-07 3.1929667e-07 2.5582156e-07
000140 46 b9 42 35 27 a0 fc 33 f6 47 bb 34 ad 88 2e 35
       7.254024e-07 1.1763796e-07 3.4883823e-07 6.501894e-07
000150 6a f5 15 35 84 ef 97 35 a2 2b ca 33 86 25 ff 31
       5.586395e-07 1.1320085e-06 9.414295e-08 7.4257427e-09
000160 70 41 05 34 4b 0e 2b 34 bd c4 98 33 b5 f5 97 34
       1.2410396e-07 1.5930816e-07 7.113838e-08 2.8304717e-07
000170 37 0b 95 34 4f 7f c9 33 fc e0 ce 34 14 bd a5 34
       2.7761573e-07 9.382949e-08 3.8534188e-07 3.0871217e-07
000180 98 9f 70 33 2d 48 4d 34 ac ac 32 34 33 94 c6 33
       5.6024504e-08 1.911837e-07 1.664036e-07 9.247051e-08
000190 97 9f b1 33 6a 18 98 34 af 3b 03 34 3f 2a ff 32
       8.271234e-08 2.832997e-07 1.2222038e-07 2.9705118e-08
0001a0 8c e2 10 35 6a 6d 11 35 b5 3c 4b 34 ab 32 0f 33
       5.397385e-07 5.417593e-07 1.8927933e-07 3.3340864e-08
0001b0 86 52 a4 34 11 33 8e 34 87 08 db 33 3e 2a 4e 35
       3.0607424e-07 2.6486717e-07 1.0199533e-07 7.680245e-07
0001c0 76 a6 03 35 96 a1 62 34 31 6d 96 32 15 e0 e6 34
       4.9043535e-07 2.1106675e-07 1.7511953e-08 4.300388e-07
0001d0 b1 1d 58 35 97 88 82 34 d3 b6 6b 35 34 67 9a 35
       8.0509477e-07 2.431377e-07 8.7810366e-07 1.150393e-06
0001e0 6f 22 8e 33 49 d6 8e 33 bf 71 ae 33 e9 76 10 34
       6.618654e-08 6.6513685e-08 8.123197e-08 1.3454304e-07
0001f0 f3 38 ac 32 92 83 20 35 48 25 49 34 7d 7f 35 33
       2.0049333e-08 5.9796105e-07 1.8733147e-07 4.2258296e-08

exp_avg f4 [1, 2]
000000 c9 c9 68 bb 30 7c 55 bc
       -0.0035520664 -0.013030097

exp_avg_sq f4 [1, 2]
000000 6a 0a 8f 39 88 e7 7d 39
       0.00027282845 0.00024214212

exp_avg f4 [2, 128]
000000 41 6f cf ba 4e 22 5e bb 16 69 e3 ba d6 93 b0 ba
       -0.0015826003 -0.003389496 -0.0017350044 -0.0013471793
000010 9e 51 a5 3a 7a 7d d8 ba 19 a5 63 bb b4 95 ff ba
       0.0012612825 -0.0016516887 -0.0034735857 -0.0019499571
000020 e2 f8 ab 3a c4 c6 2a b9 57 1c 30 bb f0 d9 92 ba
       0.0013120438 -0.0001628651 -0.002687236 -0.0011203866
000030 a1 50 96 ba 8e 0a 90 bb 93 5a d7 ba 35 8a ed ba
       -0.0011468121 -0.0043957895 -0.0016430191 -0.0018122854
000040 b0 b8 a9 b9 1b d4 6a ba 80 fc fa 37 44 d0 86 bb
       -0.00032371795 -0.0008957998 2.9919902e-05 -0.0041141827
000050 29 84 59 bb 44 04 dd b9 68 9e cb bb 36 71 33 bb
       -0.0033190346 -0.00042155583 -0.006213952 -0.0027380711
000060 8e b6 1c bb a0 8c 04 ba 11 9c c3 bb dd b5 1c bb
       -0.0023912522 -0.0005056355 -0.0059695323 -0.002391211
000070 48 d1 0b 3a 93 0c 1b ba 9c 19 ae bb ce 6e e8 ba
       0.00053336145 -0.00059146545 -0.0053131115 -0.0017733218
000080 de 70 53 b9 69 0f e9 ba c2 59 cb ba 04 60 0c 3a
       -0.00020164574 -0.0017781082 -0.0015514421 0.00053548836
000090 56 96 13 bb 2c a2 a5 ba 48 49 06 bb 1e 81 a9 ba
       -0.0022520027 -0.0012636832 -0.0020490456 -0.0012932157
0000a0 1e 0f c4 ba 49 55 99 b9 40 7b 2f 39 37 c8 a8 bb
       -0.0014958119 -0.00029245976 0.00016735215 -0.0051508206
0000b0 18 7d 27 3a 89 aa c4 ba 47 2b 05 bb c7 3c da ba
       0.0006389185 -0.0015004437 -0.0020319985 -0.0016650193
0000c0 1b c3 73 bb b4 3a ac bb 4a 54 09 3a 6f f1 5e ba
       -0.003719515 -0.0052560214 0.00052386953 -0.00085046043
0000d0 67 42 c5 b9 67 b0 99 ba f8 a3 1e bb 7d a7 6c bb
       -0.00037624242 -0.0011725546 -0.002420662 -0.0036110573
0000e0 4a b2 a2 ba 04 0d c2 ba 51 5a 80 bb 66 40 ad ba
       -0.0012412753 -0.0014804904 -0.0039170166 -0.0013218045
0000f0 d8 43 07 bb dc 85 bc b9 da d7 73 b9 82 96 92 ba
       -0.0020639803 -0.00035957887 -0.00023254697 -0.0011183771
000100 e2 c4 cf ba 48 75 02 b9 7f df 00 bb 91 21 bd ba
       -0.0015851522 -0.00012441457 -0.0019664464 -0.0014429559
000110 01 8e 96 bb 16 96 8d bb f8 53 ac ba e9 aa 66 bb
       -0.004594565 -0.00432087 -0.0013147583 -0.0035197085
000120 78 e8 a9 ba 7c 2e 5c 39 c0 f3 11 ba 3e b9 06 bb
       -0.0012962958 0.00020998152 -0.00055676326 -0.002055719
000130 aa 90 f7 ba c9 c3 22 bb 7e 9b 60 bb db 29 d1 ba
       -0.0018887718 -0.0024835935 -0.0034272368 -0.0015957908
000140 7f d9 0a ba 99 b2 88 ba 32 25 7a ba 96 27 e7 ba
       -0.00052966917 -0.0010429203 -0.00095422857 -0.0017635699
000150 b2 08 43 bb e1 de 92 bb 63 28 15 ba 9e 03 03 3a
       -0.0029759821 -0.0044821356 -0.0005689917 0.00049977924
000160 aa 82 1e bb 0a 52 81 bb 87 43 98 3a 04 13 90 bb
       -0.0024186769 -0.0039465474 0.0011616804 -0.004396798
000170 f8 7d cd ba 7e 2c c1 ba 52 87 74 b9 19 50 8e ba
       -0.00156778 -0.0014737991 -0.00023320064 -0.0010857611
000180 02 9b 29 bb 12 1c 7e bb 6d 31 79 ba 55 5f 2d bb
       -0.0025879745 -0.0038774055 -0.0009505961 -0.0026454527
000190 84 83 d2 ba f3 ac 9d bb f2 c5 84 bb 30 8d e5 b9
       -0.0016060923 -0.004811877 -0.004051917 -0.00043783477
0001a0 ce 98 ed ba a6 a2 2f bb 42 d2 00 bb 3b ed d5 ba
       -0.0018127204 -0.0026799827 -0.0019656573 -0.001632131
0001b0 ca b4 fe ba f2 9d 59 ba df 5d 81 3a 28 cd 1f bb
       -0.0019432541 -0.0008301429 0.0009869895 -0.0024383757
0001c0 f2 42 31 bb 56 17 82 ba 24 08 67 3a da 75 36 ba
       -0.002704796 -0.0009925168 0.0008813164 -0.000696031
0001d0 d9 be 4b b9 2f b4 b5 b9 a9 3a be ba 65 94 0b bc
       -0.00019430685 -0.00034657257 -0.0014513332 -0.008519267
0001e0 ed 4d 97 ba d9 2c 47 bb fd 96 7d ba 3a f3 fe 39
       -0.001154361 -0.0030391722 -0.0009673683 0.00048627873
0001f0 26 5c 67 3a 09 77 de ba ba 62 6e bb bd d6 34 bb
       0.0008825682 -0.0016972731 -0.0036374764 -0.0027593814
000200 0d 05 b9 bb 4e e8 26 bb 37 c8 73 3a 0a da 2e 3c
       -0.005646354 -0.0025468054 0.00092995487 0.010672102
000210 88 44 c7 3a 82 55 7a 3a 84 bd b7 3b 94 80 c9 bb
       0.0015202919 0.0009549485 0.005607309 -0.006149361
000220 71 19 a4 3b e1 bf 00 39 c9 10 7a 3b ea 08 b4 ba
       0.0050079157 0.00012278512 0.0038156977 -0.0013735567
000230 b4 5c 00 ba 42 20 2f 3c 03 83 af 3a 7e 95 12 3b
       -0.00048966263 0.010688843 0.0013390485 0.0022366936
000240 09 c5 6a bb 0a 01 94 3b c3 02 ae 3a 85 a8 b7 bb
       -0.0035823009 0.0045167254 0.001327597 -0.005604806
000250 0b 2a 56 3c d9 4b e0 b9 df de 8a 3b 70 76 94 3b
       0.013071547 -0.0004278112 0.004237994 0.0045307204
000260 86 14 08 3b a9 e7 31 bb 34 77 26 3b 2d 13 9e 3a
       0.0020764186 -0.0027146137 0.002540064 0.0012060158
000270 c0 f2 c1 3b 04 a5 3f 3b 95 fc 39 3b 69 32 f3 3a
       0.0059188306 0.0029242644 0.002837931 0.0018554452
000280 0a bd 3a 3a d0 56 d4 3a f9 4d cb ba 9e f4 c9 3b
       0.0007123506 0.0016200189 -0.0015510909 0.006163194
000290 8b 49 73 3a a8 44 1e bb e6 23 b9 39 56 f3 b9 ba
       0.0009280673 -0.002414981 0.00035312696 -0.00141869
0002a0 40 d5 b9 bb ee a8 82 ba 59 c1 22 3a 6e 36 91 3b
       -0.0056711733 -0.0009968558 0.00062086206 0.0044315374
0002b0 15 79 c4 3b a1 f4 ac 3b b8 20 8a 3a c7 b3 81 bb
       0.0059958794 0.0052781855 0.0010538315 -0.0039581987
0002c0 9c dc 5c ba dc b3 29 3c dd 79 88 ba 4b be 49 ba
       -0.00084252073 0.010357823 -0.0010412295 -0.00076958974
0002d0 70 72 3f bb 27 17 c6 3b da 2b 09 3c c0 58 d4 3b
       -0.0029212497 0.0060452404 0.008372271 0.0064803064
0002e0 9d 35 df 3a 7a 1e f2 bb 29 cf e9 3a cc ea 08 bb
       0.0017029528 -0.007388887 0.0017838228 -0.0020891903
0002f0 17 eb ea bb c3 1e ae 3b ef 08 8b b9 2c c0 cc ba
       -0.007169138 0.0053137257 -0.00026518802 -0.0015621237
000300 61 de 9f 3a 5c 3f 86 3a f8 b1 13 bb 6c a8 4c bb
       0.0012197011 0.0010242271 -0.0022536498 -0.0031228317
000310 68 95 d8 ba 1f 3e b8 bb 50 ac 96 ba 50 a6 24 bb
       -0.0016524019 -0.00562264 -0.0011495445 -0.0025123544
000320 d2 8d b2 ba 50 b7 04 3b b5 bc 9b bb bf ab 0c ba
       -0.0013622588 0.0020250864 -0.0047527202 -0.00053661683
000330 f9 c0 a8 3b fe e0 e8 ba ca 63 a3 b9 c1 fe f3 ba
       0.0051499573 -0.0017767248 -0.0003116413 -0.0018615351
000340 84 f2 95 38 c7 7a c6 3b 5d 37 24 3b d4 72 8f 3b
       7.150046e-05 0.0060571167 0.0025057413 0.0043777023
000350 df 09 f1 ba db 84 a0 3b ea ab cf 3a 88 c3 80 3b
       -0.0018389783 0.00489865 0.0015844081 0.003929559
000360 5d 7b 16 3b 12 45 29 3c 8b 54 64 3b cb 9d 0b 3b
       0.0022961714 0.010331409 0.003484043 0.0021303769
000370 82 6c 50 bb 6d 24 99 bb 6b ba a4 3a de 0b 6e bb
       -0.0031802957 -0.0046735317 0.0012567764 -0.0036322991
000380 b0 a5 24 3c f2 a0 55 3c 2f aa 3f ba 4c de a9 bb
       0.010049269 0.013038861 -0.0007311431 -0.0051839706
000390 02 f8 fe 39 37 c7 b1 3b d7 3f 08 3c 5e e0 0c 3b
       0.00048631435 0.0054253596 0.008316002 0.0021496038
0003a0 0c d9 1a 3b 6f 5e 59 bb 1c 15 4c bb 01 0b 30 3c
       0.0023627905 -0.003316786 -0.0031140512 0.010744811
0003b0 72 23 49 39 27 82 f5 3a b4 e4 66 3a 42 48 0d bb
       0.00019182058 0.0018730805 0.0008807883 -0.0021557962
0003c0 e2 bb 09 3a 14 cc 23 3b 62 34 a4 3a 11 e1 3e 3b
       0.0005254132 0.0024993466 0.0012527818 0.002912585
0003d0 34 00 0b 3b e0 90 65 b8 90 f4 a0 b8 6f 4a 24 3c
       0.0021209838 -5.473278e-05 -7.674948e-05 0.010027512
0003e0 95 77 dd bb 9c 5e 8c 3b f9 6c c7 3a 1c 55 5e ba
       -0.00675864 0.0042837393 0.0015214971 -0.000848131
0003f0 ec dc 0d ba 72 26 c9 bb 9c 33 61 3c 67 f6 16 3a
       -0.0005411643 -0.0061386162 0.013745215 0.00057587627
