results/Long_HighBatch#/3DBall/3DBall-1999066.pt (torch, 49335 bytes, 32 tensors)

network_body.observation_encoder.processors.0.normalizer.running_mean f4 [8]
0	0xbb51c539	-0.0032008423
1	0x3ad12543	0.001595654
2	0xbfa67950	-1.3005772
3	0x404575c7	3.0853136
4	0xbf03f498	-0.51545095
5	0xbcafb1a3	-0.021447008
6	0xbeec6685	-0.46171966
7	0xbc7feb68	-0.01562009

network_body.observation_encoder.processors.0.normalizer.running_variance f4 [8]
0	0x4580086c	4097.0527
1	0x45b8f8c2	5919.0947
2	0x499f33b9	1.3041831e+06
3	0x4793eefe	75741.984
4	0x4922efa4	667386.25
5	0x4885a488	273700.25
6	0x496f0c46	979140.4
7	0x48c89f3c	410873.88

network_body.processors.0.normalizer.running_mean f4 [8]
0	0xbb51c539	-0.0032008423
1	0x3ad12543	0.001595654
2	0xbfa67950	-1.3005772
3	0x404575c7	3.0853136
4	0xbf03f498	-0.51545095
5	0xbcafb1a3	-0.021447008
6	0xbeec6685	-0.46171966
7	0xbc7feb68	-0.01562009

network_body.processors.0.normalizer.running_variance f4 [8]
0	0x4580086c	4097.0527
1	0x45b8f8c2	5919.0947
2	0x499f33b9	1.3041831e+06
3	0x4793eefe	75741.984
4	0x4922efa4	667386.25
5	0x4885a488	273700.25
6	0x496f0c46	979140.4
7	0x48c89f3c	410873.88

network_body._body_endoder.seq_layers.0.weight f4 [128, 8]
0	0xbe7f2eec	-0.24920243
1	0xbeb8a7ca	-0.36065513
2	0x3de03272	0.10947122
3	0x3effe971	0.4998279
4	0x3e076dfe	0.13225552
5	0xbf4ba676	-0.79550874
6	0xbe0733bb	-0.13203327
7	0x3e8b72c5	0.27236
8	0xbe783978	-0.24240673
9	0xbd8a13f7	-0.06742089
10	0x3c361637	0.011113695
11	0xbf1f8e6f	-0.6232671
12	0xbf09ba88	-0.5380025
13	0x3eb6538e	0.35610622
14	0x3fa304e5	1.2735869
15	0x3f0ebd5a	0.5575768
16	0xbec92604	-0.39286816
17	0xbe7cafc2	-0.24676421
18	0xbeac8bc3	-0.3370038
19	0x3da2ff91	0.07958902
20	0x3ed47064	0.41491997
21	0xbf4e6162	-0.80617344
22	0xbecea4a8	-0.40359998
23	0x3e822385	0.25417724
24	0xbe548be3	-0.20756488
25	0xbeab5b29	-0.33467987
26	0xbd448773	-0.047980737
27	0xbf15b3b4	-0.5847733
28	0x3d98a3b4	0.07453099
29	0xbe830afe	-0.25594324
30	0xbf3fd87c	-0.74939704
31	0x3c9525e3	0.018206542
32	0x3ef5f059	0.48034933
33	0x3ead3be5	0.33834758
34	0x3d959d92	0.07305445
35	0xbeae3b54	-0.3402964
36	0x3f0f72bc	0.56034446
37	0xbf7f6035	-0.99756175
38	0xbd63c4da	-0.055607654
39	0x3f3fa9fa	0.7486874
40	0xbcc1559b	-0.02360039
41	0x3eab8fa4	0.33508027
42	0xbe1ad718	-0.15121114
43	0x3ed6b7f4	0.4193722
44	0x3db80b0c	0.08986482
45	0xbcbd32e6	-0.02309556
46	0xbf039daf	-0.5141248
47	0x3c65b782	0.014020802
48	0x3f2981de	0.66213787
49	0x3d97a697	0.07404821
50	0xbebd8e5a	-0.37022668
51	0xbbfd5203	-0.007730724
52	0xbe17f901	-0.14841081
53	0xbe515742	-0.20443442
54	0xbc068c81	-0.00821221
55	0xbf17757d	-0.5916365
56	0xbe1f1e70	-0.15538955
57	0x3dd660bd	0.1046767
58	0xbf09e6a2	-0.5386754
59	0x3f1c6f79	0.61107594
60	0x3f374487	0.7158894
61	0x3e3dc1a2	0.18530896
62	0x3ea75176	0.32679337
63	0x3ec38c1a	0.38192827
64	0x3e87293d	0.2639865
65	0xbe43ca81	-0.19120218
66	0x3eda61c6	0.4265272
67	0xbed7ac74	-0.4212376
68	0x3e10a369	0.14124836
69	0xbd452a1d	-0.048135865
70	0xbe886b0f	-0.2664418
71	0xbe536787	-0.20644961
72	0x3dfc3722	0.12315203
73	0xbc93ca5e	-0.018040832
74	0x3ea87f9e	0.32909864
75	0xbe3dbd43	-0.18529229
76	0xbeb1529b	-0.34633335
77	0x3e0c4fc2	0.137023
78	0x3e75fd45	0.24022396
79	0xbd83e146	-0.06439452
80	0xbe3936bd	-0.18087287
81	0x3ccb136e	0.024789538
82	0xbf10f47a	-0.5662304
83	0xbe4d16a5	-0.2002817
84	0x3ea4e316	0.32204503
85	0xbe182e5f	-0.14861439
86	0x3eca4508	0.39505792
87	0xbf6b649c	-0.9195039
88	0xbf23c943	-0.63978976
89	0x3e7c3a15	0.24631532
90	0xbe2a2c32	-0.16618422
91	0x3ded9a2a	0.1160167
92	0xbf06250e	-0.5240029
93	0x3e102524	0.14076668
94	0xbe1fb225	-0.155953
95	0x3ef0b430	0.47012472
96	0xbe922dab	-0.28550467
97	0xbe782926	-0.24234447
98	0x3f12753e	0.5721015
99	0xba8291da	-0.000996168
100	0xbf2f6a54	-0.6852162
101	0xbe6f84ba	-0.23390475
102	0x3e9058bb	0.28192696
103	0xbea4fc27	-0.32223627
104	0xbd8bbd0f	-0.068231694
105	0xbececb47	-0.40389463
106	0xbf124fe0	-0.5715313
107	0x3df51643	0.11967137
108	0xbeb5c865	-0.3550445
109	0x3ead9120	0.33899784
110	0xbf060b1e	-0.52360713
111	0xbf02d994	-0.5111325
112	0xbecbb056	-0.3978297
113	0xbf476c40	-0.7789955
114	0x3e934d58	0.28769946
115	0x3d843633	0.0645565
116	0xbd996899	-0.074906535
117	0x3de8cfb1	0.11367739
118	0x3f3713bc	0.7151449
119	0xbe04eaae	-0.12980148
120	0x3ebe8983	0.37214288
121	0xbf02668e	-0.50937736
122	0xbcb0a590	-0.021563321
123	0x3e5b20a2	0.21399167
124	0xbf2bb687	-0.6707539
125	0xbe5b0080	-0.2138691
126	0x3df94e97	0.12173193
127	0xbd5d7714	-0.05406864
128	0xbd0fb161	-0.03508127
129	0x3ece3216	0.40272588
130	0x3d4da297	0.050203886
131	0x3dc66ed3	0.09689107
132	0x3bb2b778	0.005454
133	0xbea6ea7d	-0.32600775
134	0x3e10fea9	0.14159645
135	0x3e021c77	0.12706171
136	0xbf058bb8	-0.5216632
137	0xbf217fcc	-0.6308563
138	0x3f189af6	0.5961145
139	0xbd1b44fa	-0.037907578
140	0xbe213d1f	-0.15745972
141	0xbd8f966a	-0.07011111
142	0xbefe92ff	-0.49721524
143	0x3f1c4a7c	0.61051154
144	0xbe883235	-0.26600805
145	0xbf153392	-0.58281815
146	0x3dcd1de4	0.10015467
147	0xbe6408d1	-0.22268988
148	0x3ec15d19	0.3776634
149	0xbedc10fb	-0.42981705
150	0x3e860e20	0.26182652
151	0x3e02af5c	0.12762207
152	0x3db448f8	0.0880298
153	0x3f14f740	0.58189774
154	0x3f5c3549	0.86018807
155	0x3ece5bc1	0.40304378
156	0x3c56c928	0.013109483
157	0xbefe4267	-0.49660036
158	0x3ed7a2c4	0.42116368
159	0xbebc419e	-0.36768812
160	0x3f4724f3	0.77790755
161	0xbeb4b9e4	-0.35298073
162	0xbe4c3259	-0.19941081
163	0xbea66b79	-0.3250387
164	0xbe81fc00	-0.25387573
165	0x3cbbea6a	0.022938926
166	0xbed9da6b	-0.42549452
167	0xbdaf0302	-0.085454956
168	0xbe34b4d4	-0.17647105
169	0xbe9f7073	-0.3114048
170	0xbdffdc28	-0.12493163
171	0x3c8c0e9f	0.017096816
172	0x3dfb9fa1	0.12286306
173	0xbf2ef822	-0.6834737
174	0x3d4995b2	0.049215026
175	0xbde1037e	-0.10986994
176	0x3f1a9e4f	0.6039781
177	0x3e173376	0.14765725
178	0xbec40cb6	-0.38290948
179	0x3dd7a5f8	0.10529703
180	0xbf13770d	-0.5760353
181	0x3e4295d7	0.19002472
182	0x3f29171c	0.6605089
183	0xbf79b2e8	-0.97538614
184	0x3dfb660e	0.12275325
185	0x3eac3e57	0.33641312
186	0xbeccdb62	-0.40011126
187	0x3e3206eb	0.17385451
188	0xbc83ed49	-0.016104357
189	0x3d2e98ea	0.0426263
190	0xbeeeb6b7	-0.46623775
191	0xbe8caa22	-0.2747355
192	0x3ec1dc5d	0.37863436
193	0x3e4a8394	0.19776756
194	0xbe25e8fa	-0.16202155
195	0xbbb78bec	-0.005601397
196	0xbe86f50f	-0.2635884
197	0x3eefa782	0.46807486
198	0xbc1dd899	-0.00963416
199	0x3e9e18e0	0.30878353
200	0x3e501c0c	0.20323199
201	0x3eb35655	0.35026804
202	0x3d35b11f	0.04435837
203	0x3ea99365	0.33120266
204	0x3e10f894	0.14157325
205	0xbebc9b27	-0.36837122
206	0xbde1c79c	-0.110244006
207	0x3f5c19ed	0.8597706
208	0x3f4bfc60	0.7968197
209	0x3f63ecca	0.89033186
210	0xbf0d01ba	-0.5508076
211	0x3b9a1f6b	0.0047034523
212	0x3d06de1a	0.032926656
213	0x3e804649	0.25053623
214	0x3d95a3ea	0.07306655
215	0xbcf54494	-0.029939927
216	0xbf06e4c1	-0.526928
217	0xbeb00972	-0.34382206
218	0xbe580e82	-0.21099284
219	0xbd657509	-0.056019817
220	0xbee84fc8	-0.45373368
221	0x3eabc97a	0.33552152
222	0x3d982209	0.07428367
223	0xbd476e29	-0.04868904
224	0xbe0d0514	-0.13771468
225	0xbf35c9e1	-0.7101117
226	0x3dff189d	0.124558665
227	0xbeac57cf	-0.33660743
228	0x3e986acc	0.2976898
229	0xbea57e60	-0.3232298
230	0x3e1b0bc3	0.15141205
231	0xbeb48105	-0.35254684
232	0x3da97ca2	0.08275725
233	0x3e7c9075	0.24664481
234	0xbe940486	-0.289097
235	0xbdf08f63	-0.11746099
236	0x3f178245	0.5918315
237	0xbde235ff	-0.11045455
238	0xbe4c4bfc	-0.1995086
239	0xbf088d81	-0.5334092
240	0x3f1299e7	0.57266086
241	0x3e8eb3d6	0.2787158
242	0xbf2c740a	-0.6736456
243	0x3f3b2e7d	0.7311781
244	0x3dea3d00	0.11437416
245	0xbbf9690a	-0.0076113986
246	0xbe8868d0	-0.26642466
247	0x3dce158a	0.10062702
248	0xbe7f88ce	-0.2495453
249	0xbf33199a	-0.6996094
250	0xbe33cf7c	-0.17559618
251	0x3e0ef826	0.13961849
252	0x3e6416a5	0.22274263
253	0x3e8fc23e	0.28077883
254	0x3dbec011	0.093139775
255	0x3ee0d817	0.43914863

network_body._body_endoder.seq_layers.0.bias f4 [128]
0	0xbd6edca2	-0.05831588
1	0x3e01851f	0.12648438
2	0xbcd25c60	-0.025678813
3	0xbd961a79	-0.07329268
4	0x3d7cf392	0.061755724
5	0xbd3d6bd6	-0.04624542
6	0xbca2ac05	-0.019857416
7	0x3da34933	0.07972946
8	0xbd9a4480	-0.075325966
9	0x3d7cd894	0.061729982
10	0xbc60f4d0	-0.013730243
11	0x3dfbc560	0.12293506
12	0x3ddee8d8	0.10884255
13	0x3d40f29c	0.04710637
14	0x3dd27306	0.10275845
15	0xbcae1ad7	-0.021253033
16	0xbbaa5b5f	-0.0051988806
17	0x3dd1e782	0.10249235
18	0xbca0e296	-0.019639295
19	0x3d21b905	0.03948309
20	0xbc7f9dd5	-0.015601595
21	0xbd3f80c6	-0.046753667
22	0x3caf7d97	0.02142219
23	0xbd7cfbb4	-0.06176348
24	0x3d3ac1ea	0.045595087
25	0x3d213c6b	0.03936426
26	0xbcca1892	-0.02466992
27	0x3df34572	0.1187848
28	0xbc0413d5	-0.008061369
29	0xbd4d1579	-0.050069306
30	0xbc8cbf00	-0.01718092
31	0x3df1907c	0.11795136
32	0xbceba8be	-0.028766986
33	0xbc8eefeb	-0.017448386
34	0x3e1b23ae	0.1515033
35	0xbd36a562	-0.044591315
36	0xbc9a0846	-0.018802773
37	0x3dfc4655	0.12318102
38	0x3e2cba3b	0.16867916
39	0xbccccbf3	-0.024999594
40	0x3df35122	0.11880709
41	0x3dde1c96	0.10845296
42	0xbcc90e77	-0.02454303
43	0xbd190b94	-0.037364557
44	0xbcab2c46	-0.020895135
45	0xbb48893c	-0.0030599376
46	0x3ddd9de6	0.10821132
47	0x3d229a69	0.03969804
48	0x3e025ce6	0.1273075
49	0xbcff6e5c	-0.031180553
50	0xbd865775	-0.0655965
51	0x3e01a33e	0.12659928
52	0x3d5601b2	0.05224771
53	0xbd7322c0	-0.059359312
54	0x3d527ea9	0.051390324
55	0x3d494c32	0.04914493
56	0xbb9213dd	-0.0044579343
57	0x3e26ef15	0.1630214
58	0xbd745dc9	-0.059659753
59	0xbd6f5a3c	-0.058435664
60	0x3e219216	0.15778384
61	0xba46eb62	-0.00075881754
62	0x3bcb37b5	0.006201709
63	0x3d4841b8	0.0488908
64	0x3e1ccb5e	0.15311953
65	0xbd734839	-0.05939505
66	0x3ded8bb2	0.115989104
67	0xbd158925	-0.036507744
68	0x3d810c50	0.063011765
69	0xbbbd5ac7	-0.005778644
70	0x3d92f635	0.071758665
71	0x3c87f723	0.016597336
72	0x3d80351d	0.062601306
73	0x3d8ab316	0.06772439
74	0x3e03aaa8	0.12858069
75	0xbc3c19ad	-0.011480731
76	0xbb5d9976	-0.0033813394
77	0x3caf912f	0.021431534
78	0x3ba9f722	0.005186931
79	0xbd3a85f3	-0.0455379
80	0xbb36def4	-0.0027903887
81	0x3bbca3b9	0.005756822
82	0xbd6ef7be	-0.058341734
83	0xbcd8295a	-0.026386905
84	0x3e16f854	0.14743167
85	0x3d1c9d37	0.03823587
86	0x3d842150	0.06451666
87	0xbd56ab88	-0.05240968
88	0xbd6a8862	-0.05725897
89	0xbd043d2a	-0.032284893
90	0xbd55fd82	-0.052243717
91	0x3db51cb0	0.08843362
92	0x3e092118	0.1339153
93	0xbcf73f8c	-0.030181669
94	0x3d93e660	0.07221675
95	0x3e1f5683	0.15560345
96	0x3d061df8	0.032743424
97	0xbd70e49d	-0.058811773
98	0x3d3b9074	0.045792058
99	0xbb8a0df8	-0.004213091
100	0xbcbe8217	-0.023255391
101	0xbd2a6f36	-0.041609965
102	0x3d3402f0	0.043948114
103	0xbaf6471c	-0.0018789503
104	0x3d6107b8	0.054939
105	0x3dfea17c	0.124331445
106	0x3dddd949	0.108324595
107	0x3c9937c4	0.018703349
108	0x3d0e79dd	0.034784187
109	0x3e2391ee	0.15973637
110	0x3df59585	0.11991409
111	0x3e1e5004	0.15460211
112	0x3d77464f	0.060369786
113	0xbd83d7e9	-0.06437666
114	0x3d9596e6	0.07304172
115	0xbd20fcc3	-0.039303552
116	0xbd31fac5	-0.043452043
117	0x3e0117da	0.12606755
118	0xbd1923d3	-0.03738768
119	0x3c485b72	0.0122288335
120	0x3e244724	0.16042763
121	0x3cb06f48	0.021537438
122	0x3d60d681	0.054892067
123	0x3e1cc72a	0.1531035
124	0x3d295291	0.041338507
125	0x3e2adb68	0.1668526
126	0xbd2f43ea	-0.042789377
127	0xbd840b1e	-0.06447433

action_model._continuous_distribution.log_sigma f4 [1, 2]
0	0xbdc88613	-0.09791198
1	0xbd0e8fff	-0.034805294

action_model._continuous_distribution.mu.weight f4 [2, 128]
0	0xbc5d96a6	-0.013524687
1	0x3dc87e6b	0.09789737
2	0xbd7ccfbd	-0.061721552
3	0xbd15e14e	-0.03659182
4	0xbd8c676e	-0.06855665
5	0xbc96ade4	-0.018393464
6	0xbd925acd	-0.07146225
7	0x3c78c3a0	0.015183359
8	0xbc319e27	-0.010840929
9	0x3d856348	0.06513077
10	0xbad7861e	-0.0016443168
11	0x3da45f17	0.080259494
12	0x3db0fc05	0.08641819
13	0x3d0b4fa5	0.0340115
14	0x3dd628ad	0.10456977
15	0xbd35df56	-0.044402443
16	0xbd1ad038	-0.03779623
17	0x3d14ca36	0.036325656
18	0xbb9feacc	-0.004880285
19	0x3c838ecd	0.016059304
20	0xbd86c152	-0.06579842
21	0xbdd44ecc	-0.10366592
22	0x3c576b24	0.013148103
23	0xbcd8a09b	-0.02644377
24	0x3c7fb766	0.01560769
25	0xbd029d96	-0.031888567
26	0xbd26c488	-0.04071477
27	0x3de36a95	0.11104313
28	0xbb3bffa9	-0.002868632
29	0xbcbd86b3	-0.023135519
30	0xbdae4d35	-0.0851082
31	0x3d533687	0.051565673
32	0xb9f6ebc4	-0.00047096435
33	0xbd990b03	-0.074728034
34	0x3dc1646c	0.09442982
35	0xbc381f16	-0.01123788
36	0xbd926616	-0.071483776
37	0x3dbb3d60	0.09142566
38	0x3dca3005	0.0987244
39	0xbdceb2ef	-0.100927226
40	0x3d81729a	0.06320687
41	0x3d0e1b00	0.034693718
42	0xbd29b3d6	-0.04143127
43	0xbd365753	-0.044516873
44	0xbd2e9288	-0.04262021
45	0x3c954134	0.018219568
46	0x3de37691	0.11106599
47	0xbd521706	-0.051291488
48	0x3db4a46e	0.08820425
49	0x3c88416d	0.01663276
50	0xbcf808fc	-0.030277722
51	0x3d704e0c	0.05866818
52	0x3a08813e	0.0005207247
53	0xbdbb3d95	-0.09142605
54	0x3d0b8288	0.03406003
55	0x3ccc0e05	0.024909029
56	0xbd231acd	-0.03982048
57	0x3dab51e1	0.083652265
58	0xbd203cbe	-0.03912043
59	0xbd968d52	-0.073511735
60	0x3db33352	0.08750023
61	0xbbf0755c	-0.007338209
62	0xbd1365bf	-0.035985705
63	0xbc852150	-0.016251236
64	0x3dd73b80	0.105093956
65	0xbd099751	-0.033591572
66	0x3d71c015	0.059021074
67	0xbcb8d36c	-0.022561751
68	0x3cd275f7	0.025691016
69	0xbd668b30	-0.056285083
70	0x3cb24494	0.021761216
71	0xb9812347	-0.0002463108
72	0x3c3e1402	0.01160145
73	0x3d63e1cf	0.05563527
74	0x3d5d0bae	0.053966217
75	0x3ca7b762	0.020473186
76	0xbd4ca611	-0.04996306
77	0xbcb8e29c	-0.022568993
78	0x3b1f11d9	0.0024272113
79	0xbd3c2139	-0.04593012
80	0xbde9ebfc	-0.114219636
81	0x3c38f7cd	0.011289549
82	0xbda47ed1	-0.08032001
83	0xbdce4f75	-0.10073749
84	0x3dcdf5b6	0.10056631
85	0xbdcd24ae	-0.10016762
86	0x3d50ae54	0.050947502
87	0xbc2f1e53	-0.010688382
88	0xbd2319f3	-0.03981967
89	0xbcf8b4dc	-0.030359678
90	0xbd11cda7	-0.035596516
91	0x3d6e0684	0.058111683
92	0x3da6639f	0.0812447
93	0xbd086fa8	-0.03330961
94	0x3d7216d6	0.05910381
95	0x3db50596	0.08838956
96	0x3cfb6134	0.030685998
97	0xbd4c29b4	-0.04984446
98	0xbcb6dcd4	-0.022322096
99	0xbc91de53	-0.017806208
100	0xbb6c9f57	-0.0036105716
101	0xbd63049f	-0.05542433
102	0x3d15718e	0.036485247
103	0x3c91826f	0.01776239
104	0xbd0d5292	-0.034502573
105	0x3dbf49ff	0.093402855
106	0x3d8c46b9	0.06849427
107	0x3c29d572	0.010365831
108	0xbd333552	-0.043752022
109	0x3da86ca6	0.08223848
110	0x3d891e31	0.06695212
111	0x3dd17a6e	0.1022843
112	0x3d3e9aec	0.046534464
113	0xbd672645	-0.05643298
114	0x3d04ff80	0.032470226
115	0xbd6e2bb1	-0.058147136
116	0xbddf95de	-0.10917257
117	0x3d78e35a	0.060763694
118	0xbddac996	-0.10682981
119	0xbdd3361a	-0.103130534
120	0x3d460290	0.048342288
121	0x3cb502b6	0.02209602
122	0x3d15844d	0.036503125
123	0x3da0ed15	0.0785772
124	0x3ca189f6	0.019719105
125	0x3df340e4	0.11877611
126	0xbd527d38	-0.05138895
127	0xbcdf3297	-0.027245803
128	0xbb570978	-0.003281204
129	0xbd7a698a	-0.061135806
130	0xbc6fdb15	-0.014639636
131	0x3c16ff98	0.009216212
132	0xbd669b49	-0.056300435
133	0xbc77792a	-0.015104571
134	0x3ccfdfc6	0.025375258
135	0xbd8f1b7e	-0.069876656
136	0x3ca353f0	0.019937485
137	0x3d1efe00	0.038816452
138	0x3d1c5489	0.038166557
139	0xbd19422a	-0.037416615
140	0x3d344d6a	0.04401914
141	0x3d332de3	0.043744933
142	0x3d44be74	0.048033193
143	0x3d6b869f	0.05750143
144	0xbd222e7a	-0.039595105
145	0xbc4c3ee2	-0.012466164
146	0xbc7cecb7	-0.015437297
147	0x3c1210bf	0.008915125
148	0x3d150374	0.036380246
149	0x3c95adfc	0.018271439
150	0x3d15315e	0.036424033
151	0x3caba710	0.020953685
152	0xbc8ce8e1	-0.017200889
153	0xbc93b3b3	-0.018030023
154	0xbcf379e6	-0.029721212
155	0x3ceeca63	0.02914924
156	0x3cf11380	0.029428244
157	0xbbdeda04	-0.006800892
158	0xbcf90ee8	-0.030402616
159	0xbca50fc5	-0.020149121
160	0x3d983672	0.074322596
161	0x3d80158e	0.06254111
162	0xbcb7b931	-0.022427173
163	0xbd0034bf	-0.031300303
164	0xbc82a857	-0.015949411
165	0xbda11276	-0.07864849
166	0xbb7b7d95	-0.0038374413
167	0xbbfa409e	-0.0076370975
168	0xbcf582fe	-0.029969689
169	0xbc36fb46	-0.011168307
170	0xbd1ecf4b	-0.03877191
171	0x3d3bf2ad	0.04588573
172	0x3d80c028	0.06286651
173	0x3bfb981e	0.007678046
174	0x3c5b4407	0.013382918
175	0xbda5d4a6	-0.080972
176	0x3c9e90b8	0.019356117
177	0x3d2a6c8f	0.041607436
178	0x3c0649a3	0.008196267
179	0xbd2fed53	-0.04295094
180	0xbd307a09	-0.04308513
181	0x3b931049	0.0044880253
182	0xb935a442	-0.00017322696
183	0x3d813597	0.063090496
184	0xbd25ae7f	-0.040449616
185	0xbc162079	-0.0091630155
186	0x3cddf42b	0.027093967
187	0x3ce7b776	0.028285723
188	0xbcf837c1	-0.030300023
189	0xbd3e55ff	-0.04646873
190	0xbd2611a2	-0.04054416
191	0xbd1f4861	-0.038887385
192	0xbc8459c0	-0.016156077
193	0x3ce03aca	0.027371783
194	0xbca5e705	-0.02025176
195	0xbcb1deba	-0.02171265
196	0x3bbb55dc	0.0057170223
197	0xbcfeff5f	-0.03112763
198	0x3b7c9f7a	0.0038547204
199	0xbcb76a73	-0.022389626
200	0xbd3314dc	-0.043721065
201	0x3d5827da	0.05277238
202	0xbd3a2de8	-0.045453936
203	0x3d4b4cf0	0.04963392
204	0x3d935d5a	0.0719554
205	0xbd690025	-0.056884903
206	0x3d8277b2	0.06370486
207	0x3d4c5671	0.049887124
208	0x3a5491ec	0.0008108902
209	0x3d36fd70	0.04467529
210	0xbcb5c321	-0.022187771
211	0xbd365a8f	-0.044519957
212	0xbd3102fd	-0.04321574
213	0xbd431a9a	-0.04763279
214	0x3cdbe219	0.02684121
215	0xbaa58748	-0.0012628818
216	0xbc079d79	-0.0082772905
217	0x3cfafe58	0.030638859
218	0x3cd1327e	0.025536772
219	0x3b9092b7	0.004412021
220	0x3c71aca8	0.014750637
221	0xbcda34ee	-0.026636567
222	0x3d5cc87a	0.053902127
223	0x3c675ba0	0.014120966
224	0x3bdf3696	0.006811927
225	0x3c5c1e70	0.013434991
226	0xbd5efc83	-0.054440033
227	0xbd0db36c	-0.03459494
228	0x3d24e485	0.040256996
229	0xbcb6b531	-0.022303196
230	0x3ce6fa93	0.028195655
231	0x3cd24e66	0.025672149
232	0xbdc78ec1	-0.09744025
233	0xbd015bc4	-0.031581655
234	0x3b754a60	0.0037428364
235	0x3ca3bae3	0.019986575
236	0xbda75501	-0.0817051
237	0xbcbdce0f	-0.023169545
238	0x3c719e52	0.014747219
239	0xbcfd038b	-0.030885478
240	0x3da0f9bb	0.07860132
241	0x3c0069b6	0.007837703
242	0xbc35f296	-0.0111052
243	0x3d66092f	0.056161102
244	0x3c45045a	0.012024963
245	0x3be1ca96	0.006890605
246	0x3cb1d430	0.021707624
247	0xbc6d7e4c	-0.014495444
248	0xbc20acdf	-0.009806841
249	0x3c7e08a3	0.015504989
250	0x3b7183b5	0.0036852185
251	0xbc97b2ea	-0.01851793
252	0xbcbfcd92	-0.023413453
253	0xbcb76f9d	-0.022392089
254	0x3baaf734	0.005217457
255	0x3bc35658	0.0059612207

action_model._continuous_distribution.mu.bias f4 [2]
0	0x3dbdf7d0	0.09275782
1	0xbd136479	-0.03598449

exp_avg f4 [128, 8]
0	0xb7b238df	-2.1245736e-05
1	0x37e51d12	2.7312464e-05
2	0x38800ba4	6.105684e-05
3	0x38499340	4.805927e-05
4	0xb81c5154	-3.726904e-05
5	0x37708b7e	1.4337593e-05
6	0x3841bf6c	4.619306e-05
7	0xb78df618	-1.6923106e-05
8	0xb941535a	-0.00018436965
9	0xb9f56868	-0.0004680783
10	0xb9c43fa8	-0.0003743146
11	0x38a62168	7.921719e-05
12	0x39c77723	0.00038045002
13	0xb90f2f65	-0.00013655199
14	0x3921568d	0.00015386399
15	0x39e036b3	0.00042765363
16	0xb8c26646	-9.269691e-05
17	0x3913685e	0.00014057892
18	0x3a0a1db9	0.0005268711
19	0x39a075d3	0.00030605364
20	0xb92f984a	-0.00016746033
21	0x38e61535	0.00010971205
22	0x39aebd7e	0.0003332905
23	0x37846628	1.5783196e-05
24	0x3868fd31	5.5548913e-05
25	0x38d9050b	0.00010348306
26	0x39d8352d	0.0004123835
27	0x390e0fd2	0.00013548069
28	0xb8b96e22	-8.842001e-05
29	0x390861ff	0.00013006477
30	0x39da3e65	0.00041626688
31	0x3688c5a0	4.0761224e-06
32	0xb961c7fb	-0.0002153217
33	0x395b21f3	0.00020898115
34	0x388320d5	6.252682e-05
35	0x37cc3ba2	2.4346464e-05
36	0xb91e62e8	-0.000151049
37	0x39391be6	0.00017653368
38	0xb888dc3d	-6.526008e-05
39	0x3896d422	7.19207e-05
40	0xb8b42e2e	-8.5916705e-05
41	0xb70c154b	-8.349608e-06
42	0x35e97c51	1.7396034e-06
43	0x38a4bfc5	7.855849e-05
44	0xb821b52c	-3.855412e-05
45	0xb2712000	-1.4035322e-08
46	0x382ec73e	4.167039e-05
47	0x3888e6da	6.527985e-05
48	0xb8953627	-7.11496e-05
49	0xb998fd7b	-0.00029180557
50	0x3a085cd8	0.0005201823
51	0x36cf5b20	6.179689e-06
52	0xb95ce097	-0.00021064501
53	0x394c2507	0.0001946875
54	0x3a1ed31d	0.000605868
55	0x39015d72	0.0001233721
56	0xb95b8c18	-0.00020937657
57	0x373f0560	1.1385739e-05
58	0xb9f04093	-0.0004582448
59	0x3a15bbfa	0.00057119096
60	0x39750c3c	0.00023369578
61	0xb99c0b02	-0.0002976284
62	0xb8f1b241	-0.00011524978
63	0xb886a373	-6.420063e-05
64	0x38025f6a	3.1083277e-05
65	0x3733253a	1.0677899e-05
66	0x390d44ef	0.00013472488
67	0x3822c6c3	3.880892e-05
68	0xb8712c5e	-5.7500198e-05
69	0xb72187ef	-9.627997e-06
70	0x395b409c	0.00020909536
71	0xb8a505a8	-7.868867e-05
72	0x390648f1	0.00012806409
73	0xb93ad3ff	-0.00017817317
74	0xb899cc41	-7.333654e-05
75	0xb79cdbb1	-1.8698951e-05
76	0x3915ee2f	0.00014298478
77	0xb9363cdb	-0.00017379543
78	0xb7e4b6b0	-2.7264789e-05
79	0xb938151f	-0.00017555476
80	0x399763cd	0.00028875322
81	0xb895b8b5	-7.139278e-05
82	0x3922740c	0.00015492755
83	0xb986ae20	-0.00025688205
84	0xb81cd224	-3.7389007e-05
85	0x3903b4d3	0.00012560496
86	0x3907f3ef	0.00012965476
87	0xb9084eb8	-0.00012999296
88	0xba0b0c3b	-0.00053042517
89	0xb8cc0262	-9.727922e-05
90	0xba74fdc6	-0.00093456765
91	0xb911e2f6	-0.00013912827
92	0x385539ea	5.0837094e-05
93	0xb9c129c8	-0.00036842958
94	0xb9ead972	-0.00044793967
95	0xb790bfec	-1.7255508e-05
96	0x3963670f	0.000216868
97	0x38a89bb2	8.039865e-05
98	0xb91f92d2	-0.00015218116
99	0xba07392a	-0.00051583594
100	0x3679d680	3.7228747e-06
101	0xb8752460	-5.844643e-05
102	0xb91329a7	-0.00014034529
103	0xb8a5b116	-7.900798e-05
104	0x396341f3	0.00021672975
105	0xb7cf2fe2	-2.469862e-05
106	0xb9480876	-0.00019076638
107	0xb9d545d1	-0.00040678543
108	0xb894896c	-7.082787e-05
109	0x38b7e376	8.768488e-05
110	0x38cba7b6	9.711033e-05
111	0xb9351d9a	-0.00017272533
112	0x395b7e12	0.00020932432
113	0xb945854c	-0.00018837041
114	0xb9b0f106	-0.00033748912
115	0xba18e78c	-0.0005832843
116	0x37ad3e70	2.0652282e-05
117	0x3861e7fc	5.3860233e-05
118	0x38843e06	6.305803e-05
119	0x39e6c49c	0.00044015504
120	0x3928548e	0.00016053228
121	0xb8c6d0b2	-9.480248e-05
122	0x39dd8308	0.0004225003
123	0xb895041e	-7.1056405e-05
124	0xb8f7cf16	-0.000118164506
125	0x3818bcac	3.641534e-05
126	0x3922eb6a	0.00015537222
127	0xb995e5b0	-0.00028590625
128	0xb949612d	-0.00019205055
129	0x38c96571	9.603322e-05
130	0xb8a5e44b	-7.910336e-05
131	0x39421018	0.00018507277
132	0xb8e39cbc	-0.000108533975
133	0x38860b52	6.3917265e-05
134	0x382940fc	4.035326e-05
135	0x391b5ead	0.00014817221
136	0xb88c5338	-6.691221e-05
137	0xb9331975	-0.00017080254
138	0xb9a073c2	-0.00030603824
139	0xb8c7a180	-9.519141e-05
140	0x390b9858	0.00013312825
141	0xb89a6d0c	-7.363604e-05
142	0xb9974f72	-0.00028860156
143	0x392fb731	0.00016757545
144	0xb8903113	-6.875596e-05
145	0x362fe090	2.6207745e-06
146	0xb84961fa	-4.8013382e-05
147	0x38247850	3.9212697e-05
148	0x3798e5bc	1.822679e-05
149	0xb67668d8	-3.6717884e-06
150	0xb8629c53	-5.4028187e-05
151	0x37fa58f8	2.9843752e-05
152	0x38d31433	0.000100650264
153	0x388b316f	6.637244e-05
154	0x38625649	5.396296e-05
155	0xb868d334	-5.550981e-05
156	0x37e78b50	2.7602218e-05
157	0x37d7f7d4	2.5745401e-05
158	0xb8339c10	-4.282227e-05
159	0xb8172675	-3.603702e-05
160	0x38624876	5.3950083e-05
161	0x38bdf14b	9.0571666e-05
162	0x3a1446aa	0.0005656282
163	0x3904e1b0	0.00012672576
164	0xb9947e4d	-0.0002832286
165	0x3973d0c1	0.00023252053
166	0x3a5a583b	0.00083291874
167	0xb8d5ffba	-0.00010204264
168	0x39972e84	0.0002883562
169	0x3839a3e9	4.426009e-05
170	0x3a8f95dc	0.0010954696
171	0x39af5600	0.00033442676
172	0xb9609d74	-0.0002142096
173	0x39b96e0d	0.00035367944
174	0x3a347c6d	0.0006884996
175	0xb83a0960	-4.4354587e-05
176	0x392eca11	0.00016669209
177	0xb8acb42d	-8.2351595e-05
178	0x3714c8b3	8.868216e-06
179	0xb9a9a559	-0.00032357385
180	0xb70de6d7	-8.4580015e-06
181	0x36a3da78	4.8832117e-06
182	0x37545cab	1.2657761e-05
183	0xb9546dec	-0.00020258845
184	0x38ff8254	0.00012183623
185	0xb8e8d78f	-0.00011102773
186	0x399ebc3f	0.00030276363
187	0xb8913107	-6.923271e-05
188	0xb8fa6eae	-0.00011941545
189	0x3944688e	0.00018730966
190	0x39ed5b1d	0.00045272047
191	0x38bd9c32	9.041316e-05
192	0x3796afa6	1.7963186e-05
193	0x366b9c86	3.5108837e-06
194	0xb8a1d989	-7.717597e-05
195	0x38045def	3.1558735e-05
196	0x38826c3b	6.2190426e-05
197	0xb7ce09ab	-2.4561616e-05
198	0xb8d6c0b9	-0.000102402126
199	0x380e13ce	3.3873883e-05
200	0xb8c13a8b	-9.2138616e-05
201	0x3925797b	0.00015780881
202	0xb7989f69	-1.8194043e-05
203	0xb80de59a	-3.3830853e-05
204	0xb9250eb6	-0.00015741106
205	0x3831ffaa	4.2438194e-05
206	0x3761d818	1.3461358e-05
207	0xb70f19ed	-8.5295005e-06
208	0xb8f58d6a	-0.00011708851
209	0x375516f4	1.27011335e-05
210	0x38b3a874	8.566762e-05
211	0x38f3f67a	0.00011633053
212	0xb8a8460a	-8.02391e-05
213	0x38e48c98	0.00010898075
214	0x3909c158	0.00013137364
215	0x3987f519	0.00025931819
216	0xb96099f8	-0.00021419663
217	0xb9c0ddb5	-0.00036786278
218	0xba4e7abe	-0.00078765664
219	0xba1df6db	-0.0006025859
220	0x38f3ddf0	0.00011628482
221	0xb99779c4	-0.00028891687
222	0xb9a76bd1	-0.00031933052
223	0x38604710	5.3471944e-05
224	0x3917d211	0.00014478738
225	0x3805d089	3.1903885e-05
226	0x39227012	0.00015491273
227	0xb7a732a8	-1.993154e-05
228	0xb8962b42	-7.160615e-05
229	0x36e9b598	6.9650814e-06
230	0x39482c62	0.0001909002
231	0xb91536ee	-0.0001423021
232	0xb82d00ed	-4.1247276e-05
233	0xb8a0ba74	-7.664124e-05
234	0x3921ddd8	0.000154368
235	0x38a73871	7.9736936e-05
236	0xb7c23662	-2.3151926e-05
237	0x38812122	6.157371e-05
238	0x3925c048	0.00015807257
239	0x38c9d292	9.623649e-05
240	0xb98639dd	-0.00025601583
241	0xb8ce02c3	-9.82336e-05
242	0x3994a339	0.0002835037
243	0x393a3a9a	0.00017760173
244	0xb999dc36	-0.00029346504
245	0x38edf45c	0.00011346556
246	0x39d9f2bc	0.00041570317
247	0x39568a49	0.00020460146
248	0xb82a1c93	-4.055777e-05
249	0xb96ba721	-0.00022473607
250	0xb9c7dd75	-0.00038121236
251	0xb8c9d403	-9.623917e-05
252	0x3976d18a	0.00023538448
253	0xb8b3164f	-8.5395404e-05
254	0xb9886a70	-0.00026019244
255	0x39b7feed	0.00035094414

exp_avg_sq f4 [128, 8]
0	0x32c775a8	2.3220153e-08
1	0x329de452	1.8381034e-08
2	0x32d7ce96	2.5123239e-08
3	0x32cf03e8	2.4099748e-08
4	0x322ebad1	1.017061e-08
5	0x328fa8a4	1.672408e-08
6	0x32ca50d2	2.3552648e-08
7	0x32249c7c	9.581637e-09
8	0x34d80be4	4.0241787e-07
9	0x353f96cb	7.137248e-07
10	0x356a64aa	8.731828e-07
11	0x34cf54cb	3.861845e-07
12	0x34f53e68	4.5680213e-07
13	0x3451a6b8	1.9525294e-07
14	0x3495cf53	2.790426e-07
15	0x34d8cda2	4.0382753e-07
16	0x34cd5fae	3.8253842e-07
17	0x34c279c1	3.6223904e-07
18	0x34e97090	4.3481532e-07
19	0x34bda482	3.5323689e-07
20	0x34461426	1.8447517e-07
21	0x3488a1e8	2.5449776e-07
22	0x351834ed	5.670143e-07
23	0x3464b522	2.130005e-07
24	0x34027827	1.2150905e-07
25	0x342aab4c	1.5894801e-07
26	0x340acf91	1.2927764e-07
27	0x34015257	1.2044016e-07
28	0x33aff87a	8.19427e-08
29	0x33873a84	6.297071e-08
30	0x349b23c3	2.889702e-07
31	0x33bd1c16	8.806107e-08
32	0x3502f258	4.878143e-07
33	0x34df1166	4.1549646e-07
34	0x350dc566	5.2813846e-07
35	0x3505c6f3	4.983587e-07
36	0x34780647	2.3099084e-07
37	0x34c7f3a4	3.724391e-07
38	0x3541f4d9	7.2254403e-07
39	0x34923ce9	2.7238937e-07
40	0x33461bf7	4.61259e-08
41	0x3381c46c	6.0427595e-08
42	0x333cd90d	4.3969568e-08
43	0x339fd923	7.4435114e-08
44	0x3324ff0f	3.84162e-08
45	0x32b84c87	2.145522e-08
46	0x33c7df09	9.3072295e-08
47	0x330fa1bf	3.344189e-08
48	0x34b10be8	3.2977482e-07
49	0x353f66a7	7.1302424e-07
50	0x35001d5b	4.7726434e-07
51	0x35037c67	4.898233e-07
52	0x34ff3b59	4.7540632e-07
53	0x343026bb	1.6405367e-07
54	0x3535102a	6.7451276e-07
55	0x35063d6d	5.0008276e-07
56	0x348e20f6	2.6473543e-07
57	0x34cf9775	3.8666954e-07
58	0x34c896e5	3.7362693e-07
59	0x34d75eed	4.0115938e-07
60	0x345b7e3d	2.044189e-07
61	0x3407e702	1.2656895e-07
62	0x343f5bf0	1.7821708e-07
63	0x34487944	1.8670568e-07
64	0x331f641e	3.711113e-08
65	0x336f9ee7	5.5791045e-08
66	0x330f575e	3.3374242e-08
67	0x33817fda	6.030287e-08
68	0x3307d3ed	3.1624882e-08
69	0x32af9eea	2.0444947e-08
70	0x33c08467	8.9647806e-08
71	0x3323aa69	3.8106382e-08
72	0x33fb76f3	1.1709735e-07
73	0x347007a6	2.2354524e-07
74	0x343d9870	1.7657453e-07
75	0x344e8486	1.9233457e-07
76	0x341df6d8	1.4711566e-07
77	0x3383e324	6.1414795e-08
78	0x34379b73	1.7099755e-07
79	0x34354b13	1.688425e-07
80	0x33eac9ce	1.0933182e-07
81	0x3431d23c	1.6560892e-07
82	0x3402cf7c	1.2182676e-07
83	0x34191b0f	1.4259079e-07
84	0x33b1c9fa	8.278944e-08
85	0x3383fe17	6.1463815e-08
86	0x340f8dd5	1.3369511e-07
87	0x3404f3f8	1.2382213e-07
88	0x3551b1bf	7.811722e-07
89	0x358a76d1	1.0316381e-06
90	0x358278c1	9.720899e-07
91	0x35912e74	1.0816862e-06
92	0x3543a2e5	7.2880204e-07
93	0x34b36dbd	3.3421193e-07
94	0x35c085ef	1.4344095e-06
95	0x35146a64	5.5289115e-07
96	0x34c7b840	3.7200698e-07
97	0x352aba91	6.3601425e-07
98	0x35098ae2	5.123858e-07
99	0x352b747d	6.3871977e-07
100	0x34ea9838	4.369665e-07
101	0x34a3db37	3.0520616e-07
102	0x34f54b93	4.5689794e-07
103	0x3518b792	5.689154e-07
104	0x34c15880	3.6013444e-07
105	0x3503ddc7	4.912403e-07
106	0x34d1ad54	3.9055396e-07
107	0x34f3caa7	4.5409726e-07
108	0x3492e133	2.7358473e-07
109	0x34256e9d	1.5407063e-07
110	0x3538a2f5	6.8782475e-07
111	0x34a1fdae	3.0173163e-07
112	0x34ef855b	4.4614248e-07
113	0x35545d78	7.911217e-07
114	0x352c04d6	6.408203e-07
115	0x3502526e	4.8548725e-07
116	0x34a43011	3.0582353e-07
117	0x34a2d7a6	3.0331756e-07
118	0x34629a99	2.1104132e-07
119	0x35082e0a	5.0730944e-07
120	0x346f2639	2.2272515e-07
121	0x34e81af7	4.3232987e-07
122	0x34c63362	3.691776e-07
123	0x34a277b5	3.026195e-07
124	0x3487522d	2.52055e-07
125	0x3405bfd4	1.2456377e-07
126	0x348beca5	2.606295e-07
127	0x3470be33	2.2420936e-07
128	0x3420b9b8	1.4968725e-07
129	0x3484d457	2.4741414e-07
130	0x3450b9a3	1.9439044e-07
131	0x347f0c94	2.3753302e-07
132	0x341e1b8e	1.4724921e-07
133	0x33f38c7d	1.1341124e-07
134	0x3442dd1e	1.81481e-07
135	0x3407d991	1.2652005e-07
136	0x33d32d2f	9.833672e-08
137	0x33ace160	8.0503696e-08
138	0x33dc1530	1.0248402e-07
139	0x33c3aff7	9.112403e-08
140	0x33234885	3.801735e-08
141	0x3367c36d	5.3961617e-08
142	0x3430ef99	1.6478442e-07
143	0x331a9dd6	3.599947e-08
144	0x32525314	1.2242499e-08
145	0x3284b06b	1.5447048e-08
146	0x325d0722	1.2865515e-08
147	0x322198e6	9.4061985e-09
148	0x31b4da66	5.2635185e-09
149	0x322eba40	1.0170481e-08
150	0x323ad7aa	1.0875661e-08
151	0x321a1c4b	8.970413e-09
152	0x3242f28f	1.1347438e-08
153	0x32d71d6b	2.5042672e-08
154	0x3289bb31	1.6034024e-08
155	0x32cd56aa	2.3904551e-08
156	0x328a88a3	1.612745e-08
157	0x323da8ec	1.1039656e-08
158	0x3232904e	1.0393775e-08
159	0x32836840	1.5297815e-08
160	0x34cc6347	3.8070195e-07
161	0x352b9cf1	6.3930844e-07
162	0x34f86ac8	4.6271293e-07
163	0x34f69aa6	4.5933592e-07
164	0x34d4430b	3.9536857e-07
165	0x3412630a	1.363334e-07
166	0x357e04cd	9.462936e-07
167	0x34ce9b7a	3.8483614e-07
168	0x357e4a4b	9.4730484e-07
169	0x356fa8d4	8.9280115e-07
170	0x35919625	1.084704e-06
171	0x3549281c	7.49367e-07
172	0x34ea7472	4.3670622e-07
173	0x353679d6	6.797758e-07
174	0x357ee99d	9.4962326e-07
175	0x352027b8	5.9662443e-07
176	0x33ab486b	7.975981e-08
177	0x3462a1db	2.1106773e-07
178	0x34082fcf	1.268338e-07
179	0x34204eb1	1.4929789e-07
180	0x3404767f	1.2336567e-07
181	0x3314b839	3.4626485e-08
182	0x340230f1	1.2124998e-07
183	0x3417e6ad	1.414689e-07
184	0x33d61c71	9.970325e-08
185	0x34135336	1.3720714e-07
186	0x33eae010	1.0937231e-07
187	0x3414a3ee	1.3843211e-07
188	0x33c89192	9.339705e-08
189	0x332dcedf	4.046785e-08
190	0x34708403	2.2399767e-07
191	0x33b3ae48	8.3670386e-08
192	0x32dded3c	2.5835668e-08
193	0x335e9691	5.1825342e-08
194	0x33323137	4.1488615e-08
195	0x331d995e	3.6693898e-08
196	0x331fdb12	3.7219316e-08
197	0x31e44259	6.643216e-09
198	0x337c495e	5.874005e-08
199	0x32c194fc	2.2535907e-08
200	0x33acf589	8.054037e-08
201	0x33d7fdfd	1.0057918e-07
202	0x33ea5fdf	1.0913913e-07
203	0x34003e1a	1.1943521e-07
204	0x338fbe38	6.693557e-08
205	0x3357108f	5.007365e-08
206	0x33e613e5	1.07138284e-07
207	0x3357f44f	5.0280786e-08
208	0x340373a7	1.22424e-07
209	0x3496eebe	2.8113385e-07
210	0x34362396	1.6963017e-07
211	0x347b8b4f	2.3426877e-07
212	0x344a138b	1.8819826e-07
213	0x33282a6f	3.915414e-08
214	0x348fac13	2.6761026e-07
215	0x343b1e34	1.742672e-07
216	0x358ea42b	1.0627604e-06
217	0x35a84637	1.2537411e-06
218	0x35ab9bb0	1.2785804e-06
219	0x35a5f873	1.2365766e-06
220	0x354f6925	7.7266515e-07
221	0x34f8f9b8	4.6375294e-07
222	0x35cd23bb	1.5284089e-06
223	0x35593676	8.091805e-07
224	0x336a7e95	5.4597496e-08
225	0x339e1b2f	7.362393e-08
226	0x33816de5	6.02702e-08
227	0x334a455e	4.709488e-08
228	0x32e76bfb	2.6941043e-08
229	0x3329f519	3.9571294e-08
230	0x338406dc	6.147977e-08
231	0x33444149	4.5694183e-08
232	0x331f45d9	3.70836e-08
233	0x335beb37	5.1203838e-08
234	0x331f8e49	3.714948e-08
235	0x3355e214	4.9798544e-08
236	0x33017697	3.014301e-08
237	0x32b9fa79	2.1650736e-08
238	0x33a1dee2	7.537689e-08
239	0x3337c45e	4.2786603e-08
240	0x35136769	5.491225e-07
241	0x356c3f40	8.800889e-07
242	0x3549c573	7.516566e-07
243	0x3558e64d	8.08014e-07
244	0x35217dfc	6.0160505e-07
245	0x3474c33f	2.2795301e-07
246	0x35665bda	8.581534e-07
247	0x34f1ba9c	4.5025524e-07
248	0x341f54fc	1.4838946e-07
249	0x347d20a9	2.3574343e-07
250	0x345bc29c	2.0466763e-07
251	0x34120ad8	1.3601255e-07
252	0x33b45af5	8.398448e-08
253	0x338e16cd	6.616538e-08
254	0x34317cfe	1.6529881e-07
255	0x33d35372	9.840632e-08

exp_avg f4 [128]
0	0xb89018ac	-6.8710506e-05
1	0x39251a50	0.00015745428
2	0xb9fa2866	-0.00047713815
3	0xb99264aa	-0.0002792229
4	0xb9c7588e	-0.00038022216
5	0xb82a217f	-4.0562354e-05
6	0xb9e893e4	-0.00044360675
7	0x39e2adc1	0.00043235536
8	0xb7b53cc7	-2.1605183e-05
9	0x3943b510	0.000186641
10	0xb83560ef	-4.324404e-05
11	0x39fcd07e	0.00048220524
12	0x39158286	0.00014258371
13	0x38c427fc	9.353456e-05
14	0x39af42aa	0.0003342827
15	0xb8e50b11	-0.00010921632
16	0xb898fa24	-7.294517e-05
17	0x3951fdce	0.00020026343
18	0xb7da3191	-2.6010706e-05
19	0x37063f5c	8.001774e-06
20	0xb9ee2262	-0.00045420515
21	0xba4671a8	-0.00075700367
22	0x3881776f	6.1734456e-05
23	0xb98a7f13	-0.0002641609
24	0x38a455a0	7.836078e-05
25	0xb8c11816	-9.2074435e-05
26	0xb904da3f	-0.00012669804
27	0x39f710ff	0.00047124174
28	0x373679c4	1.0876396e-05
29	0xb92a478e	-0.0001623912
30	0xb9f62686	-0.0004694948
31	0x39af1349	0.0003339297
32	0xb8db5a27	-0.00010459526
33	0xb9e10389	-0.00042917978
34	0x39ed607d	0.00045276052
35	0xb8404672	-4.5841974e-05
36	0xb9ecd2fb	-0.0004517062
37	0x3a5d8478	0.00084502203
38	0x3978717e	0.00023693402
39	0xba1d8ff1	-0.00060105236
40	0x39bbecd8	0.00035843882
41	0x3945cdc2	0.00018864035
42	0xb90ff687	-0.00013729381
43	0xb9d8216a	-0.00041223626
44	0xb9806683	-0.0002449044
45	0x38c0e539	9.1979695e-05
46	0x39ca1a00	0.00038547814
47	0xb88be9dc	-6.671596e-05
48	0x393255bc	0.00017007341
49	0x37377f70	1.0937321e-05
50	0xb8c809f7	-9.538599e-05
51	0x39727fc8	0.0002312652
52	0x38ae5805	8.3133615e-05
53	0xba3a391f	-0.00071038486
54	0x39532f8c	0.0002014024
55	0x38ff0d61	0.000121618395
56	0xb9256b14	-0.00015775516
57	0x395c4b6a	0.00021008929
58	0xb988ede4	-0.00026117184
59	0xb9e956c6	-0.00044505874
60	0x399b4522	0.00029615412
61	0x382db9c0	4.1419407e-05
62	0xb92e8c88	-0.00016646285
63	0xb816158d	-3.5782858e-05
64	0x3a0c883c	0.00053608767
65	0xb9167efe	-0.00014352423
66	0x38c4f375	9.391356e-05
67	0xb84a6ad4	-4.8260044e-05
68	0x38a18e15	7.703543e-05
69	0xb9a7e5d5	-0.0003202396
70	0x38da7bfe	0.000104181454
71	0x389b45f4	7.404006e-05
72	0x39907eaa	0.00027560192
73	0x39640f3c	0.0002174945
74	0x3996e82e	0.00028783217
75	0x36558898	3.1818981e-06
76	0xb9764456	-0.00023485845
77	0xb74b719e	-1.2126196e-05
78	0xb8cc11b3	-9.730775e-05
79	0xb98e42bb	-0.0002713407
80	0xba2cb11a	-0.00065876695
81	0x388a86f9	6.6054934e-05
82	0xb9ebd8a0	-0.0004498409
83	0xba3bba82	-0.0007161276
84	0x391f070c	0.00015166047
85	0xba3ebf53	-0.00072764343
86	0x393cf7fa	0.00018021456
87	0xb8838b75	-6.272543e-05
88	0xb99daf83	-0.0003007614
89	0xb9bedae9	-0.00036402725
90	0xb8f9a050	-0.00011903106
91	0x39c1ea92	0.00036986597
92	0x3992a95a	0.00027973467
93	0xb892963e	-6.989807e-05
94	0x3817be3a	3.6178368e-05
95	0x38f4664a	0.000116538795
96	0x3945b0e6	0.00018853284
97	0xb9cf77e3	-0.0003957144
98	0xb73fd2ca	-1.1433565e-05
99	0x383807f8	4.387644e-05
100	0xb8709fac	-5.7369165e-05
101	0xb9c16611	-0.00036887874
102	0x39652b1a	0.00021855198
103	0x38eddd3e	0.0001134225
104	0x394c8842	0.00019505716
105	0x3a1d6014	0.00060033915
106	0x391e7f10	0.00015115389
107	0x3852a15f	5.021819e-05
108	0xb8f6c1c4	-0.00011766286
109	0x39f3f500	0.0004653111
110	0x38ccea16	9.77108e-05
111	0x3a05b7ca	0.0005100934
112	0x3932cd92	0.00017051984
113	0xb9e98404	-0.00044539582
114	0x388cdeb3	6.717201e-05
115	0xb9cea735	-0.0003941596
116	0xba31bc5a	-0.0006780081
117	0x396f4ff8	0.00022822607
118	0xba3e18cc	-0.000725162
119	0xba5676ec	-0.0008181173
120	0x3901fb58	0.00012396032
121	0x38b6b9a1	8.713012e-05
122	0x393dd9c7	0.00018105573
123	0x391ad46e	0.0001476572
124	0x39076d5a	0.0001291534
125	0x39b31bd1	0.00034162265
126	0xb9c32857	-0.00037223354
127	0xb8f9c7b3	-0.00011910442

exp_avg_sq f4 [128]
0	0x327862ac	1.4457935e-08
1	0x35607ed0	8.363104e-07
2	0x349b55b6	2.8933363e-07
3	0x33cad5b6	9.445232e-08
4	0x34cb3fa1	3.7857993e-07
5	0x3303946f	3.0635814e-08
6	0x34eb7dac	4.38636e-07
7	0x3496e056	2.8102903e-07
8	0x32c96293	2.3444306e-08
9	0x342a9d7e	1.5889779e-07
10	0x33cd0a9b	9.5479855e-08
11	0x353e3126	7.0852036e-07
12	0x34d31647	3.9318022e-07
13	0x349f7ee5	2.9708386e-07
14	0x3516065e	5.588862e-07
15	0x34ab23e6	3.1877352e-07
16	0x3414a2f6	1.3842859e-07
17	0x3382edd1	6.096855e-08
18	0x321ef11d	9.251633e-09
19	0x32507806	1.2134484e-08
20	0x34ddaa17	4.1288214e-07
21	0x353d0da1	7.042782e-07
22	0x33f10f7c	1.12252536e-07
23	0x33b39d00	8.363895e-08
24	0x33224b75	3.7787192e-08
25	0x33b088fa	8.2205545e-08
26	0x342d71d0	1.6153285e-07
27	0x3581217f	9.620998e-07
28	0x334a44ae	4.7094254e-08
29	0x32ee36c9	2.773176e-08
30	0x352b0161	6.370447e-07
31	0x343bfabd	1.750695e-07
32	0x3466e951	2.1505299e-07
33	0x35448fd6	7.3225e-07
34	0x34f8ba59	4.6329185e-07
35	0x33037a86	3.061225e-08
36	0x34f1020c	4.4891237e-07
37	0x35815d03	9.638319e-07
38	0x34c03d2b	3.5807292e-07
39	0x3530aba3	6.5814874e-07
40	0x3485c0c3	2.4913433e-07
41	0x3383cc09	6.1372766e-08
42	0x3400ec64	1.2006927e-07
43	0x34eb4434	4.3821785e-07
44	0x34a5e43b	3.0899704e-07
45	0x32df7bf4	2.6016984e-08
46	0x3536fe6f	6.8170533e-07
47	0x3501c85a	4.8347795e-07
48	0x351106ba	5.40265e-07
49	0x33e7a1eb	1.07862284e-07
50	0x32f1d9c3	2.815512e-08
51	0x3413fe0b	1.3782862e-07
52	0x33f76752	1.1520628e-07
53	0x3515b5dc	5.5771466e-07
54	0x33d3c4fe	9.861286e-08
55	0x34ae485c	3.2462674e-07
56	0x33eb7e26	1.09659865e-07
57	0x34a04b2c	2.9857017e-07
58	0x3424aee6	1.5337318e-07
59	0x34b55c52	3.378105e-07
60	0x349aacdb	2.8810504e-07
61	0x3392009b	6.798765e-08
62	0x33af73dd	8.170148e-08
63	0x33d48e0d	9.897858e-08
64	0x3522a061	6.0583085e-07
65	0x33ec6b82	1.1009162e-07
66	0x3475be8f	2.2886728e-07
67	0x336870a5	5.411916e-08
68	0x3347492f	4.6399858e-08
69	0x34ef226a	4.454226e-07
70	0x331892ac	3.5523655e-08
71	0x32efedf2	2.7931467e-08
72	0x33fec3a5	1.1863384e-07
73	0x34627ee4	2.1094053e-07
74	0x343e642e	1.7731574e-07
75	0x34348d72	1.6815264e-07
76	0x351c652f	5.826177e-07
77	0x3441ad71	1.8037623e-07
78	0x34b467d0	3.3603146e-07
79	0x3491a458	2.712793e-07
80	0x354bec54	7.5967296e-07
81	0x3405f32a	1.2475053e-07
82	0x34bc4cd9	3.5073643e-07
83	0x353776b6	6.834556e-07
84	0x351862f1	5.676839e-07
85	0x359a943b	1.1517035e-06
86	0x33ddb2ba	1.03236246e-07
87	0x31f6a600	7.1784143e-09
88	0x340a71b1	1.2893612e-07
89	0x3437b99e	1.711073e-07
90	0x33a73ed4	7.787972e-08
91	0x349c8c6b	2.9159432e-07
92	0x349bd81a	2.9028234e-07
93	0x33c8bb46	9.3472906e-08
94	0x34cf458d	3.860736e-07
95	0x34a7ba3f	3.1241686e-07
96	0x336b0fc4	5.472954e-08
97	0x3454069e	1.9746446e-07
98	0x342ca93c	1.6080315e-07
99	0x33c67ec9	9.2431556e-08
100	0x33baf01e	8.704977e-08
101	0x349c0832	2.9063227e-07
102	0x3407de9b	1.2653838e-07
103	0x3300bc05	2.9973325e-08
104	0x35112984	5.407712e-07
105	0x351d61a0	5.862912e-07
106	0x345bd494	2.04733e-07
107	0x330d285b	3.2865824e-08
108	0x34abf998	3.2032835e-07
109	0x34998e0d	2.8601826e-07
110	0x33e31ee2	1.0576129e-07
111	0x3552b6b1	7.849695e-07
112	0x35078fc9	5.0500654e-07
113	0x346ec9d3	2.22389e-07
114	0x32b2b916	2.0806095e-08
115	0x34f30b91	4.5270693e-07
116	0x35658172	8.5497516e-07
117	0x34840cc3	2.45962e-07
118	0x35789654	9.2605956e-07
119	0x359ed7c8	1.1834718e-06
120	0x3395da52	6.9780654e-08
121	0x338da586	6.595933e-08
122	0x33af7151	8.169685e-08
123	0x34195514	1.4280187e-07
124	0x32b70216	2.1304952e-08
125	0x352992d6	6.317108e-07
126	0x344c49d0	1.9025833e-07
127	0x33383d9a	4.2896865e-08

exp_avg f4 [1, 2]
0	0x3c358e62	0.01108131
1	0xbbdce985	-0.006741705

exp_avg_sq f4 [1, 2]
0	0x39910b5b	0.00027665016
1	0x39864bbe	0.00025614904

exp_avg f4 [2, 128]
0	0x3a497e74	0.00076863845
1	0x3a1ef6e1	0.00060640095
2	0x3c0dce0c	0.008655082
3	0x3c12e4b0	0.008965656
4	0x3b8d98b8	0.004321184
5	0x3b95ed02	0.0045753727
6	0x3b95032a	0.0045474963
7	0x3b8233f3	0.003973478
8	0x39e3604c	0.0004336856
9	0xbb190226	-0.0023347228
10	0x3bab7589	0.005232517
11	0x3ab045b0	0.0013448503
12	0xbb7a1e23	-0.0038164936
13	0x3bf5bf36	0.0074996008
14	0xbaf15276	-0.0018411416
15	0xbac41fd6	-0.0014963101
16	0xb98bd337	-0.00026669513
17	0x3b3aaebc	0.0028485497
18	0x3adaf548	0.001670518
19	0xba2c069c	-0.0006562264
20	0x3b939c94	0.0045047496
21	0x3b1e2066	0.0024128198
22	0x3afed0e4	0.0019440916
23	0x3bd74044	0.0065689404
24	0xba828811	-0.0009958764
25	0x3ac2a73c	0.0014850865
26	0x3b3eb618	0.0029100236
27	0x3b0961bf	0.0020962802
28	0x3a7d56f4	0.0009664141
29	0x3bd3eb90	0.00646729
30	0x3bcd59a3	0.006266789
31	0x3b9dc3e7	0.004814613
32	0x3905374c	0.00012704468
33	0x3a39afe6	0.0007083401
34	0x39803954	0.00024456775
35	0x3a9e5091	0.0012078454
36	0x3b87da08	0.0041458644
37	0x3b2d7279	0.0026465936
38	0xbad0ab5c	-0.001592021
39	0x3b305c1e	0.0026910375
40	0xb9ab36e8	-0.0003265657
41	0x3b2152a0	0.0024615899
42	0x3a92b275	0.00111921
43	0x3ba893a0	0.0051445514
44	0x3aab8a71	0.0013087523
45	0x3b8f951b	0.0043817884
46	0xba5850e2	-0.00082517986
47	0x3b1377f8	0.0022501927
48	0xbb113e85	-0.0022162509
49	0x39c93f1d	0.0003838473
50	0xba5f4ce0	-0.000851823
51	0x3acdddb6	0.0015706334
52	0x3a716d21	0.0009209682
53	0x3bc0f2d2	0.0058883214
54	0x3b80b48c	0.003927773
55	0x3b9f84f6	0.004868145
56	0x3bad6c60	0.0052924603
57	0xbae872ea	-0.0017734442
58	0x3aff0983	0.0019457791
59	0xb90ba8c8	-0.00013318949
60	0x3ac8db6c	0.0015324182
61	0x3b757fbf	0.0037460176
62	0x39e01f16	0.0004274777
63	0xba823e86	-0.0009936846
64	0x3a56c436	0.000819269
65	0x3b242fa2	0.0025052805
66	0xbb1f05e5	-0.0024264988
67	0xba1f2425	-0.00060707546
68	0x3bfc0b1e	0.007691755
69	0x3c252a30	0.010080859
70	0x3b3d0c47	0.002884643
71	0x3c139178	0.00900685
72	0x3b8e2d36	0.0043388857
73	0xba1442f0	-0.00056557264
74	0x390e7bde	0.0001358832
75	0x3b044608	0.0020183343
76	0x3c1fb18d	0.009746921
77	0x3a01e648	0.0004955274
78	0x3b6dbfd7	0.0036277676
79	0xba123b40	-0.0005578287
80	0x3a9cd89a	0.0011966408
81	0x3afb9bd8	0.0019196225
82	0x3b732ce4	0.0037105614
83	0x3bbf541e	0.005838885
84	0xbb204aa0	-0.0024458542
85	0x3c2171b0	0.009853765
86	0xba4d5320	-0.0007832516
87	0x3b94cd18	0.0045410506
88	0x3c1079b8	0.0088180825
89	0x3c11a6cc	0.008889865
90	0xbaf7d902	-0.0018909278
91	0x3c0a54d1	0.008443073
92	0xb9808b78	-0.00024517975
93	0xb93956ac	-0.00017675263
94	0x3b0fa412	0.0021917862
95	0xba50d9a2	-0.0007967
96	0x3ba6e885	0.0050936365
97	0x3bf15598	0.00736494
98	0x3b1cefab	0.0023946564
99	0x3af16412	0.0018416664
100	0xba4dff34	-0.00078581576
101	0x3bea106c	0.007143071
102	0x3bbeb0fc	0.005819438
103	0xba5e4dd5	-0.0008480226
104	0x3bb57635	0.005537773
105	0x3a6e714c	0.0009095862
106	0xbb1c8249	-0.0023881367
107	0x3af806b4	0.0018922896
108	0x3b841df2	0.00403189
109	0x3b05e1e1	0.0020428824
110	0xbb2c9abd	-0.0026337348
111	0x3b0d8189	0.0021592102
112	0xbb62e18d	-0.0034619302
113	0x3bbdb29e	0.005789115
114	0xb835f61a	-4.3382963e-05
115	0x3b4f3852	0.0031619263
116	0x3ba70c38	0.005097892
117	0x3b968128	0.0045930333
118	0x3b53fd82	0.0032347147
119	0x3c4c7b4b	0.012480567
120	0xba0a263e	-0.0005269981
121	0x3c198654	0.009370405
122	0x3a7872ed	0.00094775745
123	0xbab00d57	-0.001343171
124	0xba1bfaba	-0.0005950142
125	0x39663d28	0.00021957292
126	0x3befe6d8	0.00732122
127	0xba3e88be	-0.0007268301
128	0xbba97a1e	-0.005172028
129	0x3a9a19b4	0.0011756928
130	0xbc321678	-0.010869615
131	0xbbe3b8ef	-0.006949536
132	0xbaa5d66e	-0.0012652406
133	0xbbde921a	-0.006792319
134	0x3b443835	0.0029940729
135	0xbbfe7d5e	-0.00776641
136	0x3adcd26c	0.0016847379
137	0x3b1c52f8	0.0023853164
138	0x3acea33d	0.0015765202
139	0xbbe1b280	-0.006887734
140	0x3b5b87fd	0.0033497803
141	0xbb69a203	-0.0035649545
142	0x39d0c6a3	0.00039820847
143	0x3b122c0f	0.0022304093
144	0xbaa9db49	-0.0012959029
145	0xbb25bf52	-0.0025291038
146	0xba1b2670	-0.00059185084
147	0x3b530aec	0.0032202555
148	0xba048013	-0.0005054485
149	0xbb223e88	-0.002475651
150	0x3ba820fe	0.005130886
151	0xbbab6d28	-0.0052315183
152	0xba265344	-0.0006344805
153	0xbb261937	-0.002534462
154	0xbb184234	-0.002323282
155	0xbad9a8b6	-0.0016606066
156	0x3ae28c84	0.0017284309
157	0xbaf42d59	-0.0018629237
158	0xbc04b5ee	-0.008100016
159	0xbb12114c	-0.0022288142
160	0xb78f1c38	-1.7060069e-05
161	0x39a0340f	0.00030556365
162	0xbb31cff1	-0.0027132
163	0xbaba686c	-0.0014221794
164	0xbbace6be	-0.00527653
165	0xbb7c5de6	-0.0038508116
166	0xb965d6ee	-0.0002191921
167	0x39d5a078	0.00040746084
168	0xbb766d97	-0.0037601942
169	0xbb627b52	-0.0034558368
170	0xbad2bd59	-0.0016078159
171	0xbbd26040	-0.0064201653
172	0x3b38e696	0.0028213612
173	0xbb8b65a4	-0.00425406
174	0xb957453b	-0.00020529788
175	0xbb3b55ef	-0.0028585156
176	0x3abd84fa	0.0014459186
177	0xbb5bbb67	-0.0033528449
178	0x3a829804	0.0009963517
179	0x3b22f156	0.0024863086
180	0xbac958b6	-0.0015361521
181	0xbb0b698d	-0.002127263
182	0x398a93e1	0.0002643159
183	0x3b9a71dc	0.00471328
184	0xbba89e80	-0.005145848
185	0xbb8124cd	-0.0039411546
186	0xbb6ac83e	-0.003582492
187	0xbb1e446b	-0.0024149667
188	0xba8c1f54	-0.0010690489
189	0xbb9e59e0	-0.0048324913
190	0x3aa6901e	0.0012707745
191	0x399524be	0.0002844687
192	0xbab71b39	-0.0013969905
193	0x3a24e6aa	0.0006290475
194	0xbab6eb96	-0.0013955708
195	0x388d8400	6.747991e-05
196	0x3a54ba80	0.0008114949
197	0xbc2e53ac	-0.010640066
198	0xbadc11a4	-0.0016789925
199	0xbc1a5182	-0.009418847
200	0xbbceb30e	-0.006307966
201	0x3b0e46c4	0.002170966
202	0xba9fa6e2	-0.0012180472
203	0xbb910dd2	-0.0044266963
204	0x3ba3225e	0.004978462
205	0xbaac290c	-0.0013134792
206	0xbb969530	-0.0045954213
207	0xbaa03d58	-0.0012225313
208	0x3a371234	0.00069836085
209	0xb77ca640	-1.5059079e-05
210	0xbb92bffe	-0.0044784537
211	0xba9c8b62	-0.0011943395
212	0x37d52366	2.5408062e-05
213	0xbbfb55de	-0.0076701483
214	0x3b964e81	0.004586995
215	0xbbeb006c	-0.007171681
216	0xbbee4e73	-0.0072725355
217	0xbbdbe38a	-0.0067104744
218	0x3b9a530a	0.004709606
219	0xbc169343	-0.009190383
220	0xbac6b518	-0.0015160171
221	0xbb2fe05f	-0.0026836616
222	0xbbe7f7c3	-0.007079096
223	0xba82b680	-0.0009972602
224	0xbbc21d3d	-0.0059238956
225	0xbbf643a2	-0.0075153867
226	0xbacd0288	-0.0015641013
227	0xbbd61720	-0.0065335184
228	0xba0824d9	-0.0005193479
229	0xbaecc041	-0.0018062667
230	0xbba3f776	-0.005003865
231	0x3b229984	0.002481074
232	0xbbb16ff8	-0.005414959
233	0xbbc06eca	-0.005872582
234	0xbabf37b5	-0.0014588746
235	0xba1dbb72	-0.0006017006
236	0xbb0db0e3	-0.0021620325
237	0xba9112ef	-0.0011068265
238	0x3ba8f530	0.0051561818
239	0xbadd0186	-0.0016861416
240	0x3a43dac3	0.00074712577
241	0xbb89d851	-0.004206695
242	0x3b002055	0.0019550521
243	0xba9050e6	-0.0011010438
244	0x38fda4a8	0.0001209465
245	0xbbca5032	-0.006174111
246	0xb9ac274c	-0.00032835675
247	0xbbea6206	-0.0071527986
248	0xbaf08ec2	-0.0018353092
249	0xbbc83dd9	-0.0061108884
250	0x3b047b7e	0.0020215209
251	0x3ad45de8	0.0016202303
252	0xba83b25e	-0.0010047664
253	0xbb12eaba	-0.002241774
254	0xbc01a09f	-0.00791183
255	0xba291e32	-0.0006451338
