results/Long_HighBatch#/3DBall/3DBall-1899480.pt (torch, 49335 bytes, 32 tensors)

network_body.observation_encoder.processors.0.normalizer.running_mean f4 [8]
-0.0032564776 0.001569993 -1.2722415 3.0856202 -0.5064233 -0.020544909 -0.46003366 -0.0154501535
00000000: a16a 55bb 39c8 cd3a cfd8 a2bf cd7a 4540
00000010: f5a4 01bf cc4d a8bc 8889 ebbe a422 7dbc

network_body.observation_encoder.processors.0.normalizer.running_variance f4 [8]
3991.867 5671.7817 1.2621391e+06 73384.086 655181.8 271200.47 936680.94 401244.9
00000000: df7d 7945 413e b145 d911 9a49 0b54 8f47
00000010: ddf4 1f49 0f6c 8448 8fae 6449 9deb c348

network_body.processors.0.normalizer.running_mean f4 [8]
-0.0032564776 0.001569993 -1.2722415 3.0856202 -0.5064233 -0.020544909 -0.46003366 -0.0154501535
00000000: a16a 55bb 39c8 cd3a cfd8 a2bf cd7a 4540
00000010: f5a4 01bf cc4d a8bc 8889 ebbe a422 7dbc

network_body.processors.0.normalizer.running_variance f4 [8]
3991.867 5671.7817 1.2621391e+06 73384.086 655181.8 271200.47 936680.94 401244.9
00000000: df7d 7945 413e b145 d911 9a49 0b54 8f47
00000010: ddf4 1f49 0f6c 8448 8fae 6449 9deb c348

network_body._body_endoder.seq_layers.0.weight f4 [128, 8]
-0.2494811 -0.36067376 0.10957114 0.5001574 0.13237387 -0.79563487 -0.13204144 0.2723041
-0.24222714 -0.06723278 0.0107057085 -0.62328625 -0.53818417 0.3558414 1.2738036 0.55773425
-0.3932762 -0.24675229 -0.3367739 0.08001898 0.41509774 -0.8062972 -0.4034806 0.2540816
-0.20807287 -0.33460844 -0.047817633 -0.5845596 0.074622095 -0.2561321 -0.7493071 0.018237375
0.47995648 0.33811775 0.07343935 -0.34008315 0.56076 -0.9974665 -0.055328622 0.7482402
-0.0240486 0.33503368 -0.15096661 0.4198811 0.090122595 -0.023071945 -0.51383764 0.014012866
0.66195124 0.07399859 -0.36974007 -0.0074520647 -0.14819387 -0.20438486 -0.008115257 -0.5917089
-0.15525512 0.10472754 -0.53863376 0.6114172 0.7159479 0.18540992 0.3269887 0.38195747
0.26395103 -0.19112784 0.42669976 -0.4212447 0.14131658 -0.048284106 -0.26656112 -0.20648088
0.123437054 -0.01780705 0.32858986 -0.18554327 -0.34656075 0.13699064 0.23984061 -0.06428325
-0.1810023 0.024872022 -0.5661724 -0.2003521 0.3220884 -0.1487212 0.39485925 -0.9195171
-0.63923115 0.24636844 -0.1662117 0.115912326 -0.524031 0.14093375 -0.15577671 0.47015318
-0.28532046 -0.24223682 0.57189804 -0.0012882933 -0.685278 -0.23386449 0.28173468 -0.32227
-0.06798645 -0.403846 -0.5717335 0.11934267 -0.3552283 0.33905402 -0.52394956 -0.51109993
-0.39777064 -0.7789053 0.28742698 0.06423911 -0.07495106 0.11385656 0.71522826 -0.12976536
0.37204236 -0.50932264 -0.021341898 0.2140443 -0.67066157 -0.21392027 0.121563196 -0.054021884
-0.035460886 0.40268102 0.050437354 0.0972867 0.0055629476 -0.32590735 0.1417049 0.12695952
-0.52113086 -0.6309131 0.5960766 -0.038068384 -0.15756518 -0.0697099 -0.4972067 0.6105695
-0.2657931 -0.58290255 0.10025996 -0.22248507 0.37767395 -0.42965278 0.26200497 0.12747909
0.0882819 0.58202654 0.85998803 0.40272036 0.012934391 -0.4966786 0.4211787 -0.36763614
0.77771467 -0.35295787 -0.19897127 -0.32482085 -0.25368446 0.02304105 -0.42538387 -0.08549162
-0.17684916 -0.31143516 -0.12471775 0.017322406 0.12305358 -0.68369853 0.049105633 -0.10988134
0.6041921 0.14774826 -0.3830745 0.10509992 -0.5760745 0.19000624 0.6603389 -0.9754354
0.1223641 0.3364218 -0.4000133 0.17388912 -0.016047284 0.042507477 -0.46640688 -0.27473006
0.37874046 0.19783188 -0.16222854 -0.0056458637 -0.2636334 0.46783882 -0.009539779 0.30887026
0.20264722 0.35011998 0.044646304 0.3316904 0.14182113 -0.36834034 -0.11005993 0.859434
0.79628867 0.89019865 -0.55032736 0.0050765877 0.03320369 0.25062433 0.07336266 -0.030132249
-0.5265363 -0.3438606 -0.21116214 -0.056305718 -0.45377338 0.3356611 0.074227355 -0.04873779
-0.13799252 -0.7100133 0.12459923 -0.33665058 0.2977868 -0.32341796 0.15120557 -0.35244802
0.08242753 0.24659075 -0.28875735 -0.1171474 0.5921157 -0.11049616 -0.19937114 -0.53342015
0.5720351 0.27864096 -0.6732573 0.73173213 0.114613965 -0.0076009324 -0.26624852 0.10037779
-0.2491154 -0.6995952 -0.17577752 0.13938454 0.2226075 0.2810256 0.09321861 0.4392696
00000000: f977 7fbe 3baa b8be d566 e03d 510a 003f
00000010: 048d 073e baae 4bbf df35 07be 716b 8b3e
00000020: 640a 78be 57b1 89bd ff66 2f3c b08f 1fbf
00000030: 70c6 09bf d830 b63e ff0b a33f acc7 0e3f
00000040: 805b c9be a2ac 7cbe a16d acbe fee0 a33d
00000050: b187 d43e 7e69 4ebf 0295 cebe fc16 823e
00000060: 0e11 55be cc51 abbe 6cdc 43bd b3a5 15bf
00000070: 78d3 983d bf23 83be 97d2 3fbf 8c66 953c
00000080: dbbc f53e c51d ad3e 5f67 963d 611f aebe
00000090: f88d 0f3f f759 7fbf 44a0 62bd ab8c 3f3f
000000a0: 9201 c5bc 8989 ab3e fe96 1abe a8fa d63e
000000b0: 3292 b83d 6001 bdbc dd8a 03bf 3896 653c
000000c0: a375 293f 938c 973d 924e bdbe 7330 f4bb
000000d0: 22c0 17be 444a 51be dbf5 04bc 3c7a 17bf
000000e0: 33fb 1ebe 647b d63d e7e3 09bf d685 1c3f
000000f0: 5d48 373f 19dc 3d3e 106b a73e ee8f c33e
00000100: 9724 873e 04b7 43be 6478 da3e 63ad d7be
00000110: 4bb5 103e 8ec5 45bd b37a 88be b96f 53be
00000120: 91cc fc3d 17e0 91bc ee3c a83e 0eff 3dbe
00000130: 6970 b1be 4647 0c3e c798 753e f0a6 83bd
00000140: ab58 39be 69c0 cb3c adf0 10bf 1a29 4dbe
00000150: c5e8 a43e 5f4a 18be fe2a ca3e 7965 6bbf
00000160: a7a4 23bf 0248 7c3e 6633 2abe 7163 ed3d
00000170: e526 06bf f050 103e ee83 1fbe ebb7 f03e
00000180: 8615 92be ee0c 78be e967 123f f3db a8ba
00000190: 616e 2fbf 2c7a 6fbe 873f 903e 9300 a5be
000001a0: 7b3c 8bbd e7c4 cebe 205d 12bf ee69 f43d
000001b0: 7ce0 b5be 7d98 ad3e 8f21 06bf 72d7 02bf
000001c0: 98a8 cbbe 5666 47bf a129 933e cb8f 833d
000001d0: f17f 99bd a12d e93d 3319 373f 36e1 04be
000001e0: 567c be3e f862 02bf 34d5 aebc 6e2e 5b3e
000001f0: 7ab0 2bbf ea0d 5bbe 20f6 f83d 0d46 5dbd
00000200: 6f3f 11bd 352c ce3e 6697 4e3d 403e c73d
00000210: 6349 b63b 54dd a6be 171b 113e ad01 023e
00000220: d568 05bf 8583 21bf 7a98 183f 98ed 1bbd
00000230: c458 21be 10c4 8ebd e091 febe 484e 1c3f
00000240: 0916 88be 1a39 15bf 1855 cd3d 20d3 63be
00000250: 7b5e c13e 73fb dbbe 8425 863e e189 023e
00000260: 24cd b43d b1ff 143f 2d28 5c3f 5d31 ce3e
00000270: c5ea 533c a84c febe bca4 d73e ce3a bcbe
00000280: 4f18 473f e5b6 b4be 20bf 4bbe eb4e a6be
00000290: eee2 81be 96c0 bc3c eacb d9be 3b16 afbd
000002a0: f217 35be 6e74 9fbe 056c ffbd b8e7 8d3c
000002b0: 8403 fc3d de06 2fbf fd22 493d 7809 e1bd
000002c0: 55ac 1a3f 524b 173e 5722 c4be a03e d73d
000002d0: 9e79 13bf ff90 423e f80b 293f 22b6 79bf
000002e0: 079a fa3d 7a3f ac3e 8bce ccbe fd0f 323e
000002f0: 9875 83bc 521c 2e3d e2cc eebe 6ba9 8cbe
00000300: 45ea c13e 7194 4a3e 3d1f 26be f000 b9bb
00000310: f5fa 86be 9288 ef3e bc4c 1cbc 3e24 9e3e
00000320: c182 4f3e ed42 b33e 0bdf 363d 53d3 a93e
00000330: 8f39 113e 1b97 bcbe 1a67 e1bd de03 5c3f
00000340: 93d9 4b3f 0fe4 633f 41e2 0cbf 8159 a63b
00000350: 9800 083d d551 803e 2a3f 963d e8d7 f6bc
00000360: 15cb 06bf 7f0e b0be e33a 58be d3a0 66bd
00000370: fc54 e8be c6db ab3e 8304 983d 47a1 47bd
00000380: e94d 0dbe 6ec3 35bf e22d ff3d 775d acbe
00000390: 8377 983e 0a97 a5be a2d5 1a3e 1174 b4be
000003a0: c4cf a83d 4982 7c3e 01d8 93be faea efbd
000003b0: e594 173f d04b e2bd f327 4cbe 398e 08bf
000003c0: e470 123f 07aa 8e3e 975a 2cbf cc52 3b3f
000003d0: baba ea3d 3e11 f9bb ba51 88be df92 cd3d
000003e0: 1b18 7fbe ac18 33bf 06ff 33be d2ba 0e3e
000003f0: 38f3 633e 96e2 8f3e 66e9 be3d f2e7 e03e

network_body._body_endoder.seq_layers.0.bias f4 [128]
-0.058291867 0.12667137 -0.025860047 -0.07342006 0.061295755 -0.046509087 -0.02014143 0.079726264
-0.075225785 0.06201411 -0.01368949 0.122963645 0.10883644 0.047354277 0.10265972 -0.021338614
-0.005383383 0.10237995 -0.019739904 0.03942762 -0.015864216 -0.046800286 0.021558788 -0.061829537
0.045697067 0.039120592 -0.025097448 0.11890708 -0.00799691 -0.05033014 -0.017514579 0.11797028
-0.028588952 -0.017615566 0.15152265 -0.044922557 -0.019137291 0.12321813 0.16859952 -0.025323251
0.11876078 0.108370505 -0.024936302 -0.037378687 -0.020978589 -0.0028198687 0.10853568 0.039481934
0.12750459 -0.030715879 -0.06584839 0.12662067 0.052100826 -0.05969322 0.05173662 0.04943841
-0.0047105127 0.1626981 -0.05978121 -0.058556218 0.15781683 -0.0012252931 0.005855631 0.048559602
0.1532903 -0.059420545 0.11612617 -0.036717728 0.06316017 -0.0060193646 0.07194556 0.016454909
0.062491853 0.06778162 0.12865838 -0.011440818 -0.0033792977 0.02129068 0.005302795 -0.045558844
-0.003054622 0.005842346 -0.05860008 -0.026822943 0.1476148 0.037833672 0.064542554 -0.052558307
-0.0575371 -0.032289863 -0.052316748 0.08850714 0.13384521 -0.03032458 0.07240802 0.1555789
0.033089217 -0.05911745 0.04560263 -0.0043876683 -0.02329956 -0.042031534 0.044063024 -0.0019361484
0.05458912 0.124261156 0.10817009 0.019063463 0.03454112 0.15981436 0.12012935 0.15471339
0.060428824 -0.06457754 0.07316363 -0.03931655 -0.043745752 0.126134 -0.037688833 0.011872547
0.16014709 0.021705903 0.0551351 0.15320985 0.041202534 0.16673954 -0.043152675 -0.06482354
00000000: 74c3 6ebd 24b6 013e 73d8 d3bc 425d 96bd
00000010: 4211 7b3d 5080 3ebd a4ff a4bc 8647 a33d
00000020: fa0f 9abd 8202 7e3d e249 60bc 5dd4 fb3d
00000030: a4e5 de3d 8ff6 413d 423f d23d 51ce aebc
00000040: 1767 b0bb 94ac d13d 94b5 a1bc db7e 213d
00000050: acf5 81bc a8b1 3fbd 0e9c b03c f840 7dbd
00000060: d92c 3b3d ea3c 203d 2a99 cdbc 8e85 f33d
00000070: 7905 03bc fa26 4ebd bc7a 8fbc 679a f13d
00000080: 6133 eabc 854e 90bc c128 1b3e b700 38bd
00000090: cfc5 9cbc c959 fc3d 5aa5 2c3e b572 cfbc
000000a0: da38 f33d 5bf1 dd3d 3747 ccbc 651a 19bd
000000b0: 4adb abbc 8ccd 38bb f447 de3d cfb7 213d
000000c0: 9090 023e de9f fbbc 85db 86bd d9a8 013e
000000d0: ad67 553d e180 74bd c7e9 533d ee7f 4a3d
000000e0: a55a 9abb 559a 263e 24dd 74bd a5d8 6fbd
000000f0: bc9a 213e 049a a0ba 98e0 bf3b 6fe6 463d
00000100: 22f8 1c3e f562 73bd 8fd3 ed3d 5465 16bd
00000110: 1f5a 813d 173e c5bb 3258 933d 72cc 863c
00000120: 75f7 7f3d 17d1 8a3d 06bf 033e 4572 3bbc
00000130: 3577 5dbb cb69 ae3c 12c3 ad3b e99b 3abd
00000140: 0e30 48bb 2771 bf3b a306 70bd cabb dbbc
00000150: 5628 173e 7bf7 1a3d e32e 843d 6147 57bd
00000160: 06ac 6bbd 6042 04bd 164a 56bd 3b43 b53d
00000170: b80e 093e 416b f8bc a84a 943d 1350 1f3e
00000180: 8f88 073d 2425 72bd d3c9 3a3d 6ec6 8fbb
00000190: b8de bebc 4229 2cbd 6e7b 343d 5cc6 fdba
000001a0: d798 5f3d a27c fe3d 4888 dd3d fb2a 9c3c
000001b0: fd7a 0d3d 60a6 233e 6006 f63d 306d 1e3e
000001c0: 3784 773d 3b41 84bd d0d6 953d 640a 21bd
000001d0: bf2e 33bd 4529 013e 9b5f 1abd 1285 423c
000001e0: 99fd 233e 94d0 b13c 58d5 613d 0be3 1c3e
000001f0: fdc3 283d c5bd 2a3e dcc0 30bd 34c2 84bd

action_model._continuous_distribution.log_sigma f4 [1, 2]
-0.09745758 -0.035000976
00000000: d797 c7bd 2f5d 0fbd

action_model._continuous_distribution.mu.weight f4 [2, 128]
-0.013967992 0.09812677 -0.061921824 -0.036475446 -0.06822951 -0.018496927 -0.07114332 0.01505737
-0.010839399 0.06504642 -0.001550885 0.08005492 0.0861134 0.03417149 0.10432041 -0.044268746
-0.037834708 0.03611689 -0.00515649 0.015826566 -0.06533206 -0.10390401 0.013320548 -0.026317148
0.016108194 -0.03167178 -0.04032131 0.11093502 -0.0030377158 -0.023113124 -0.084927924 0.051469427
-0.00045594442 -0.074475266 0.09416114 -0.011255506 -0.07123317 0.09138533 0.09853697 -0.1005077
0.0628268 0.034404013 -0.041252486 -0.04447722 -0.042733584 0.018275648 0.11130494 -0.051261332
0.08834492 0.016996438 -0.030105397 0.058459733 0.0005971259 -0.09113493 0.034427315 0.025073921
-0.04002874 0.08310194 -0.039112158 -0.07373818 0.0873671 -0.0072150715 -0.0358958 -0.015773641
0.10513193 -0.033503678 0.059072964 -0.022256816 0.025697745 -0.056278825 0.021748023 -0.00042949695
0.011320941 0.05546013 0.053984404 0.020255428 -0.049844615 -0.022226352 0.0023643419 -0.046122793
-0.11401598 0.011222685 -0.080290556 -0.10024644 0.1008233 -0.0998159 0.050788227 -0.010743163
-0.039829545 -0.030222546 -0.035906993 0.05790485 0.080812715 -0.03336522 0.058865763 0.08809323
0.030958083 -0.04942136 -0.021945385 -0.018004406 -0.0034713289 -0.055072244 0.03640912 0.017366674
-0.034343608 0.093123816 0.068151325 0.010692614 -0.04369313 0.08202567 0.066778496 0.10231957
0.04638111 -0.05637918 0.032230657 -0.058020025 -0.108974375 0.060625248 -0.10638353 -0.10277795
0.047838908 0.022064673 0.036709026 0.07833231 0.019546168 0.11840076 -0.051014517 -0.026766289
-0.003269942 -0.061151985 -0.01439979 0.009527518 -0.056003064 -0.015019731 0.02549233 -0.07023611
0.020139135 0.038692538 0.03813537 -0.03727867 0.043844316 0.043929365 0.047832083 0.057384137
-0.039672736 -0.012170845 -0.015373533 0.008806582 0.03660351 0.018386284 0.036396157 0.021157147
-0.01691414 -0.017993465 -0.029552775 0.029228264 0.029387258 -0.006638896 -0.030395586 -0.020217162
0.074380845 0.062433995 -0.022859352 -0.031116456 -0.015696371 -0.078678764 -0.0039300695 -0.007569538
-0.03023791 -0.010921678 -0.038446136 0.046025675 0.06274217 0.007934565 0.013567665 -0.0810139
0.019274594 0.04194088 0.008178155 -0.042915516 -0.04294483 0.0047245077 -0.000108306594 0.063177735
-0.040288225 -0.0094989445 0.026999747 0.027950557 -0.030754263 -0.046169832 -0.040468905 -0.03875729
-0.016058411 0.02754089 -0.020289449 -0.02176779 0.005754408 -0.031066677 0.0039875363 -0.022435494
-0.04365481 0.052871805 -0.045771975 0.04960039 0.07205716 -0.057002872 0.06374243 0.049737487
0.00097331725 0.044605132 -0.021900358 -0.04435393 -0.043174207 -0.047382403 0.026838606 -0.0009391152
-0.008062809 0.030875048 0.02546404 0.0045747915 0.014465409 -0.026797704 0.054141704 0.013815461
0.007192268 0.013787524 -0.054618794 -0.03467721 0.0399542 -0.022126772 0.028145876 0.02544894
-0.097178996 -0.031791832 0.0034665565 0.020165907 -0.0817706 -0.02337078 0.014880413 -0.030962033
0.078357555 0.008102655 -0.011069789 0.056400497 0.012060946 0.007011067 0.021745708 -0.014309505
-0.010191552 0.015629185 0.0035547956 -0.018638352 -0.02327958 -0.02273329 0.0055565615 0.0060358793
00000000: 01da 64bc b0f6 c83d bda1 7dbd 4767 15bd
00000010: eabb 8bbd de86 97bc 97b3 91bd 30b3 763c
00000020: bc97 31bc 0f37 853d 1147 cbba d5f3 a33d
00000030: 395c b03d 68f7 0b3d f0a5 d53d 2553 35bd
00000040: 91f8 1abd 4eef 133d c6f7 a8bb b7a6 813c
00000050: d1cc 85bd a0cb d4bd 6e3e 5a3c 0f97 d7bc
00000060: 55f5 833c 45ba 01bd f527 25bd e631 e33d
00000070: 6a14 47bb bc57 bdbc b1ee adbd 9bd1 523d
00000080: d30b efb9 7d86 98bd 8ed7 c03d 0469 38bc
00000090: b2e2 91bd 3b28 bb3d c0cd c93d fbd6 cdbd
000000a0: 56ab 803d 39eb 0c3d 5ef8 28bd bf2d 36bd
000000b0: 6909 2fbd d0b6 953c d8f3 e33d 67f7 51bd
000000c0: 2eee b43d 1d3c 8b3c 989f f6bc 7973 6f3d
000000d0: 7188 1c3a f3a4 babd a803 0d3d d367 cd3c
000000e0: 2df5 23bd 5a31 aa3d 1234 20bd 0b04 97bd
000000f0: 86ed b23d 686c ecbb 7907 13bd b937 81bc
00000100: 694f d73d 273b 09bd 7ef6 713d ed53 b6bc
00000110: 1484 d23c a084 66bd e928 b23c 1b2e e1b9
00000120: 787b 393c 292a 633d c01e 5d3d b6ee a53c
00000130: de29 4cbd 0a14 b6bc 13f3 1a3b 41eb 3cbd
00000140: 3681 e9bd 5adf 373c 606f a4bd 014e cdbd
00000150: 727c ce3d 476c ccbd 5107 503d 1704 30bc
00000160: 4e24 23bd 4695 f7bc 3613 13bd a32d 6d3d
00000170: 2381 a53d f8a9 08bd 3a1d 713d 396a b43d
00000180: ce9b fd3c 0d6e 4abd cfc6 b3bc fa7d 93bc
00000190: 3c7f 63bb 6f93 61bd bb21 153d 8e44 8e3c
000001a0: e2ab 0cbd b3b7 be3d ec92 8b3d 1330 2f3c
000001b0: 91f7 32bd 13fd a73d 2ac3 883d ec8c d13d
000001c0: 1efa 3d3d dbed 66bd 4b04 043d 68a6 6dbd
000001d0: f52d dfbd 2e52 783d 9cdf d9bd 3f7d d2bd
000001e0: bbf2 433d f9c0 b43c 345c 163d b16c a03d
000001f0: 491f a03c 197c f23d 99f4 50bd fa44 dbbc
00000200: 864c 56bb 817a 7abd 19ed 6bbc 4f19 1c3c
00000210: 7863 65bd 5115 76bc 4ad5 d03c f3d7 8fbd
00000220: d4fa a43c 117c 1e3d d533 1c3d 85b1 18bd
00000230: 1996 333d 47ef 333d 93eb 433d a10b 6b3d
00000240: e17f 22bd 3968 47bc 45e1 7bbc 7b49 103c
00000250: 90ed 153d d59e 963c 2314 153d c151 ad3c
00000260: 868f 8abc 0867 93bc a918 f2bc 1d70 ef3c
00000270: 8cbd f03c 198b d9bb 2a00 f9bc 769e a5bc
00000280: fc54 983d caba 7f3d 8943 bbbc f0e7 febc
00000290: ad95 80bc 5522 a1bd d0c7 80bb e309 f8bb
000002a0: 7eb5 f7bc d6f0 32bc b279 1dbd 6b85 3c3d
000002b0: f87e 803d faff 013c e94a 5e3c 9eea a5bd
000002c0: c1e5 9d3c 33ca 2b3d abfd 053c 2ec8 2fbd
000002d0: ebe6 2fbd 0bd0 9a3b a922 e3b8 5463 813d
000002e0: 4405 25bd 76a1 1bbc 932e dd3c 91f8 e43c
000002f0: 5df0 fbbc 941c 3dbd b9c2 25bd f7bf 1ebd
00000300: ee8c 83bc 6f9d e13c 0f36 a6bc 5d52 b2bc
00000310: 798f bc3b 8b7f febc e1a9 823b a4ca b7bc
00000320: 63cf 32bd 1b90 583d 657b 3bbd c729 4b3d
00000330: b492 933d d87b 69bd 648b 823d 89b9 4b3d
00000340: 3726 7f3a dfb3 363d 6168 b3bc 77ac 35bd
00000350: 70d7 30bd 0d14 42bd a3dc db3c f42e 76ba
00000360: df19 04bc abed fc3c f699 d03c 22e8 953b
00000370: 5300 6d3c dc86 dbbc b1c3 5d3d 3e5a 623c
00000380: 1ead eb3b 11e5 613c f5b7 5fbd b109 0ebd
00000390: 04a7 233d 3443 b5bc 2e92 e63c 4c7a d03c
000003a0: c805 c7bd 2738 02bd 2b2f 633b f932 a53c
000003b0: 5877 a7bd 1474 bfbc facc 733c 17a4 fdbc
000003c0: ed79 a03d 00c1 043c 0f5e 35bc 3504 673d
000003d0: 469b 453c 18bd e53b 0e24 b23c 6a72 6abc
000003e0: 78fa 26bc c708 803c 93f7 683b 75af 98bc
000003f0: d1b4 bebc 2a3b babc d113 b63b a0c8 c53b

action_model._continuous_distribution.mu.bias f4 [2]
0.092939064 -0.035801884
00000000: d656 be3d ffa4 12bd

exp_avg f4 [128, 8]
-5.4401244e-05 1.9141491e-05 6.0721388e-05 9.7846656e-05 -1.5200249e-05 -4.8441916e-06 -9.931689e-06 -1.191957e-05
0.00020840195 0.0002947998 -0.0004341623 0.000135729 -5.079931e-05 -0.00025156167 0.00010129548 0.00015708114
-0.00037787872 6.731716e-05 0.00026184946 0.000363001 -1.3652681e-05 -3.1890206e-05 7.949234e-05 -0.00012239558
-0.0002849599 3.4576315e-06 0.0001300968 0.00022397774 3.4490117e-06 5.557864e-05 0.00021306958 -6.135917e-05
-0.0005034851 -0.00015817548 0.00037585906 0.00014905678 0.00011086571 -2.7170192e-05 6.399602e-05 -0.0002273301
-9.488884e-05 9.049182e-05 5.0127113e-05 0.00018624659 -7.931991e-06 1.0805605e-05 9.476855e-06 -4.3156462e-05
-0.00039840495 0.0002373679 0.00023490316 0.0005333179 -6.7573215e-05 -4.0097304e-05 0.00028665646 -0.00030081687
0.00017180812 2.983629e-05 -6.8031266e-05 8.168546e-05 -1.7200597e-05 1.3281744e-05 0.00017759054 0.0001063298
-2.3631974e-05 7.909982e-06 8.939679e-05 0.0001449572 1.0227343e-05 5.3869066e-05 0.00011089778 -2.3509205e-05
0.00020591753 1.8300014e-05 -0.00022443873 -0.00027421844 7.051278e-05 8.828762e-05 -0.00012257941 8.5917316e-05
-7.258495e-05 1.37162115e-05 2.4300583e-05 4.233715e-05 -2.4508638e-05 2.4211098e-05 -3.2976404e-05 -4.2525346e-05
0.0004029301 7.801942e-05 -8.77328e-05 -0.00052754337 -4.2851505e-05 -1.0178555e-05 -9.3485025e-05 0.00020842395
0.00011990357 -2.5309564e-05 -0.00029211046 -0.0004344795 0.00014646801 0.00013145128 -8.380988e-05 -3.0542597e-06
0.00010674965 -0.00014346035 -3.9418854e-05 -0.00010419964 1.3977857e-05 -9.851687e-06 -3.7798705e-05 6.7103456e-06
0.00014973897 8.310042e-05 -0.00037236646 -0.0001686859 0.00019355613 0.00017087779 8.274055e-05 -0.00015969726
-0.00026335998 6.673194e-05 0.00020470872 0.00028004963 -2.7280064e-05 1.8995586e-05 4.23718e-05 -0.00012729179
-0.00010573493 7.87776e-05 0.00014666669 0.0003500609 -5.1654184e-05 9.45527e-06 1.970211e-05 -0.00011161681
0.00021359402 3.9808772e-05 -0.00019270142 -0.00025084807 -1.6075679e-05 3.1073832e-06 -0.00011596346 1.7816814e-05
-3.0751185e-06 -2.9431734e-05 7.194045e-06 -5.117889e-05 -1.8680303e-06 -2.9477342e-05 -3.256503e-06 2.4388002e-05
3.383874e-05 -4.696895e-05 -4.3983506e-05 -0.000116308955 1.8195904e-05 2.3737906e-05 1.6918078e-05 2.4137014e-05
-0.00041009524 0.00017273365 0.00038049198 0.0005228138 -3.5736648e-05 0.00011796193 0.000417776 -0.00023982991
-0.00048206878 0.00012500206 0.00033444984 0.00053644023 -0.00013033394 -2.3769178e-05 1.0641132e-05 -0.00020774148
2.9695953e-05 -6.90343e-05 3.2648168e-06 -0.00013595515 4.9031405e-05 4.078478e-06 -2.9664698e-06 2.380299e-05
-0.00016808257 4.1334904e-05 3.843796e-05 0.00023693804 9.852132e-06 -1.172291e-05 0.000113442926 -0.000110955036
8.926608e-05 -6.8996087e-07 -7.266676e-05 -7.441406e-05 -8.756382e-06 -1.615111e-05 -7.2880335e-05 4.831796e-05
-0.00017774588 3.999551e-05 0.00017181199 0.00032361923 -1.1744349e-05 2.222999e-05 2.6536673e-05 -0.000115250805
-0.00021210137 0.00012394262 9.584672e-05 0.0003778259 -5.189697e-06 2.365221e-06 0.00010039867 -0.00023230891
0.00044061965 -9.206939e-06 -0.00017657234 -0.0003864622 0.00010765401 -9.038216e-06 -9.60137e-05 3.9621897e-05
-5.7419194e-05 3.5029272e-05 2.5120957e-05 0.00013938804 -1.8023062e-05 7.885787e-05 1.9418349e-05 -5.7607314e-05
-9.493289e-05 7.639721e-05 4.6161567e-05 0.0001278863 -8.5942065e-07 1.1290913e-05 2.5425015e-05 -6.19886e-05
-0.0004682816 0.00038566536 0.00034564547 0.0009988693 -4.6019355e-05 -9.809253e-06 0.00017107074 -0.00037104453
0.00029339993 2.4594327e-05 -0.00020366772 -0.00018276503 5.385971e-05 -4.137423e-05 1.4383929e-05 5.373956e-05
00000000: e42c 64b8 0a92 a037 18af 7e38 0633 cd38
00000010: 9304 7fb7 4a8b a2b6 48a0 26b7 2afa 47b7
00000020: 7986 5a39 5c8f 9a39 47a0 e3b9 7a52 0e39
00000030: 5811 55b8 09e4 83b9 996e d438 26b6 2439
00000040: 061e c6b9 a02c 8d38 d748 8939 2b51 be39
00000050: d20d 65b7 d9c1 05b8 20b5 a638 5057 00b9
00000060: ac66 95b9 a809 6836 986a 0839 91db 6a39
00000070: 9275 6736 1c1d 6938 6e6b 5f39 f4ad 80b8
00000080: 50fc 03ba e8db 25b9 f30e c539 204c 1c39
00000090: 9380 e838 8beb e3b7 9a35 8638 765f 6eb9
000000a0: 0fff c6b8 6dc6 bd38 943f 5238 304b 4339
000000b0: a413 05b7 b849 3537 c8fe 1e37 e602 35b8
000000c0: 02e1 d0b9 f6e5 7839 5650 7639 5cce 0b3a
000000d0: 18b6 8db8 272e 28b8 614a 9639 f5b6 9db9
000000e0: 6427 3439 f248 fa37 02ac 8eb8 8c4e ab38
000000f0: 004a 90b7 a8d4 5e37 9937 3a39 60fd de38
00000100: 473d c6b7 1db5 0437 897a bb38 a7ff 1739
00000110: 1b96 2b37 78f1 6138 cb91 e838 a235 c5b7
00000120: 91eb 5739 fb82 9937 5057 6bb9 fac4 8fb9
00000130: 43e0 9338 0e27 b938 a988 00b9 822e b438
00000140: c038 98b8 ae1e 6637 1bd9 cb37 2b93 3138
00000150: e697 cdb7 f018 cb37 2550 0ab8 3e5d 32b8
00000160: 5d40 d339 5b9e a338 30fd b7b8 d64a 0aba
00000170: 74bb 33b8 90c4 2ab7 640d c4b8 618c 5a39
00000180: bd74 fb38 e04f d4b7 6726 99b9 daca e3b9
00000190: 3595 1939 2fd6 0939 16c3 afb8 c8f7 4cb6
000001a0: c8de df38 d86d 16b9 ac55 25b8 c185 dab8
000001b0: 7082 6a37 ac48 25b7 0d8a 1eb8 6e29 e136
000001c0: 4003 1d39 3346 ae38 2e3a c3b9 47e1 30b9
000001d0: 54f5 4a39 a82d 3339 ff84 ad38 6874 27b9
000001e0: 9413 8ab9 70f2 8b38 14a7 5639 a0d3 9239
000001f0: 7ed7 e4b7 b658 9f37 60b8 3138 a179 05b9
00000200: 02be ddb8 6735 a538 8aca 1939 6188 b739
00000210: 42a7 58b8 13a2 1e37 f645 a537 d213 eab8
00000220: 35f8 5f39 58f8 2638 e50f 4ab9 4284 83b9
00000230: 42da 86b7 7088 5036 6931 f3b8 5175 9537
00000240: 225e 4eb6 2be4 f6b7 6064 f136 eaa8 56b8
00000250: 08b9 fab5 1c46 f7b7 4c8a 5ab6 d694 cc37
00000260: 12ee 0d38 8700 45b8 ee7a 38b8 e5ea f3b8
00000270: 68a3 9837 c420 c737 4ceb 8d37 d879 ca37
00000280: 0d02 d7b9 d61f 3539 c57c c739 710d 093a
00000290: efe3 15b8 5462 f738 f208 db39 da7a 7bb9
000002a0: 2dbe fcb9 fc12 0339 1959 af39 e59f 0c3a
000002b0: 40aa 08b9 ec63 c7b7 5087 3237 2ed5 59b9
000002c0: 931b f937 82c6 90b8 2019 5b36 2f8f 0eb9
000002d0: 12a7 4d38 dcd9 8836 9013 47b6 88ac c737
000002e0: 523f 30b9 045f 2d38 7238 2138 9272 7839
000002f0: 964a 2537 84ad 44b7 35e8 ed38 88b0 e8b8
00000300: 5d34 bb38 c035 39b5 ab64 98b8 bf0e 9cb8
00000310: 60e8 12b7 3f7c 87b7 55d7 98b8 04a9 4a38
00000320: 4c61 3ab9 dac0 2738 6e28 3439 70ab a939
00000330: 9809 45b7 8a7a ba37 129b de37 ceb2 f1b8
00000340: 8767 5eb9 98f6 0139 5101 c938 ef16 c639
00000350: 2823 aeb6 30ba 1e36 208d d238 f397 73b9
00000360: f802 e739 8077 1ab7 4726 39b9 149e cab9
00000370: 4ec4 e138 d8a2 17b7 f65a c9b8 b02f 2638
00000380: 64d5 70b8 65ec 1238 d8ba d237 b128 1239
00000390: 3b30 97b7 7f60 a538 96e4 a237 629f 71b8
000003a0: b516 c7b8 7137 a038 9b9d 4138 3819 0639
000003b0: f0b2 66b5 1a6e 3d37 ce47 d537 e0ff 81b8
000003c0: b183 f5b9 2133 ca39 c037 b539 7eec 823a
000003d0: e804 41b8 6c92 24b7 7461 3339 c188 c2b9
000003e0: 79d3 9939 ea4f ce37 a38f 55b9 9da4 3fb9
000003f0: 6ce7 6138 3e89 2db8 8152 7137 6a66 6138

exp_avg_sq f4 [128, 8]
2.3329271e-08 1.8519028e-08 2.5057632e-08 2.377432e-08 9.833601e-09 1.6413164e-08 2.4528891e-08 9.276936e-09
4.0867997e-07 7.0753276e-07 8.885316e-07 3.7740253e-07 4.7602526e-07 1.9843242e-07 2.7726466e-07 3.9650612e-07
3.7074733e-07 3.5540094e-07 4.1513763e-07 3.3823642e-07 1.7061983e-07 2.3324498e-07 5.6622235e-07 1.977857e-07
1.15973954e-07 1.6536217e-07 1.1939453e-07 1.2404921e-07 8.258335e-08 5.8111144e-08 2.8870053e-07 8.902655e-08
4.8322937e-07 4.1319075e-07 5.107687e-07 4.912119e-07 2.1438574e-07 3.5037294e-07 7.1052403e-07 2.5610288e-07
4.461601e-08 6.036879e-08 4.2709583e-08 7.187292e-08 3.8130626e-08 2.0306903e-08 9.530864e-08 3.1880255e-08
3.1894618e-07 6.994182e-07 4.689874e-07 4.916875e-07 4.7196536e-07 1.4636564e-07 6.835499e-07 4.849837e-07
2.5457837e-07 3.9008643e-07 3.694634e-07 3.5958027e-07 1.9991158e-07 1.14131595e-07 1.6687707e-07 1.7119422e-07
3.8612434e-08 5.9332564e-08 3.288454e-08 6.502781e-08 3.2074894e-08 1.9745743e-08 9.263865e-08 3.978365e-08
1.1663167e-07 2.1894957e-07 1.69499e-07 1.9218903e-07 1.4894992e-07 5.8053896e-08 1.7615483e-07 1.6353776e-07
1.0620521e-07 1.7024473e-07 1.2042655e-07 1.4568958e-07 8.514401e-08 5.8949514e-08 1.3956013e-07 1.1764951e-07
7.2448887e-07 1.0766701e-06 9.56575e-07 1.109906e-06 7.6979916e-07 3.0869765e-07 1.4497347e-06 5.6881413e-07
3.527657e-07 6.283459e-07 4.797387e-07 6.1903785e-07 4.3360004e-07 2.7520656e-07 4.778944e-07 5.396006e-07
3.6475134e-07 5.0600863e-07 4.060503e-07 4.674442e-07 2.8078898e-07 1.5405618e-07 7.0943395e-07 2.9204e-07
4.269181e-07 7.620891e-07 5.9466197e-07 4.1999462e-07 2.85171e-07 2.8493102e-07 2.0155458e-07 4.7361385e-07
2.163027e-07 4.2403758e-07 3.6574698e-07 2.78217e-07 2.5791542e-07 1.1104941e-07 2.640755e-07 2.1031565e-07
1.4720533e-07 2.5047524e-07 1.9177699e-07 2.3241802e-07 1.5109273e-07 1.0902752e-07 1.9208161e-07 1.2097995e-07
8.636842e-08 7.539348e-08 8.644337e-08 8.367114e-08 3.2163676e-08 4.5913968e-08 1.5213355e-07 3.1660644e-08
1.158612e-08 1.553673e-08 1.1812269e-08 8.920152e-09 4.8790576e-09 9.453661e-09 1.05959455e-08 8.343812e-09
1.0643114e-08 2.4466155e-08 1.5172258e-08 2.193239e-08 1.5492445e-08 9.934925e-09 1.0134702e-08 1.40409275e-08
3.8076124e-07 6.5377515e-07 4.5170827e-07 4.7287395e-07 3.9681885e-07 1.3162585e-07 9.475437e-07 3.990968e-07
8.871409e-07 8.596125e-07 1.0102024e-06 7.2181894e-07 3.998804e-07 5.978884e-07 9.383837e-07 5.4554243e-07
7.917708e-08 2.185471e-07 1.2967791e-07 1.5255276e-07 1.3061894e-07 3.359143e-08 1.2663052e-07 1.3718669e-07
9.316097e-08 1.3909651e-07 1.0662466e-07 1.4066138e-07 9.445981e-08 3.65475e-08 2.1464008e-07 8.264767e-08
2.6475934e-08 5.497954e-08 4.4612296e-08 3.7890544e-08 4.0198596e-08 7.0941626e-09 6.1138884e-08 2.3599986e-08
7.757211e-08 1.0063698e-07 1.06672836e-07 1.094898e-07 6.6356215e-08 4.775726e-08 1.07166514e-07 5.0190675e-08
1.1805518e-07 2.7676515e-07 1.7166182e-07 2.385758e-07 1.9284519e-07 3.867394e-08 2.736748e-07 1.6387948e-07
1.0474461e-06 1.2648061e-06 1.2818657e-06 1.2563498e-06 8.011307e-07 4.4685606e-07 1.5863109e-06 8.083337e-07
5.3160967e-08 7.537898e-08 5.7025378e-08 4.8612673e-08 2.53607e-08 3.7486323e-08 6.086253e-08 4.3627878e-08
3.5937692e-08 5.0237947e-08 3.5724817e-08 5.012114e-08 2.8812394e-08 1.9432939e-08 7.734465e-08 3.995279e-08
5.1078644e-07 8.540385e-07 7.350998e-07 7.2254227e-07 5.9423024e-07 2.097386e-07 8.314358e-07 4.191017e-07
1.362273e-07 2.2290358e-07 1.9354442e-07 1.246352e-07 7.645502e-08 5.904673e-08 1.5794949e-07 9.007605e-08
00000000: 9c65 c832 c613 9f32 513e d732 4838 cc32
00000010: a2f0 2832 eefc 8c32 9ab3 d232 6560 1f32
00000020: 8c68 db34 48ed 3d35 6d83 6e35 cf9d ca34
00000030: 6a90 ff34 b010 5534 f7da 9434 63df d434
00000040: 200b c734 efcd be34 15e0 de34 dc96 b534
00000050: 9f33 3734 e471 7a34 81fe 1735 eb5e 5434
00000060: 5b0d f933 688e 3134 eb32 0034 6332 0534
00000070: ad58 b133 e195 7933 b3fe 9a34 dd2e bf33
00000080: 45b7 0135 81d4 dd34 c21b 0935 d3db 0335
00000090: e731 6634 e41a bc34 d7ba 3e35 837e 8934
000000a0: d29f 3f33 18a4 8133 af6f 3733 8e58 9a33
000000b0: 11c5 2333 5a6f ae32 7bac cc33 b6ec 0833
000000c0: a13b ab34 a7bf 3b35 23c9 fb34 82fc 0335
000000d0: 6d62 fd34 ae28 1d34 317d 3735 d32f 0235
000000e0: fcac 8834 126d d134 aa5a c634 560c c134
000000f0: 47a7 5634 8218 f533 d22e 3334 82d1 3734
00000100: d2d6 2533 d8d4 7e33 ef3c 0d33 6ba5 8b33
00000110: b8c2 0933 599d a932 a3f0 c633 96de 2a33
00000120: f076 fa33 6618 6b34 88ff 3534 855c 4e34
00000130: 0bef 1f34 ef56 7933 1225 3d34 eb98 2f34
00000140: ef12 e433 84cc 3634 994e 0134 d96e 1c34
00000150: 6ad8 b633 ad2f 7d33 ffd9 1534 81a6 fc33
00000160: 7f7a 4235 1a82 9035 ab63 8035 14f8 9435
00000170: 32a4 4e35 15bb a534 8194 c235 9cb0 1835
00000180: c063 bd34 9aab 2835 64c7 0035 f52b 2635
00000190: 89c9 e834 1ac0 9334 a748 0035 12d9 1035
000001a0: 0bd3 c334 a6d4 0735 21ff d934 0bf5 fa34
000001b0: 58bf 9634 a46a 2534 ee6f 3e35 acc9 9c34
000001c0: 2d33 e534 5d92 4c35 dca0 1f35 9f7b e134
000001d0: 9b19 9934 9ff8 9834 e76a 5834 fe44 fe34
000001e0: d540 6834 48a7 e334 e25b c434 da5d 9534
000001f0: a077 8a34 0f7a ee33 43c6 8d34 20d3 6134
00000200: 7e0f 1e34 0e79 8634 42eb 4d34 948e 7934
00000210: 0e3c 2234 8322 ea33 fe3e 4e34 b7e6 0134
00000220: 8b79 b933 01e8 a133 bfa2 b933 b2ae b333
00000230: 5624 0a33 f132 4533 275a 2334 3ffb 0733
00000240: 4b0c 4732 a175 8532 e9ee 4a32 3e3f 1932
00000250: a5a4 a731 a469 2232 7609 3632 7958 0f32
00000260: e9d8 3632 a529 d232 2654 8232 d665 bc32
00000270: 3f14 8532 43ae 2a32 e41c 2e32 a738 7132
00000280: 6d6b cc34 167f 2f35 5082 f234 4ddf fd34
00000290: 5e0a d534 0a55 0d34 b55a 7e35 7243 d634
000002a0: dc23 6e35 1fc0 6635 4a96 8735 05c3 4135
000002b0: 25af d634 947e 2035 3de5 7b35 6471 1235
000002c0: 0f08 aa33 c5a9 6a34 983d 0b34 62cd 2334
000002d0: 4340 0c34 2b46 1033 eff7 0734 974d 1334
000002e0: c90f c833 8f5a 1534 87f9 e433 b508 1734
000002f0: d4d9 ca33 67f8 1c33 d177 6634 097c b133
00000300: 326d e332 a522 6c33 bd9b 3f33 18bd 2233
00000310: d3a6 2c33 eac0 f331 754b 8333 ebb8 ca32
00000320: b895 a633 c41d d833 0314 e533 a720 eb33
00000330: b77f 8e33 aa1d 4d33 6a23 e633 3b91 5733
00000340: 8685 fd33 5096 9434 0b52 3834 9c15 8034
00000350: e210 4f34 721a 2633 94ed 9234 d9f6 2f34
00000360: f995 8c35 68c2 a935 920c ac35 da9f a835
00000370: 480d 5735 6ee7 ef34 3ae9 d435 45fc 5835
00000380: 1a53 6433 08e0 a133 11ec 7433 33ca 5033
00000390: c5d8 d932 a600 2133 88b3 8233 5c61 3b33
000003a0: e959 1a33 35c5 5733 da6f 1933 c744 5733
000003b0: 207f f732 7ced a632 ac18 a633 8f98 2b33
000003c0: fa1c 0935 1441 6535 ac53 4535 baf4 4135
000003d0: 3183 1f35 8234 6134 d52f 5f35 e600 e134
000003e0: e045 1234 4557 6f34 16d1 4f34 77d3 0534
000003f0: 972f a433 919a 7d33 d398 2934 d56f c133

exp_avg f4 [128]
3.531714e-05 0.00010733698 1.0733314e-05 -7.99681e-05 -0.00014699799 3.137251e-05 -0.00017812385 -1.5667843e-05
-4.3557353e-05 -2.280432e-05 -2.8321883e-06 -0.00013263944 -0.00026704115 -1.5035599e-05 -0.00019685926 -7.50832e-05
5.4410768e-05 -5.8054276e-05 6.5207605e-06 -5.346923e-05 -0.00027097814 5.419419e-05 -1.6715894e-06 -2.3601107e-05
4.391813e-05 -3.998066e-07 -8.7424785e-05 -0.00014901625 -1.5899845e-05 -1.5800584e-05 -7.0008515e-05 -1.7302082e-05
-4.269334e-05 -0.00013787068 -0.00028900767 1.4893363e-05 -9.597403e-05 6.9192533e-06 -0.00030459656 -0.00020882246
-0.00017015285 -7.325291e-05 -2.8422775e-05 -4.517595e-06 -4.6793473e-05 -1.0978959e-05 9.307811e-05 6.155687e-05
-9.433535e-05 2.7227099e-05 -3.1789226e-05 -5.28657e-05 1.2205572e-05 -0.00026804148 0.00014236034 7.855964e-06
3.635449e-05 -0.0004503436 1.4405939e-05 5.305373e-05 -6.69399e-05 3.2626467e-06 -1.0068281e-05 -5.6765093e-06
-6.0765626e-05 -5.2624913e-05 -4.1737796e-05 -2.6454145e-06 -3.964419e-05 5.674555e-05 3.5566918e-06 1.2454987e-05
1.2005428e-05 -0.000113010734 -1.603711e-05 -4.6620797e-05 -9.0973575e-05 2.8346833e-05 -5.981664e-05 6.546313e-05
-0.00016981373 -6.885566e-06 -9.428048e-06 -0.0002500937 0.00010053652 -0.00021480591 -0.000108567314 7.637811e-06
-3.8357317e-05 -4.7720852e-05 -1.7171169e-05 -0.00012294568 -0.00029945464 6.707983e-05 -0.00016011759 -0.00025830537
4.472705e-05 -0.00020688043 1.779398e-05 6.9630805e-05 -2.1416396e-05 -0.0001258559 -8.567203e-05 -1.0530033e-05
-4.701005e-05 -0.00037129104 -0.0003253318 5.732547e-06 2.8363494e-05 -0.000108105196 5.4634766e-06 -9.6697055e-05
-0.00015785614 -7.482126e-05 4.816097e-05 -0.00011231925 -0.00032133193 -0.00022401253 -0.00027435753 -0.00031614245
-0.00018328993 -4.1143056e-05 2.6927544e-05 -2.861592e-05 1.35133e-05 -0.00035852107 -0.00020787196 -6.5542125e-05
00000000: 7e21 1438 1a1a e138 3c13 3437 8cb4 a7b8
00000010: 7923 1ab9 fa95 0338 c2c6 3ab9 706e 83b7
00000020: 5ab1 36b8 e84b bfb7 a010 3eb6 2115 0bb9
00000030: a801 8cb9 6841 7cb7 016c 4eb9 fc75 9db8
00000040: 1e37 6438 4e7f 73b8 e8cc da36 2644 60b8
00000050: 1212 8eb9 924e 6338 605b e0b5 fefa c5b7
00000060: bc34 3838 00a5 d6b4 d357 b7b8 3f41 1cb9
00000070: a860 85b7 7f8b 84b7 89d1 92b8 f023 91b7
00000080: a011 33b8 6191 10b9 f485 97b9 82de 7937
00000090: aa45 c9b8 ef2b e836 42b2 9fb9 5af7 5ab9
000000a0: 0f6b 32b9 5b9f 99b8 726d eeb7 d895 97b6
000000b0: 1c44 44b8 4532 38b7 ee32 c338 1818 8138
000000c0: e8d5 c5b8 c065 e437 6c55 05b8 1dbc 5db8
000000d0: 88c6 4c37 eb87 8cb9 9046 1539 1ccd 0337
000000e0: 567b 1838 181c ecb9 09b1 7137 0286 5e38
000000f0: 1662 8cb8 d8f3 5a36 f0ea 28b7 d878 beb6
00000100: 98de 7eb8 92b9 5cb8 9e0f 2fb8 e087 31b6
00000110: a047 26b8 1202 6e38 80af 6e36 c3f5 5037
00000120: ec6a 4937 2d00 edb8 6e87 86b7 b38a 43b8
00000130: 11c9 beb8 5cca ed37 a1e3 7ab8 4049 8938
00000140: 0710 32b9 900a e7b6 282d 1eb7 021f 83b9
00000150: 22d7 d238 863d 61b9 a2ae e3b8 2624 0037
00000160: dbe1 20b8 e027 48b8 ce0a 90b7 fbea 00b9
00000170: 1f00 9db9 36ad 8c38 3de5 27b9 296d 87b9
00000180: 4e99 3b38 0bee 58b9 4844 9537 c106 9238
00000190: 5ca7 b3b7 30f8 03b9 d2aa b3b8 26aa 30b7
000001a0: a82c 45b8 d7a9 c2b9 4c91 aab9 345a c036
000001b0: 24ee ed37 89b6 e2b8 e852 b736 d6c9 cab8
000001c0: 2f86 25b9 5ce9 9cb8 7300 4a38 f08c ebb8
000001d0: 7178 a8b9 e8e4 6ab9 a5d7 8fb9 ecbf a5b9
000001e0: 8431 40b9 0591 2cb8 76e2 e137 380c f0b7
000001f0: 2eb7 6237 e2f7 bbb9 34f8 59b9 a973 89b8

exp_avg_sq f4 [128]
1.483752e-08 8.4318e-07 2.8007105e-07 9.144369e-08 3.7745923e-07 2.996064e-08 4.2100476e-07 2.767882e-07
2.3910033e-08 1.5391814e-07 9.158281e-08 7.0201895e-07 3.7711115e-07 2.978483e-07 5.347805e-07 3.1696695e-07
1.3875501e-07 5.6856354e-08 8.973421e-09 1.1422896e-08 4.064758e-07 6.7484126e-07 1.1209552e-07 8.1623384e-08
3.966574e-08 8.498695e-08 1.5927355e-07 9.433096e-07 4.6855494e-08 2.5906381e-08 6.21513e-07 1.6493779e-07
2.1498138e-07 7.207976e-07 4.465602e-07 2.9706191e-08 4.3584393e-07 9.4266187e-07 3.4302863e-07 6.3117113e-07
2.3579338e-07 5.7896184e-08 1.1987791e-07 4.323308e-07 2.9612465e-07 2.6125957e-08 6.654806e-07 4.775137e-07
5.343058e-07 1.0746377e-07 2.7623518e-08 1.275632e-07 1.1795668e-07 5.322922e-07 9.8084975e-08 3.1754786e-07
1.0718698e-07 2.8690675e-07 1.5094714e-07 3.260617e-07 2.824212e-07 6.748455e-08 8.109156e-08 1.0407993e-07
5.970905e-07 1.0782698e-07 2.2990287e-07 5.5466217e-08 4.544921e-08 4.3842655e-07 3.4808217e-08 2.6425509e-08
1.14300555e-07 1.9989048e-07 1.7655074e-07 1.6160212e-07 5.6518684e-07 1.8161212e-07 3.277929e-07 2.6271096e-07
7.309098e-07 1.2305692e-07 3.415871e-07 6.4777424e-07 5.6352275e-07 1.1190294e-06 9.509629e-08 7.220731e-09
1.2326886e-07 1.6520201e-07 7.4487325e-08 2.832986e-07 2.7663452e-07 9.212001e-08 3.809767e-07 3.0492762e-07
5.404589e-08 1.9212258e-07 1.669283e-07 9.1062894e-08 8.636642e-08 2.794113e-07 1.2337412e-07 2.995001e-08
5.423392e-07 5.5438284e-07 1.9223516e-07 3.3440763e-08 3.073269e-07 2.6899158e-07 1.0142707e-07 7.731379e-07
4.924247e-07 2.109202e-07 1.9224519e-08 4.4402665e-07 8.144859e-07 2.4159792e-07 8.884458e-07 1.1429369e-06
6.6905805e-08 6.5387965e-08 8.0568135e-08 1.3836069e-07 2.0356978e-08 6.0923765e-07 1.8585526e-07 4.2328438e-08
00000000: 1ae8 7e32 e356 6235 ac5c 9634 b35f c433
00000010: 9aa5 ca34 12ae 0033 7406 e234 7b99 9434
00000020: b862 cd32 b244 2534 2fac c433 6072 3c35
00000030: c375 ca34 f5e7 9f34 d68d 0f35 9b2b aa34
00000040: b0fc 1434 3932 7433 8629 1a32 6e3e 4432
00000050: 9c39 da34 bd26 3535 2ab9 f033 ee48 af33
00000060: f15c 2a33 1282 b633 c804 2b34 be37 7d35
00000070: 293e 4933 bc88 de32 0cd6 2635 c119 3134
00000080: a2d5 6634 d57c 4135 c4be ef34 9b2c ff32
00000090: effd e934 3b0b 7d35 7f29 b834 c06d 2935
000000a0: 642e 7d34 87a9 7833 cab7 0034 181b e834
000000b0: 10fb 9e34 966b e032 7ba3 3235 7e2e 0035
000000c0: 376d 0f35 d5c6 e633 c248 ed32 4ef8 0834
000000d0: 5f4f fd33 d7e2 0e35 c9a2 d233 727b aa34
000000e0: aa2e e633 2a08 9a34 0914 2234 940d af34
000000f0: ad9f 9734 06ec 9033 8e24 ae33 8c82 df33
00000100: bf47 2035 828e e733 38db 7634 c039 6e33
00000110: ef33 4333 e360 eb34 0a80 1533 4ffe e232
00000120: 6575 f533 7aa1 5634 e691 3d34 da84 2d34
00000130: 58b7 1735 2901 4334 83fb af34 b80a 8d34
00000140: bd33 4435 a121 0434 6063 b734 b5e2 2d35
00000150: fd44 1735 8f31 9635 bd37 cc33 391a f831
00000160: e35b 0434 6262 3134 d7f5 9f33 4318 9834
00000170: 5c84 9434 83d3 c533 0a89 cc34 efb4 a334
00000180: 1620 6833 414a 4e34 e73c 3334 5b8e c333
00000190: 7178 b933 ff01 9634 d278 0434 62a2 0033
000001a0: 4495 1135 e6d0 1435 3369 4e34 82a0 0f33
000001b0: b0fe a434 ec69 9034 1fd0 d933 a289 4f35
000001c0: 2b2f 0435 4e79 6234 2a23 a532 8f62 ee34
000001d0: 0ba3 5a35 f7b4 8134 887d 6e35 0367 9935
000001e0: dbad 8f33 6a6b 8c33 cd04 ad33 4c90 1434
000001f0: 78dd ae32 7e8a 2335 818f 4734 9ccc 3533

exp_avg f4 [1, 2]
0.004382733 -0.0079069855
00000000: 079d 8f3b 4d8c 01bc

exp_avg_sq f4 [1, 2]
0.00027229372 0.00024358375
00000000: a5c2 8e39 846a 7f39

exp_avg f4 [2, 128]
-0.0039875433 0.00057478464 0.000113030255 0.004877615 0.007645839 -0.00300091 0.0020952355 -0.0008505522
0.0020170584 -0.00041445286 -0.00058610074 -0.0026200672 -0.004046993 0.0006677961 -0.0021154974 -8.975441e-05
-0.0012454592 -0.004025129 -1.1595985e-05 -0.0069446373 0.008859568 -0.00022569485 -0.0022134003 -0.00027018317
0.0029847631 0.00045023506 0.0031985268 -0.0021264094 0.00038131847 0.000382366 -0.001086619 -0.00053784385
-1.6883292e-05 0.0013957159 -0.0034731631 0.00046860625 0.003364318 -0.00080455386 -0.0019384886 0.0027514142
-0.0030674413 -0.0023317721 0.0014907962 -0.0020351806 0.0014104914 -0.00033332 0.00063441705 -0.0018341655
-0.00080240384 0.009195322 0.00069106824 -0.00082022493 0.00092875864 0.004552466 0.005189825 -7.734512e-05
-0.0010226597 -0.008577484 -0.0029204015 -0.0011997648 -0.0017852619 0.0028490438 0.0011029476 0.004451694
-0.0011131564 0.0026431375 -0.001977054 0.0005450317 -0.007039075 0.00020857889 1.2840785e-05 -0.008217726
-0.0006360915 -0.001802602 -0.00071853265 -0.0021650277 0.0036717344 0.0004666742 -0.004061212 -0.00296018
0.0018291716 -0.0004879156 0.00037843833 0.003141043 0.00080472056 0.005161846 -0.0018951633 0.00022186039
0.0010535087 0.0031082297 -0.0009460034 -0.004086934 -0.0052126837 -0.0032336968 -0.0027348902 -0.0048103295
0.0038674832 0.011776489 0.002604109 -0.0071537406 -0.00015414337 0.002371393 -0.001743933 -0.00041078974
0.002864645 -0.0037457063 -0.0048432285 0.005446196 -0.00068247074 -0.0012485594 -0.0011421561 -0.00056726503
-0.0039948733 0.0019610182 2.3596178e-05 0.001893799 0.003577407 -0.0047180485 0.0037701828 0.004460833
-0.006427722 -0.0035368903 0.00035346206 -0.001114645 -0.00023313693 -0.004020684 0.011417926 0.0021765702
0.0003686339 0.00063516514 -0.0008780844 -0.0038332944 -0.0023965822 -0.0010203287 -0.00051699264 -0.0014158555
-0.0012447234 4.9014845e-05 0.0006111732 -0.001083187 -0.0006752709 0.00083720114 -0.00012303179 -0.0005969414
-0.0002861238 -0.0014465556 -0.0017014204 -0.0013644665 -0.0024470645 -0.0003226149 -0.0006913967 -0.00087110535
-0.00025688903 -0.00054612115 -0.0010716947 0.0008728626 -0.0014039951 -0.00048879505 -0.0017185346 -0.00012947031
-0.0002875469 -0.0011316354 -7.0053255e-05 -0.00137531 -0.00047689403 -0.00048164386 0.0016556333 -0.00071084057
-0.00031090772 -0.00038237334 -0.0004986634 0.0005767192 -0.000812665 -0.00086779817 0.00077347306 -0.00042881002
-0.00011442619 -0.0014045134 -6.963507e-05 0.000514847 -4.213967e-05 -0.0020116623 -0.0011962246 -7.55529e-05
-2.8810333e-05 -0.00092443393 -0.00062842923 -0.00046974325 -0.0009891231 -0.002343755 9.138719e-06 0.00081358646
-0.0007560485 -0.001746275 -0.0017449595 0.000100373756 -0.0016776669 -0.00011556083 6.433751e-06 -0.00049652084
-0.00014801417 0.00034764476 -0.0004039538 0.001138023 -0.0019399333 -0.00082745356 0.0005104372 0.00010983323
-0.0008106519 -3.1372416e-05 -0.0005177881 -0.0009310872 0.0003955324 -0.0010596572 0.0010176541 -0.0020157117
-0.00015948631 -0.0003910825 -0.0008151474 0.0017515135 0.0002172386 -0.00082195015 -0.001353547 -0.0012975296
-0.0021523652 -0.0037819906 -0.0009945306 -0.0010852688 -0.0009417025 -0.00062070106 0.00092963385 -0.00044748327
-0.0010204127 0.0009126399 6.6181885e-05 -0.002778646 -0.0004158301 0.0009898882 -0.00035201354 0.0005748753
0.00028337617 -0.00075407437 0.00027119435 -0.0010353592 -0.0026339262 -0.0016751272 -0.0010441731 -0.0012119667
-0.00021209684 0.00082713465 0.00034940662 0.00025665553 -0.00034662915 -0.0005262707 -0.0043299207 -0.0007666036
00000000: f0a9 82bb 25ad 163a a80a ed38 66d4 9f3b
00000010: f289 fa3b eaaa 44bb 3850 093b 98f7 5eba
00000020: a030 043b ec4a d9b9 8ea4 19ba 6fb5 2bbb
00000030: a39c 84bb 0a0f 2f3a 28a4 0abb 883a bcb8
00000040: ad3e a3ba 3be5 83bb 608c 42b7 d78f e3bb
00000050: b927 113c 80a8 6cb9 b20e 11bb 5fa7 8db9
00000060: 049c 433b 870d ec39 609e 513b 3b5b 0bbb
00000070: b3eb c739 4c78 c839 e26c 8eba 17fe 0cba
00000080: 98a0 8db7 74f0 b63a 029e 63bb 44af f539
00000090: e47b 5c3b b2e8 52ba e214 feba 1251 343b
000000a0: 2007 49bb a5d0 18bb d266 c33a aa60 05bb
000000b0: 3de0 b83a 74c1 aeb9 024f 263a 6268 f0ba
000000c0: 6958 52ba faa7 163c ce28 353a 5d04 57ba
000000d0: f077 733a da2c 953b 680f aa3b 5834 a2b8
000000e0: c40a 86ba 9388 0cbc 3564 3fbb 6d41 9dba
000000f0: 73ff e9ba 06b7 3a3b c890 903a 84df 913b
00000100: 55e7 91ba 7d38 2d3b 7691 01bb 75e0 0e3a
00000110: 0aa8 e6bb f8b5 5a39 c06e 5737 a4a3 06bc
00000120: 61bf 26ba 4945 ecba e95b 3cba 23e3 0dbb
00000130: 7ba1 703b f3ab f439 ea13 85bb 94ff 41bb
00000140: d0c0 ef3a ecce ffb9 2269 c639 f5d9 4d3b
00000150: e2f3 523a b424 a93b 2167 f8ba 32a3 6839
00000160: e315 8a3a 71b3 4b3b 37fd 77ba b0eb 85bb
00000170: 29cf aabb 6eec 53bb d83b 33bb f89f 9dbb
00000180: 9a75 7d3b 2df2 403c b3a9 2a3b ed69 eabb
00000190: 8ca1 21b9 5f69 1b3b ae94 e4ba 445f d7b9
000001a0: c5bc 3b3b 867a 75bb f2b3 9ebb 0176 b23b
000001b0: d6e7 32ba b4a6 a3ba 66b4 95ba 83b4 14ba
000001c0: 6de7 82bb 6d84 003b 68f0 c537 5a39 f83a
000001d0: ee72 6a3b dc99 9abb 2c15 773b 2e2c 923b
000001e0: a49f d2bb 2ccb 67bb e050 b939 4819 92ba
000001f0: 3876 74b9 f1bf 83bb 4112 3b3c caa4 0e3b
00000200: 3445 c139 3681 263a 3f2f 66ba 0238 7bbb
00000210: fa0f 1dbb 8dbc 85ba ca86 07ba 3a94 b9ba
00000220: fd25 a3ba 4a95 4d38 2437 203a b9f9 8dba
00000230: aa04 31ba 9e77 5b3a 1802 01b9 0f7c 1cba
00000240: e302 96b9 5a9a bdba 3202 dfba e6d7 b2ba
00000250: ee5e 20bb a424 a9b9 d93e 35ba e45a 64ba
00000260: 10af 86b9 9229 0fba 1b78 8cba d1d0 643a
00000270: 4206 b8ba 7b22 00ba 7440 e1ba 6cc2 07b9
00000280: e4c1 96b9 6253 94ba 8ee9 92b8 bf43 b4ba
00000290: a207 fab9 2585 fcb9 d601 d93a b457 3aba
000002a0: 5401 a3b9 4879 c8b9 bcb8 02ba f82e 173a
000002b0: 0609 55ba f37c 63ba e6c2 4a3a e8d1 e0b9
000002c0: 18f8 efb8 a617 b8ba 0b09 92b8 ccf6 063a
000002d0: 20bf 30b8 18d6 03bb a3ca 9cba 2872 9eb8
000002e0: b8ad f1b7 b655 72ba 2cbd 24ba df47 f6b9
000002f0: 77a5 81ba af99 19bb 8052 1937 dd46 553a
00000300: 8e31 46ba 44e3 e4ba 20b7 e4ba c07f d238
00000310: 29e5 dbba 4059 f2b8 80e1 d736 f328 02ba
00000320: 4034 1bb9 1744 b639 c3c9 d3b9 b729 953a
00000330: 5c45 feba 78e9 58ba dcce 053a 4456 e638
00000340: ee81 54ba e095 03b8 2cbc 07ba 3414 74ba
00000350: 765f cf39 32e4 8aba ce62 853a 081a 04bb
00000360: c83b 27b9 340a cdb9 9eaf 55ba 0a93 e53a
00000370: 8bca 6339 2478 57ba 8069 b1ba de11 aaba
00000380: b20e 0dbb 46db 77bb e95a 82ba 943f 8eba
00000390: 96dc 76ba 8bb6 22ba acb2 733a 309c eab9
000003a0: 5ebf 85ba 3a3e 6f3a 21cb 8a38 f219 36bb
000003b0: c503 dab9 23bf 813a 758e b8b9 3ab3 163a
000003c0: 1b92 9439 13ad 45ba 172f 8e39 e4b4 87ba
000003d0: f39d 2cbb f18f dbba a3dc 88ba dbda 9eba
000003e0: 5066 5eb9 11d4 583a 9030 b739 b98f 8639
000003f0: c7bb b5b9 6ef5 09ba 02e2 8dbb e6f5 48ba
