results/baseline-test/3DBall/3DBall-449720.onnx (onnx, 10026 bytes, 7 tensors)

network_body.observation_encoder.processors.0.normalizer.running_mean f4 [8]
0	0xb9cf6d9f	-0.0003956379
1	0x3a935927	0.001124178
2	0xbe7329a1	-0.23746349
3	0x4043ed5a	3.0613618
4	0xbde0366c	-0.1094788
5	0xbbce821d	-0.006302132
6	0xbe9ca9f6	-0.3059842
7	0x3c766a11	0.015039937

network_body._body_endoder.seq_layers.0.weight f4 [128, 8]
0	0xbdcc4db3	-0.099757574
1	0xbe821939	-0.25409868
2	0xbd0189c4	-0.031625524
3	0x3d3d6768	0.046241194
4	0x3da33c6d	0.0797051
5	0xbf067c01	-0.52532965
6	0x3dce06e9	0.10059912
7	0x3eb8aa01	0.36067203
8	0x3f1fe00f	0.6245126
9	0x3e4be54b	0.19911687
10	0x3e889cc2	0.26682097
11	0x3e6b6a04	0.2298966
12	0xbf72063c	-0.9454076
13	0xbe8c0878	-0.2735021
14	0xbe3cc1bf	-0.18433283
15	0x3e1349de	0.14383647
16	0x3ea9da5a	0.33174402
17	0xbdf8bd01	-0.12145425
18	0x3ec212ad	0.37904873
19	0x3f181172	0.5940162
20	0xbf230370	-0.6367712
21	0x3e0354b7	0.12825285
22	0xbe9f5209	-0.31117275
23	0x3debe998	0.11519164
24	0x3f1bc40b	0.6084601
25	0xbdd8214a	-0.105532244
26	0x3e4c7b3f	0.1996889
27	0x3e65f485	0.22456558
28	0xbf1753c8	-0.59112215
29	0xbe5ad4be	-0.21370217
30	0x3e93f15f	0.2889509
31	0xbeb7de45	-0.35911766
32	0xbf787d39	-0.97066075
33	0x3f183722	0.59459126
34	0x3d95ec03	0.07320406
35	0x3ebf00f8	0.37305427
36	0xbe1d1fae	-0.15344116
37	0x3cd16fc5	0.025565991
38	0x3e4fdf40	0.20300007
39	0x3ec020f2	0.37525135
40	0x3f0043e2	0.5010358
41	0x3eb30ae3	0.34969243
42	0xbe5ff145	-0.21869381
43	0x3f03e5c1	0.5152245
44	0x3ef79b7d	0.48360816
45	0xbf090cf3	-0.53535384
46	0xbe7d6543	-0.2474566
47	0xbeaca718	-0.33721232
48	0x3ee4d566	0.4469406
49	0x3e6097df	0.21932934
50	0xbe1b52a6	-0.15168247
51	0x3f66af9c	0.9011171
52	0x3f525daa	0.8217417
53	0x3f30146d	0.6878117
54	0x3dcfbf63	0.10143926
55	0xbe0e3dca	-0.13890758
56	0x3e3d5062	0.18487695
57	0x3e8ea0e0	0.27857113
58	0x3ef6edde	0.48228353
59	0x3e610310	0.21973825
60	0x3e4632a6	0.19355258
61	0x3e8c3339	0.2738283
62	0x3b586363	0.0033018223
63	0xbe34200b	-0.17590348
64	0x3e16dc55	0.14732487
65	0x3d9e9d2e	0.077448234
66	0xbb47264c	-0.0030387817
67	0xbd9bf173	-0.07614412
68	0xbdfb5037	-0.12271159
69	0xbf3f8b5f	-0.7482204
70	0xbe6498b1	-0.22323872
71	0x3eb287be	0.34869188
72	0x3d1154aa	0.035481133
73	0xba291163	-0.0006449429
74	0x3e582776	0.21108803
75	0x3e350446	0.17677411
76	0xbdd3f2be	-0.10349034
77	0x3d8bd0b8	0.06826919
78	0x3d119037	0.035537925
79	0x3ebed94b	0.37275156
80	0x3e38540f	0.18000816
81	0x3d1d3731	0.038382713
82	0xbefb619d	-0.4909791
83	0x3f6e689c	0.9312837
84	0xbd6f01c1	-0.058351282
85	0xbed8fa2e	-0.42378372
86	0x3ef143ef	0.47122142
87	0xbeb4d4ab	-0.35318503
88	0x3da2a9df	0.079425566
89	0xbea50f17	-0.32238075
90	0x3e5b4483	0.21412854
91	0xbdd516ed	-0.10404763
92	0xbe148d39	-0.14506997
93	0x3eeff7ef	0.46868846
94	0x3d1a698f	0.037698325
95	0xbe8943b8	-0.26809478
96	0xbf1edacf	-0.62052625
97	0x3ea3b6a4	0.3197528
98	0xbf0b1e27	-0.54342884
99	0x3d00868e	0.03137832
100	0x3e8af403	0.2713929
101	0xbd88aa68	-0.066731274
102	0x3d823210	0.06357205
103	0x3e1eca44	0.15506846
104	0xbf288c28	-0.6583886
105	0x3f3b03d1	0.730527
106	0x3d405642	0.04695726
107	0x3ed3344f	0.41250846
108	0x3f2c6d7a	0.6735455
109	0x3ec7276c	0.38897264
110	0x3ee4a5d2	0.4465776
111	0x3e0085d4	0.12551051
112	0x3e139d7a	0.14415541
113	0xbed10a2b	-0.4082807
114	0x3e313b43	0.17307763
115	0xbede2192	-0.43384987
116	0xbea3a80e	-0.31964153
117	0xbde375d1	-0.11106456
118	0xbda1254b	-0.07868441
119	0x3dce456a	0.100718334
120	0xbe7d7f0e	-0.24755499
121	0x3ea2a3a5	0.31765476
122	0x3ee4a598	0.44657588
123	0xbe8e56ee	-0.27800697
124	0xbb9d56eb	-0.004801621
125	0x3e9f19ab	0.3107427
126	0x3e22a3ff	0.15882872
127	0x3e82bdce	0.25535434
128	0x3f32e0e4	0.69874406
129	0x3d1676a4	0.03673424
130	0x3db68cbe	0.08913563
131	0x3e36c59e	0.17848822
132	0xbec0f167	-0.37684175
133	0xbd84e939	-0.06489796
134	0x3eb0f6c7	0.34563276
135	0x3e7720e5	0.24133642
136	0x3e556544	0.20839411
137	0x3e28fe90	0.16503358
138	0xbe19a1c4	-0.15003115
139	0xbe5eb976	-0.21750435
140	0xbe317b42	-0.17332175
141	0x3e35bce6	0.1774784
142	0xbddfc609	-0.10926444
143	0x3e838179	0.25684717
144	0xbd361938	-0.044457644
145	0x3e47059e	0.19435737
146	0x3e9461a3	0.2898074
147	0xbe420fdb	-0.18951361
148	0x3eea11e6	0.4571678
149	0x3dd8c5a2	0.105845705
150	0xbeff7624	-0.49894822
151	0xbe29eb7c	-0.16593736
152	0x3e8010ab	0.25012717
153	0xbd040c44	-0.03223826
154	0xbeb9b56c	-0.36271226
155	0x3e16ba99	0.14719619
156	0xbe25fded	-0.16210146
157	0xbef255f0	-0.4733119
158	0x3de312e0	0.110875845
159	0xbe96cff1	-0.29455522
160	0xbe44febe	-0.19237801
161	0x3f0b50fa	0.54420435
162	0x3eac7bd2	0.33688217
163	0x3ece94a5	0.40347782
164	0x3e7324c7	0.23744498
165	0xbda834b1	-0.08213175
166	0xbdc27c59	-0.09496374
167	0xbe75f2ec	-0.24018449
168	0x3f12cb33	0.5734131
169	0xbe0b0932	-0.13577726
170	0xbf1401ca	-0.5781523
171	0xbe8d1e1b	-0.2756203
172	0xbea0e2f7	-0.3142316
173	0x3dc41ae8	0.095754445
174	0x3ea25733	0.31707153
175	0x3e4ab413	0.19795255
176	0xbebc91ba	-0.3682993
177	0xbdfeba90	-0.12437928
178	0x3e351238	0.17682731
179	0xbf237af1	-0.6385947
180	0xbecceeb1	-0.40025857
181	0xbed7ffc7	-0.4218733
182	0xbddfe770	-0.10932815
183	0x3f2f7b2f	0.6854734
184	0xbf1c20ef	-0.6098775
185	0x3f68adb1	0.9089003
186	0x3e5f76e6	0.218227
187	0x3df36faa	0.118865326
188	0x3de948c8	0.11390835
189	0x3e43b1de	0.1911082
190	0x3e708662	0.23488763
191	0x3ea66f56	0.32506818
192	0x3dcb1162	0.09915425
193	0x3f34ea1d	0.7066973
194	0x3dc148d2	0.094377175
195	0xbbf638d6	-0.0075140996
196	0x3ebe54e9	0.37174156
197	0xbe98bc6f	-0.29831263
198	0x3e1f87dc	0.1557917
199	0xbd496c6c	-0.049175665
200	0x3e000f06	0.12505731
201	0x3e7eb01f	0.24871872
202	0x3e35f91c	0.17770809
203	0xbcbdcd31	-0.023169132
204	0xbdca8cc0	-0.09890127
205	0x3e0eadd1	0.13933493
206	0xbdec8491	-0.115487225
207	0xbeccbf31	-0.39989617
208	0xbeb2bdfd	-0.34910575
209	0xbc6c80c3	-0.014434996
210	0x3e82966d	0.2550539
211	0x3e8ff20f	0.28114364
212	0x3dfec34c	0.12439594
213	0x3ec3cb10	0.38240862
214	0x3e9e56f7	0.30925724
215	0xbe379c06	-0.17930612
216	0x3f5154e2	0.81770146
217	0xbf53d087	-0.8274006
218	0x3f00b827	0.50280994
219	0xbeb851c4	-0.35999882
220	0xbd5d13ba	-0.05397389
221	0x3f1ccdff	0.61251825
222	0xbeb11db7	-0.34592983
223	0x3eb63ae6	0.3559181
224	0xbf845344	-1.0337911
225	0x3f1a41bc	0.6025655
226	0x3e5d311a	0.21600762
227	0x3ce159d5	0.027508656
228	0x3e54a3ae	0.20765564
229	0xbed2269a	-0.41045076
230	0x3f278ee7	0.65452427
231	0x3e86ca87	0.2632639
232	0xbe53f972	-0.20700625
233	0xbe8e9683	-0.27849206
234	0x3f0a371d	0.53990346
235	0xbd2693b7	-0.040668216
236	0xbdf552f0	-0.1197871
237	0xbda0137c	-0.07816216
238	0x3ed74b57	0.42049667
239	0x3ce20361	0.027589502
240	0x3d2206f4	0.039557412
241	0xbec08e60	-0.37608624
242	0x3e60d388	0.21955693
243	0xbe0e053d	-0.13869186
244	0x3cf9bbe7	0.030485107
245	0xbc91ecf9	-0.017813193
246	0xbed394ba	-0.41324407
247	0xbe983d86	-0.2973444
248	0xbc571520	-0.013127595
249	0xbf0b88bd	-0.5450552
250	0x3e02ae2f	0.12761758
251	0xbeaccdbc	-0.33750713
252	0x3e057473	0.13032703
253	0x3d0f6f9e	0.035018556
254	0xbe4a44c9	-0.19752802
255	0xbe80851f	-0.25101563

network_body._body_endoder.seq_layers.0.bias f4 [128]
0	0xbd86d965	-0.065844335
1	0xbd9469c9	-0.072467394
2	0xbd242dfc	-0.040082917
3	0xbd0f7aff	-0.035029408
4	0x3db4b091	0.0882274
5	0x3d034beb	0.032054823
6	0x3d4ee221	0.050508622
7	0x3d177eb6	0.036986075
8	0x3bf885d6	0.007584314
9	0x3d73f17f	0.05955648
10	0x3cf6b764	0.030116744
11	0x3c8d7c66	0.017271232
12	0xbd04afc4	-0.032394186
13	0x3e071e5f	0.1319518
14	0xbd765293	-0.060137343
15	0x3dba2697	0.09089392
16	0x3d353d3a	0.044247843
17	0x3d616dc4	0.05503632
18	0x3d988f4b	0.07449206
19	0xbd5a7a65	-0.05333938
20	0x3d46794b	0.048455518
21	0xbd8994cc	-0.06717834
22	0x3b5f7873	0.0034098893
23	0x3e03e25b	0.12879317
24	0x3dc6f27e	0.097142205
25	0x3c072a4e	0.008249832
26	0x3d10b728	0.03533092
27	0xbdbce69d	-0.092236735
28	0x3d79772d	0.06090467
29	0xbc855a86	-0.016278517
30	0x3b33a83a	0.0027413503
31	0xbd32af47	-0.04362419
32	0x3d83d365	0.06436805
33	0xbd5af896	-0.053459726
34	0xbd4e9a3c	-0.050440058
35	0x3d9822d8	0.07428521
36	0xbcec05ac	-0.028811298
37	0x3c9fff89	0.019531028
38	0xbd05880c	-0.032600448
39	0xbd3d9a22	-0.04628957
40	0xbc19f190	-0.009395972
41	0x3d98b6c5	0.074567355
42	0xbda8050a	-0.08204086
43	0x3d85272f	0.06501614
44	0x3d383fac	0.044982597
45	0xbb13b0e2	-0.002253585
46	0xbc80ace3	-0.015707439
47	0x3ba107b1	0.004914247
48	0x3dc509f0	0.09621036
49	0x3d8dcdc6	0.06924014
50	0xbb79b8c3	-0.0038104511
51	0xbdbe4c77	-0.09291928
52	0x3d0cfcc8	0.03442076
53	0x3c21e695	0.009881635
54	0xbdda1111	-0.106477864
55	0x3db4b9e6	0.0882452
56	0xbc82a15f	-0.015946088
57	0x3d840df4	0.06447974
58	0x3e03a042	0.12854102
59	0x3da6709e	0.08126949
60	0x3d7f1abb	0.06228135
61	0xbae0db8f	-0.0017155277
62	0xbcb5286c	-0.022114001
63	0x3cbc2280	0.02296567
64	0x3cb74a2c	0.022374235
65	0xbb1c988f	-0.0023894643
66	0xbcae61f9	-0.021286951
67	0x3d8b72f0	0.06809032
68	0xbca416bb	-0.02003037
69	0xbc8657bd	-0.016399259
70	0x3d5fc8b9	0.054634783
71	0xbd4935f7	-0.04912373
72	0xbdada596	-0.08478849
73	0x3c82f300	0.015985012
74	0xbc34b65e	-0.011029808
75	0x3d6ce057	0.057831135
76	0xbd1eb82f	-0.03874987
77	0x3d41020b	0.04712109
78	0x3d06df54	0.032927826
79	0x3d928084	0.07153419
80	0x3d3f605b	0.04672275
81	0xbd211160	-0.03932321
82	0x3d307d82	0.043088444
83	0x3d42f393	0.04759557
84	0xbd968bd9	-0.073508926
85	0x3d3723af	0.044711765
86	0xbb4e4f95	-0.003148054
87	0xbc47e7bc	-0.012201246
88	0xbd046698	-0.032324404
89	0x3dd62b72	0.10457505
90	0xbd977119	-0.073946185
91	0xbd4c1cd0	-0.049832165
92	0xbd0149cc	-0.03156452
93	0x3c92bbdd	0.017911846
94	0x3da36c1e	0.07979606
95	0xbcfc6ace	-0.030812647
96	0xbd497b42	-0.049189813
97	0x3c8d6ccc	0.017263792
98	0xbc371067	-0.011173344
99	0x3c85651e	0.016283568
100	0xbd19c526	-0.03754153
101	0x3d13bcf6	0.03606888
102	0xbc4fb715	-0.0126779275
103	0x3d2c2e4a	0.042036332
104	0xbc82d2f7	-0.015969737
105	0xbdf58ca9	-0.119897194
106	0x3c1bc0a1	0.0095063755
107	0x3d882e86	0.06649499
108	0xbd057ce2	-0.0325898
109	0xbc897447	-0.016779078
110	0x3cdf984e	0.027294304
111	0x3d039977	0.032128777
112	0x3d475d3e	0.048672907
113	0xbd11fe70	-0.03564304
114	0xbc9e710b	-0.019341012
115	0xbc96d574	-0.01841233
116	0xbc43db80	-0.011954188
117	0xbd61459b	-0.05499802
118	0x3d9039e0	0.07042289
119	0xbd8ade01	-0.06780625
120	0xbd4ce657	-0.050024357
121	0x3d400554	0.04688008
122	0x3d722b05	0.059123058
123	0x3de79d73	0.11309328
124	0xbd6629e6	-0.0561923
125	0xbb8f0027	-0.004364032
126	0xbce6b2c7	-0.02816142
127	0xbd339358	-0.04384169

action_model._continuous_distribution.log_sigma f4 [1, 2]
0	0xbe240f73	-0.16021518
1	0xbe4306f4	-0.19045621

action_model._continuous_distribution.mu.weight f4 [2, 128]
0	0xbd4b5a9c	-0.04964696
1	0x3ba4d943	0.0050307824
2	0xbcea1791	-0.02857569
3	0xbd0960cc	-0.03353958
4	0x3d993063	0.07479932
5	0xbe038c4a	-0.12846485
6	0xbc8c6fd3	-0.017143166
7	0x3d28f631	0.04125041
8	0xbd325fc0	-0.043548346
9	0x3cbb6f0c	0.0228801
10	0xbdccd9ee	-0.10002504
11	0x3d75e279	0.060030434
12	0xbce482fa	-0.027894486
13	0x3d66e1eb	0.056367796
14	0xba10ff4c	-0.0005531206
15	0x3d6f9e99	0.05850086
16	0xbd5b691c	-0.053567037
17	0x3cdd4583	0.027010685
18	0x3ca4b7cb	0.02010717
19	0xbd921ac5	-0.07134012
20	0x3d5db514	0.054127768
21	0x3cc3086f	0.023807732
22	0x3cf21ab7	0.029553754
23	0x3d8680d5	0.065675415
24	0xbc9c19c5	-0.019055257
25	0x3cc6ce90	0.024268419
26	0x3d89fab5	0.06737272
27	0xbc166889	-0.009180197
28	0x3c8580fd	0.016296858
29	0x3d098378	0.033572644
30	0x3c9dd2f9	0.019265639
31	0x3c3ecbc3	0.01164526
32	0xbda9dbaa	-0.08293851
33	0x3b96b0a4	0.004598694
34	0x3c8aac2e	0.016927805
35	0xbdaa11a5	-0.08304147
36	0xbbe0de09	-0.006862406
37	0xbd783fe9	-0.060607824
38	0x3c03e393	0.008049863
39	0xbacc68f8	-0.0015595248
40	0x3c8de087	0.017318977
41	0xbd7603cc	-0.060062215
42	0xbcc65459	-0.024210142
43	0x3d7e7b1a	0.062129118
44	0xbd951fa4	-0.072814256
45	0xbd228d54	-0.039685562
46	0x3c8f7d26	0.01751573
47	0x3c7dec8a	0.01549829
48	0x3d025ad0	0.031824887
49	0x3d494352	0.049136467
50	0x3d253a24	0.04033865
51	0xbce248d6	-0.027622622
52	0xbcdafe27	-0.026732517
53	0xbccbb179	-0.024864899
54	0xbd0b76fc	-0.03404902
55	0xbce260d9	-0.027634071
56	0x3cf973fb	0.030450812
57	0x3d56d3fa	0.05244825
58	0xbc0e9851	-0.008703307
59	0x3def9559	0.11698408
60	0x3d84b0b7	0.06479018
61	0x3c6976d4	0.014249522
62	0x3c586738	0.013208203
63	0x3c8390c5	0.016060242
64	0x3d731a12	0.059351034
65	0x3cf14c1b	0.029455235
66	0xbd6cfba4	-0.05785717
67	0x3d6d86d3	0.057989907
68	0x3c6f5dad	0.014609736
69	0xbd08db28	-0.03341213
70	0x3cca05a2	0.024660889
71	0xba55599e	-0.0008138659
72	0xbcd1c94e	-0.025608685
73	0xbd2e97c6	-0.04262521
74	0xbd8405ad	-0.06446395
75	0x3bd89b50	0.0066103116
76	0xbd4fccf6	-0.050732575
77	0xbaa3905f	-0.0012478939
78	0x3d964eb4	0.0733923
79	0x3d4327a4	0.047645226
80	0xbd2d2bad	-0.04227798
81	0xbc53eb3e	-0.012934504
82	0x3b5661a2	0.0032712002
83	0x3d51674b	0.0511239
84	0xbcc3a1af	-0.023880808
85	0x3ccbcdf0	0.024878472
86	0x3c9ebcf8	0.019377217
87	0xbc876b47	-0.016530646
88	0x3c8955f7	0.016764624
89	0xbd11b983	-0.03557731
90	0xbd3f4c00	-0.04670334
91	0xbc87d6fb	-0.016582003
92	0x3c468ab6	0.012118032
93	0x3c8682fa	0.016419876
94	0x3c80aebb	0.015708318
95	0xbcba6b14	-0.022756137
96	0xbc8d68de	-0.017261919
97	0xbdaf208a	-0.08551128
98	0x3d214513	0.039372515
99	0x3be0d158	0.006860893
100	0x3be39b7b	0.006946025
101	0x3d7ac439	0.06122229
102	0xbc7be210	-0.015373722
103	0xbd1cf455	-0.03831895
104	0x3cced671	0.025248738
105	0xbc9cde7a	-0.019149054
106	0x3b96c7aa	0.0046014385
107	0x3d768667	0.06018677
108	0x3c4485c3	0.011994782
109	0xbd985216	-0.07437532
110	0x3c849be0	0.016187608
111	0xbd934ce1	-0.07192398
112	0xbd02b635	-0.031912047
113	0xbd31d2a1	-0.043413762
114	0xbdbb438b	-0.09143742
115	0xbca065dd	-0.019579822
116	0x3cfbd806	0.030742656
117	0x3abb0964	0.0014269766
118	0x3d23e6b4	0.040014938
119	0xbbe77597	-0.0070635783
120	0xbcebec98	-0.02879934
121	0xbe0e8493	-0.1391776
122	0x3dbd0e33	0.09231224
123	0xbc92050f	-0.017824678
124	0xbd2cb24e	-0.042162232
125	0x3c8f3a5a	0.017483879
126	0xbca51a82	-0.020154241
127	0xbb8f14d2	-0.0043664956
128	0xbca15e59	-0.019698309
129	0x3c4e5ec8	0.01259584
130	0x3d291208	0.04127696
131	0x3d522568	0.051305205
132	0xbd4d251f	-0.05008423
133	0x3c4e2f02	0.01258445
134	0xbd71a667	-0.058996584
135	0xbc7a35d7	-0.0152716255
136	0xbc984929	-0.018589573
137	0xbd48687b	-0.048927765
138	0x3d572d54	0.052533463
139	0x3da09a73	0.07841959
140	0xbbda2789	-0.006657545
141	0xbd882a17	-0.06648653
142	0x3cb0cc15	0.021581689
143	0xbc895cc2	-0.016767863
144	0xbd5043f4	-0.050846055
145	0xbd1d20f0	-0.03836149
146	0xbc9a1aef	-0.018811671
147	0x3d597fb6	0.05310031
148	0xbd7f091b	-0.062264543
149	0x3d0389d5	0.03211387
150	0xbc8cbd71	-0.017180176
151	0xbd855101	-0.06509591
152	0xbda00d6b	-0.07815059
153	0x3cb52caf	0.022116033
154	0x3ca73d72	0.020415042
155	0x3a36417c	0.0006952507
156	0xbcc527d2	-0.02406684
157	0x3d3bc850	0.04584533
158	0x3c6e1a6b	0.014532666
159	0x3cdcd205	0.026955614
160	0xbd9d3051	-0.07675231
161	0xbbc8c361	-0.0061268066
162	0x3bf5cd9a	0.0075013163
163	0xbd9c2eba	-0.076261
164	0x3d994918	0.07484645
165	0x3bf1a4bd	0.0073743747
166	0xbc96e85b	-0.018421343
167	0x3c89a786	0.016803514
168	0x3d6533be	0.05595755
169	0xbd98e1c8	-0.07464939
170	0x3d1d601a	0.038421728
171	0xbd72e4f4	-0.059300378
172	0xbd8a8958	-0.067644775
173	0xbc638949	-0.013887712
174	0x3d7d95b4	0.061910346
175	0x3b33334b	0.0027343805
176	0xbd2119c7	-0.039331224
177	0xbd0b9313	-0.034075808
178	0x3cab437f	0.020906208
179	0xbc1d93f5	-0.009617795
180	0x3dc3cc48	0.09560448
181	0xbcacb678	-0.021083102
182	0xbbd5fd65	-0.006530451
183	0xbdc35b8a	-0.09538944
184	0xbbc8e47e	-0.006130754
185	0x3d513fe7	0.051086333
186	0xbd9754cb	-0.0738922
187	0xbcdaa878	-0.02669166
188	0xbc4395c1	-0.01193756
189	0x3d000874	0.03125806
190	0x3c270f7f	0.010196566
191	0xbc5adc5f	-0.013358205
192	0x3d2142e4	0.039370432
193	0x3d89a124	0.06720188
194	0x3d6cbaf1	0.05779547
195	0xbd4a6b34	-0.049418643
196	0x3df31d30	0.118708014
197	0x3ca90b14	0.020635165
198	0xbcf628ba	-0.030048717
199	0x3cd6ee36	0.026236635
200	0x3c08c208	0.008347042
201	0x3c6d7117	0.014492295
202	0x3b9890e8	0.004655946
203	0xbd324534	-0.04352303
204	0xbc9e39ad	-0.019314611
205	0xbc694e0b	-0.014239798
206	0x3c8674ee	0.016413178
207	0xbd17711e	-0.03697311
208	0xbccdba7c	-0.025113337
209	0x3d91894f	0.07106268
210	0x3d9b6354	0.07587305
211	0x3d5a642d	0.05331819
212	0xbc51c2db	-0.012802805
213	0xbd00d0b3	-0.03144903
214	0x3d12d0c3	0.035843622
215	0xbc25d4d4	-0.010121543
216	0x3c87c0ab	0.016571363
217	0xbdc73553	-0.09726968
218	0x3d98a0e9	0.07452566
219	0x3d214e22	0.039381154
220	0xbc05d1fe	-0.008167742
221	0xbcd6ae6a	-0.026206214
222	0xbd69ab5d	-0.05704819
223	0x3c00b168	0.007854797
224	0x3d2dc067	0.042419817
225	0x3d3bc37e	0.045840733
226	0x3d673032	0.056442447
227	0xbc886cd5	-0.016653458
228	0xbc656d67	-0.014003134
229	0x3d372eeb	0.04472248
230	0x39b39e21	0.00034259356
231	0xbd7c0118	-0.06152448
232	0x3dbe6a35	0.09297601
233	0x3d21ab1d	0.039469827
234	0xbc3afe29	-0.011413136
235	0xbc156264	-0.009117696
236	0xbb9dcaa0	-0.0048154145
237	0x3c2fa792	0.010721104
238	0x3dae8d14	0.08523002
239	0xbd75993d	-0.059960593
240	0xbd35a593	-0.044347357
241	0x3d9da4a1	0.07697416
242	0x3c783a4b	0.015150617
243	0xbd327504	-0.043568626
244	0x3d4dcd74	0.050244763
245	0x3d4f6817	0.050636377
246	0xbdc709fd	-0.09718702
247	0xbbf1e9aa	-0.0073825913
248	0x3c99b38e	0.018762376
249	0xbd2a8a1a	-0.04163561
250	0xbc6ba086	-0.0143815335
251	0xbd89da95	-0.06731144
252	0x3ca791d0	0.020455271
253	0xbd13d2c5	-0.036089677
254	0x3dc45268	0.0958603
255	0xbbfffc13	-0.007812032

action_model._continuous_distribution.mu.bias f4 [2]
0	0x3ca55962	0.020184223
1	0xbd49915d	-0.049210895

onnx::Div_46 f4 [8]
0	0x3d502fe1	0.05082691
1	0x3d41ecb3	0.047344875
2	0x3f3205c2	0.69540036
3	0x3e4689b3	0.19388466
4	0x3f272941	0.65297323
5	0x3f063564	0.5242522
6	0x3f27b532	0.6551086
7	0x3ef63477	0.48086902
