results/baseline-test/3DBall/3DBall-349043.pt (torch, 49284 bytes, 32 tensors)

network_body.observation_encoder.processors.0.normalizer.running_mean f4 [8]
00000000: 0e54 5f39 96b8 8e3a f728 27be 633f 4440
00000010: f8ce 8abd 625e aabb 1727 b1be e06a aa3c
0.0002129825 0.0010888751 -0.1632422 3.0663688 -0.067777574 -0.0051992396 -0.34600136 0.020802915

network_body.observation_encoder.processors.0.normalizer.running_variance f4 [8]
00000000: 7056 7844 6636 5a44 a315 4048 6b89 7c46
00000010: d290 3148 07bb e347 231c 2f48 cae3 c147
993.3506 872.85 196694.55 16162.3545 181827.28 116598.055 179312.55 99271.58

network_body.processors.0.normalizer.running_mean f4 [8]
00000000: 0e54 5f39 96b8 8e3a f728 27be 633f 4440
00000010: f8ce 8abd 625e aabb 1727 b1be e06a aa3c
0.0002129825 0.0010888751 -0.1632422 3.0663688 -0.067777574 -0.0051992396 -0.34600136 0.020802915

network_body.processors.0.normalizer.running_variance f4 [8]
00000000: 7056 7844 6636 5a44 a315 4048 6b89 7c46
00000010: d290 3148 07bb e347 231c 2f48 cae3 c147
993.3506 872.85 196694.55 16162.3545 181827.28 116598.055 179312.55 99271.58

network_body._body_endoder.seq_layers.0.weight f4 [128, 8]
00000000: 258e cabd 17d1 7fbe 065e 02bd 9187 323d
00000010: f735 9c3d 222b 06bf 5cd4 ce3d ba80 b63e
00000020: 5f74 1f3f 0011 4d3e 63d5 8a3e 04af 693e
00000030: 76c1 72bf 69f4 8cbe b09c 38be bf83 0d3e
00000040: afeb a83e 226c f5bd cbac c33e 7709 183f
00000050: 658a 22bf 3535 0d3e 6606 9dbe 3544 e23d
00000060: 249b 1b3f 0bcb d4bd 04cd 4a3e 30f4 643e
00000070: d9e2 18bf 189c 56be 9db1 993e 121b b9be
00000080: aee8 77bf 53b8 183f f3ae 8a3d c924 be3e
00000090: e791 24be aeab 993c e48c 4c3e 85e5 c63e
000000a0: f1e1 ff3e 9509 b53e f1fa 61be 7b9a 033f
000000b0: 265a f53e 6000 07bf e168 7abe b415 acbe
000000c0: abd9 e53e 43f1 603e 763a 20be b87a 663f
000000d0: f70a 533f a2eb 323f 5a23 cb3d 493a 1bbe
000000e0: cf03 433e 765b 8d3e 838b f83e 4df2 5d3e
000000f0: ca32 493e da26 853e da5d 2b39 db11 35be
00000100: 2026 1a3e 6fa9 a03d 48ee a7bb 3aae a5bd
00000110: e431 ffbd 1170 3fbf 6c6f 65be e1c2 b23e
00000120: c016 183d a2de adba dc55 563e 7b20 343e
00000130: 8ae3 d6bd f1a2 7d3d 6a3c f83c b860 c23e
00000140: 9396 383e e8ec 233d 3c50 f9be 275b 6e3f
00000150: ced9 78bd 2f1a d7be 074f f63e 5945 b6be
00000160: c1c6 a03d d70f a6be 39d5 5e3e efc6 d0bd
00000170: 0a84 19be c04c e93e 96bb 273d ccd5 85be
00000180: 1dff 1ebf 87b2 a43e 1c9e 0abf 21a9 fe3c
00000190: 63dd 8c3e fe89 7abd 2ffa 853d c64d 193e
000001a0: 9ef1 27bf 785b 3a3f 090a 273d 77c1 d23e
000001b0: 81c3 2c3f 691b c43e 87bd e13e e18c 063e
000001c0: f4ae 123e 73d2 d0be b8a9 283e dd1f debe
000001d0: 9c5d a5be 8b43 ebbd e9be 98bd a0ea cb3d
000001e0: 6e78 7cbe 51e4 a23e bf30 e73e 5c4c 92be
000001f0: 8d3e a2bb 1d2a 993e 44fe 233e fb08 873e
00000200: 23e5 333f 809f 123d 03c0 a83d 2ad8 393e
00000210: 86b2 c0be 78a6 77bd a39f ad3e 8481 783e
00000220: 8c35 553e 3840 2a3e 2901 16be c8c4 56be
00000230: d408 31be ddf0 333e 0dfb e6bd 7e47 873e
00000240: 8e22 1ebd e652 443e c62b 973e 5608 3fbe
00000250: d44f ec3e 2215 d33d 6401 00bf 2f8a 2fbe
00000260: 4258 803e f6eb febc 8667 babe 9ec6 113e
00000270: ff06 2bbe c7e3 f2be ea46 f03d ad13 98be
00000280: e084 41be d4f2 0a3f c1ae ab3e 45ab ce3e
00000290: a223 733e bc81 babd c6bb c9bd ebe5 73be
000002a0: 909b 113f ec27 0fbe acd2 13bf 2a07 8fbe
000002b0: c69a a1be b5bf b63d 84b0 aa3e 6eb2 4b3e
000002c0: 8324 bebe a2ae fabd 12e7 3c3e fabe 20bf
000002d0: a5eb cfbe f6e1 d7be bc3f dbbd 5dad 323f
000002e0: f3cc 1bbf d0ee 683f fcf7 5c3e a3db ed3d
000002f0: 43f9 dd3d 6d07 3a3e 51d5 6a3e 1f68 ac3e
00000300: 89dc cc3d a533 343f 1752 bf3d 1bb7 d8bb
00000310: 60a3 bf3e 2625 97be 5af8 173e 3731 44bd
00000320: 76ec fe3d e62e 803e 378e 3a3e 9b52 bebc
00000330: f0c2 d2bd 77db 013e 70b0 e9bd b213 ccbe
00000340: de5e b1be 8542 91bc f7e8 823e 106e 8e3e
00000350: 3230 fc3d 2bee bc3e 0a86 9d3e 90d7 30be
00000360: b9d0 523f 67f4 51bf a539 ff3e 2f22 bbbe
00000370: b288 77bd 5a25 1f3f 1841 b3be b6a8 b33e
00000380: f11f 84bf 1ce7 193f e127 5c3e e807 ae3c
00000390: ce26 533e 07d3 d3be bd79 253f 262c 8d3e
000003a0: 2041 51be 93c1 8dbe fc30 0a3f b34a 17bd
000003b0: 3a73 fdbd ae0e aabd ea6b d83e df7f f03c
000003c0: 5013 1b3d 5bbd c2be 39d7 623e 96aa 08be
000003d0: 6052 083d 43b8 d3bc fbd2 d3be 2ba1 97be
000003e0: 200e 76bc a86e 0cbf 8439 003e eab8 aabe
000003f0: 7782 043e 3682 cc3c af5f 49be d41c 7abe
-0.09890393 -0.24982105 -0.03182795 0.043586317 0.076274805 -0.52409565 0.10099098 0.35645086
0.62286943 0.20026016 0.27115926 0.2282067 -0.9482645 -0.2753022 -0.18028522 0.13819788
0.32992312 -0.11983515 0.38217768 0.5938944 -0.63492423 0.13789828 -0.30668944 0.11048166
0.607836 -0.1039029 0.1980477 0.22358775 -0.5972114 -0.20957983 0.3001832 -0.36153466
-0.96839416 0.59656256 0.0677165 0.3713744 -0.16071282 0.018758621 0.1997562 0.38846985
0.49977067 0.35358873 -0.22068383 0.51407593 0.4792034 -0.5273495 -0.2445407 -0.33610308
0.4489263 0.21967034 -0.15647301 0.90031004 0.82438606 0.698908 0.09918852 -0.15158953
0.19044422 0.27608842 0.4854394 0.21674462 0.1964828 0.26006204 0.00016342793 -0.17682593
0.15053606 0.07844817 -0.005124841 -0.08089872 -0.12460688 -0.74780375 -0.22405785 0.34914306
0.03713107 -0.0013265202 0.2093119 0.17590515 -0.104926184 0.06192297 0.030302245 0.37964416
0.1802619 0.040020853 -0.48694026 0.9310784 -0.06075459 -0.42012164 0.48107168 -0.35599783
0.07850409 -0.3243396 0.21761025 -0.101941936 -0.14991775 0.45566368 0.04095038 -0.26139677
-0.6210802 0.32167456 -0.54147506 0.031086506 0.27512655 -0.061166756 0.06541859 0.14971074
-0.65603054 0.7279582 0.040781055 0.41163227 0.67485815 0.38302162 0.4408991 0.13139679
0.14324552 -0.4078556 0.16470993 -0.43383685 -0.3229798 -0.11487492 -0.07458288 0.099568605
-0.24655315 0.31814817 0.45154378 -0.28573883 -0.0049513043 0.29914942 0.16014963 0.2637404
0.7027151 0.035796642 0.08239748 0.18148866 -0.37636203 -0.06046149 0.33910856 0.24268156
0.20821208 0.1662606 -0.1464888 -0.20973504 -0.17288524 0.17572351 -0.11278353 0.26421732
-0.038607173 0.19172248 0.29525584 -0.18655524 0.46154654 0.10306765 -0.5000212 -0.17142557
0.25067335 -0.031118374 -0.36407107 0.14235923 -0.16701888 -0.47439405 0.11732276 -0.2970251
-0.18898344 0.54276776 0.33531764 0.40365043 0.23744062 -0.09106776 -0.09850268 -0.23818175
0.56877995 -0.13980073 -0.57743335 -0.27935153 -0.31563395 0.08923284 0.33337796 0.19892284
-0.3713723 -0.1224034 0.18447521 -0.6279141 -0.4060947 -0.42164582 -0.10705516 0.6979578
-0.608596 0.909894 0.21578974 0.11614158 0.108385585 0.18166895 0.22932936 0.33673188
0.10003001 0.70391303 0.09341829 -0.0066136247 0.37429333 -0.2952053 0.14840832 -0.047898497
0.12447445 0.2503578 0.18218313 -0.023232749 -0.102910876 0.12681375 -0.11410606 -0.39858776
-0.3464269 -0.017731914 0.25568363 0.27818346 0.1231388 0.36900458 0.30766326 -0.1726973
0.82349735 -0.82013553 0.49848667 -0.36549518 -0.060433097 0.6216637 -0.350106 0.35089654
-1.0322248 0.6011827 0.21499588 0.021244004 0.20620272 -0.4137194 0.6463888 0.27572745
-0.20435 -0.27686748 0.53980994 -0.036936473 -0.12375493 -0.08303581 0.42269832 0.029357849
0.037860215 -0.38035092 0.22152413 -0.13346323 0.033281684 -0.025844699 -0.41371903 -0.2961515
-0.015018016 -0.5485635 0.1252194 -0.33344203 0.12940393 0.024964433 -0.19665407 -0.2442506

network_body._body_endoder.seq_layers.0.bias f4 [128]
00000000: 750c 92bd be62 95bd 0566 31bd 3f24 12bd
00000010: ccac ba3d 8f2c f63c 236b 5b3d 4917 223d
00000020: 977d 7f3b e339 823d fd17 ea3c 3bc8 753c
00000030: d04e 07bd 6910 0b3e 385f 7dbd c478 be3d
00000040: 156f 363d ceca 703d 805d a63d 8b87 60bd
00000050: 9766 5a3d ef8f 8abd 330b 1f3c 3d17 073e
00000060: a34a c83d 920d eb3b c60c 123d 73f2 b8bd
00000070: fb4e 803d 255e 52bc 48f5 4a3b f341 3bbd
00000080: 89fe 7d3d 5791 3fbd d0ad 49bd 653d 913d
00000090: 4cdc 03bd 9ad7 703c 9927 f9bc b82e 3fbd
000000a0: 7639 26bc 3320 983d 4a55 b0bd c62b 873d
000000b0: e267 2f3d 56a6 d4bb 9bbd 65bc 97f4 153c
000000c0: 9952 cd3d 5f10 963d 13df d4ba 6626 c4bd
000000d0: 53ab 073d 2bc0 4c3c 3cba e5bd 6dbb bd3d
000000e0: 8536 72bc d9e1 883d ae94 063e 216b a83d
000000f0: 6afe 763d 1f09 ddba c9ef b5bc 9ada dd3c
00000100: ce8b c23c 367f 86bb 7fda adbc 75b8 8f3d
00000110: 0213 b5bc 693a 95bc 780f 7a3d fd9b 47bd
00000120: 47dd b4bd 345b 733c e459 36bc 5312 743d
00000130: 4328 1fbd 220f 473d 8ed1 183d dd17 993d
00000140: 73f6 363d f5b8 2bbd ed46 293d d3fe 3e3d
00000150: 4d54 9cbd 1b96 3f3d eae1 a7bb 1b75 1ebc
00000160: b9f3 f0bc c399 d33d 142a 9bbd 69ed 53bd
00000170: b083 d9bc 3124 b23c 379f ac3d 5d85 04bd
00000180: ab6c 51bd 40d5 8a3c 2ef7 2cbc 9989 a73c
00000190: 9672 0fbd fa20 193d 70df 52bc 9763 2e3d
000001a0: 506c 6bbc b541 f4bd 8ede 643c 8119 8d3d
000001b0: 3dbb e9bc 05a0 b0bc 4bd0 e63c ddf5 f23c
000001c0: 764d 483d f4d1 1dbd 88d6 abbc f84c 7dbc
000001d0: bfd9 1bbc b494 65bd 2ec6 963d 6d02 8bbd
000001e0: 83c8 58bd e3ab 313d e7b2 6d3d 2d89 ec3d
000001f0: b00c 6ebd c72a 133b 4fef f8bc 93a4 2bbd
-0.07131282 -0.07294224 -0.043310184 -0.0356791 0.0911499 0.030050544 0.05356897 0.039572988
0.003898477 0.06358697 0.028575892 0.015001352 -0.033034146 0.13580479 -0.061858386 0.09300378
0.04453953 0.05878716 0.081233025 -0.054816764 0.053320494 -0.067657344 0.00970726 0.13192458
0.09779861 0.0071732486 0.035656713 -0.090306185 0.06265064 -0.012839829 0.0030968953 -0.04571719
0.06201032 -0.046769466 -0.049238026 0.07091788 -0.032192513 0.014699841 -0.03041439 -0.046675414
-0.010145536 0.074280165 -0.086100176 0.06600146 0.04282368 -0.0064895554 -0.014022256 0.009152553
0.1002552 0.07327341 -0.0016240798 -0.095776364 0.033122372 0.012496988 -0.11217162 0.09264264
-0.014783506 0.06683702 0.13142654 0.08223558 0.060301222 -0.001686368 -0.022209065 0.027081776
0.023748305 -0.00410452 -0.021222351 0.07017604 -0.02210379 -0.018216329 0.06104991 -0.048732746
-0.08831268 0.0148532875 -0.01112983 0.059587788 -0.038856756 0.048598416 0.037309222 0.07475255
0.044668626 -0.041924436 0.041327406 0.046629738 -0.076332666 0.04677401 -0.0051233666 -0.009671475
-0.029413091 0.10332062 -0.07576385 -0.051740084 -0.026552051 0.021745773 0.08428805 -0.032353748
-0.051129024 0.016947389 -0.010556979 0.020451354 -0.035021387 0.037384965 -0.012870654 0.042575445
-0.014369085 -0.11926595 0.013969077 0.0688963 -0.028531665 -0.021560678 0.028175494 0.029658252
0.048901998 -0.038530305 -0.02097632 -0.015460245 -0.009512364 -0.056050017 0.073620185 -0.06787572
-0.052925598 0.043376815 0.058031943 0.11549602 -0.05811757 0.0022455917 -0.030387549 -0.041904997

action_model._continuous_distribution.log_sigma f4 [1, 2]
00000000: 0940 21be 0fbc 3cbe
-0.15747084 -0.18431114

action_model._continuous_distribution.mu.weight f4 [2, 128]
00000000: 5049 32bd 41e7 da3b c367 ddbc d7bd 11bd
00000010: 902c 983d c4bc febd 973a a1bc f75c 273d
00000020: 8960 26bd c438 d53c db13 cdbd 43c7 693d
00000030: b44e e4bc 1287 533d 475b 25bb c7d6 7b3d
00000040: 36e0 65bd 346c ae3c bb9e ad3c a3d4 93bd
00000050: 7e8a 5e3d bbbb 983c 5f01 093d 668e 853d
00000060: e617 7fbc bab9 b93c cf50 763d 6345 0abc
00000070: ba46 813c 473b 173d 9f06 ae3c 3911 6d3c
00000080: 5a94 98bd 9324 343b c1dd 873c a684 a2bd
00000090: a1ed 11bc 7292 6fbd 1b05 c53b 3c16 86bb
000000a0: 3098 853c 0176 72bd 3830 a5bc 2de4 6f3d
000000b0: f700 91bd d08a 13bd 4975 663c addd 9c3c
000000c0: fd37 283d 3a9b 383d 30fb 2f3d 5db4 d0bc
000000d0: 618b babc 3315 bfbc 0aeb 02bd 6c22 d0bc
000000e0: 86ef 003d 975f 583d 46f8 c03a 1d44 e63d
000000f0: 6d18 5c3d 2ed0 483c 55fc 813c a46b 943c
00000100: 1328 6e3d 5c4a fc3c 56d8 5cbd bd0a 803d
00000110: de84 9f3c 113d 11bd b68e d83c f2be 513b
00000120: b0b6 95bc 6db9 31bd 6be4 8abd 4f87 a63b
00000130: 23ae 4fbd 798f cb39 d412 9b3d 25e4 3a3d
00000140: 9d97 22bd 6341 38bc d193 c13b bf4f 503d
00000150: 637e adbc a1a3 d33c 4c4d a43c 403c 8abc
00000160: d570 833c 0ceb 12bd bebe 3ebd 7c71 bdbc
00000170: c31e 243c 5540 803c 21ea 843c fded a4bc
00000180: 67c4 92bc 0495 acbd 7541 1b3d 60ea 323c
00000190: 3fca 933b c709 813d 5453 4ebc 8f74 22bd
000001a0: 0c87 cc3c 3cd8 b2bc fe46 a73a e8f7 673d
000001b0: 5771 173c bbf3 88bd b1ac 873c b01a 8bbd
000001c0: 3ab2 fabc a3e2 2fbd e9eb b4bd 89c7 bcbc
000001d0: 36a5 f23c cb35 653b a955 3f3d b4eb debb
000001e0: 9b94 febc 55d0 0dbe adbd ad3d 65f0 babc
000001f0: d5d8 20bd 00d9 803c 71e7 8bbc c936 48bb
00000200: 2518 8dbc f4cd 323c fe0d 243d aa2d 653d
00000210: 88d7 4abd 97aa 303c 7cde 77bd 336f 65bc
00000220: f2d7 b0bc d4a2 4abd ba80 5c3d 07ee 973d
00000230: 27c0 d7bb 0c11 87bd 6460 ac3c 5ef8 87bc
00000240: 0588 4abd e2fa 29bd 42cb b3bc 83ce 643d
00000250: 76d4 79bd 5ecd 113d 78d9 a6bc 8c66 82bd
00000260: d96b 9bbd 2b0d b23c 7a31 b73c b33e 04bb
00000270: 222c b1bc 3cf3 4a3d 7687 413c c6f1 be3c
00000280: 611c 9dbd 47b0 1ebc 2023 ce3b 38f2 9abd
00000290: aeb9 973d 68ef 3e3c 9d5c a0bc 5ea6 a33c
000002a0: 8898 6c3d 1dea 9abd e8bc 193d 162a 6dbd
000002b0: f2cb 86bd a0e9 6fbc bf32 813d a713 223b
000002c0: c955 1fbd 2e15 27bd c051 d73c e867 04bc
000002d0: 854c c43d e074 bcbc 6a4d 203a 67a7 c8bd
000002e0: d869 dfbb f991 583d 68e6 9bbd fc4b ecbc
000002f0: 02f0 39bc d85b 183d 52d7 3c3c bd7c 66bc
00000300: c339 273d 0ffd 883d 96f8 873d 4a4d 50bd
00000310: b448 f33d 5bbd be3c fdc8 fcbc 3b57 d23c
00000320: 1079 ba3b 80bc 3e3c 8928 803b 42ca 30bd
00000330: e7df c9bc 9c65 6cbc 57b1 8e3c 6c2a 10bd
00000340: 815a d6bc bd0f 883d a775 983d 2dc6 583d
00000350: d8b9 42bc 2b4d fdbc 8726 103d d534 77bc
00000360: 628f 903c e926 c7bd ef4e 973d fa0f 113d
00000370: 3de1 0dbc c651 e8bc 8e7d 70bd e0ed c63b
00000380: 04ab 283d 964a 5d3d 917a 853d b2d9 80bc
00000390: 7c55 3bbc 87ef 2f3d 4a81 eeba a97c 71bd
000003a0: 88af bb3d d238 2d3d d6a9 80bc 8af5 33bc
000003b0: 7efe f2bb 7a6c 8b3c 218d bf3d d15a 6abd
000003c0: cd42 2cbd e615 9c3d 3e55 323c 243a 31bd
000003d0: 8b66 4e3d 6553 4d3d 5075 c5bd 36dd b7bb
000003e0: c642 a23c 48a7 1abd 6115 24bc 3799 8dbd
000003f0: 4f38 963c 412f 16bd 5130 c23d 213c 03bc
-0.043526947 0.0066803996 -0.027027017 -0.035581436 0.074303746 -0.12438348 -0.019681258 0.040860143
-0.040619407 0.026028045 -0.10013553 0.057074796 -0.02786956 0.051642485 -0.0025231407 0.061484125
-0.056122027 0.02129183 0.021193853 -0.072182916 0.054331295 0.018644204 0.033448573 0.06521301
-0.015569663 0.02267157 0.06013566 -0.008439395 0.015780795 0.036921766 0.021243392 0.014469438
-0.07450171 0.002748762 0.016585233 -0.07935457 -0.008906753 -0.05848927 0.0060125715 -0.004092006
0.01630792 -0.05919457 -0.020164594 0.058567215 -0.07080262 -0.036021054 0.014066049 0.019148672
0.04106902 0.04506991 0.04296416 -0.025476629 -0.02277154 -0.023325538 -0.031962432 -0.025407039
0.031478427 0.052825537 0.0014722429 0.1124346 0.05373423 0.012256665 0.015867392 0.018117733
0.058143687 0.030797176 -0.05391725 0.06252048 0.019472536 -0.035458628 0.026435237 0.0032004681
-0.018275589 -0.043389726 -0.067818485 0.005082048 -0.05070318 0.00038826073 0.075719506 0.04562773
-0.03969537 -0.011246058 0.0059075137 0.0508573 -0.02117843 0.02583486 0.02005639 -0.016874433
0.016045013 -0.03586869 -0.046568625 -0.023125403 0.0100171 0.015655676 0.016224923 -0.020133013
-0.017915918 -0.0842686 0.03790422 0.010920137 0.0045101936 0.06300693 -0.012593109 -0.03966194
0.02496674 -0.021831624 0.0012762246 0.056632906 0.009243331 -0.06687113 0.016561838 -0.067921996
-0.030602563 -0.042940747 -0.08834059 -0.023044365 0.029619794 0.003497469 0.04671255 -0.0068030003
-0.03107672 -0.13849004 0.084834434 -0.022819707 -0.039269287 0.015728474 -0.017078133 -0.0030550233
-0.017223427 0.010913361 0.040052406 0.05595175 -0.049521953 0.010782859 -0.060514912 -0.014003563
-0.021587346 -0.04947169 0.0538337 0.07418447 -0.0065841856 -0.06595048 0.021042056 -0.016597923
-0.049446125 -0.041499026 -0.021947507 0.055861007 -0.060993634 0.035596244 -0.020367369 -0.063672155
-0.0758893 0.021734795 0.02236246 -0.0020178973 -0.02162749 0.049548373 0.011812082 0.023308646
-0.076714285 -0.0096855825 0.0062908083 -0.07565731 0.074084625 0.011653759 -0.019575411 0.019976791
0.057762653 -0.07564185 0.03753367 -0.057901464 -0.06581868 -0.014643103 0.06308507 0.0024730952
-0.03890017 -0.040791683 0.026284099 -0.008081414 0.095849074 -0.02300495 0.0006115051 -0.097975545
-0.0068180375 0.052873585 -0.07612306 -0.028844826 -0.011348726 0.037196964 0.011525946 -0.014067826
0.04082657 0.06688892 0.06639211 -0.05085496 0.118791014 0.023283651 -0.030857557 0.02567636
0.0056907013 0.011641622 0.003911082 -0.043161638 -0.024642898 -0.014428522 0.017418547 -0.035196707
-0.026166203 0.06643627 0.074443154 0.05292337 -0.011885129 -0.030920586 0.035192993 -0.01508828
0.017646495 -0.097242184 0.07388102 0.035415627 -0.008659658 -0.028359305 -0.05871349 0.0060708374
0.04117872 0.05402621 0.06517518 -0.015728805 -0.011433955 0.04295304 -0.001819649 -0.058956776
0.09164339 0.042290516 -0.015705984 -0.010983834 -0.0074155917 0.0170195 0.0935309 -0.057215516
-0.042055894 0.07621364 0.010884581 -0.043268338 0.05039076 0.05012836 -0.09641516 -0.005611087
0.01980723 -0.037757188 -0.010014863 -0.06913989 0.018337397 -0.03666616 0.09481872 -0.008009941

action_model._continuous_distribution.mu.bias f4 [2]
00000000: 2c79 b83c 566d 53bd
0.022518717 -0.051617943

exp_avg f4 [128, 8]
00000000: 9c67 03ba 3fd0 1339 39da 03ba 188e cf39
00000010: 2422 df38 18b3 aa39 dd05 b3b8 5604 aeb9
00000020: 5328 7a39 71d2 0ab9 5f2d d039 77a7 d5b8
00000030: c7e8 7b39 2597 0cb9 77f4 d039 ae98 8338
00000040: d8a2 f039 4aac fb37 1970 373a 33da 2b3a
00000050: 807a 75b5 dcc2 64b9 b74a 7738 282a 2739
00000060: 7cc9 3239 c567 c538 6fb1 7c3a f59c 863a
00000070: fc57 a0b7 9218 50b9 84b2 3339 3686 4639
00000080: f836 66ba f070 13ba b140 74ba cd1e 91ba
00000090: 1256 0c3a 588e 3e3a c201 b639 1924 8739
000000a0: 66fe d9ba ba16 20ba c8aa e0ba 091c 473b
000000b0: 3c9b e3ba 18da 5d3a a5be 80bb ba9e 1c3a
000000c0: c091 c2ba f147 b1ba 698e e1ba 48d7 1b3a
000000d0: a822 aab9 e89b 1f3a 56a0 02ba 3aa3 0739
000000e0: 1405 6039 2182 0939 c09b c437 cf48 44ba
000000f0: 5fb2 a739 4427 62b9 468b 1c39 d0ee e9b7
00000100: 0376 32ba 1864 f639 14bf 95ba 6fd4 193a
00000110: 41ca 2fba 6fc9 d639 de5b bfba 177c 1cb9
00000120: 913b 38ba 8026 96b8 8802 8eba 7edf 0cba
00000130: f5f9 23b8 8e5a d439 a24d c9b8 b645 b7b8
00000140: 0560 aa39 78d2 b5b8 1d70 a43a 993b 063b
00000150: ef59 f4b9 1094 63b9 9467 fbb9 1652 6839
00000160: 30aa bd3a fa3e 1439 9134 af3a 2f26 feb9
00000170: 0b7c 26b9 4b9b 7bba f0cf 0b3a 5c98 113a
00000180: d867 abb7 b439 3bb9 267b 50b9 d679 b739
00000190: 8e6c 0fb9 22a9 7f38 5b7b 45ba 5416 77b8
000001a0: 4e38 8dba 6c28 42ba 285e cdba 808c 13ba
000001b0: acae 7338 46f6 173a 6b70 77b9 9084 013a
000001c0: b6c2 5b39 b8e3 7fb9 889a 9439 e59d 3038
000001d0: b4ca 7a38 b015 10b9 d726 d638 3fdf ec38
000001e0: 087f a1b7 6732 3939 45a5 40b9 0813 18ba
000001f0: 1492 ad39 71e0 14b9 8af8 acb8 f383 1e39
00000200: d678 bdba ab20 4a39 f25e a6ba d6a4 523a
00000210: a0d3 3fba c3b4 643a 7f7f 17b9 4a82 e1b8
00000220: dc7b d7b9 c602 6738 15cc 36ba a8f3 55b9
00000230: b931 72b9 7e9d 2e39 9039 0fb9 7c52 8238
00000240: 798f 2db9 a217 e837 62f5 04b9 2b0e a4b8
00000250: 60ac d8b8 7ac0 01b7 051b 3639 dacb 6d38
00000260: b978 1ab9 ec6a bbb8 3dbf f539 24a2 963a
00000270: ee22 06b9 6026 88b8 ecc0 3dba d816 b038
00000280: 651f 34ba 8201 0dba 0bb1 95ba 9fe4 7dba
00000290: 43e5 4539 49e1 ce39 1af1 0239 001c 3436
000002a0: e3c6 e739 fea3 abb9 5e9b 8839 17b8 3fb9
000002b0: d6e2 9137 eeb2 98b9 736e 9939 2cbe 6fb8
000002c0: 7b0b 02b9 3748 9fb8 9a35 11b9 ad53 0cb9
000002d0: b050 a1b8 0469 3139 0747 6a39 dd16 4939
000002e0: 9809 71ba f823 f5b9 f3ab beba a221 4cba
000002f0: 38e3 7739 f660 213a c296 1eb8 2811 b939
00000300: 8a63 78ba eaff a1ba c837 dfba 0478 3039
00000310: fef5 6eba a3a0 3c3a 7c9b 5cba aac4 053a
00000320: ae11 013a f041 9739 6248 3f3a 5bff dbb9
00000330: 6b05 0b3a b556 adb9 47db 7b3a 4bc3 16b9
00000340: c7e3 073a be6c 663a 7c2f c939 fc14 79ba
00000350: c469 c138 80bb 06ba f84f 50b9 7571 fe38
00000360: ad82 afb8 d60a 4e38 44b2 e3b8 7251 0fb7
00000370: 934f 7a38 943b b138 58af 1ab8 4931 13b9
00000380: 70ea 9fb9 a9b4 93b9 be7c 03ba 338e 39b9
00000390: 9d0d 3d38 adb5 8f39 67b6 97b8 5c5b fa38
000003a0: a70e 903a 4e0b 4139 87f5 913a 474a dfb9
000003b0: c478 ba38 596f 56ba b96d 28b9 29ba 9a39
000003c0: 4ae9 b739 26d6 81b8 6be8 1d3a 94a9 21b9
000003d0: 4465 1638 2560 92b9 3fd8 3c3a 7089 7d39
000003e0: 144e d339 9f05 abb8 d531 d939 0674 d9b8
000003f0: 90a7 fbb8 cff2 9ab9 f8af a039 e1b5 5d39
-0.00050126924 0.0001409659 -0.0005029771 0.00039587985 0.00010639828 0.00032558362 -8.536477e-05 -0.00033191097
0.0002385688 -0.00013239101 0.00039706656 -0.00010187824 0.00024023942 -0.00013407746 0.00039854992 6.2750056e-05
0.00045897695 3.000176e-05 0.00069976 0.00065556465 -9.1447873e-07 -0.00021816365 5.8958973e-05 0.00015942066
0.00017050462 9.4130206e-05 0.0009639477 0.0010270166 -1.9114457e-05 -0.00019845579 0.00017137273 0.00018932749
-0.00087819947 -0.0005624434 -0.0009317501 -0.0011071801 0.00053534016 0.00072691357 0.00034715055 0.000257761
-0.0016631603 -0.0006106902 -0.001714074 0.00303817 -0.0017364989 0.00084629795 -0.0039289766 0.000597458
-0.0014844462 -0.0013525469 -0.0017208579 0.000594486 -0.00032450748 0.00060886005 -0.00049829984 0.0001293541
0.00021364196 0.00013113815 2.3437547e-05 -0.0007487656 0.0003198562 -0.00021567667 0.00014929203 -2.788697e-05
-0.0006807746 0.00046995352 -0.0011424744 0.0005868142 -0.00067058584 0.0004096734 -0.0014599522 -0.00014923546
-0.0007027919 -7.1597286e-05 -0.0010834495 -0.0005373879 -3.909502e-05 0.0004050326 -9.598887e-05 -8.739105e-05
0.00032496467 -8.6699554e-05 0.0012545619 0.00204823 -0.00046606312 -0.00021703565 -0.00047951622 0.00022155824
0.0014470275 0.0001413784 0.0013367106 -0.00048475104 -0.00015877203 -0.00095980306 0.00053334143 0.00055540144
-2.0433145e-05 -0.00017855206 -0.00019882302 0.00034995255 -0.00013677982 6.0954255e-05 -0.0007533335 -5.8910184e-05
-0.0010774226 -0.0007406536 -0.001566832 -0.0005628541 5.809839e-05 0.00057968905 -0.00023597635 0.0004940713
0.00020958003 -0.00024403527 0.00028343895 4.210872e-05 5.9793427e-05 -0.0001374099 0.0001021155 0.0001129494
-1.925185e-05 0.00017661751 -0.00018372115 -0.0005801176 0.00033105968 -0.00014197991 -8.247893e-05 0.00015117209
-0.0014455568 0.00019276391 -0.0012693091 0.0008035427 -0.00073176064 0.00087244454 -0.00014447978 -0.00010753104
-0.00041100278 5.5077275e-05 -0.00069731596 -0.00020404032 -0.00023097442 0.00016652604 -0.00013658986 6.214247e-05
-0.00016552013 2.766756e-05 -0.00012679913 -7.8227684e-05 -0.0001033179 -7.733814e-06 0.00017366938 5.6695055e-05
-0.00014731557 -8.9367706e-05 0.00046872525 0.0011492413 -0.00012792248 -6.492133e-05 -0.00072385254 8.396589e-05
-0.0006871133 -0.0005378948 -0.0011420561 -0.0009685251 0.0001887279 0.00039459232 0.00012487583 2.6838388e-06
0.00044207936 -0.00032737845 0.000260557 -0.00018283758 1.7390976e-05 -0.00029125012 0.00029264725 -5.715915e-05
-0.00012402043 -7.595162e-05 -0.00013848246 -0.00013382612 -7.6921075e-05 0.00016919157 0.00022342439 0.00019177371
-0.000919485 -0.0004675684 -0.0014547094 -0.0007786994 0.00023640401 0.0006156111 -3.781054e-05 0.00035298732
-0.00094752817 -0.0012359594 -0.0017030174 0.00016829377 -0.0009115635 0.00071955676 -0.0008415503 0.00051028526
0.0004923594 0.00028850092 0.00072968577 -0.0004196119 0.00053032365 -0.00033061733 0.0009607565 -0.00014377867
0.0005183783 0.00087900076 0.00038373086 -0.0009501723 9.2226575e-05 -0.0005139634 -0.00019866216 0.00012132797
-8.3689905e-05 4.912432e-05 -0.00010857408 -8.542427e-06 5.9678754e-05 8.451115e-05 -3.6879763e-05 -0.00014037373
-0.00030501513 -0.00028172627 -0.00050158415 -0.00017695948 4.507379e-05 0.00027410444 -7.234216e-05 0.00011937946
0.0010990695 0.00018410126 0.0011135795 -0.00042589215 8.8916655e-05 -0.0008180044 -0.00016062603 0.0002951187
0.00035078294 -6.1910876e-05 0.00060237077 -0.00015417329 3.5857098e-05 -0.00027918923 0.0007203854 0.0002417916
0.0004030323 -8.1549624e-05 0.00041426593 -0.000103689774 -0.000119998236 -0.00029554075 0.00030648685 0.00021143958

exp_avg_sq f4 [128, 8]
00000000: bff1 6d36 8a80 4a36 5533 2d36 f73c 7936
00000010: f623 b335 0589 9135 3bd5 3536 8196 9d35
00000020: 4d32 e034 34c3 da34 118c 9934 96de 6635
00000030: 213f 9834 1635 d933 0b12 9735 8089 2f34
00000040: 8677 c336 a296 b736 b5fd 5d36 b23b 9637
00000050: 6325 9136 a979 9a35 fb81 8537 95ab c335
00000060: 0fd9 2b37 a016 2e37 a653 a536 c19c 8d37
00000070: 645c 9836 eabd 2336 ec0f be36 3ece 4536
00000080: da27 f337 ef66 c037 31b1 6937 b0a2 2a38
00000090: 394c 3a37 a9c9 9b36 6705 d137 844a 9236
000000a0: bf6f 0a38 7fa8 2438 26b8 df37 dbbd 9238
000000b0: 6b09 d737 9e94 0037 41e9 bf38 9d2c 1937
000000c0: f866 3537 a801 3737 3030 f036 d2ab 0538
000000d0: e989 1737 ee9c 1936 ce1e a637 8187 2536
000000e0: 6959 5336 f0fc 8536 5bbd 2736 3311 d836
000000f0: 2942 2836 acec 4135 bcf3 e736 b9dd 8235
00000100: 48a0 6036 7e1c 9536 afdb 7136 79de 9036
00000110: 5d67 3636 b19c ac35 5182 6737 17d1 dd35
00000120: 858c d536 8ae1 bf36 be02 6b36 af7d 7937
00000130: 45d5 7c36 014d ba35 3767 1637 7ab7 e535
00000140: 5148 5838 b0c6 2b38 5236 c937 c63b 9d38
00000150: 5f0c a537 129e 1037 d3e5 aa37 9e37 0d37
00000160: 06cd 3e37 5ad4 3137 cd46 cf36 b08d 1237
00000170: d80f da36 fdd8 7a36 626f 8137 a6ef 9636
00000180: 568a 1f36 3d86 d535 f072 a535 35f0 0636
00000190: 1a66 5f35 f420 0c35 24bc 0236 800b c534
000001a0: 133e e237 9a38 ba37 2a0c 5f37 cccf 2e38
000001b0: af60 6137 3966 a136 d963 2537 0a47 8d36
000001c0: 7e3c f734 0d5b 0135 2bdc 9c34 4a87 0f34
000001d0: 12f9 6234 4f9f 4834 cbc5 4d35 bcc6 6734
000001e0: 0a07 c536 a972 ed36 8f12 7936 1270 6136
000001f0: 1b07 4536 81a3 e135 66f3 ce36 fb49 f735
00000200: 1f23 4a37 0fef 3c37 900b f636 3a10 a437
00000210: 5a52 b336 900e 4436 2a56 ac36 1e6c 9436
00000220: 93aa 5136 f51f 5036 a383 ce35 ccfb dd35
00000230: 0e91 c535 8277 7035 b8a2 cc36 539a 9135
00000240: f7a0 9435 3909 b835 766c 8735 7be6 0f36
00000250: 51b1 9235 d3f5 ba34 783f 9f36 58ad c534
00000260: 89c8 8837 bd4d 7837 1621 0d37 114f a137
00000270: a113 c636 d0be 9236 b15e 0c37 a689 8336
00000280: 7f51 9937 65d4 9e37 3c54 3b37 89f5 3238
00000290: a8bf 4037 d335 5e36 d1fe 0938 1fb6 6536
000002a0: c3cb 4f36 b074 2236 04ba cc35 e559 9235
000002b0: 8dca 6f35 b0d8 8035 96b6 8935 9d7b 8035
000002c0: 5cc7 2436 bfeb 1836 7676 ce35 bbf1 5335
000002d0: a5ba 7235 deab 7635 db59 7136 9188 6335
000002e0: 53a2 f037 051e db37 e281 6b37 2524 1338
000002f0: 5054 4237 f55a af36 9ac7 a337 8512 a736
00000300: be79 4237 e3f4 8737 a3a7 1337 ae8b bd37
00000310: ba06 0b37 04cf 4736 91d0 3837 c4de 6636
00000320: f628 e835 44ac 1536 bfb4 c035 580b 4a36
00000330: 2530 c835 d1f8 fc34 17cf d736 c96b 2835
00000340: db89 2d37 f889 e936 d1b2 a736 50fe 8337
00000350: eee4 a136 ee7a 1536 e363 8d36 0f68 0336
00000360: 9d9e f233 a430 d933 571c a033 5b0e 9733
00000370: 9841 a633 cbe5 0433 c67e b334 4084 5033
00000380: 00db 3936 a543 1036 b219 a835 0877 1836
00000390: b3f2 7035 0248 0c35 7885 0b35 a038 eb34
000003a0: 18ea 9d36 4a94 9736 3495 5a36 911a 8436
000003b0: 3509 1036 e58b be35 c30a db35 bd9d 0236
000003c0: ae3b 3b35 84be 6a35 661e 4035 6115 a235
000003d0: dcf9 7835 aa50 6d34 1da3 a936 fbef ae34
000003e0: c9ea 4235 d599 8735 d2cb 1c35 ca46 0035
000003f0: 0847 5035 cfa1 9234 a097 5836 4beb ba34
3.5456467e-06 3.0175165e-06 2.5808888e-06 3.7139378e-06 1.3347005e-06 1.084322e-06 2.7095218e-06 1.1741214e-06
4.175985e-07 4.0747693e-07 2.8600383e-07 8.600558e-07 2.835814e-07 1.0114506e-07 1.1255628e-06 1.6348167e-07
5.825367e-06 5.471361e-06 3.3079243e-06 1.7909191e-05 4.325689e-06 1.1509302e-06 1.5915362e-05 1.4578569e-06
1.0242932e-05 1.0376476e-05 4.927121e-06 1.6881504e-05 4.5407087e-06 2.4399437e-06 5.664295e-06 2.9475336e-06
2.8986415e-05 2.2936116e-05 1.3929138e-05 4.0682673e-05 1.1104211e-05 4.6428363e-06 2.4917257e-05 4.359814e-06
3.3005836e-05 3.925757e-05 2.6669422e-05 6.997186e-05 2.5634383e-05 7.663997e-06 9.151037e-05 9.129898e-06
1.0812415e-05 1.0908036e-05 7.158167e-06 3.186969e-05 9.032411e-06 2.2890122e-06 1.9803087e-05 2.466579e-06
3.1493494e-06 3.9931547e-06 2.4995159e-06 6.439304e-06 2.507246e-06 7.2242506e-07 6.912711e-06 9.750285e-07
3.3471897e-06 4.443863e-06 3.6039671e-06 4.3174336e-06 2.7180279e-06 1.2860602e-06 1.3799015e-05 1.6526636e-06
6.3642533e-06 5.7185e-06 3.5019325e-06 1.48708195e-05 3.7675065e-06 1.3880491e-06 8.964728e-06 1.7115228e-06
5.1565763e-05 4.095462e-05 2.3986362e-05 7.497477e-05 1.9675294e-05 8.6198725e-06 2.03726e-05 8.417204e-06
1.1372618e-05 1.0599464e-05 6.177323e-06 8.735267e-06 6.4987507e-06 3.7379207e-06 1.5429865e-05 4.498247e-06
2.3773368e-06 1.5908805e-06 1.2326909e-06 2.0107375e-06 8.322255e-07 5.220202e-07 1.9481022e-06 3.6702477e-07
2.6970205e-05 2.2199285e-05 1.3294668e-05 4.167836e-05 1.3433556e-05 4.810074e-06 9.858014e-06 4.2103975e-06
4.605135e-07 4.818874e-07 2.9217458e-07 1.336713e-07 2.1138501e-07 1.8684408e-07 7.665628e-07 2.158585e-07
5.871877e-06 7.0764986e-06 3.7114694e-06 3.3592846e-06 2.9359423e-06 1.6811392e-06 6.1676137e-06 1.8424465e-06
1.20483155e-05 1.1261333e-05 7.3327174e-06 1.955788e-05 5.3442027e-06 2.9214752e-06 5.1360303e-06 4.42333e-06
3.1242714e-06 3.1013017e-06 1.5386507e-06 1.6539066e-06 1.471986e-06 8.9580874e-07 6.0986167e-06 1.0848256e-06
1.1073706e-06 1.3711752e-06 1.008985e-06 2.1442818e-06 1.0929454e-06 3.482406e-07 4.745958e-06 3.6820234e-07
1.6305845e-05 1.4800052e-05 8.411958e-06 1.9229514e-05 5.903145e-06 4.3733526e-06 8.366697e-06 3.9201286e-06
1.827697e-05 1.8933972e-05 1.1165681e-05 4.266718e-05 1.1488715e-05 3.3111908e-06 3.290066e-05 3.4229668e-06
3.0964009e-06 2.4207802e-06 1.5253322e-06 1.090401e-06 8.932919e-07 9.599808e-07 1.0260435e-06 9.572719e-07
2.4553947e-06 2.2786987e-06 1.5382673e-06 7.895539e-07 9.042363e-07 9.189224e-07 3.5964101e-06 8.476282e-07
2.8685818e-05 2.6120813e-05 1.4037332e-05 3.5081193e-05 1.1582932e-05 5.225995e-06 1.9524061e-05 4.979144e-06
1.1591646e-05 1.6207288e-05 8.800914e-06 2.25956e-05 8.286612e-06 2.977381e-06 1.1015815e-05 3.4402337e-06
1.7297268e-06 2.2303002e-06 1.4357719e-06 3.0106949e-06 1.4915173e-06 4.7119696e-07 6.4316077e-06 6.2741725e-07
1.03437005e-05 6.960003e-06 4.997805e-06 1.573484e-05 4.824825e-06 2.2274285e-06 4.213756e-06 1.9581091e-06
1.1297855e-07 1.01136976e-07 7.4557356e-08 7.034097e-08 7.741909e-08 3.094264e-08 3.3433588e-07 4.8549055e-08
2.7694623e-06 2.1497046e-06 1.2524454e-06 2.271905e-06 8.976014e-07 5.225885e-07 5.197576e-07 4.381336e-07
4.7062167e-06 4.517414e-06 3.257138e-06 3.9369993e-06 2.1463031e-06 1.4196818e-06 1.6319904e-06 1.9463325e-06
6.9749774e-07 8.744903e-07 7.156981e-07 1.2076163e-06 9.275079e-07 2.210169e-07 5.0555814e-06 3.2584634e-07
7.261229e-07 1.0103055e-06 5.8411126e-07 4.778673e-07 7.75894e-07 2.731235e-07 3.2274766e-06 3.4816398e-07

exp_avg f4 [128]
00000000: 5420 0cba c6b4 1239 0080 2bb6 a3a4 7839
00000010: 229f 323a 8780 0dba 0a6e 8fb9 b66b 7339
00000020: 9841 19ba b0ea 2e38 ffb6 35ba b497 0f3a
00000030: cea6 e0b6 ee99 e539 e8e7 a738 47c8 4f3a
00000040: 6ab3 beba b853 7739 93fb 8a38 e4d3 ddb9
00000050: dab4 1939 1b50 5639 c2c5 ec39 5060 543a
00000060: 512b 2eba 5ab1 6339 abab c239 4b37 adb8
00000070: 26c0 2139 c42b 633a ce23 f338 855b 0939
00000080: b366 25bb be82 7eb7 94ac d1b8 f8d1 c2ba
00000090: e3be 2a3a 49b9 6cb9 6a12 0038 8db4 2db9
000000a0: e002 1d39 e51e d6b9 674a b4b8 b64f d239
000000b0: 5a9d d9ba 8ae1 a5b9 4433 9239 b823 af37
000000c0: 43bc c839 b3c3 7e39 e2c1 a139 0c48 60b9
000000d0: 85d9 323a 0c7d 32b9 cd6f 98b9 8d58 93ba
000000e0: 44f3 9d39 42ab 61b9 5779 01ba 68d4 d039
000000f0: 247b 2b3a ce7f 0839 da80 4239 905d c838
00000100: 0ff0 a139 c074 f8b9 755d c0b9 ea84 573a
00000110: 48dc 0d38 2485 aab9 82a1 9238 15ac 9739
00000120: 8408 0cb9 77e2 ccb9 5a0b 85b9 dfe0 bb39
00000130: aae1 66b9 3b4c 9f38 d3ad a039 5648 9439
00000140: 676f b5b9 8ac0 2739 9ea2 44ba ec71 5639
00000150: a383 03b9 aeec e739 7d12 7239 303f b0b9
00000160: e4c4 1638 c4f9 a9b9 9ac0 f6b8 4c35 8fb9
00000170: dc2f 0139 e5a1 9439 cac6 7739 94f3 83b8
00000180: 4ead d2b9 604a 5bba 1d41 333a a0ba 8235
00000190: 043e 2839 39b7 223a f7d4 7ab8 790b 70ba
000001a0: c840 8638 1690 9d38 d244 4939 c14c 9139
000001b0: d4a8 6a38 14e9 6cba 23f0 56b9 c74d b1ba
000001c0: a57e 04ba 2a75 c038 dbd0 80b9 2dfe 093a
000001d0: 2388 2339 a6c9 07ba 4c30 28ba f819 1c38
000001e0: 78b5 80b9 8e1f 07bb 7aec 313a e0e6 7eba
000001f0: 2186 84b9 77fc cd39 9be4 c9b9 c449 91b8
-0.00053453934 0.00013990988 -2.5555491e-06 0.00023712455 0.0006813874 -0.0005397875 -0.0002735707 0.00023214411
-0.0005846261 4.1703403e-05 -0.00069318706 0.00054776226 -6.695139e-06 0.0004379297 8.0063764e-05 0.0007926267
-0.0014549319 0.00023586943 6.627212e-05 -0.00042310276 0.0001465859 0.00020438472 0.0004516077 0.000810151
-0.0006644028 0.00021714476 0.00037130466 -8.259582e-05 0.00015425737 0.00086658844 0.00011593812 0.00013099432
-0.0025238215 -1.5170021e-05 -9.998042e-05 -0.0014863601 0.00065134297 -0.00022575738 3.0534728e-05 -0.00016565826
0.00014973758 -0.0004084028 -8.5969274e-05 0.0004011371 -0.001660268 -0.00031639292 0.00027885486 2.0878259e-05
0.0003828724 0.00024296231 0.00030852767 -0.00021389144 0.0006822574 -0.00017021986 -0.00029074997 -0.00112416
0.0003012662 -0.0002152147 -0.00049390405 0.00039831107 0.00065414817 0.00013017582 0.00018549283 9.5541705e-05
0.0003088717 -0.00047389232 -0.00036690725 0.0008221405 3.3822173e-05 -0.00032524124 6.991906e-05 0.00028929175
-0.00013354613 -0.00039078642 -0.00025376194 0.0003583496 -0.00022018576 7.59591e-05 0.00030647087 0.00028282654
-0.00034606011 0.00015998087 -0.00075010385 0.0002045107 -0.00012542172 0.00044236094 0.00023085806 -0.00033616414
3.5946156e-05 -0.00032420282 -0.00011766069 -0.00027314795 0.00012320228 0.0002834938 0.0002362981 -6.291937e-05
-0.00040183443 -0.000836527 0.0006838011 9.74007e-07 0.00016044831 0.0006207112 -5.9802984e-05 -0.0009156983
6.4016844e-05 7.5131815e-05 0.00019194491 0.0002771374 5.594718e-05 -0.0009037417 -0.00020498088 -0.0013527208
-0.0005054272 9.177097e-05 -0.00024569672 0.00052640104 0.00015595606 -0.0005179889 -0.0006415888 3.7217484e-05
-0.00024549267 -0.0020618173 0.0006787252 -0.0009723734 -0.00025276936 0.00039288748 -0.00038508032 -6.927879e-05

exp_avg_sq f4 [128]
00000000: 03fb 4e36 62a1 e334 8260 a336 06c7 0337
00000010: 5961 8f37 4e8a fd37 8895 1737 42f0 3b36
00000020: e6ca 9136 9361 a936 8715 f337 7afb 4237
00000030: 662e ce35 5f31 7b37 2986 0e35 e12b aa36
00000040: 4744 3937 8dd1 4a36 aa10 ae35 aece 5437
00000050: d02d 5637 7f70 4936 28a8 2a36 9fe0 8c37
00000060: db73 3a37 b4c1 0836 2a45 db36 8136 ef33
00000070: d600 cc35 9f03 8b36 86a4 7d35 5a14 7835
00000080: febd a737 12ef ca33 e1f4 3f35 7dff c437
00000090: 3abb 4437 4ec9 bf36 b996 1635 73d2 5335
000000a0: 9157 b736 736c c937 fc6b 8d36 6059 4c37
000000b0: 8068 8737 bdfb 2836 bd3c 1a37 736f 4435
000000c0: c26f 8d36 b3fa 9836 f009 bb36 198e 9435
000000d0: 83c9 8737 ac74 1736 77c2 d735 2897 ad37
000000e0: 471a eb35 c77d 3637 f6b6 3937 14af ce37
000000f0: 9351 7d36 fe62 2736 eb92 1235 f56f 9535
00000100: 57ed 2437 ac70 6e37 a148 5237 fd98 4037
00000110: c2b5 ec37 ae10 3636 e549 6536 9f4d f735
00000120: b4a0 1635 8dce b936 f44d 0137 c072 8336
00000130: 6919 f436 66dc 0135 da8e 5737 7598 9736
00000140: f133 bb36 fa97 b136 c291 6937 73fe 3c37
00000150: 2fc6 ab35 f53b 3b36 be61 8a36 6861 4035
00000160: 953c a035 0c47 d637 f8df 5637 09f9 4936
00000170: a27e a434 b0ed 0536 134c f336 f800 8435
00000180: 9829 7036 0c52 8b37 d71e 1937 9369 1635
00000190: 6eeb ad34 f3fc 2437 8486 8134 779d 1b37
000001a0: 69ec 9637 5dcb 7d36 14e0 f034 7595 ad36
000001b0: 4d8a 3334 15df c836 acaf 7b37 0aa4 5837
000001c0: 3475 9036 ba9f 3737 cd78 5837 39b8 b436
000001d0: e871 a236 df91 e736 b5b5 8d37 b51c 5834
000001e0: ee3f 1b36 7c98 1538 78c5 5937 aa14 5137
000001f0: 41f9 7136 0126 6d36 5a65 8d37 2175 4434
3.08425e-06 4.2399466e-07 4.8690135e-06 7.854547e-06 1.709226e-05 3.0224353e-05 9.035117e-06 2.800502e-06
4.3449572e-06 5.0479516e-06 2.8977882e-05 1.16218525e-05 1.53617e-06 1.4972261e-05 5.309435e-07 5.071503e-06
1.1042756e-05 3.022232e-06 1.296886e-06 1.2684306e-05 1.27660605e-05 3.0016815e-06 2.5429854e-06 1.6793898e-05
1.1113439e-05 2.037833e-06 6.5347604e-06 1.1139219e-07 1.5199428e-06 4.1429444e-06 9.448926e-07 9.2416815e-07
1.9996423e-05 9.4498446e-08 7.150939e-07 2.3483992e-05 1.17261025e-05 5.7156785e-06 5.6098685e-07 7.890987e-07
5.464019e-06 2.4011568e-05 4.2146985e-06 1.2180157e-05 1.6141916e-05 2.5180482e-06 9.193257e-06 7.317787e-07
4.215138e-06 4.5591382e-06 5.574191e-06 1.1068215e-06 1.618709e-05 2.2568665e-06 1.6075345e-06 2.0693595e-05
1.7516512e-06 1.087733e-05 1.1069458e-05 2.463864e-05 3.774742e-06 2.494256e-06 5.460303e-07 1.1133949e-06
9.830422e-06 1.4212139e-05 1.2533886e-05 1.1479712e-05 2.821803e-05 2.7129822e-06 3.4166671e-06 1.8425525e-06
5.611321e-07 5.5374753e-06 7.707149e-06 3.917463e-06 7.274725e-06 4.8376967e-07 1.2848259e-05 4.517899e-06
5.579081e-06 5.2927035e-06 1.3921819e-05 1.1264917e-05 1.2798172e-06 2.790007e-06 4.124099e-06 7.166732e-07
1.1938561e-06 2.5543872e-05 1.2807541e-05 3.0096292e-06 3.0639518e-07 1.9956897e-06 7.2508205e-06 9.835048e-07
3.5786998e-06 1.6608297e-05 9.126691e-06 5.6032985e-07 3.239506e-07 9.834056e-06 2.4125995e-07 9.275383e-06
1.799148e-05 3.781831e-06 4.4866522e-07 5.173201e-06 1.6720988e-07 5.9864346e-06 1.5001668e-05 1.2912797e-05
4.3051787e-06 1.0944839e-05 1.2902729e-05 5.3858644e-06 4.8412367e-06 6.901318e-06 1.6893124e-05 2.0127011e-07
2.3134012e-06 3.566638e-05 1.2980185e-05 1.2462182e-05 3.6056883e-06 3.5337873e-06 1.6855705e-05 1.8296534e-07

exp_avg f4 [1, 2]
00000000: 3d6c 733b 7485 cebb
0.0037143372 -0.00630253

exp_avg_sq f4 [1, 2]
00000000: 00e8 be3b 0b5e e73b
0.0058259964 0.0070607713

exp_avg f4 [2, 128]
00000000: 3f9d 213b 3c41 4cbc 61ff 8fbc e4d2 613b
00000010: 3233 8cbb d0fb 30bb affa 2fbc 850c 683b
00000020: db45 b039 ad06 d739 22bb 2abc 5997 2bbb
00000030: 6c27 863a 1c96 be3b 50c8 ae3b 0b04 d23b
00000040: 9428 b33b b84b 6cba 00b1 2abb cfeb bc3a
00000050: 380d 84ba b9c8 f13b 7c74 023c 8820 d73b
00000060: 6a46 6d3c 0831 b3b8 cc13 adbb 6a15 0e3c
00000070: 60da b83b d621 093a aec8 c5bb 8c99 7dbb
00000080: a553 a13c d13a e83a 057c 4abc f141 613b
00000090: aad9 1fbb fedc 91bb 9825 083a cf2d 623b
000000a0: f391 f43a febe 78bc 22e6 66bc 85e8 8fbb
000000b0: 20fd 463b 1115 9e3b eb95 a2bc 3a6f 5fbc
000000c0: 1512 f33b 6f86 e1ba 30e1 e33a 038e e03a
000000d0: 634b 853b ee17 88bc 56ba 05bb 2136 b53b
000000e0: e827 3dbc b7f6 013b a562 1a3c 1db6 d2ba
000000f0: aa74 9b3a 461f 7c3b 7eaf 4039 fb86 47bc
00000100: 11c3 f7ba 6c66 debc 3cc5 c83b 28ad 8b3a
00000110: c583 88bb 8dc3 2d3c 5cbb 67bc ac48 05bc
00000120: 8dbf 653b f742 fdbb cc4d acbb 6b4f 8eba
00000130: a80a 29bc c04a ecbb d89c 6f3a 5844 0339
00000140: f2b8 94bc 6d53 57ba f45f 8bbc 59a7 f0bb
00000150: 49d2 e5ba bd27 e93b 7e7e 35bc 13e9 ee3b
00000160: a4fa 09bc 9141 3dbb 4a29 f3ba d7af 8bbb
00000170: 1cd0 a5bc 143a cfbb 8e4a e13a 290b f9bc
00000180: f84f 0fbb 0ed8 183c 08e8 a0ba 3037 fa3a
00000190: 7182 c0bb 5052 853a 11a9 21bb 7890 a93c
000001a0: 98aa 8ebb a2a6 b23c 36d1 05bc 1c41 bebb
000001b0: b2c9 47bc 1516 553c b6f0 0dbb 7cd3 813b
000001c0: fc17 f03b f4de d13a cd3f 0bbc c74e 32bc
000001d0: f20b 98bb ba6a 81bc 2ea3 1d3c 030f 03bb
000001e0: df64 95bb c89d 103b f9de 46bc 4793 4b3c
000001f0: 5b6b a3bb 597c 0cbc b3a6 b3bb e330 48bc
00000200: 8f2f ad3b 5d8e aa3b 9f11 ba3b a656 4c3c
00000210: fc78 2cbc 4e8f 0e3c 98af 603b b242 823c
00000220: 187c c33b 960c bd3b 80ec bab7 bbbe a43a
00000230: 7ee8 69bc 541e 5d3a b20c c63b aeb1 dc3b
00000240: 9936 543c 7079 8cbb d1c2 3e3b dead d33a
00000250: 9c35 463c f4d8 96b8 7a2b 483b b5db bb3b
00000260: 97e2 963c c860 853b 0558 51bb 1d04 bd3c
00000270: b9a4 873b 6d9b 033c 1611 40b9 f7d6 d03a
00000280: c625 d93c 0ae4 863b a8e4 a2bc ca5a 123c
00000290: 3e6a 2b3c c8a0 aaba 1b22 053b 89ca cebb
000002a0: 30fb 813a e832 c6b9 d070 9d3b ace0 d43b
000002b0: 68e4 513c 24a7 183c 2752 92bb 4b63 c6bb
000002c0: 4287 f13b a149 843b cbb4 32bb 13fb 90bb
000002d0: fecf 3f3c f8e5 fc38 467e 953a dbb5 393c
000002e0: a0c4 aebb bb8c 59bc c096 263c 386a 75bc
000002f0: 8424 b2bb 874f 163a df93 833c 669a 95bc
00000300: 826f df39 9bae 7cbc 71e5 1a3c 1606 cab9
00000310: e2d9 dd3a 3912 503c 8451 43bc 0ee4 8c3c
00000320: 1f6c 5f3c aefc b7bc c4dd 0c3b c88e 23bc
00000330: 3ad5 dcbb 9d1e 0bbc e875 e1bb 3e28 423b
00000340: b088 5dba 1bf4 263b e859 80bc c0e9 91ba
00000350: c584 38bb c089 6cbb 7293 9f3b 6800 203c
00000360: 201b 29bc fe80 a7bb 6c6c 0bb9 6594 b1bb
00000370: 021b c0bc 63f9 09bc cc55 f23a 3ac7 e8bc
00000380: 88cf 38bc 3eb1 fa3b 2864 7b3b f062 cf3b
00000390: f05c 62bc 1ba4 ea3b e53f 0d3c 3c03 903c
000003a0: 8012 82ba e2c2 743c e0f4 7ebc 382a 01bc
000003b0: f355 0dbc ccf3 793c 19e2 9abb 481b 413c
000003c0: 747e 1d3b 446e 823b 9ac7 4ebb d742 8dbc
000003d0: 6460 cbbb a492 c9bc 04aa 9b3c 63cd 51bc
000003e0: 83f9 95bb 324d 443c 4b20 3c3c cac2 d13b
000003f0: 5a64 76bc 4978 94bc 8c5d 75bb 2b8a 443c
0.0024660376 -0.012466725 -0.017577829 0.0034457976 -0.004278564 -0.002700556 -0.01074092 0.0035407853
0.00033621382 0.0004101297 -0.0104205925 -0.002618274 0.0010235137 0.0058162343 0.0053339377 0.0064091734
0.005467484 -0.00090139685 -0.0026045442 0.0014413538 -0.001007474 0.0073786643 0.007962342 0.0065651573
0.01448212 -8.544518e-05 -0.005281901 0.008672098 0.0056412667 0.0005231177 -0.006035886 -0.0038696257
0.019693205 0.0017717724 -0.01235867 0.003437158 -0.0024391213 -0.004451393 0.000519359 0.0034512167
0.0018659219 -0.015182255 -0.014092954 -0.004391732 0.0030363277 0.0048242887 -0.019846877 -0.013637358
0.007417927 -0.0017206202 0.0017385837 0.0017132167 0.0040678247 -0.016612973 -0.0020405254 0.0055301343
-0.011545159 0.0019830891 0.009422933 -0.0016076003 0.001186033 0.003847079 0.00018375923 -0.012178178
-0.0018902739 -0.027148448 0.006127028 0.0010656463 -0.004166099 0.010605705 -0.014143791 -0.008135002
0.00350568 -0.00772893 -0.0052582975 -0.0010857409 -0.010317482 -0.0072110593 0.0009140498 0.00012518594
-0.018154595 -0.00082140305 -0.017013527 -0.007344168 -0.0017533983 0.007115333 -0.011077521 0.007290968
-0.008421574 -0.0028878192 -0.0018551734 -0.004262905 -0.020240836 -0.006324062 0.0017188357 -0.03040083
-0.0021867733 0.009328855 -0.0012276182 0.0019089933 -0.005874925 0.0010171626 -0.0024667422 0.02069877
-0.0043538325 0.021807972 -0.008167556 -0.0058061015 -0.012194084 0.013005753 -0.0021658367 0.0039619785
0.007327078 0.001601188 -0.008499098 -0.01088304 -0.004640096 -0.015797962 0.009621425 -0.0019997961
-0.004559144 0.0022066701 -0.012138122 0.01242525 -0.004987163 -0.008574569 -0.0054825186 -0.012218687
0.0052852104 0.0052049593 0.00567837 0.0124718305 -0.010526892 0.008701159 0.003428435 0.015900943
0.005965721 0.0057693226 -2.2283057e-05 0.0012569049 -0.014276622 0.0008435 0.006043994 0.0067350483
0.01295247 -0.0042869374 0.002910782 0.0016149839 0.012097742 -7.192968e-05 0.0030543492 0.005732978
0.018418593 0.004070375 -0.0031943333 0.02307325 0.0041395095 0.008032662 -0.00018316912 0.0015933205
0.02650727 0.00411654 -0.019884422 0.008932779 0.010462342 -0.0013017887 0.0020314518 -0.006310765
0.0009916779 -0.0003780343 0.004804708 0.0064965095 0.012810804 0.009317193 -0.0044653597 -0.006054317
0.0073708603 0.0040370976 -0.0027268406 -0.0044244616 0.011707304 0.000120591314 0.001140543 0.011334862
-0.005333498 -0.013278182 0.010167778 -0.014978938 -0.005436482 0.00057338964 0.016061721 -0.0182621
0.00042616954 -0.015422489 0.009454117 -0.00038532977 0.0016925896 0.012699657 -0.01192129 0.017198589
0.013636618 -0.022459354 0.0021494487 -0.009982772 -0.006739286 -0.0084911855 -0.0068805106 0.0029626037
-0.0008450849 0.0025475088 -0.01566787 -0.0011132285 -0.0028155309 -0.0036092848 0.004869872 0.009765722
-0.0103214085 -0.0051118126 -0.00013296463 -0.0054193013 -0.023450378 -0.008421275 0.0018488704 -0.028415311
-0.011279948 0.0076505234 0.0038359258 0.006328933 -0.013816103 0.007160676 0.008621191 0.017579667
-0.0009923726 0.014939042 -0.015561312 -0.007883601 -0.008626449 0.01525588 -0.00472666 0.0117862895
0.002403167 0.00398043 -0.0031552077 -0.017243786 -0.006206559 -0.024606057 0.019001968 -0.012805316
-0.0045768633 0.011981295 0.011482309 0.0064013945 -0.015038574 -0.018123763 -0.0037439791 0.011995832

exp_avg_sq f4 [2, 128]
00000000: 325d 9e39 22ac 3e3b 6b97 653b b96f 903a
00000010: fe07 ac3b 107a 013b d5b7 6f3b 41bd 4e3a
00000020: 3f3a 0c3a 4608 7739 d0fd 383b dca6 6439
00000030: d112 f53a efb9 833b cef5 a239 d191 9739
00000040: ff28 b23a 2605 7439 e78e f33a 942d a639
00000050: 06fd fe3a 9ae8 863a 54fe 0d3a 8a07 4e3b
00000060: bb05 7b3a aede 9d39 df87 243a b5a9 f13a
00000070: f0be 513b 4315 7839 b951 503a 187c d039
00000080: 9623 f03a 88e4 333a 02bb aa3a 7ae7 893a
00000090: 5a7c a43a 4683 6a3a a167 203a 9210 613a
000000a0: 9ac7 8139 30ac 6d3b b8c3 8d3b 2652 f43a
000000b0: eafa 0b3a c462 173a b49b 5b3b 2bb8 283b
000000c0: 31ce b439 bff8 2a3a 0cd2 ba3a 346f 6d39
000000d0: c6b4 8c3a 1bab 3f3b 2054 113a 07e7 103a
000000e0: ca6d 2f3b 5a69 0f3b dca4 e239 9058 ee3a
000000f0: 6d7d 9f39 5099 043a 7950 813a 04f5 543b
00000100: 83fe 6a3a e30d 0a3c eb3e 943a 274b 0d3b
00000110: 26e2 133a 2c6d c53a 571b 9f3b f72e 533b
00000120: 330e 923a 1204 fc3a 774f 613a 833c 9e3a
00000130: 395c 4e3a 483e 253b 5406 843b a272 4939
00000140: 2567 7b3b 6316 4439 0b62 ae3a 0421 783a
00000150: 5f47 a13a 30e0 ee39 c59e 1a3b c69f 173a
00000160: f090 283b 1a71 303b 1a98 9939 190d 5f39
00000170: 023e 0e3b 4b37 263b 80ff d43a 0281 ad3b
00000180: 1e97 873a 1542 643a 67e0 133a 0945 8339
00000190: 75a1 113a 1ddc de3a 6551 143b d789 b83a
000001a0: edb9 8f3a bb32 ef3a bce7 813a 195c 5e3a
000001b0: 5525 263a e0bb ef39 5859 c339 4952 ac39
000001c0: d623 5b39 7bda 5b39 ae79 173a 4312 7b3a
000001d0: 8a79 853a 7fd1 fe3b 85b9 fd39 f0ba 1f3a
000001e0: 1076 513a eed2 4b3a 4a72 2f3b 9a3d c53a
000001f0: cb8f d03a b09f 5d3b a2fd a339 6e17 983b
00000200: 1aee a839 9571 613b b02f a93b 0e62 9c3a
00000210: 2efc b13b cab8 aa3b 8e04 1f3c 4f7e af3a
00000220: a99d 313a fe78 9a39 fce9 c93b 0b30 6439
00000230: f3d5 eb3a 79b4 9b3b 2b19 c739 82f6 b139
00000240: 6fba c43a 62d0 a439 7976 023b b344 c339
00000250: 42aa 3f3b 1c0d 973a 66fd 283a b6b0 433b
00000260: db06 e53a 1216 d039 b016 4d3a 4517 2b3b
00000270: bc55 593b 93b1 9739 f7db 7f3a 76b0 f539
00000280: 848e 5f3b c762 4d3a 0793 c93a abb3 f13a
00000290: e8e3 e43a 0e2c 723a 77b8 223a 7fcf 5c3a
000002a0: fbd9 9439 3c6c cc3b 9a8f f73b 9e52 ed3a
000002b0: b880 813a 422c 553a 0a37 ed3b abeb 5d3b
000002c0: 0911 ba39 a068 253a 07f0 b43a 90d8 7039
000002d0: 0706 983a 02a8 933b eda5 1d3a cfb5 983a
000002e0: e299 6d3b 6372 183b 0596 fa39 114e ed3a
000002f0: 902c ba39 3072 143a 1106 ad3a febd 9f3b
00000300: 2a86 713a 0339 623c 3c7c 983a 93c9 043b
00000310: 3d03 3c3a 9c11 dd3a 5c81 153c a260 743b
00000320: 3b21 e33a cc52 073b a8eb dd3a 6d15 983a
00000330: 492c a03a 38bd 2c3b 82ad 963b 3464 7f39
00000340: e936 ad3b 46da 5c39 df39 c83a e41d 883a
00000350: 35ad 9f3a 9663 fe39 2327 503b 6f28 2e3a
00000360: b9e5 753b ad74 733b 6695 d439 e1e3 7a39
00000370: bd2f 2a3b 3530 283b 5c66 d33a 8145 003c
00000380: 0e2b 933a 8801 6a3a 9b41 173a b5cf af39
00000390: b699 123a cdaf 063b 786b 4e3b 9347 223b
000003a0: 8ebd 983a d5fa 2c3b 3d5d 823a 58b5 833a
000003b0: 7ace 313a 41ac 443a f526 043a dc68 2f3a
000003c0: ca30 8839 caa8 8839 a4c7 b83a 012c 903a
000003d0: d227 933a 20cd 313c 5e36 3c3a 3997 1b3a
000003e0: 3e85 6a3a e5d6 ff3a 5fa6 a13b fa97 003b
000003f0: 2a00 163b 3833 683b fe7c e239 6419 013c
0.00030205544 0.0029094298 0.003503288 0.0011019624 0.005249976 0.0019756593 0.0036578078 0.00078864774
0.00053492555 0.00023558838 0.0028227456 0.00021805934 0.0018697624 0.0040199677 0.00031082187 0.00028909606
0.001359254 0.00023271571 0.0018582017 0.00031695946 0.0019454069 0.0010292709 0.0005416621 0.00314376
0.0009575744 0.00030111283 0.000627635 0.0018437417 0.0032004677 0.00023659044 0.0007946748 0.0003976531
0.0018321152 0.0006862362 0.0013025703 0.0010521256 0.0012549267 0.0008945953 0.00061189575 0.0008585538
0.00024753512 0.0036265962 0.00432631 0.0018640205 0.00053398183 0.000577491 0.0033509554 0.0025744538
0.000344859 0.00065220514 0.0014253273 0.00022643508 0.0010735027 0.0029246274 0.00055438466 0.000552759
0.002676832 0.0021882863 0.0004322891 0.0018184353 0.00030420293 0.0005058246 0.0009865902 0.0032494674
0.0008964317 0.008426162 0.0011310255 0.0021559687 0.0005641304 0.0015062443 0.004855554 0.0032224038
0.0011143148 0.0019227287 0.000859491 0.0012072477 0.00078720186 0.0025214124 0.0040290747 0.00019211558
0.003836104 0.00018700356 0.0013304366 0.0009465369 0.0012304595 0.0004556193 0.002359317 0.0005784001
0.0025721155 0.0026922883 0.0002929576 0.00021271817 0.002170444 0.0025362547 0.0016250461 0.00529492
0.0010344719 0.0008707357 0.00056410435 0.00025037702 0.000555537 0.0017002855 0.0022631523 0.0014079165
0.0010965444 0.0018249372 0.0009910981 0.00084823515 0.00063379604 0.0004572561 0.00037259865 0.00032867704
0.00020898817 0.00020966858 0.00057783246 0.00095776113 0.0010183316 0.0077764387 0.00048394143 0.00060932245
0.000799031 0.00077752664 0.0026771002 0.0015048266 0.0015911994 0.0033817105 0.00031278754 0.004641465
0.00032220857 0.0034399976 0.0051631555 0.0011931078 0.0054316735 0.005210017 0.009705676 0.0013389083
0.00067755074 0.00029463315 0.0061619263 0.00021761672 0.0017992839 0.0047517386 0.0003797499 0.00033943733
0.0015009175 0.00031435775 0.001990704 0.00037244483 0.0029245769 0.0011524293 0.0006446451 0.0029859967
0.0017473357 0.00039689295 0.000782351 0.00261064 0.0033162674 0.00028933267 0.00097602553 0.00046861515
0.0034112046 0.00078348484 0.00153789 0.0018440386 0.0017462941 0.0009238132 0.0006207297 0.00084232533
0.00028391168 0.0062384885 0.0075549604 0.0018106287 0.000988028 0.00081319 0.007239227 0.0033862393
0.00035489377 0.0006309841 0.0013804444 0.0002296886 0.0011598476 0.004506112 0.00060137996 0.0011650863
0.0036255051 0.002326154 0.0004779549 0.0018104931 0.00035509886 0.0005662767 0.001320066 0.0048749438
0.00092134124 0.013807538 0.0011633704 0.002026175 0.00071721134 0.001686621 0.00912508 0.0037289043
0.0017328629 0.0020648716 0.0016931193 0.0011603065 0.0012220229 0.00263579 0.0045983205 0.00024356024
0.005286087 0.00021062148 0.0015276036 0.0010384885 0.0012182357 0.00048520853 0.0031761609 0.00066435983
0.0037520959 0.0037148402 0.00040547102 0.0002392675 0.0025968396 0.00256635 0.0016128528 0.007829071
0.0011228041 0.000892662 0.0005769969 0.00033533355 0.0005592363 0.0020551563 0.0031497162 0.00247619
0.0011653171 0.0026394625 0.0009946 0.0010048551 0.00067827816 0.00075024745 0.00050412054 0.00066913455
0.00025976292 0.000260657 0.0014097583 0.0010999442 0.0011227077 0.010852128 0.0007179732 0.00059353147
0.0008946246 0.0019519 0.004933163 0.0019621835 0.0022888281 0.003543092 0.00043199206 0.007879589

exp_avg f4 [2]
00000000: c80f 7e3c fadc 233b
0.015506692 0.0025003538

exp_avg_sq f4 [2]
00000000: 44b8 913b 2acf b03b
0.004447015 0.0053957896
