results/baseline-test/3DBall/3DBall-449720.pt (torch, 49284 bytes, 32 tensors)

network_body.observation_encoder.processors.0.normalizer.running_mean f4 [8]
000000 9f 6d cf b9 27 59 93 3a a1 29 73 be 5a ed 43 40
       -0.0003956379 0.001124178 -0.23746349 3.0613618
000010 6c 36 e0 bd 1d 82 ce bb f6 a9 9c be 11 6a 76 3c
       -0.1094788 -0.006302132 -0.3059842 0.015039937

network_body.observation_encoder.processors.0.normalizer.running_variance f4 [8]
000000 89 39 91 44 3e 04 7c 44 36 61 54 48 29 13 84 46
       1161.798 1008.0663 217476.84 16905.58
000010 57 41 3b 48 bd 68 f1 47 62 7b 3c 48 9f 1b cb 47
       191749.36 123601.48 193005.53 103991.24

network_body.processors.0.normalizer.running_mean f4 [8]
000000 9f 6d cf b9 27 59 93 3a a1 29 73 be 5a ed 43 40
       -0.0003956379 0.001124178 -0.23746349 3.0613618
000010 6c 36 e0 bd 1d 82 ce bb f6 a9 9c be 11 6a 76 3c
       -0.1094788 -0.006302132 -0.3059842 0.015039937

network_body.processors.0.normalizer.running_variance f4 [8]
000000 89 39 91 44 3e 04 7c 44 36 61 54 48 29 13 84 46
       1161.798 1008.0663 217476.84 16905.58
000010 57 41 3b 48 bd 68 f1 47 62 7b 3c 48 9f 1b cb 47
       191749.36 123601.48 193005.53 103991.24

network_body._body_endoder.seq_layers.0.weight f4 [128, 8]
000000 b3 4d cc bd 39 19 82 be c4 89 01 bd 68 67 3d 3d
       -0.099757574 -0.25409868 -0.031625524 0.046241194
000010 6d 3c a3 3d 01 7c 06 bf e9 06 ce 3d 01 aa b8 3e
       0.0797051 -0.52532965 0.10059912 0.36067203
000020 0f e0 1f 3f 4b e5 4b 3e c2 9c 88 3e 04 6a 6b 3e
       0.6245126 0.19911687 0.26682097 0.2298966
000030 3c 06 72 bf 78 08 8c be bf c1 3c be de 49 13 3e
       -0.9454076 -0.2735021 -0.18433283 0.14383647
000040 5a da a9 3e 01 bd f8 bd ad 12 c2 3e 72 11 18 3f
       0.33174402 -0.12145425 0.37904873 0.5940162
000050 70 03 23 bf b7 54 03 3e 09 52 9f be 98 e9 eb 3d
       -0.6367712 0.12825285 -0.31117275 0.11519164
000060 0b c4 1b 3f 4a 21 d8 bd 3f 7b 4c 3e 85 f4 65 3e
       0.6084601 -0.105532244 0.1996889 0.22456558
000070 c8 53 17 bf be d4 5a be 5f f1 93 3e 45 de b7 be
       -0.59112215 -0.21370217 0.2889509 -0.35911766
000080 39 7d 78 bf 22 37 18 3f 03 ec 95 3d f8 00 bf 3e
       -0.97066075 0.59459126 0.07320406 0.37305427
000090 ae 1f 1d be c5 6f d1 3c 40 df 4f 3e f2 20 c0 3e
       -0.15344116 0.025565991 0.20300007 0.37525135
0000a0 e2 43 00 3f e3 0a b3 3e 45 f1 5f be c1 e5 03 3f
       0.5010358 0.34969243 -0.21869381 0.5152245
0000b0 7d 9b f7 3e f3 0c 09 bf 43 65 7d be 18 a7 ac be
       0.48360816 -0.53535384 -0.2474566 -0.33721232
0000c0 66 d5 e4 3e df 97 60 3e a6 52 1b be 9c af 66 3f
       0.4469406 0.21932934 -0.15168247 0.9011171
0000d0 aa 5d 52 3f 6d 14 30 3f 63 bf cf 3d ca 3d 0e be
       0.8217417 0.6878117 0.10143926 -0.13890758
0000e0 62 50 3d 3e e0 a0 8e 3e de ed f6 3e 10 03 61 3e
       0.18487695 0.27857113 0.48228353 0.21973825
0000f0 a6 32 46 3e 39 33 8c 3e 63 63 58 3b 0b 20 34 be
       0.19355258 0.2738283 0.0033018223 -0.17590348
000100 55 dc 16 3e 2e 9d 9e 3d 4c 26 47 bb 73 f1 9b bd
       0.14732487 0.077448234 -0.0030387817 -0.07614412
000110 37 50 fb bd 5f 8b 3f bf b1 98 64 be be 87 b2 3e
       -0.12271159 -0.7482204 -0.22323872 0.34869188
000120 aa 54 11 3d 63 11 29 ba 76 27 58 3e 46 04 35 3e
       0.035481133 -0.0006449429 0.21108803 0.17677411
000130 be f2 d3 bd b8 d0 8b 3d 37 90 11 3d 4b d9 be 3e
       -0.10349034 0.06826919 0.035537925 0.37275156
000140 0f 54 38 3e 31 37 1d 3d 9d 61 fb be 9c 68 6e 3f
       0.18000816 0.038382713 -0.4909791 0.9312837
000150 c1 01 6f bd 2e fa d8 be ef 43 f1 3e ab d4 b4 be
       -0.058351282 -0.42378372 0.47122142 -0.35318503
000160 df a9 a2 3d 17 0f a5 be 83 44 5b 3e ed 16 d5 bd
       0.079425566 -0.32238075 0.21412854 -0.10404763
000170 39 8d 14 be ef f7 ef 3e 8f 69 1a 3d b8 43 89 be
       -0.14506997 0.46868846 0.037698325 -0.26809478
000180 cf da 1e bf a4 b6 a3 3e 27 1e 0b bf 8e 86 00 3d
       -0.62052625 0.3197528 -0.54342884 0.03137832
000190 03 f4 8a 3e 68 aa 88 bd 10 32 82 3d 44 ca 1e 3e
       0.2713929 -0.066731274 0.06357205 0.15506846
0001a0 28 8c 28 bf d1 03 3b 3f 42 56 40 3d 4f 34 d3 3e
       -0.6583886 0.730527 0.04695726 0.41250846
0001b0 7a 6d 2c 3f 6c 27 c7 3e d2 a5 e4 3e d4 85 00 3e
       0.6735455 0.38897264 0.4465776 0.12551051
0001c0 7a 9d 13 3e 2b 0a d1 be 43 3b 31 3e 92 21 de be
       0.14415541 -0.4082807 0.17307763 -0.43384987
0001d0 0e a8 a3 be d1 75 e3 bd 4b 25 a1 bd 6a 45 ce 3d
       -0.31964153 -0.11106456 -0.07868441 0.100718334
0001e0 0e 7f 7d be a5 a3 a2 3e 98 a5 e4 3e ee 56 8e be
       -0.24755499 0.31765476 0.44657588 -0.27800697
0001f0 eb 56 9d bb ab 19 9f 3e ff a3 22 3e ce bd 82 3e
       -0.004801621 0.3107427 0.15882872 0.25535434
000200 e4 e0 32 3f a4 76 16 3d be 8c b6 3d 9e c5 36 3e
       0.69874406 0.03673424 0.08913563 0.17848822
000210 67 f1 c0 be 39 e9 84 bd c7 f6 b0 3e e5 20 77 3e
       -0.37684175 -0.06489796 0.34563276 0.24133642
000220 44 65 55 3e 90 fe 28 3e c4 a1 19 be 76 b9 5e be
       0.20839411 0.16503358 -0.15003115 -0.21750435
000230 42 7b 31 be e6 bc 35 3e 09 c6 df bd 79 81 83 3e
       -0.17332175 0.1774784 -0.10926444 0.25684717
000240 38 19 36 bd 9e 05 47 3e a3 61 94 3e db 0f 42 be
       -0.044457644 0.19435737 0.2898074 -0.18951361
000250 e6 11 ea 3e a2 c5 d8 3d 24 76 ff be 7c eb 29 be
       0.4571678 0.105845705 -0.49894822 -0.16593736
000260 ab 10 80 3e 44 0c 04 bd 6c b5 b9 be 99 ba 16 3e
       0.25012717 -0.03223826 -0.36271226 0.14719619
000270 ed fd 25 be f0 55 f2 be e0 12 e3 3d f1 cf 96 be
       -0.16210146 -0.4733119 0.110875845 -0.29455522
000280 be fe 44 be fa 50 0b 3f d2 7b ac 3e a5 94 ce 3e
       -0.19237801 0.54420435 0.33688217 0.40347782
000290 c7 24 73 3e b1 34 a8 bd 59 7c c2 bd ec f2 75 be
       0.23744498 -0.08213175 -0.09496374 -0.24018449
0002a0 33 cb 12 3f 32 09 0b be ca 01 14 bf 1b 1e 8d be
       0.5734131 -0.13577726 -0.5781523 -0.2756203
0002b0 f7 e2 a0 be e8 1a c4 3d 33 57 a2 3e 13 b4 4a 3e
       -0.3142316 0.095754445 0.31707153 0.19795255
0002c0 ba 91 bc be 90 ba fe bd 38 12 35 3e f1 7a 23 bf
       -0.3682993 -0.12437928 0.17682731 -0.6385947
0002d0 b1 ee cc be c7 ff d7 be 70 e7 df bd 2f 7b 2f 3f
       -0.40025857 -0.4218733 -0.10932815 0.6854734
0002e0 ef 20 1c bf b1 ad 68 3f e6 76 5f 3e aa 6f f3 3d
       -0.6098775 0.9089003 0.218227 0.118865326
0002f0 c8 48 e9 3d de b1 43 3e 62 86 70 3e 56 6f a6 3e
       0.11390835 0.1911082 0.23488763 0.32506818
000300 62 11 cb 3d 1d ea 34 3f d2 48 c1 3d d6 38 f6 bb
       0.09915425 0.7066973 0.094377175 -0.0075140996
000310 e9 54 be 3e 6f bc 98 be dc 87 1f 3e 6c 6c 49 bd
       0.37174156 -0.29831263 0.1557917 -0.049175665
000320 06 0f 00 3e 1f b0 7e 3e 1c f9 35 3e 31 cd bd bc
       0.12505731 0.24871872 0.17770809 -0.023169132
000330 c0 8c ca bd d1 ad 0e 3e 91 84 ec bd 31 bf cc be
       -0.09890127 0.13933493 -0.115487225 -0.39989617
000340 fd bd b2 be c3 80 6c bc 6d 96 82 3e 0f f2 8f 3e
       -0.34910575 -0.014434996 0.2550539 0.28114364
000350 4c c3 fe 3d 10 cb c3 3e f7 56 9e 3e 06 9c 37 be
       0.12439594 0.38240862 0.30925724 -0.17930612
000360 e2 54 51 3f 87 d0 53 bf 27 b8 00 3f c4 51 b8 be
       0.81770146 -0.8274006 0.50280994 -0.35999882
000370 ba 13 5d bd ff cd 1c 3f b7 1d b1 be e6 3a b6 3e
       -0.05397389 0.61251825 -0.34592983 0.3559181
000380 44 53 84 bf bc 41 1a 3f 1a 31 5d 3e d5 59 e1 3c
       -1.0337911 0.6025655 0.21600762 0.027508656
000390 ae a3 54 3e 9a 26 d2 be e7 8e 27 3f 87 ca 86 3e
       0.20765564 -0.41045076 0.65452427 0.2632639
0003a0 72 f9 53 be 83 96 8e be 1d 37 0a 3f b7 93 26 bd
       -0.20700625 -0.27849206 0.53990346 -0.040668216
0003b0 f0 52 f5 bd 7c 13 a0 bd 57 4b d7 3e 61 03 e2 3c
       -0.1197871 -0.07816216 0.42049667 0.027589502
0003c0 f4 06 22 3d 60 8e c0 be 88 d3 60 3e 3d 05 0e be
       0.039557412 -0.37608624 0.21955693 -0.13869186
0003d0 e7 bb f9 3c f9 ec 91 bc ba 94 d3 be 86 3d 98 be
       0.030485107 -0.017813193 -0.41324407 -0.2973444
0003e0 20 15 57 bc bd 88 0b bf 2f ae 02 3e bc cd ac be
       -0.013127595 -0.5450552 0.12761758 -0.33750713
0003f0 73 74 05 3e 9e 6f 0f 3d c9 44 4a be 1f 85 80 be
       0.13032703 0.035018556 -0.19752802 -0.25101563

network_body._body_endoder.seq_layers.0.bias f4 [128]
000000 65 d9 86 bd c9 69 94 bd fc 2d 24 bd ff 7a 0f bd
       -0.065844335 -0.072467394 -0.040082917 -0.035029408
000010 91 b0 b4 3d eb 4b 03 3d 21 e2 4e 3d b6 7e 17 3d
       0.0882274 0.032054823 0.050508622 0.036986075
000020 d6 85 f8 3b 7f f1 73 3d 64 b7 f6 3c 66 7c 8d 3c
       0.007584314 0.05955648 0.030116744 0.017271232
000030 c4 af 04 bd 5f 1e 07 3e 93 52 76 bd 97 26 ba 3d
       -0.032394186 0.1319518 -0.060137343 0.09089392
000040 3a 3d 35 3d c4 6d 61 3d 4b 8f 98 3d 65 7a 5a bd
       0.044247843 0.05503632 0.07449206 -0.05333938
000050 4b 79 46 3d cc 94 89 bd 73 78 5f 3b 5b e2 03 3e
       0.048455518 -0.06717834 0.0034098893 0.12879317
000060 7e f2 c6 3d 4e 2a 07 3c 28 b7 10 3d 9d e6 bc bd
       0.097142205 0.008249832 0.03533092 -0.092236735
000070 2d 77 79 3d 86 5a 85 bc 3a a8 33 3b 47 af 32 bd
       0.06090467 -0.016278517 0.0027413503 -0.04362419
000080 65 d3 83 3d 96 f8 5a bd 3c 9a 4e bd d8 22 98 3d
       0.06436805 -0.053459726 -0.050440058 0.07428521
000090 ac 05 ec bc 89 ff 9f 3c 0c 88 05 bd 22 9a 3d bd
       -0.028811298 0.019531028 -0.032600448 -0.04628957
0000a0 90 f1 19 bc c5 b6 98 3d 0a 05 a8 bd 2f 27 85 3d
       -0.009395972 0.074567355 -0.08204086 0.06501614
0000b0 ac 3f 38 3d e2 b0 13 bb e3 ac 80 bc b1 07 a1 3b
       0.044982597 -0.002253585 -0.015707439 0.004914247
0000c0 f0 09 c5 3d c6 cd 8d 3d c3 b8 79 bb 77 4c be bd
       0.09621036 0.06924014 -0.0038104511 -0.09291928
0000d0 c8 fc 0c 3d 95 e6 21 3c 11 11 da bd e6 b9 b4 3d
       0.03442076 0.009881635 -0.106477864 0.0882452
0000e0 5f a1 82 bc f4 0d 84 3d 42 a0 03 3e 9e 70 a6 3d
       -0.015946088 0.06447974 0.12854102 0.08126949
0000f0 bb 1a 7f 3d 8f db e0 ba 6c 28 b5 bc 80 22 bc 3c
       0.06228135 -0.0017155277 -0.022114001 0.02296567
000100 2c 4a b7 3c 8f 98 1c bb f9 61 ae bc f0 72 8b 3d
       0.022374235 -0.0023894643 -0.021286951 0.06809032
000110 bb 16 a4 bc bd 57 86 bc b9 c8 5f 3d f7 35 49 bd
       -0.02003037 -0.016399259 0.054634783 -0.04912373
000120 96 a5 ad bd 00 f3 82 3c 5e b6 34 bc 57 e0 6c 3d
       -0.08478849 0.015985012 -0.011029808 0.057831135
000130 2f b8 1e bd 0b 02 41 3d 54 df 06 3d 84 80 92 3d
       -0.03874987 0.04712109 0.032927826 0.07153419
000140 5b 60 3f 3d 60 11 21 bd 82 7d 30 3d 93 f3 42 3d
       0.04672275 -0.03932321 0.043088444 0.04759557
000150 d9 8b 96 bd af 23 37 3d 95 4f 4e bb bc e7 47 bc
       -0.073508926 0.044711765 -0.003148054 -0.012201246
000160 98 66 04 bd 72 2b d6 3d 19 71 97 bd d0 1c 4c bd
       -0.032324404 0.10457505 -0.073946185 -0.049832165
000170 cc 49 01 bd dd bb 92 3c 1e 6c a3 3d ce 6a fc bc
       -0.03156452 0.017911846 0.07979606 -0.030812647
000180 42 7b 49 bd cc 6c 8d 3c 67 10 37 bc 1e 65 85 3c
       -0.049189813 0.017263792 -0.011173344 0.016283568
000190 26 c5 19 bd f6 bc 13 3d 15 b7 4f bc 4a 2e 2c 3d
       -0.03754153 0.03606888 -0.0126779275 0.042036332
0001a0 f7 d2 82 bc a9 8c f5 bd a1 c0 1b 3c 86 2e 88 3d
       -0.015969737 -0.119897194 0.0095063755 0.06649499
0001b0 e2 7c 05 bd 47 74 89 bc 4e 98 df 3c 77 99 03 3d
       -0.0325898 -0.016779078 0.027294304 0.032128777
0001c0 3e 5d 47 3d 70 fe 11 bd 0b 71 9e bc 74 d5 96 bc
       0.048672907 -0.03564304 -0.019341012 -0.01841233
0001d0 80 db 43 bc 9b 45 61 bd e0 39 90 3d 01 de 8a bd
       -0.011954188 -0.05499802 0.07042289 -0.06780625
0001e0 57 e6 4c bd 54 05 40 3d 05 2b 72 3d 73 9d e7 3d
       -0.050024357 0.04688008 0.059123058 0.11309328
0001f0 e6 29 66 bd 27 00 8f bb c7 b2 e6 bc 58 93 33 bd
       -0.0561923 -0.004364032 -0.02816142 -0.04384169

action_model._continuous_distribution.log_sigma f4 [1, 2]
000000 73 0f 24 be f4 06 43 be
       -0.16021518 -0.19045621

action_model._continuous_distribution.mu.weight f4 [2, 128]
000000 9c 5a 4b bd 43 d9 a4 3b 91 17 ea bc cc 60 09 bd
       -0.04964696 0.0050307824 -0.02857569 -0.03353958
000010 63 30 99 3d 4a 8c 03 be d3 6f 8c bc 31 f6 28 3d
       0.07479932 -0.12846485 -0.017143166 0.04125041
000020 c0 5f 32 bd 0c 6f bb 3c ee d9 cc bd 79 e2 75 3d
       -0.043548346 0.0228801 -0.10002504 0.060030434
000030 fa 82 e4 bc eb e1 66 3d 4c ff 10 ba 99 9e 6f 3d
       -0.027894486 0.056367796 -0.0005531206 0.05850086
000040 1c 69 5b bd 83 45 dd 3c cb b7 a4 3c c5 1a 92 bd
       -0.053567037 0.027010685 0.02010717 -0.07134012
000050 14 b5 5d 3d 6f 08 c3 3c b7 1a f2 3c d5 80 86 3d
       0.054127768 0.023807732 0.029553754 0.065675415
000060 c5 19 9c bc 90 ce c6 3c b5 fa 89 3d 89 68 16 bc
       -0.019055257 0.024268419 0.06737272 -0.009180197
000070 fd 80 85 3c 78 83 09 3d f9 d2 9d 3c c3 cb 3e 3c
       0.016296858 0.033572644 0.019265639 0.01164526
000080 aa db a9 bd a4 b0 96 3b 2e ac 8a 3c a5 11 aa bd
       -0.08293851 0.004598694 0.016927805 -0.08304147
000090 09 de e0 bb e9 3f 78 bd 93 e3 03 3c f8 68 cc ba
       -0.006862406 -0.060607824 0.008049863 -0.0015595248
0000a0 87 e0 8d 3c cc 03 76 bd 59 54 c6 bc 1a 7b 7e 3d
       0.017318977 -0.060062215 -0.024210142 0.062129118
0000b0 a4 1f 95 bd 54 8d 22 bd 26 7d 8f 3c 8a ec 7d 3c
       -0.072814256 -0.039685562 0.01751573 0.01549829
0000c0 d0 5a 02 3d 52 43 49 3d 24 3a 25 3d d6 48 e2 bc
       0.031824887 0.049136467 0.04033865 -0.027622622
0000d0 27 fe da bc 79 b1 cb bc fc 76 0b bd d9 60 e2 bc
       -0.026732517 -0.024864899 -0.03404902 -0.027634071
0000e0 fb 73 f9 3c fa d3 56 3d 51 98 0e bc 59 95 ef 3d
       0.030450812 0.05244825 -0.008703307 0.11698408
0000f0 b7 b0 84 3d d4 76 69 3c 38 67 58 3c c5 90 83 3c
       0.06479018 0.014249522 0.013208203 0.016060242
000100 12 1a 73 3d 1b 4c f1 3c a4 fb 6c bd d3 86 6d 3d
       0.059351034 0.029455235 -0.05785717 0.057989907
000110 ad 5d 6f 3c 28 db 08 bd a2 05 ca 3c 9e 59 55 ba
       0.014609736 -0.03341213 0.024660889 -0.0008138659
000120 4e c9 d1 bc c6 97 2e bd ad 05 84 bd 50 9b d8 3b
       -0.025608685 -0.04262521 -0.06446395 0.0066103116
000130 f6 cc 4f bd 5f 90 a3 ba b4 4e 96 3d a4 27 43 3d
       -0.050732575 -0.0012478939 0.0733923 0.047645226
000140 ad 2b 2d bd 3e eb 53 bc a2 61 56 3b 4b 67 51 3d
       -0.04227798 -0.012934504 0.0032712002 0.0511239
000150 af a1 c3 bc f0 cd cb 3c f8 bc 9e 3c 47 6b 87 bc
       -0.023880808 0.024878472 0.019377217 -0.016530646
000160 f7 55 89 3c 83 b9 11 bd 00 4c 3f bd fb d6 87 bc
       0.016764624 -0.03557731 -0.04670334 -0.016582003
000170 b6 8a 46 3c fa 82 86 3c bb ae 80 3c 14 6b ba bc
       0.012118032 0.016419876 0.015708318 -0.022756137
000180 de 68 8d bc 8a 20 af bd 13 45 21 3d 58 d1 e0 3b
       -0.017261919 -0.08551128 0.039372515 0.006860893
000190 7b 9b e3 3b 39 c4 7a 3d 10 e2 7b bc 55 f4 1c bd
       0.006946025 0.06122229 -0.015373722 -0.03831895
0001a0 71 d6 ce 3c 7a de 9c bc aa c7 96 3b 67 86 76 3d
       0.025248738 -0.019149054 0.0046014385 0.06018677
0001b0 c3 85 44 3c 16 52 98 bd e0 9b 84 3c e1 4c 93 bd
       0.011994782 -0.07437532 0.016187608 -0.07192398
0001c0 35 b6 02 bd a1 d2 31 bd 8b 43 bb bd dd 65 a0 bc
       -0.031912047 -0.043413762 -0.09143742 -0.019579822
0001d0 06 d8 fb 3c 64 09 bb 3a b4 e6 23 3d 97 75 e7 bb
       0.030742656 0.0014269766 0.040014938 -0.0070635783
0001e0 98 ec eb bc 93 84 0e be 33 0e bd 3d 0f 05 92 bc
       -0.02879934 -0.1391776 0.09231224 -0.017824678
0001f0 4e b2 2c bd 5a 3a 8f 3c 82 1a a5 bc d2 14 8f bb
       -0.042162232 0.017483879 -0.020154241 -0.0043664956
000200 59 5e a1 bc c8 5e 4e 3c 08 12 29 3d 68 25 52 3d
       -0.019698309 0.01259584 0.04127696 0.051305205
000210 1f 25 4d bd 02 2f 4e 3c 67 a6 71 bd d7 35 7a bc
       -0.05008423 0.01258445 -0.058996584 -0.0152716255
000220 29 49 98 bc 7b 68 48 bd 54 2d 57 3d 73 9a a0 3d
       -0.018589573 -0.048927765 0.052533463 0.07841959
000230 89 27 da bb 17 2a 88 bd 15 cc b0 3c c2 5c 89 bc
       -0.006657545 -0.06648653 0.021581689 -0.016767863
000240 f4 43 50 bd f0 20 1d bd ef 1a 9a bc b6 7f 59 3d
       -0.050846055 -0.03836149 -0.018811671 0.05310031
000250 1b 09 7f bd d5 89 03 3d 71 bd 8c bc 01 51 85 bd
       -0.062264543 0.03211387 -0.017180176 -0.06509591
000260 6b 0d a0 bd af 2c b5 3c 72 3d a7 3c 7c 41 36 3a
       -0.07815059 0.022116033 0.020415042 0.0006952507
000270 d2 27 c5 bc 50 c8 3b 3d 6b 1a 6e 3c 05 d2 dc 3c
       -0.02406684 0.04584533 0.014532666 0.026955614
000280 51 30 9d bd 61 c3 c8 bb 9a cd f5 3b ba 2e 9c bd
       -0.07675231 -0.0061268066 0.0075013163 -0.076261
000290 18 49 99 3d bd a4 f1 3b 5b e8 96 bc 86 a7 89 3c
       0.07484645 0.0073743747 -0.018421343 0.016803514
0002a0 be 33 65 3d c8 e1 98 bd 1a 60 1d 3d f4 e4 72 bd
       0.05595755 -0.07464939 0.038421728 -0.059300378
0002b0 58 89 8a bd 49 89 63 bc b4 95 7d 3d 4b 33 33 3b
       -0.067644775 -0.013887712 0.061910346 0.0027343805
0002c0 c7 19 21 bd 13 93 0b bd 7f 43 ab 3c f5 93 1d bc
       -0.039331224 -0.034075808 0.020906208 -0.009617795
0002d0 48 cc c3 3d 78 b6 ac bc 65 fd d5 bb 8a 5b c3 bd
       0.09560448 -0.021083102 -0.006530451 -0.09538944
0002e0 7e e4 c8 bb e7 3f 51 3d cb 54 97 bd 78 a8 da bc
       -0.006130754 0.051086333 -0.0738922 -0.02669166
0002f0 c1 95 43 bc 74 08 00 3d 7f 0f 27 3c 5f dc 5a bc
       -0.01193756 0.03125806 0.010196566 -0.013358205
000300 e4 42 21 3d 24 a1 89 3d f1 ba 6c 3d 34 6b 4a bd
       0.039370432 0.06720188 0.05779547 -0.049418643
000310 30 1d f3 3d 14 0b a9 3c ba 28 f6 bc 36 ee d6 3c
       0.118708014 0.020635165 -0.030048717 0.026236635
000320 08 c2 08 3c 17 71 6d 3c e8 90 98 3b 34 45 32 bd
       0.008347042 0.014492295 0.004655946 -0.04352303
000330 ad 39 9e bc 0b 4e 69 bc ee 74 86 3c 1e 71 17 bd
       -0.019314611 -0.014239798 0.016413178 -0.03697311
000340 7c ba cd bc 4f 89 91 3d 54 63 9b 3d 2d 64 5a 3d
       -0.025113337 0.07106268 0.07587305 0.05331819
000350 db c2 51 bc b3 d0 00 bd c3 d0 12 3d d4 d4 25 bc
       -0.012802805 -0.03144903 0.035843622 -0.010121543
000360 ab c0 87 3c 53 35 c7 bd e9 a0 98 3d 22 4e 21 3d
       0.016571363 -0.09726968 0.07452566 0.039381154
000370 fe d1 05 bc 6a ae d6 bc 5d ab 69 bd 68 b1 00 3c
       -0.008167742 -0.026206214 -0.05704819 0.007854797
000380 67 c0 2d 3d 7e c3 3b 3d 32 30 67 3d d5 6c 88 bc
       0.042419817 0.045840733 0.056442447 -0.016653458
000390 67 6d 65 bc eb 2e 37 3d 21 9e b3 39 18 01 7c bd
       -0.014003134 0.04472248 0.00034259356 -0.06152448
0003a0 35 6a be 3d 1d ab 21 3d 29 fe 3a bc 64 62 15 bc
       0.09297601 0.039469827 -0.011413136 -0.009117696
0003b0 a0 ca 9d bb 92 a7 2f 3c 14 8d ae 3d 3d 99 75 bd
       -0.0048154145 0.010721104 0.08523002 -0.059960593
0003c0 93 a5 35 bd a1 a4 9d 3d 4b 3a 78 3c 04 75 32 bd
       -0.044347357 0.07697416 0.015150617 -0.043568626
0003d0 74 cd 4d 3d 17 68 4f 3d fd 09 c7 bd aa e9 f1 bb
       0.050244763 0.050636377 -0.09718702 -0.0073825913
0003e0 8e b3 99 3c 1a 8a 2a bd 86 a0 6b bc 95 da 89 bd
       0.018762376 -0.04163561 -0.0143815335 -0.06731144
0003f0 d0 91 a7 3c c5 d2 13 bd 68 52 c4 3d 13 fc ff bb
       0.020455271 -0.036089677 0.0958603 -0.007812032

action_model._continuous_distribution.mu.bias f4 [2]
000000 62 59 a5 3c 5d 91 49 bd
       0.020184223 -0.049210895

exp_avg f4 [128, 8]
000000 02 1a a4 b7 23 62 bf b7 17 2c a9 b8 d5 a3 2a b9
       -1.9562434e-05 -2.2814673e-05 -8.06676e-05 -0.00016273496
000010 ae 4c 4a b8 91 ba 5d b8 b0 e9 32 b6 77 21 03 b8
       -4.8231967e-05 -5.286426e-05 -2.666009e-06 -3.1264e-05
000020 0f 86 08 b7 35 16 6e 37 fa 45 cf 37 fc a0 9d 38
       -8.137445e-06 1.4191076e-05 2.4708908e-05 7.516329e-05
000030 0d 01 be b6 cb d2 8e b7 64 8e 14 b8 76 74 33 36
       -5.6625636e-06 -1.7025877e-05 -3.541856e-05 2.6740868e-06
000040 16 7d d8 b8 62 78 1e 38 14 d6 b1 38 10 6f 76 39
       -0.00010322982 3.778225e-05 8.479893e-05 0.00023501762
000050 d2 4a b5 37 46 fc 81 b7 8c b0 5c b9 ab 0f e1 b7
       2.1611722e-05 -1.5495472e-05 -0.00021046604 -2.6829386e-05
000060 d2 bb 85 b8 60 1d 02 39 b6 ac 82 b8 63 a2 63 b7
       -6.3769185e-05 0.00012408709 -6.231053e-05 -1.3568063e-05
000070 db 42 0f b9 cd a4 93 b8 64 f5 30 38 6f 52 23 b8
       -0.00013662448 -7.040203e-05 4.2190208e-05 -3.8939e-05
000080 82 3e a9 39 6a 27 a2 b9 a8 87 fc 38 0d 9d 20 b9
       0.00032280764 -0.00030928414 0.00012041564 -0.00015317295
000090 94 9d 7c 39 2a e8 dc 38 92 4c 86 38 03 d4 3f 39
       0.00024091295 0.000105336614 6.40388e-05 0.0001829416
0000a0 f6 b3 49 b9 a5 37 c6 38 e0 44 81 b9 4c de 7f b9
       -0.00019235894 9.45174e-05 -0.00024656113 -0.00024401507
0000b0 88 06 bb b7 9c 2b d7 b8 2d 60 48 b9 ed 8a 8b b8
       -2.2295178e-05 -0.00010260122 -0.00019109315 -6.6539134e-05
0000c0 05 ef 1d 39 bd cd 70 38 ec aa 09 b9 2c 5a 08 ba
       0.00015061728 5.7412068e-05 -0.00013129011 -0.0005201425
0000d0 13 dc 07 b9 6c a8 5f b8 b1 ef 87 39 5e db 9e b7
       -0.00012956587 -5.33242e-05 0.0002592779 -1.8937219e-05
0000e0 ab fe 46 38 4e 4b 44 b8 1c 8e ee b7 b8 0b 6d 37
       4.7444057e-05 -4.6800174e-05 -2.8437986e-05 1.4129029e-05
0000f0 d8 33 dd b5 d0 ba de b5 8a e6 8d 38 d1 ec 2c 38
       -1.6480872e-06 -1.6594659e-06 6.766345e-05 4.1228548e-05
000100 6e b2 27 b8 db da 09 b8 2c 69 c2 b8 0e 8a 08 b9
       -3.998208e-05 -3.286717e-05 -9.270231e-05 -0.000130214
000110 c9 61 b9 b7 66 0c e4 b7 74 36 9f b7 78 bf 86 b7
       -2.2099253e-05 -2.7185491e-05 -1.8979634e-05 -1.6063204e-05
000120 7c ff b7 38 86 db a1 b8 a7 2c 8c b8 67 c4 79 b9
       8.773708e-05 -7.717968e-05 -6.684037e-05 -0.00023819656
000130 10 d2 46 36 8c cb cb 35 a6 ff 2f 39 6a 5e f1 37
       2.9626572e-06 1.5183919e-06 0.00016784537 2.8773404e-05
000140 22 b6 93 b9 47 b0 9f 39 ee cd 7b b9 60 e1 6d 38
       -0.00028173724 0.0003045818 -0.0002401394 5.67151e-05
000150 23 59 8a b9 5c 47 49 b9 80 39 97 36 6e c1 36 b9
       -0.00026387823 -0.00019195437 4.5068446e-06 -0.00017428931
000160 15 b5 a0 b8 29 35 a9 38 a2 ed d5 38 a5 2a 9b 39
       -7.663124e-05 8.06845e-05 0.00010200894 0.00029595676
000170 5e ec a7 38 e7 6e de 38 ec 93 e5 b8 10 af d7 38
       8.007207e-05 0.00010606442 -0.000109471235 0.00010284607
000180 b6 97 35 b8 f0 0b 50 38 a4 df 82 b8 3c a0 d6 b7
       -4.3295055e-05 4.9602182e-05 -6.2405394e-05 -2.5585403e-05
000190 40 f7 88 b8 64 7b 30 b8 6f 90 e4 b6 fc 38 2f b8
       -6.531039e-05 -4.2076586e-05 -6.811744e-06 -4.1776322e-05
0001a0 fc 55 8b 39 40 17 63 b9 14 79 c5 b6 5a 3e bd b9
       0.0002657621 -0.00021657068 -5.885153e-06 -0.00036095345
0001b0 38 14 a6 38 da f2 2b 37 ca e4 38 39 2a 5c e5 38
       7.919263e-05 1.02489375e-05 0.00017632838 0.00010936738
0001c0 52 b8 1c b6 34 b7 3e 38 30 ef 22 b7 95 c9 40 b7
       -2.33531e-06 4.547015e-05 -9.711643e-06 -1.1491026e-05
0001d0 e4 c9 dd b7 ba b1 49 35 09 fb c6 36 70 12 d9 b3
       -2.6439266e-05 7.513696e-07 5.930084e-06 -1.0108204e-07
0001e0 ea 0a 37 38 91 00 fd b8 34 4e aa 37 30 16 79 36
       4.3640764e-05 -0.000120640856 2.0301995e-05 3.7116806e-06
0001f0 29 d2 f5 38 80 f5 ad 37 0b 9d 0c b8 9b 14 ba 38
       0.00011721656 2.0737527e-05 -3.352486e-05 8.873009e-05
000200 fa ee f2 37 6d 5a 05 b8 60 fa 92 b8 33 ca 85 b9
       2.895993e-05 -3.1793887e-05 -7.0084585e-05 -0.00025518387
000210 00 78 36 34 b8 a3 d2 37 06 ee e6 38 e8 11 18 b8
       1.6993727e-07 2.5110188e-05 0.0001101159 -3.62563e-05
000220 e0 ff 3c 38 56 28 a1 b8 4a a0 9a 38 d6 67 47 37
       4.5060995e-05 -7.6845914e-05 7.3731484e-05 1.18855005e-05
000230 c8 83 b3 38 1c 96 e9 37 68 b4 49 b6 d8 3f f1 37
       8.559931e-05 2.7845665e-05 -3.0056344e-06 2.8759168e-05
000240 cd 88 23 38 81 c9 84 b7 dc b9 1f b8 a2 8d ba b8
       3.8989634e-05 -1.5829459e-05 -3.808165e-05 -8.895552e-05
000250 e0 fb c6 b7 94 6e 15 36 6f fc 05 39 5b c6 85 37
       -2.3720728e-05 2.2267095e-06 0.00012777907 1.5947202e-05
000260 70 5c 32 b9 e9 19 3c 39 bf 06 92 b9 e1 9d 19 b8
       -0.00017009838 0.0001793873 -0.00027852316 -3.662508e-05
000270 fc fb 70 b9 9c 07 1f b9 d2 73 31 38 14 32 c1 b8
       -0.00022982055 -0.00015166256 4.2307955e-05 -9.212285e-05
000280 c3 c7 73 39 1b 2a 0f b9 cb b0 66 b8 6e 24 ae b9
       0.00023248703 -0.00013653228 -5.5000924e-05 -0.00033215008
000290 60 1e 81 37 3f bf 74 38 3a 3d 94 39 41 97 bc 38
       1.5392143e-05 5.8352245e-05 0.00028274377 8.992712e-05
0002a0 ce d9 00 b8 72 b9 4b 38 30 7e 66 b7 cc 6a b4 b5
       -3.0720425e-05 4.857168e-05 -1.3738449e-05 -1.3442127e-06
0002b0 5c 84 7e b7 99 4a 09 b7 20 70 88 37 b7 19 15 37
       -1.5170397e-05 -8.183205e-06 1.6264676e-05 8.887079e-06
0002c0 d2 6d e2 37 4e 26 7a b8 e1 ab 88 38 19 6b f6 37
       2.6992439e-05 -5.964032e-05 6.517e-05 2.9375356e-05
0002d0 10 cc c4 38 a8 95 44 38 c0 c1 65 35 ee 1b 29 38
       9.384018e-05 4.686942e-05 8.559109e-07 4.031875e-05
0002e0 e3 4e 93 39 44 69 90 b9 7a 15 4c 38 5e c2 89 b9
       0.000280968 -0.0002754425 4.865739e-05 -0.0002627549
0002f0 54 ae 52 39 cb 7b 84 38 e6 6a 61 38 38 11 18 39
       0.00020092103 6.317309e-05 5.3743737e-05 0.00014502264
000300 df d8 a3 38 ee 7b 47 b8 3f 39 8a b8 ca 34 95 b9
       7.812841e-05 -4.7560716e-05 -6.591016e-05 -0.00028458826
000310 3a 81 3f 37 fb ae 7e 38 ac cc 2d 39 07 11 5e b6
       1.1414575e-05 6.0721282e-05 0.00016574812 -3.309049e-06
000320 80 cb 41 34 b4 f2 3f b6 32 93 6a 38 82 f2 0b 39
       1.8048559e-07 -2.860249e-06 5.5927034e-05 0.00013346414
000330 b8 33 0b 38 57 bb a6 36 0a 32 7e b8 cc 08 12 38
       3.318835e-05 4.9689947e-06 -6.060492e-05 3.4817305e-05
000340 ac f1 07 38 22 a0 ed b8 7a 5d eb 38 58 12 ad 39
       3.2411583e-05 -0.00011330868 0.000112230846 0.00033010799
000350 ec cf 1d 39 1d ae a0 38 c9 c8 0b b9 73 28 07 39
       0.00015050144 7.661826e-05 -0.00013330871 0.00012889672
000360 ca 4a 2e 37 b2 9b 50 b7 1c 04 a3 b5 4a 88 06 b7
       1.0388621e-05 -1.2434017e-05 -1.2145642e-06 -8.018755e-06
000370 78 82 12 37 9f 27 f5 b4 9a a1 b0 b7 40 07 1d 36
       8.732655e-06 -4.5663634e-07 -2.1056087e-05 2.3399043e-06
000380 23 15 9b 38 55 4b db b8 67 96 3c 38 76 17 81 b8
       7.394913e-05 -0.000104567654 4.4962766e-05 -6.155569e-05
000390 93 95 b9 38 1c 30 fc 37 9a c0 81 b7 db b4 37 38
       8.849348e-05 3.0063144e-05 -1.5467685e-05 4.3799035e-05
0003a0 26 6e b2 b7 69 2c 5a 38 f4 57 79 38 5a 56 35 39
       -2.1270545e-05 5.201661e-05 5.944814e-05 0.00017293674
0003b0 54 59 2a 38 35 99 74 38 6c 30 c6 b8 51 ee 82 38
       4.061435e-05 5.831682e-05 -9.450395e-05 6.243273e-05
0003c0 89 8a 84 b6 74 76 04 38 46 b8 4a 38 7b cc 01 39
       -3.950034e-06 3.158157e-05 4.833217e-05 0.00012378574
0003d0 20 95 c7 37 50 9e b4 37 d9 fb 8a b7 0b 37 86 37
       2.379209e-05 2.1531392e-05 -1.6568158e-05 1.5999676e-05
0003e0 00 7a 4a b7 30 1f 60 38 d6 e4 ab 37 3e d1 6c 38
       -1.2068544e-05 5.3434807e-05 2.0491349e-05 5.6461657e-05
0003f0 c6 88 63 37 b6 55 f4 37 08 4a 89 b7 ad a9 4f 37
       1.3562099e-05 2.9126979e-05 -1.6366146e-05 1.2377667e-05

exp_avg_sq f4 [128, 8]
000000 69 fc a1 37 35 4b 5f 37 52 1d 93 37 0f 01 e8 37
       1.9310233e-05 1.3309346e-05 1.7537419e-05 2.7657048e-05
000010 fb 47 e8 35 86 67 46 37 dd 40 af 37 88 bf 91 35
       1.7306296e-06 1.1825823e-05 2.089183e-05 1.0859085e-06
000020 92 af 07 35 4f 74 8c 34 a5 63 d5 34 12 5e 25 35
       5.054691e-07 2.6161658e-07 3.9746843e-07 6.160418e-07
000030 e5 2b 51 34 c4 a0 93 34 42 39 4e 35 5c 2f bf 33
       1.948061e-07 2.7497856e-07 7.68243e-07 8.902745e-08
000040 b5 58 09 37 c8 e9 64 36 2d d9 17 37 5b de 77 37
       8.18649e-06 3.4110726e-06 9.0508665e-06 1.4774118e-05
000050 4e 82 2f 36 a1 fb ee 35 b5 d2 96 37 4a 16 90 35
       2.615288e-06 1.7805615e-06 1.7979512e-05 1.0735323e-06
000060 6a 1f 33 37 9c 4d 8c 36 4a b8 b3 36 23 6a 0b 37
       1.0676546e-05 4.18136e-06 5.35607e-06 8.3097575e-06
000070 eb 87 32 36 cd 11 97 36 11 8f 90 36 20 84 ef 35
       2.6603182e-06 4.502223e-06 4.3081895e-06 1.7845341e-06
000080 b1 b0 9a 38 58 ba 8a 37 af 70 9b 38 52 4e c1 38
       7.3762036e-05 1.6537655e-05 7.411965e-05 9.2175454e-05
000090 cd 9a 20 37 17 f9 6b 37 44 f5 0f 38 67 09 4c 36
       9.5727855e-06 1.4065087e-05 3.432228e-05 3.0403842e-06
0000a0 15 50 e5 38 0b 0d 0c 38 14 f5 d8 38 d5 78 23 39
       0.00010934487 3.339075e-05 0.00010345332 0.00015589905
0000b0 9a 6b b4 37 88 2a eb 37 a8 14 f2 38 43 e7 0b 37
       2.1507778e-05 2.8033988e-05 0.00011543307 8.33889e-06
0000c0 13 70 8b 37 bc ba 01 37 a8 70 96 37 d0 ad 02 38
       1.662228e-05 7.732477e-06 1.7933853e-05 3.115629e-05
0000d0 7b 6e 96 36 98 43 c5 35 d1 5f 36 37 eb 5a 9d 35
       4.48321e-06 1.4697316e-06 1.0870354e-05 1.1723872e-06
0000e0 72 b2 1a 36 5b d3 e0 35 78 7c 6f 36 83 4b cb 36
       2.3051657e-06 1.6750813e-06 3.5686226e-06 6.058662e-06
0000f0 bc bf aa 35 56 45 16 35 5c 1f 0e 37 73 7d 27 35
       1.2721789e-06 5.598025e-07 8.471161e-06 6.23949e-07
000100 7b 19 71 37 bf 8c 2f 37 8d ee 63 37 ef 46 a4 37
       1.4370652e-05 1.0463583e-05 1.3585796e-05 1.9583355e-05
000110 1f e8 e2 35 64 60 23 37 ba 0a be 37 bf cb 8c 35
       1.6905868e-06 9.738e-06 2.265476e-05 1.0490111e-06
000120 e9 71 0a 37 72 9d 69 36 35 de 15 37 6c ca 60 37
       8.251963e-06 3.481135e-06 8.932829e-06 1.339857e-05
000130 ba 8b 0e 36 56 b4 f0 35 ed 3b 29 37 22 fb 98 35
       2.124098e-06 1.7933878e-06 1.00871375e-05 1.1397972e-06
000140 68 54 fe 38 3c a2 ea 37 f3 2f e8 38 2c 71 19 39
       0.00012127386 2.797052e-05 0.00011071553 0.00014633377
000150 ee 5b 87 37 ca 6c dd 37 e9 f5 f9 37 3f 47 c1 36
       1.6136062e-05 2.6395912e-05 2.9797624e-05 5.7601424e-06
000160 f3 77 1c 37 83 65 07 37 dd 75 03 37 a3 8d ff 36
       9.326252e-06 8.070262e-06 7.835651e-06 7.616081e-06
000170 34 84 a1 36 2a 1b 4b 36 b7 7b 59 37 ce ea 3a 36
       4.8135644e-06 3.0265169e-06 1.29630125e-05 2.7852834e-06
000180 33 70 08 37 dc 82 88 36 83 ec e4 36 58 a3 2c 37
       8.132355e-06 4.06835e-06 6.822463e-06 1.029003e-05
000190 b0 5c 50 35 16 12 69 36 b9 bd e2 36 d8 33 c9 34
       7.7620916e-07 3.4730233e-06 6.7574115e-06 3.747689e-07
0001a0 0e 1a 83 38 8c c1 72 37 af 98 85 38 1f ab a7 38
       6.25142e-05 1.4469388e-05 6.370374e-05 7.995054e-05
0001b0 3c 24 fd 36 79 b8 1f 37 71 8c 4f 37 eb d5 2b 36
       7.544206e-06 9.520089e-06 1.23708605e-05 2.5605502e-06
0001c0 97 6e f0 35 5f db ba 35 31 45 bf 35 4e 9e 09 36
       1.7913579e-06 1.3921925e-06 1.4250746e-06 2.0506736e-06
0001d0 65 fa 60 34 f7 fe a4 35 7d df 54 36 fc b0 62 34
       2.0952719e-07 1.2293157e-06 3.172055e-06 2.1112277e-07
0001e0 ec aa 67 36 76 06 1b 36 10 1c 68 36 f6 d9 0e 36
       3.4521172e-06 2.310056e-06 3.4587028e-06 2.1286519e-06
0001f0 df f7 a0 35 bf 3d 9c 35 e4 18 7a 36 b6 0a 6d 35
       1.1993069e-06 1.1640876e-06 3.7267391e-06 8.8304967e-07
000200 7b aa 54 37 68 62 c7 36 ee e3 03 37 6a 94 16 37
       1.2675878e-05 5.942118e-06 7.8612775e-06 8.975252e-06
000210 96 e3 65 36 86 1a ca 36 d4 e3 73 36 aa 84 11 36
       3.4256132e-06 6.023157e-06 3.6342435e-06 2.1683904e-06
000220 d2 43 c7 36 84 42 36 36 bf c8 a7 36 7f 41 73 36
       5.9385575e-06 2.715883e-06 5.0003578e-06 3.6247945e-06
000230 f3 43 b1 35 40 72 1f 36 3c 9f 05 37 5e 0f 6b 35
       1.3207303e-06 2.3759349e-06 7.964492e-06 8.7566684e-07
000240 0d 3e a8 35 04 71 83 35 fb e6 0b 36 a2 bc 0f 36
       1.2535035e-06 9.793152e-07 2.0847062e-06 2.141846e-06
000250 91 bf 1a 35 49 c5 1f 35 f2 d8 e8 36 be 9d a3 34
       5.7648236e-07 5.9519203e-07 6.9393946e-06 3.0475888e-07
000260 58 1f 6b 38 04 91 75 37 14 88 58 38 01 32 66 38
       5.6057557e-05 1.4636902e-05 5.1625146e-05 5.4882843e-05
000270 d5 c0 d8 36 9a 3a 92 37 09 fd 8e 37 f2 5b 4b 36
       6.4597502e-06 1.7431845e-05 1.7045548e-05 3.0302876e-06
000280 4a 5f 2a 38 85 ad 64 37 a1 3e 39 38 67 29 87 38
       4.0619903e-05 1.363026e-05 4.4165765e-05 6.4450134e-05
000290 11 a1 f8 36 c4 62 d5 36 fe b2 2d 38 20 b9 20 36
       7.4097265e-06 6.3593925e-06 4.1413114e-05 2.3949615e-06
0002a0 eb b0 9e 36 f7 ca 5e 36 a3 9b 8e 36 01 b0 6a 36
       4.729363e-06 3.319872e-06 4.2500483e-06 3.4971165e-06
0002b0 fb 66 87 35 cd b7 61 36 1d b8 49 36 33 12 34 35
       1.0088255e-06 3.3634599e-06 3.0058502e-06 6.708171e-07
0002c0 9a 81 64 36 ae e2 05 36 93 e7 62 36 4c 9e 28 36
       3.4050086e-06 1.995049e-06 3.3811418e-06 2.5126092e-06
0002d0 88 5a 2d 35 e6 2c f8 35 c7 de c2 36 b4 fb 11 35
       6.457926e-07 1.8490507e-06 5.8075852e-06 5.4382986e-07
0002e0 42 91 87 38 92 76 92 37 67 24 84 38 bc de a7 38
       6.464358e-05 1.745977e-05 6.301031e-05 8.004668e-05
0002f0 8b e0 02 37 f3 4c 35 37 9d c1 a9 37 0a 5f 42 36
       7.800884e-06 1.0806357e-05 2.0236528e-05 2.8963573e-06
000300 fd 97 a2 37 94 5d 26 37 de 20 aa 37 be 54 a8 37
       1.938268e-05 9.916159e-06 2.0280884e-05 2.0066622e-05
000310 81 95 75 36 2c ae f8 36 0f dd d5 36 b5 aa ff 35
       3.6594868e-06 7.411252e-06 6.3736293e-06 1.9048663e-06
000320 08 05 c5 35 25 f8 7a 35 45 c4 c5 35 8f a7 00 36
       1.4679108e-06 9.3493355e-07 1.4734766e-06 1.9171018e-06
000330 26 3a 37 35 2a c8 0d 35 25 1d 6c 36 ca d4 ad 34
       6.825743e-07 5.281787e-07 3.5183705e-06 3.2378586e-07
000340 3e c0 99 37 36 3a da 36 0f d0 71 37 a2 85 ed 37
       1.8328541e-05 6.503683e-06 1.4413162e-05 2.831483e-05
000350 f9 ea 83 36 d5 62 35 36 41 1b d4 36 e8 07 c6 35
       3.9314587e-06 2.702863e-06 6.321265e-06 1.4754451e-06
000360 aa 58 14 34 49 93 f0 33 9f f1 10 34 74 04 08 34
       1.381583e-07 1.1202662e-07 1.3498946e-07 1.2667607e-07
000370 e9 6b 2c 33 13 66 78 33 13 b8 a3 34 54 d8 eb 32
       4.0145014e-08 5.7834836e-08 3.0495048e-07 2.7455975e-08
000380 4d 51 fe 36 fd bd e5 35 0c aa 04 37 a9 0d 0b 37
       7.5792545e-06 1.7117123e-06 7.907405e-06 8.288226e-06
000390 f5 50 3d 35 8d 2e b6 35 37 8b 8f 35 6e d2 97 34
       7.0525795e-07 1.3573605e-06 1.0694847e-06 2.827905e-07
0003a0 89 d4 5b 36 ba 05 1a 36 98 33 56 36 ab 78 68 36
       3.2757255e-06 2.2951122e-06 3.1918516e-06 3.4640932e-06
0003b0 b7 0d 95 35 92 e5 88 35 ac 53 bc 35 38 50 48 35
       1.1105357e-06 1.0199603e-06 1.4031443e-06 7.462254e-07
0003c0 46 40 2f 36 28 52 41 36 bd d4 3a 36 3b cd a4 36
       2.6114444e-06 2.8807062e-06 2.783999e-06 4.911473e-06
0003d0 6b f1 0e 35 12 ce 0b 36 64 77 ef 36 89 86 8a 34
       5.325043e-07 2.0832563e-06 7.136654e-06 2.580239e-07
0003e0 10 02 68 36 e9 57 76 36 14 82 5d 36 56 67 ba 36
       3.4571895e-06 3.6708027e-06 3.3007282e-06 5.555262e-06
0003f0 8a a5 13 35 a2 c0 34 36 49 63 04 37 f6 90 be 34
       5.500266e-07 2.6934217e-06 7.89093e-06 3.549573e-07

exp_avg f4 [128]
000000 4a 33 ef 38 20 ca e9 37 04 6e 80 39 3b 57 87 39
       0.000114059614 2.7869886e-05 0.0002449603 0.00025814198
000010 00 04 11 ba 60 6d 09 3a 26 90 2d b9 cc e5 33 b9
       -0.0005531907 0.00052424334 -0.00016552265 -0.00017156376
000020 a0 8f 0e 39 cc 7c 80 b9 ab ce 21 3a c4 90 16 b8
       0.0001359568 -0.00024507043 0.00061724585 -3.589761e-05
000030 b5 5a d1 38 da c6 02 ba df 7b f1 37 d9 15 8c b9
       9.982792e-05 -0.00049887376 2.878712e-05 -0.0002671916
000040 96 99 76 38 b3 ec 5e b9 26 6c 07 b9 04 b1 f0 39
       5.879401e-05 -0.00021259747 -0.00012914892 0.00045908254
000050 c6 07 f7 b9 57 36 1c b8 ea 7d 2b b9 87 90 1a ba
       -0.00047117303 -3.7243906e-05 -0.00016354737 -0.000589617
000060 36 f7 53 b9 5a 73 dc b7 f6 ce 04 b9 b3 8d d9 37
       -0.00020214621 -2.6279758e-05 -0.000126656 2.59344e-05
000070 aa f9 2a b9 a8 92 20 b7 81 1d fd b7 70 9f 08 b7
       -0.0001630547 -9.570889e-06 -3.0173689e-05 -8.143354e-06
000080 4e 82 a9 38 34 d4 0a b8 d0 1e 63 b8 e4 fc df 37
       8.082819e-05 -3.3099393e-05 -5.4149714e-05 2.6701433e-05
000090 1c e8 7d 39 4a a1 9a 39 fc 4d 46 b8 16 dd 8c 38
       0.00024214428 0.0002949334 -4.7279507e-05 6.716901e-05
0000a0 8f 54 ad 38 d4 9b 0b b9 fa 2b 45 39 84 6a e0 b9
       8.265033e-05 -0.00013314123 0.00018803767 -0.0004280397
0000b0 20 57 8b 36 57 0f ee 38 1d 53 21 39 c1 8a 48 b8
       4.1526655e-06 0.000113515816 0.00015385119 -4.781294e-05
0000c0 2d 5d 4c b9 b0 6d 45 b9 01 90 0b b9 71 41 aa 38
       -0.00019489667 -0.00018828246 -0.00013309719 8.118421e-05
0000d0 de 35 83 39 7a 3d 17 b6 ce 3c 04 39 bf 0b 77 b9
       0.000250264 -2.2536537e-06 0.00012611152 -0.00023560131
0000e0 fd a9 58 b9 46 da e8 b8 73 e4 47 b9 4d 6e 0b ba
       -0.00020662691 -0.00011103279 -0.00019063223 -0.00053188653
0000f0 40 73 ca b9 f6 3a 9a 37 5f aa 14 37 1b d9 d3 b8
       -0.0003861431 1.8385686e-05 8.861155e-06 -0.00010101703
000100 c9 63 c0 b8 d4 ea 02 39 f6 52 e3 39 60 5e f7 b9
       -9.17386e-05 0.00012485246 0.00043358625 -0.00047181826
000110 46 c8 a9 39 fe 9e 12 39 a4 d9 20 b9 0e 8c ff 38
       0.00032383407 0.00013982874 -0.00015339867 0.00012185435
000120 58 b3 98 38 5d 46 85 39 ea 7b 8e 39 be 2e 33 b9
       7.28133e-05 0.00025420162 0.00027176674 -0.00017088183
000130 8d 5b da 38 68 32 88 b8 94 79 27 b9 1a ac 72 b9
       0.00010412103 -6.494374e-05 -0.00015971652 -0.00023143031
000140 60 97 6e 38 bc dd 3b 39 70 64 8e 39 54 ba 88 36
       5.68846e-05 0.00017916312 0.00027159182 4.0748073e-06
000150 86 6d 5b 38 c6 4c 4b b9 fc a3 99 38 33 de 76 38
       5.231567e-05 -0.00019388189 7.326153e-05 5.885791e-05
000160 66 fa 2f 37 88 61 a6 b9 26 b2 e1 39 c8 7f 24 39
       1.0489113e-05 -0.00031734654 0.00043048075 0.00015687861
000170 52 47 b2 b8 56 ef 51 b9 3e 6f a9 b9 53 af e4 38
       -8.500986e-05 -0.00020020953 -0.00032317074 0.00010904544
000180 3e 71 4f 39 04 80 0c 3a c0 9f 4d b6 c2 6b a3 b8
       0.00019783244 0.0005359652 -3.0640367e-06 -7.792517e-05
000190 32 86 8c b8 d0 a3 fb b7 cc 54 13 38 4c b5 d0 37
       -6.700716e-05 -2.9997813e-05 3.5126504e-05 2.4879955e-05
0001a0 f4 c7 5e 38 79 94 1b 39 bb 66 80 b8 ea af 64 b9
       5.3115145e-05 0.00014837262 -6.122651e-05 -0.00021809308
0001b0 1b e4 8b b8 16 28 bd 39 47 04 32 39 45 71 1b 38
       -6.6705245e-05 0.00036078756 0.00016976996 3.706037e-05
0001c0 cd 25 01 38 bf 1a c7 39 2c 7c bd 39 50 cb d1 b6
       3.07912e-05 0.00037976165 0.00036141404 -6.252354e-06
0001d0 20 b7 2e 37 5d 6e 4f 39 4a 1b d5 b9 77 25 60 37
       1.0413845e-05 0.00019782172 -0.00040646858 1.3360163e-05
0001e0 a9 d3 3f 39 bd 20 ba 39 b9 a6 9d b9 dc f1 46 b8
       0.00018294029 0.00035501076 -0.00030069592 -4.7432128e-05
0001f0 4b c0 4e 39 04 7b 0f b9 3d 59 c2 39 41 e0 7a b7
       0.00019717326 -0.0001368337 0.0003706905 -1.4953374e-05

exp_avg_sq f4 [128]
000000 55 ce a5 36 db 2c bf 34 e4 58 92 36 57 20 cb 36
       4.9414034e-06 3.560916e-07 4.3614873e-06 6.0536363e-06
000010 45 d0 cc 37 b1 cd 28 38 91 91 d7 36 8c f0 06 36
       2.4415678e-05 4.0245886e-05 6.4244455e-06 2.0107573e-06
000020 4a f2 9b 36 13 bb 8e 36 1e 65 22 38 83 4c 16 37
       4.647566e-06 4.253708e-06 3.8717983e-05 8.958511e-06
000030 3b d5 0b 36 b9 bc a1 37 65 40 35 35 6f f2 61 36
       2.083673e-06 1.9280576e-05 6.752146e-07 3.3668728e-06
000040 30 b5 09 37 6e 90 78 36 8b fc 83 35 3f e9 a3 37
       8.208022e-06 3.703895e-06 9.83376e-07 1.9539728e-05
000050 e1 9b 6e 37 9d da 5b 36 c7 22 06 36 63 f7 b2 37
       1.4222199e-05 3.2760793e-06 1.99878e-06 2.1334452e-05
000060 02 9f 23 37 5e e6 a2 35 08 29 e1 36 5d 53 d6 33
       9.752579e-06 1.2136986e-06 6.710299e-06 9.980315e-08
000070 a3 47 22 36 d7 30 28 36 02 e4 72 35 0b ba 98 35
       2.418158e-06 2.506238e-06 9.048382e-07 1.1379028e-06
000080 1f bf 88 37 4e d5 cf 33 3c 6a 5a 35 03 50 a8 37
       1.6301461e-05 9.6779885e-08 8.136592e-07 2.0064419e-05
000090 6b 4a 00 37 f4 d0 12 37 4f 18 09 35 71 82 82 35
       7.646721e-06 8.750929e-06 5.107185e-07 9.723718e-07
0000a0 94 e7 c7 36 40 a1 b9 37 cc 47 c1 36 60 23 3e 37
       5.9576214e-06 2.2128806e-05 5.7602065e-06 1.1333119e-05
0000b0 24 cc 50 37 55 c0 63 36 f6 35 1e 37 dd cd 27 35
       1.2445296e-05 3.3937588e-06 9.430098e-06 6.251192e-07
0000c0 ee b3 20 36 0b 04 39 36 19 86 84 36 ca 74 d4 35
       2.394659e-06 2.7569502e-06 3.9495176e-06 1.5829221e-06
0000d0 99 8d 6c 37 11 a9 e4 35 c2 d1 2a 36 f5 c3 37 37
       1.4099664e-05 1.7036529e-06 2.545407e-06 1.0953275e-05
0000e0 c7 32 0f 36 fc c6 5f 37 ed 13 05 37 0c bd 0d 38
       2.1338217e-06 1.3338165e-05 7.932057e-06 3.3793083e-05
0000f0 8e 74 f2 36 54 4e d3 35 f9 54 a1 34 8c ca b8 35
       7.2257308e-06 1.5743522e-06 3.0050413e-07 1.3768017e-06
000100 52 64 29 37 6d 13 5f 37 dc f1 7a 37 85 86 42 37
       1.0096543e-05 1.3296359e-05 1.49574735e-05 1.1594621e-05
000110 19 3f e8 37 75 39 28 36 be b5 90 36 aa a6 a5 35
       2.7685937e-05 2.5067395e-06 4.312692e-06 1.2341964e-06
000120 7c 4f 57 35 e0 72 00 37 8e eb 0b 37 b5 89 af 36
       8.0209406e-07 7.656141e-06 8.33989e-06 5.2314376e-06
000130 1d 69 d0 36 05 48 2a 35 21 e7 7f 37 2e d5 70 36
       6.21112e-06 6.343474e-07 1.5252998e-05 3.5886874e-06
000140 3e 95 c7 36 30 28 ae 36 23 60 9e 37 52 0f fa 36
       5.9480362e-06 5.1902825e-06 1.8879835e-05 7.452364e-06
000150 9f 0a f0 35 da 7a 51 36 f7 18 0b 36 54 0c 1c 35
       1.7884485e-06 3.1214936e-06 2.0727146e-06 5.813247e-07
000160 ed c7 9c 35 75 38 e9 37 91 3c 8f 37 76 db 7c 36
       1.1681092e-06 2.7802054e-05 1.7075132e-05 3.767867e-06
000170 9b 85 19 35 97 ba 35 36 9e a7 f7 36 1f 94 f1 35
       5.7191363e-07 2.7079711e-06 7.380687e-06 1.7999008e-06
000180 d2 19 d2 36 b9 74 a3 37 58 b0 b9 36 43 96 f0 34
       6.2614936e-06 1.9485467e-05 5.5339588e-06 4.4812813e-07
000190 88 c2 32 35 60 b7 19 37 d4 8e 97 34 c0 f1 12 37
       6.659325e-07 9.162206e-06 2.8229863e-07 8.758565e-06
0001a0 69 ce a1 37 ac 19 51 36 1a 4f f0 34 f8 c2 ca 36
       1.9288813e-05 3.115837e-06 4.4761038e-07 6.0427665e-06
0001b0 c7 04 66 34 12 af ed 36 b2 34 59 37 19 52 5d 37
       2.1422157e-07 7.0835313e-06 1.2946477e-05 1.3191741e-05
0001c0 28 31 9a 36 3b 3d 30 37 b4 a7 8b 37 3f 20 b5 36
       4.59528e-06 1.0504674e-05 1.6648184e-05 5.3979743e-06
0001d0 63 b3 9d 36 d0 e1 f1 36 37 42 28 37 d5 a6 a3 34
       4.699848e-06 7.2086477e-06 1.0028997e-05 3.0482502e-07
0001e0 ec 3e 60 36 90 ef 25 38 29 b2 42 37 88 52 16 37
       3.3415226e-06 3.9562176e-05 1.1604782e-05 8.9599125e-06
0001f0 09 f3 d2 36 a5 72 58 36 c3 d5 b0 37 a3 0c 57 34
       6.2867807e-06 3.225324e-06 2.1080376e-05 2.0028033e-07

exp_avg f4 [1, 2]
000000 0a 95 37 3b 55 4b 89 bb
       0.0028012418 -0.0041898885

exp_avg_sq f4 [1, 2]
000000 d3 04 d5 3b c5 fe e2 3b
       0.006500819 0.0069273436

exp_avg f4 [2, 128]
000000 7d 13 84 39 c0 64 3b 3a 48 ba 12 3b d4 3e 60 b9
       0.00025191522 0.0007148497 0.0022388864 -0.0002138571
000010 27 0a 18 bb de 8c 1a 3a 49 a0 2a 3b a0 d3 4e 3a
       -0.002319941 0.00058956246 0.0026035479 0.0007889811
000020 a0 21 4f ba 30 f2 61 3a f0 7b 35 39 28 91 41 38
       -0.0007901434 0.00086191576 0.00017307675 4.6149973e-05
000030 10 8b e2 ba e5 13 b3 b9 76 20 90 b9 ef 22 51 b9
       -0.0017283875 -0.00034156363 -0.00027490006 -0.00019944807
000040 70 3e 0b b8 33 94 1c ba b0 d7 7c ba a1 e5 83 ba
       -3.3198332e-05 -0.0005973011 -0.0009645177 -0.0010062942
000050 20 99 90 38 8b 2d 8a ba 34 5e 56 ba 41 71 07 bb
       6.894977e-05 -0.0010542137 -0.00081774895 -0.002066687
000060 e0 9a 7b ba 7e 9c 05 ba 84 0e 34 3a d1 fd 95 ba
       -0.00095979683 -0.00050968665 0.0006868618 -0.0011443441
000070 ca 0a 4a bb 46 c6 3e 39 04 0f 69 ba 8e de ee b9
       -0.0030829185 0.00018193675 -0.0008890482 -0.00045560714
000080 bb a0 97 39 9e fd e0 b8 16 3c c9 ba 2a 74 6f 3a
       0.00028920718 -0.00010728392 -0.001535299 0.0009134436
000090 f0 27 ac 3a f6 0f e3 ba 32 29 10 b9 20 d9 74 bb
       0.0013134461 -0.0017323482 -0.00013748257 -0.0037360862
0000a0 a5 3b de ba 93 d8 b2 3a 85 2a 20 3b b3 bc 8c b9
       -0.0016955031 0.0013644866 0.0024439406 -0.00026843473
0000b0 38 ef 8d 3a 3c 0d 99 b9 f0 78 08 3b e0 96 8c ba
       0.0010828739 -0.00029192294 0.0020824037 -0.0010726117
0000c0 f0 ab 62 b8 6c d2 5c 3a c6 29 2f ba 10 54 c7 b8
       -5.4042728e-05 0.0008423689 -0.0006681945 -9.504717e-05
0000d0 f9 62 23 ba 6c 8f 85 3a e3 50 9d ba e0 41 2a 3a
       -0.00062327046 0.0010189838 -0.0012002256 0.00064948015
0000e0 56 c9 26 bb a6 64 4a bb d1 1c 97 39 a7 b7 9f b9
       -0.0025449595 -0.0030882745 0.00028822434 -0.00030463675
0000f0 4d 53 0f bb cc 37 1d bb ac af c3 3a 66 0e 3c 3a
       -0.002186972 -0.0023989556 0.0014929674 0.00071737764
000100 ad b6 cc ba f0 7a c1 3a 10 1e 3b bb 40 f2 11 bb
       -0.0015618406 0.001476137 -0.0028551854 -0.0022269636
000110 ec d3 11 3a 64 5d 33 ba 4b 09 00 3b 1a 64 c2 39
       0.000556289 -0.00068422244 0.001953679 0.00037077145
000120 c4 9b 56 3a f6 8c 4e bb 38 cd 88 39 78 5d a9 ba
       0.0008186663 -0.0031517125 0.0002609284 -0.0012921533
000130 44 cf 1d 39 f5 a1 b5 ba 1e 5e e1 3a 6a cc 73 3a
       0.00015049899 -0.0013857471 0.0017194187 0.00093001744
000140 a0 6c 06 b9 9d 92 43 b9 b0 bc 02 bb c1 64 39 ba
       -0.00012819702 -0.00018651267 -0.0019948892 -0.00070722034
000150 5a 89 df ba 3c d9 98 ba ba d0 5e 3a 18 19 8a b9
       -0.0017054484 -0.001166142 0.00084997306 -0.00026340107
000160 1a 04 b6 3a a5 c2 d2 b9 8e b9 45 ba 9a 22 ad b9
       0.001388672 -0.00040199343 -0.00075426034 -0.00033022912
000170 8f 2f 2a bb 79 32 19 bb 42 d2 e5 ba c2 b9 01 bb
       -0.0025968289 -0.0023376031 -0.0017533975 -0.0019794558
000180 8a 1f a9 ba 1f 0f 03 bb 8c 28 d7 ba c6 61 91 39
       -0.0012903076 -0.0019998027 -0.0016415282 0.00027729402
000190 92 69 ce ba 00 5f 27 36 00 62 85 38 70 f5 f1 ba
       -0.0015748015 2.4940236e-06 6.360188e-05 -0.0018459987
0001a0 57 f2 ad ba 96 4d 48 ba fc 28 01 bb ec 12 6c 3a
       -0.0013271075 -0.0007640956 -0.0019708266 0.0009005505
0001b0 1e 5b ae ba 4a 35 bb ba 87 53 0f bb de 54 3e 39
       -0.0013302302 -0.0014282849 -0.0021869855 0.00018151428
0001c0 5e cf 39 ba 68 97 a6 b9 48 74 36 39 f8 53 6e ba
       -0.000708809 -0.00031774794 0.0001740019 -0.0009091492
0001d0 d4 91 ea 39 57 a3 e0 3a 1d 8d 09 3a 85 01 a7 ba
       0.00044740608 0.0017138523 0.0005247163 -0.0012741542
0001e0 95 f9 e1 ba 14 85 7b 39 d2 6c f9 3a 18 7c 91 ba
       -0.0017240519 0.00023986801 0.0019029623 -0.0011099605
0001f0 78 b7 b3 38 c7 65 b9 ba 22 3c 00 3a 2d fe c4 3a
       8.569559e-05 -0.0014144712 0.0004891773 0.0015029364
000200 4c 3a f7 b9 b2 19 df 3a 77 b0 9c 3b ff 1a f4 38
       -0.00047154946 0.0017021208 0.0047817784 0.00011639855
000210 2b 9c 9c 3b 90 c1 98 3b 5b 0b d7 3b 12 07 23 3b
       0.004779359 0.0046617463 0.006562633 0.002487604
000220 c1 7e 30 3a a5 61 97 3a 31 fb 92 3b a1 68 07 ba
       0.0006732755 0.0011549486 0.0044855108 -0.0005165432
000230 0a da a9 3a 80 24 87 3b b1 9c 96 ba e0 05 13 3a
       0.0012958657 0.004124224 -0.001149079 0.00056084804
000240 08 5e 0a b8 b4 6b 1a b8 f4 c6 0d 3b 9a 1a 34 3a
       -3.2989337e-05 -3.6816768e-05 0.0021633478 0.0006870419
000250 d6 35 9c 3b cc 72 1c 39 30 4a 19 b9 7f a6 38 3b
       0.00476716 0.00014920085 -0.00014618854 0.0028175411
000260 14 e0 5a 3a 32 4c fb 39 96 6c f1 3a 9a 03 8e ba
       0.000834943 0.0004793122 0.0018419202 -0.0010834814
000270 88 f8 f4 3a a0 d0 31 ba b6 01 ca 39 45 2b b7 ba
       0.0018689791 -0.00067831017 0.00038529717 -0.0013974687
000280 95 a6 84 ba 55 5a 4f b9 fa b9 a5 39 f2 b0 d6 b9
       -0.0010120446 -0.0001977471 0.00031609816 -0.00040949095
000290 46 1b 32 3a 05 6d 7d ba aa 4c 77 ba 92 47 0a 3b
       0.0006794225 -0.0009667429 -0.0009433726 0.0021099788
0002a0 59 b6 03 39 a1 91 c7 3b a8 1f dd 3b 48 48 7a 3a
       0.00012561063 0.0060903584 0.0067481585 0.0009547514
0002b0 0a 21 a4 39 7d a4 aa b9 f2 22 91 3b fc a6 75 3b
       0.00031305134 -0.0003254748 0.0044292146 0.0037483564
0002c0 9c b8 cb 39 75 c0 1f 3a 90 e0 3b b9 9a 08 8d b9
       0.00038856722 0.0006094047 -0.00017917366 -0.00026900024
0002d0 c0 bb ce ba 73 f1 98 3b 91 d4 db 39 57 1b 9c 3a
       -0.0015772507 0.004667455 0.0004192931 0.0011910003
0002e0 f5 94 01 3b 15 58 a9 3a 22 a7 0a 39 20 d9 0a 3b
       0.0019772623 0.0012919927 0.00013222967 0.0021186545
0002f0 80 ae c9 3a 1a 49 5a 3a fb 17 d2 3a 61 0d aa 3b
       0.0015387088 0.0008326933 0.0016028875 0.005189583
000300 48 e3 31 3b 96 12 27 3c 6e a1 4e 3a 2e 41 0f 3b
       0.0027143527 0.010197302 0.0007882331 0.0021858918
000310 a3 d2 81 3a a6 96 bb ba 6a e7 03 3c 62 1b 8f 3b
       0.0009904694 -0.0014311865 0.008050779 0.004367278
000320 2e 74 37 ba ae 57 02 3b a2 c8 df 3a e6 07 2c 3a
       -0.0006998208 0.0019888687 0.0017073343 0.0006562456
000330 71 77 8a 3a 82 2e 53 3b 88 48 82 3b bb fc 95 39
       0.0010564161 0.0032223766 0.0039759316 0.00028607794
000340 2e cf d5 3b 32 da 82 ba 89 be b1 3a 09 f5 33 3b
       0.006524942 -0.000998324 0.0013560812 0.0027459285
000350 e0 93 d9 3a 2a 57 d6 39 c5 39 80 3b 36 b3 89 ba
       0.0016599856 0.00040882203 0.0039131367 -0.001050568
000360 93 04 29 3b 3a 81 3b 3b 0b 68 0a 3a 70 c4 89 b9
       0.002579008 0.002861096 0.0005279786 -0.00026277034
000370 c1 30 c5 39 f1 97 ba 3a b4 5f b9 3a 12 91 a2 3b
       0.00037611093 0.0014235956 0.0014142902 0.0049611414
000380 0a 1e 75 3a 1a 01 f8 39 92 d6 42 3a da d6 a3 3a
       0.00093504845 0.00047303067 0.0007432486 0.0012499944
000390 26 37 c5 39 3d 15 f3 3a e8 50 61 3b e0 18 85 39
       0.00037615857 0.0018545758 0.00343805 0.0002538627
0003a0 a3 bc 44 ba 9c 51 1e 39 64 70 94 3a d4 b7 06 3b
       -0.00075049157 0.00015098456 0.0011324999 0.0020556347
0003b0 b6 29 10 ba 55 b8 8d 39 1c 43 2e 3a 10 2a c0 3a
       -0.00054993795 0.00027030954 0.00066475733 0.0014660973
0003c0 48 4b fe 38 ef 9a 3b b9 fd 67 a7 3a c0 29 6e b8
       0.00012125686 -0.00017891427 0.001277208 -5.6782505e-05
0003d0 92 b7 0a ba b1 60 d8 3b 4c af f7 39 d1 75 ea 39
       -0.00052916363 0.0066033234 0.00047242118 0.00044719738
0003e0 64 88 25 3a 22 7b 9f 3a e9 53 93 3b 90 77 71 b8
       0.0006314574 0.0012167434 0.004496087 -5.757023e-05
0003f0 d8 8d bb 3a 31 b0 3d ba 88 3f 17 3a f9 46 0c 3c
       0.001430924 -0.00072360324 0.000576966 0.008561843
