results/Short_LowLR/3DBall/3DBall-399981.onnx (onnx, 10026 bytes, 7 tensors)

network_body.observation_encoder.processors.0.normalizer.running_mean f4 [8]
00000000: f4ca f8bb 7c13 73bb 8942 ad3d 375d 4640
00000010: ec58 c6bd d207 f23d ceaa 74bf fa65 ebbd
-0.0075925533 -0.003709047 0.08459956 3.0994394 -0.09684929 0.11817898 -0.9557313 -0.1149406

network_body._body_endoder.seq_layers.0.weight f4 [128, 8]
00000000: 9ee5 ea3e a972 713e 4deb 963e 7c7e c6be
00000010: 9cb8 08bc 4a5a 003e e42c 94bd c8f4 beba
00000020: b981 393f a8ee f13e 599a c2be e36c 913d
00000030: ed1b 85be 08da a43d 3f46 413e f739 61bc
00000040: e68b 1abe ed27 adbd 3164 aabe 1727 0b3e
00000050: b35a eabe 80d7 113f 1b7d 9dbe a735 0a3e
00000060: 1853 8dbe 8b38 c33e 7c41 57be 34e4 25be
00000070: 49e7 c9be 15f0 25bf 117f fbbe b643 033f
00000080: 7ca4 f9be 8036 0e3f b89b 413f 88ea 64bd
00000090: bdd2 6fbe b4c7 5abe c505 293f bebb b73e
000000a0: dc6f 08bf 66fa 8f3e 6c6d 5abe e394 533d
000000b0: b83d 85bb ff4d cdbe a8e5 80be 8574 a1be
000000c0: 3904 6abd b33b 96bd c7ad 91be 68cc c5bc
000000d0: 142d 04bf fb7c 0c3f 792e 483f d5a1 253f
000000e0: 6a53 ee3e f68f 3f3f 6af5 abbe ac3f 3abc
000000f0: 0f3e 5dbe c9af fcbe 7a54 d23e 98a0 883e
00000100: 1e98 9bbe bb84 cf3e 7a0f 7ebe 61ca 2bbf
00000110: 7127 743d 17ae acbd 4a71 863e d774 98be
00000120: e8ef 463e 0fde 2fbf dce5 95bd 4a7d 8dbe
00000130: 3e2c 34bf a2ef 95bd 7175 75bd 85d6 843e
00000140: 03d5 9ebd 2bb6 d93e a8a2 54bd f348 0ebe
00000150: 5857 19bf 3685 84be 0cba 903e 7764 8f3e
00000160: 0b87 f5bc e9be 8cbe ba89 d5be b606 cd3d
00000170: b7bf cbbe 6b37 0d3e 0d59 b4bd d9c3 5f3e
00000180: efce e93e 056d f8be 047f 903e b278 cf3e
00000190: c0a2 b0be 4ec2 cfbe 14b6 10bf 35ef c9bc
000001a0: 3a15 58bf 8523 b0be 3271 103a 2f4d cfbe
000001b0: 789d 443f 6770 c9be e010 2cbe a1af 913e
000001c0: 70fa 2a3e 76b4 87be 7655 acbe 60c6 233e
000001d0: f71d e13d c311 f23e c075 863e f525 92bd
000001e0: 73cd e63e e63b 36be 1d02 113d ef0c 783d
000001f0: 35ce 973e 5365 87be c3e4 fabe ee9b d03e
00000200: c4a5 ae3e e107 113d ce21 9f3e 25ba 3fbf
00000210: 8a7e 873d 0ee8 0cbf f36e aebe 2bd6 a4bd
00000220: 5434 d43e 4db1 93be 8cbb 50bf db98 883d
00000230: b8c8 6abe 909b c73e 2447 22bf 25e3 113f
00000240: bbc5 503d 82bd 25be 3f47 993d 55bc 193e
00000250: d2ac a9be 0424 913e 6705 4f3f 08e9 153f
00000260: 49e1 8b3d 6633 04be 5105 b43d 236f acbe
00000270: 88ef 72be 2401 e7bd e97c 8e3e 8f94 bfbd
00000280: af3b 0dbd 24c5 8e3d 2547 0c3e 836b 1fbe
00000290: 0dd0 c83e 33ee 85be 11a2 de3d 3faa e33d
000002a0: b348 03bf fc3c 40bf 6b1e db3e 1e9a 913e
000002b0: f1ce 5cbe 569e 85be 4f3f ac3e 7817 f2be
000002c0: 4bb9 49bd bfbc d03e d6d6 8dbe f6fe 92bc
000002d0: f9bf 653e d76a a83e 5a60 983e 8c90 39be
000002e0: 6f07 52be acf0 563f cb2f 853c 1f2e 4dbd
000002f0: 4c23 61be 2379 0dbe 790f 04be 8c51 ba3d
00000300: 4a29 3dbc 01cf ba3d 5e2e e0be 61da b6be
00000310: d3f7 1b3f 7b6d f43d 4dc1 cc3d d552 04bf
00000320: e418 81be 8f85 cabe 08b7 f5bd faf6 503e
00000330: 3c94 ee3d 5448 e7be d20d 59be 77f8 08bf
00000340: 5fe3 38be e552 1cbf 0ccc a33e 06d2 b6be
00000350: 002d 0ebd 66cf 27bf 09af 663e 436e e93d
00000360: aa1b ad3e 33de d3bd 3d96 933e 2ab6 343f
00000370: 9528 e7bd 3aae 00bc c6c6 413e 9ad4 3fbd
00000380: fc9a e3be f2a9 b33e f5d9 f23d 1e4a 863c
00000390: 281e 003f 4072 c2be 07cb 703f a8f3 843e
000003a0: 1e8f 52be aca0 c73e 03ee 8ebe 599a c03e
000003b0: 6ec4 f0be 28a2 7bbe 4324 7f3f 4936 043f
000003c0: 6aa6 debe 7ee6 18be 84fc 163e 975c fdbb
000003d0: 01ed 7f3e 8e10 69bd a680 adbe f540 7b3f
000003e0: 071e 983e 46dc 2f3e d1ac 1e3e 73f7 d83e
000003f0: 931d 75be 9bbf 52bd 2967 67be d8e0 223f
0.4587831 0.23578896 0.29476395 -0.38768375 -0.008344796 0.12534443 -0.07235125 -0.00145688
0.72463566 0.47252393 -0.38008383 0.071008466 -0.25997868 0.08049399 0.18874453 -0.01374673
-0.1509243 -0.08454881 -0.33279565 0.1358913 -0.45772323 0.5696945 -0.3075951 0.13497029
-0.27602458 0.38129076 -0.21021074 -0.16200334 -0.3943427 -0.6481946 -0.4912038 0.51275194
-0.48758304 0.5555191 0.7562823 -0.05588773 -0.23420234 -0.21365243 0.6602443 0.35885423
-0.53295684 0.28120726 -0.21330804 0.05165566 -0.0040661953 -0.4009857 -0.25175214 -0.3153421
-0.057132933 -0.073356055 -0.28452894 -0.02414532 -0.51631284 0.54878205 0.7819591 0.6470006
0.46548015 0.7482904 -0.33585674 -0.01136772 -0.21605705 -0.49352863 0.41080076 0.26685023
-0.30389494 0.40530953 -0.24810591 -0.6710568 0.059607927 -0.084316425 0.26258308 -0.29776642
0.19427454 -0.6869821 -0.07319233 -0.2763465 -0.7038001 -0.07321097 -0.059926454 0.25944915
-0.077554725 0.42521796 -0.051912934 -0.13895015 -0.598989 -0.25882882 0.28266943 0.28006336
-0.02997162 -0.27489403 -0.4170664 0.10011046 -0.39794704 0.13790672 -0.088060476 0.21852054
0.4566569 -0.48520675 0.28221905 0.4052177 -0.34499168 -0.4057793 -0.5652783 -0.024650196
-0.8440739 -0.344021 0.00055100315 -0.40488574 0.7680278 -0.3934357 -0.16803312 0.28454307
0.16697097 -0.26504868 -0.33658952 0.15993643 0.109920435 0.47279176 0.2626171 -0.07136146
0.4507862 -0.17796287 0.035402406 0.06055921 0.2964951 -0.26444492 -0.49002656 0.40743965
0.34110844 0.035407905 0.31080478 -0.7489341 0.06615932 -0.5504159 -0.34069023 -0.08048662
0.41446173 -0.28846207 -0.81536174 0.0666978 -0.2292813 0.38985872 -0.633898 0.5698722
0.05096982 -0.16185573 0.07484292 0.15013249 -0.33139664 0.2834779 0.8086762 0.585587
0.06830079 -0.12910232 0.087900765 -0.3367854 -0.23724186 -0.112795144 0.27829674 -0.09354507
-0.034480747 0.06971195 0.13699014 -0.15568356 0.3922123 -0.26158294 0.108707555 0.11116456
-0.51282805 -0.75093055 0.42796645 0.28437895 -0.21563317 -0.26097363 0.3364205 -0.4728353
-0.049248975 0.40769002 -0.2770297 -0.01794384 0.22436513 0.32894012 0.2976101 -0.18121547
-0.20510648 0.83960986 0.016258141 -0.050092813 -0.21986121 -0.13815741 -0.12896527 0.09097585
-0.011545489 0.09121514 -0.43785375 -0.35713485 0.60925025 0.11934944 0.09997807 -0.5168889
-0.25214303 -0.39555022 -0.11997801 0.20406714 0.11649367 -0.4517237 -0.21196678 -0.5350413
-0.18055485 -0.61063987 0.31991613 -0.3570711 -0.034710884 -0.6555084 0.22527708 0.11397984
0.33810169 -0.103451155 0.2882556 0.7059046 -0.11287037 -0.007854039 0.18923482 -0.046833612
-0.4445418 0.35090595 0.11857978 0.016392764 0.50046015 -0.3797779 0.94059795 0.25967145
-0.20562407 0.3898977 -0.27915964 0.37617758 -0.47024864 -0.24573576 0.99664706 0.5164533
-0.4348634 -0.14931676 0.14744765 -0.007731985 0.24992754 -0.056900553 -0.33887213 0.9814599
0.2971041 0.17173871 0.15495612 0.4237629 -0.23937063 -0.05145226 -0.22597946 0.63624334

network_body._body_endoder.seq_layers.0.bias f4 [128]
00000000: f765 f6ba 8c8f 383b 3751 37bc 6b9b 3b3b
00000010: 3200 a83b cfea 643c 44c9 65bc 0f13 1f3c
00000020: aa66 5a3b 5d26 e73c 9f5c bb3a d096 deba
00000030: 1930 973c 0caa 3ebc e44c 583b fa21 263b
00000040: f0f8 bb3b ce63 d4bb 1f64 2d3c 67b0 95bc
00000050: 3eda 0b3b e97b 003d 6e97 423c 0b65 453c
00000060: 7a5b 3bbc f93f 523c 6db5 e53b ddec d1bb
00000070: f2d7 bf3b a3a8 c2bb 7a19 573c f3e6 9839
00000080: 0895 463c d635 8d3c f0f5 583c 40b3 f43a
00000090: 33ef f83b 5636 e33c 59f3 cb3b 030d 293a
000000a0: 7994 c53c a2cc 84bc 53d9 1c3c 9e97 21bc
000000b0: baee 15bc ed1e ff3b 17a0 69bc f2a1 473c
000000c0: 622d 6e3c f519 11bb f0fe 1a3c 1bb4 193d
000000d0: 0ed6 e2bb 48bc 803c 0944 22bb 5b10 8eba
000000e0: f588 a33b 012e 55bc 9df7 883b 18a5 a73c
000000f0: 2a57 9d3c 91d1 13bc b7d8 2f3b 6470 6dba
00000100: 0a44 623c 1f14 9e3b 4ac5 873b 16c6 3b3b
00000110: 0eb1 1c3c fb2a ae3c aacd d93b 14b2 b83c
00000120: 0451 a2bb 02b1 60b8 19d2 273c 7f5d ac3c
00000130: 07e5 a1ba e699 b53c 9f4e 9cba eca3 803c
00000140: cbe1 50bc 7083 f33a eafb 5a3c 222d 0fbc
00000150: b195 af3a 159b f1bb e1f3 c33a c9c2 143c
00000160: e9bd 543c f6f8 ae3b 9d24 723b ac49 043d
00000170: 6085 533c 0e55 afbb e4a5 f53b 6e2a 903c
00000180: cf3f 85bc 82f5 d53b 541f 943c 6efc 7f3c
00000190: 7c4e adbb 6c74 acbc d60d e83b 806b 4b3c
000001a0: f0e9 2e3c 1b57 3dbb 0d8e ca3c 804b 223c
000001b0: 0b08 07bc d76b 853c 421f 393c 2dc9 a63b
000001c0: 8a1b 7d3c afb4 f6bc 2e17 09bc ea93 143c
000001d0: 12a4 163b 3298 6b3b f887 033c 2c51 23bb
000001e0: b6db cb3c c3f3 71ba d5b7 0c3c 36c3 003c
000001f0: 138f cd3c 1ec8 003d 00b0 c4bb 4231 91bb
-0.0018798698 0.0028161732 -0.011188797 0.0028626572 0.0051269764 0.013971998 -0.014025036 0.009709134
0.0033325353 0.028216535 0.0014294571 -0.0016982201 0.018455552 -0.011637222 0.0033004815 0.0025349841
0.005736463 -0.006481624 0.010582953 -0.018272592 0.00213398 0.03136817 0.011876924 0.012048016
-0.011435384 0.012832635 0.007010153 -0.00640641 0.0058546 -0.005940513 0.013128633 0.0002916377
0.012120493 0.017237585 0.01324223 0.0018669143 0.007596874 0.02773587 0.0062240777 0.0006448777
0.024118649 -0.016210858 0.0095732985 -0.0098628085 -0.009151155 0.007785669 -0.01425936 0.012184607
0.014537187 -0.0022140716 0.009460196 0.037525278 -0.00692249 0.01571478 -0.002475979 -0.0010838615
0.004990692 -0.0130114565 0.0041799084 0.020464465 0.019206602 -0.0090221325 0.0026832053 -0.000905758
0.013810167 0.004824176 0.0041433917 0.0028652004 0.0095636975 0.021260729 0.0066468315 0.022545852
-0.0049535055 -5.3570613e-05 0.010242962 0.021040676 -0.0012351581 0.022168111 -0.0011925286 0.015703164
-0.012749146 0.00185786 0.013365725 -0.008738788 0.0013396052 -0.0073732235 0.0014950001 0.0090796435
0.012984731 0.005339737 0.0036948093 0.03229682 0.012910217 -0.0053507155 0.0074965823 0.017598357
-0.016265778 0.006529511 0.018081345 0.015624149 -0.005288897 -0.021051608 0.0070817275 0.012415767
0.010675892 -0.002889103 0.024725938 0.009905696 -0.008241664 0.016286774 0.011298956 0.0050899
0.01544846 -0.030115454 -0.008367343 0.009068469 0.0022985977 0.003594887 0.008028023 -0.0024920208
0.02488504 -0.0009229744 0.008588751 0.007859042 0.025092637 0.031440847 -0.006002426 -0.004430921

action_model._continuous_distribution.log_sigma f4 [1, 2]
00000000: da30 39bc 8e3f f4bb
-0.011303151 -0.0074538654

action_model._continuous_distribution.mu.weight f4 [2, 128]
00000000: f3df 0dbd 55b7 02bd f80c 7bbc ea7f 9cbc
00000010: b225 293c 85b5 c13c 2df6 d6bb 3251 15bd
00000020: d8c2 2abc 48b6 1fbc 1bb2 67bc 11ce bdbc
00000030: cd97 cbbb 3d44 56bc 16af 1ebd 1680 d4bc
00000040: 8e49 36bd 23ce 273c d912 a13c 2032 a4bc
00000050: 1f7e 113b 3301 bd3c b642 643c bef0 253c
00000060: 014a c7bc 68e8 d2bc 6b70 cc3c 6a30 0fbc
00000070: a98f a93b 6769 a4bc 9b76 0f3c 2014 bcbb
00000080: 50f7 493c 2ed1 ac3c 4535 a83c ba9c 1ebc
00000090: 14ad 903c 305e 2a3d 5811 96bd 193e 663c
000000a0: 9909 35bd c669 8bbc 12b4 e93b b8d5 9cbc
000000b0: d21a 063c 009a 353d 7c7d 06bb e28c 493c
000000c0: 91f6 03bd d392 34bd 28ca 393c 8f16 2f3d
000000d0: a7d4 fe39 463b 95bc 2175 353c 63ab e0ba
000000e0: 6f08 31bc d405 b6bc fcc3 6d3c f419 f63c
000000f0: 82dd bc3c f73c 413c c267 743b 4235 673c
00000100: 31e4 d2bb 5eb1 e8bb 37bd f53a a104 513c
00000110: 24a8 583c 366b d13c ada5 debc 7eaf aa3b
00000120: eead e3bc 2ced 90bc cfdd c83c 4151 d63c
00000130: ba90 84bc 23b6 3a3d ce4d 3d3c 50ac 44bd
00000140: e6ff 8bbc b94c 193b e8fd dd3c 6975 2fbc
00000150: ea8c 093c 80c1 0bbd ab70 cb3c 55d8 423c
00000160: 99ef 983c 44c6 4cbc b746 cabc 69a0 063d
00000170: d2e4 a43c 9950 a7bc 6b1f 093d be04 b6bc
00000180: d5bc 27bc 9545 9cbc 5456 323d 757d 2ebd
00000190: cd7a 4abc e15e 573b 1200 aa3c e250 133d
000001a0: 59b2 593d 78b5 453c dea0 3cbc 1f02 e73c
000001b0: 5367 33bc a9c9 0c3d d261 a33c ddf7 e6bc
000001c0: 4431 ffbc b3bc 0fbb 271f 91bb 5eb2 b63c
000001d0: 3656 2239 8eee 60bc 0f1a 873c 8339 49bd
000001e0: 16a6 bd3b 8a93 fcbc aed2 013d 1e61 9ebc
000001f0: 5877 d33c 3938 f0bb add8 40bd 416c 95bc
00000200: e9ca e83b daeb 90bc 3815 a83c 548c dfbc
00000210: 57c0 03bc 6a45 5e3c bab0 81bb 2478 2bbd
00000220: b835 583d bd4d c63c 904f 593c 4732 903c
00000230: c76d b23c 5d8c cebc a3d8 433d 8868 c2bc
00000240: fc6f a3bc b300 91bb 93a0 57bb 42fa 99bc
00000250: f57e f239 eb24 e63c 110a babb ac76 72bc
00000260: 4fa6 29bd 0aec 103d 8459 c83c 21d2 c33b
00000270: ff1b 62bc 81e1 39bd 7f51 36bc 103a 97bc
00000280: 0abe 173d 4d3f debb dd55 233c 7d26 9d3c
00000290: 468a 183c 79a7 1c3b 94b6 413c 44cb b0bc
000002a0: c223 313d 3818 50bc 4284 f23b e6e8 4dbd
000002b0: 8624 27bc 8906 393d 8fd5 85bc a6ce acbb
000002c0: 269d b13c 55bb 5cbc bb92 34bb 0d62 f53c
000002d0: 6945 c3bc c88e 083d 7d35 253d 2870 233c
000002e0: d7dd d63c 3bf6 10bd dfb4 64bb 0dd8 d53c
000002f0: 13fa d7bb 2cf7 693b 3ce3 14bd aaa2 043c
00000300: 7189 8b3c 4a85 873c ffc8 a43c 0aee 5ebb
00000310: ec2c 8bbd fec1 8abc 1cd6 b13b 4021 6e3d
00000320: a0aa 66bd c573 36bc 0ff0 44bc ced9 0dbc
00000330: 5bea fabc 356b 993c f7a2 f8bc 317a ce3c
00000340: 5e5f 37bc 810f 29bc 9693 d33c e1f7 a0ba
00000350: e8eb 26bc 8c9c adbc 637a b1bc 47c6 85bc
00000360: d3a9 003d cbe9 cb3b c8c2 ed3b 9751 853c
00000370: 056a 9ebb 779b 783c 8150 4bbc 69ca bd3c
00000380: c100 ad3b 79c2 993c f1e7 963c 5058 d43c
00000390: 5e0b a53c f35a 72bc a017 08bc 24e5 01bd
000003a0: f2a1 d13b d76f e7bc 3e90 4e3d 2c02 3aba
000003b0: 840f 33bc b18d 273c de3d d4bc 3390 b1bc
000003c0: 9b6a 313d e1cc 3c3b 3214 f6ba 1897 a83c
000003d0: b628 ebbc ed1d 723c 5a9d 1dbc 98f1 8fbc
000003e0: 776f 553d aa66 383c f0a4 08bd f897 9f3b
000003f0: ef9a 9ebc d355 e23c 8ac5 0fbd 10dd 7dbc
-0.034637403 -0.03191312 -0.015322916 -0.019103963 0.010323929 0.023646126 -0.006560108 -0.036454387
-0.010422431 -0.009748049 -0.014141585 -0.02316955 -0.0062131644 -0.013077793 -0.038741194 -0.025939982
-0.04450374 0.010242018 0.019662308 -0.020043433 0.0022200418 0.02307186 0.013931921 0.010128198
-0.02432728 -0.025745586 0.024955949 -0.00873957 0.0051745963 -0.020069791 0.008756305 -0.005739704
0.01232703 0.021095838 0.020533213 -0.009680921 0.017660655 0.04159373 -0.07327527 0.014052891
-0.044198606 -0.01701821 0.0071320618 -0.019144878 0.008185105 0.04433632 -0.0020521572 0.0123016555
-0.032217566 -0.044085335 0.011339702 0.042746123 0.00048605094 -0.01821674 0.011075289 -0.0017140921
-0.010805233 -0.022219576 0.014512058 0.030041672 0.023054842 0.01179432 0.003729329 0.014111819
-0.006435894 -0.007101222 0.0018748407 0.012757451 0.013223682 0.025563817 -0.02717861 0.0052089086
-0.027792897 -0.017691217 0.02451983 0.026161792 -0.016182292 0.045583855 0.011554195 -0.048015893
-0.017089795 0.0023391678 0.027098611 -0.010709145 0.008395413 -0.034120083 0.024833998 0.011892398
0.018668937 -0.012498442 -0.024691923 0.032867823 0.020128641 -0.020424174 0.033477228 -0.022219058
-0.010237892 -0.019076148 0.04353936 -0.042600114 -0.01235838 0.0032862949 0.020751987 0.035965808
0.0531486 0.012067191 -0.011512963 0.028199254 -0.010949927 0.034372006 0.019944105 -0.028194362
-0.031151421 -0.0021932542 -0.0044287625 0.022301849 0.0001548164 -0.013728751 0.016491918 -0.049127113
0.0057876213 -0.03083207 0.03169506 -0.019333418 0.025813743 -0.007330921 -0.047081638 -0.018240096
0.007104267 -0.017690588 0.02051793 -0.027288593 -0.008041463 0.013566354 -0.003957835 -0.041862622
0.052785605 0.02420699 0.013263598 0.0176021 0.021780862 -0.025213415 0.047814023 -0.023731485
-0.01995086 -0.004425132 -0.0032902106 -0.01879609 0.00046252427 0.028093776 -0.0056774695 -0.014798801
-0.04141837 0.035381354 0.024456747 0.005975977 -0.01380062 -0.045381073 -0.011127829 -0.018460304
0.03704647 -0.0067824484 0.009969202 0.019183392 0.009310311 0.0023903532 0.011823315 -0.0215813
0.043246992 -0.012701087 0.0074010203 -0.050270937 -0.010201579 0.045172248 -0.016337184 -0.005273658
0.02168138 -0.013472398 -0.0027553278 0.02995398 -0.023836808 0.03333929 0.040334214 0.009975471
0.026228828 -0.035391074 -0.0034897847 0.026103998 -0.0065910905 0.0035700304 -0.03634952 0.008095423
0.01703331 0.01654305 0.020115374 -0.0034016394 -0.067956775 -0.016938206 0.005427135 0.05813718
-0.056315064 -0.011136 -0.012020125 -0.008657886 -0.030629328 0.018727878 -0.030351145 0.02520475
-0.011192171 -0.010318638 0.02582721 -0.0012280905 -0.01018808 -0.021192811 -0.021664804 -0.016329898
0.031411957 0.0062229387 0.0072558858 0.016274257 -0.004834416 0.015173784 -0.01240933 0.023167806
0.005279631 0.01876949 0.018421145 0.025921017 0.020147022 -0.014792192 -0.008306414 -0.031712666
0.006397479 -0.028251572 0.05043053 -0.00070956605 -0.010928992 0.010226653 -0.025908407 -0.021675205
0.043314558 0.002880864 -0.0018774329 0.02057986 -0.028705936 0.014777643 -0.009620035 -0.017571256
0.052108254 0.011254946 -0.03336042 0.004870411 -0.019360987 0.027628815 -0.035100497 -0.0154946

action_model._continuous_distribution.mu.bias f4 [2]
00000000: 0309 193c 68a6 373c
0.0093405275 0.011209108

onnx::Div_46 f4 [8]
00000000: decb b03d 5d97 a33d cce4 a13f 6ff8 da3e
00000010: 248b 993f 4a26 953f a31d 973f 0cf7 833f
0.086326346 0.07987855 1.2647948 0.42767665 1.1995587 1.165231 1.180592 1.0309768
