results/Short_LowLR/3DBall/3DBall-500082.onnx (onnx, 10026 bytes, 7 tensors)

network_body.observation_encoder.processors.0.normalizer.running_mean f4 [8]
0	0xbb12af41	-0.0022382291
1	0xbb5b4a6c	-0.0033461107
2	0x3d4282af	0.04748791
3	0x4046f672	3.1087918
4	0xbc9f8925	-0.019474575
5	0x3d10c1d5	0.035341103
6	0xbf7b531b	-0.98173684
7	0xbd32beb5	-0.043638904

network_body._body_endoder.seq_layers.0.weight f4 [128, 8]
0	0x3e32f9fe	0.17478177
1	0xbd8bafb4	-0.06820622
2	0x3e9f5d1c	0.31125724
3	0x3f179935	0.5921815
4	0xbe46b6e1	-0.194057
5	0xbe17b3fd	-0.14814754
6	0x3ebb0888	0.36529946
7	0x3c1f6549	0.009728738
8	0x3e92a50c	0.28641546
9	0x3e0abf70	0.1354959
10	0xbdf7be37	-0.120968275
11	0xbe672a48	-0.22574723
12	0xbe6349bd	-0.22196098
13	0xbdc96fa8	-0.0983575
14	0xbdd418a8	-0.10356265
15	0x3ef5b55c	0.4798993
16	0xbf03093b	-0.5118596
17	0x3ccc4d2b	0.02493914
18	0x3eb61a1f	0.35566804
19	0xbe2a98bd	-0.16659828
20	0xbe95e157	-0.29273483
21	0x3f36399b	0.7118165
22	0x3f57cf68	0.8430085
23	0xbe993fe9	-0.29931572
24	0x3e4a4fdb	0.19757025
25	0xbe7f2b6f	-0.24918912
26	0x3f1e4be2	0.6183454
27	0xbed288f8	-0.41120124
28	0x3e18dba9	0.14927544
29	0x3e5ef078	0.21771419
30	0xbe89b349	-0.26894596
31	0xbef19448	-0.47183442
32	0xbe191beb	-0.14952056
33	0xbeaf6fce	-0.34264988
34	0xbdfc0f6a	-0.123076275
35	0xbd2a947b	-0.04164551
36	0x3e409cec	0.18809861
37	0x3de88134	0.113527685
38	0xbf208aac	-0.62711596
39	0xbd2634f6	-0.04057785
40	0xbd5914ab	-0.052998226
41	0xbe806b93	-0.25082073
42	0x3f09737d	0.53691846
43	0xbe648735	-0.22317202
44	0xbdef9c56	-0.116997406
45	0xbe004566	-0.12526473
46	0x3db1b5ac	0.08677229
47	0xbd6ebcff	-0.05828571
48	0x3e90f61d	0.2831277
49	0xbed8c93e	-0.42341036
50	0x3f14ef23	0.58177394
51	0xbdb20bed	-0.08693681
52	0xbde1964f	-0.11014997
53	0xbf03d1fe	-0.514923
54	0xbd962c57	-0.07332676
55	0x3e85c4ce	0.26126713
56	0xbed81063	-0.42200002
57	0x3d38236f	0.044955667
58	0x3ea22fc9	0.31677082
59	0xbf0b9232	-0.5451995
60	0xbe0c97b5	-0.13729747
61	0xbda220f5	-0.07916442
62	0x3fb0cd77	1.3812703
63	0xbe64469d	-0.22292562
64	0x3c9154d6	0.017740648
65	0xbeaf3644	-0.3422109
66	0xbe32964f	-0.1744015
67	0x3f841eb3	1.0321869
68	0x3e240485	0.16017349
69	0x3ee6e0e8	0.45093465
70	0xbddb453b	-0.10706564
71	0x3e24cf66	0.16094741
72	0x3e81dd32	0.2536407
73	0x3e80b1b7	0.25135586
74	0xbdb66449	-0.089058466
75	0xbe62e46a	-0.22157446
76	0xbdd1e53c	-0.10248801
77	0x3df2dadd	0.11858151
78	0xbf246ecc	-0.6423156
79	0x3ef6a4ee	0.48172706
80	0xbf174800	-0.5909424
81	0xbf277db8	-0.65426207
82	0x3e184421	0.14869739
83	0x3d1fe54d	0.039037038
84	0xbd73c2d5	-0.05951198
85	0x3ef5c2d1	0.48000196
86	0xbec2c672	-0.38042027
87	0x3d10f1ec	0.035386965
88	0x3e25be7a	0.16185942
89	0x3e551a53	0.20810823
90	0xbd6b669c	-0.057470903
91	0x3e780cfd	0.24223705
92	0xbd318c69	-0.043346796
93	0xbe3ad68e	-0.18245909
94	0xbf16e7c7	-0.58947414
95	0xbe834ad6	-0.25643033
96	0xbde775eb	-0.11301788
97	0x3e95a2b3	0.29225692
98	0xbe6b9739	-0.23006906
99	0xbd0c47b1	-0.034248058
100	0x3f590ff7	0.84789985
101	0x3e01b147	0.12665282
102	0x3e9ca381	0.30593494
103	0x3e84023a	0.2578295
104	0x3ee92028	0.45532346
105	0x3eb023be	0.3440227
106	0x3e9d176c	0.30681932
107	0x3db2a30d	0.08722506
108	0x3e3ceb3d	0.18449111
109	0xbe3650fd	-0.17804332
110	0x3f222291	0.63333994
111	0x3deef372	0.11667527
112	0x3ef348ce	0.47516483
113	0x3e9a96b0	0.3019309
114	0x3d8bc5a4	0.06824806
115	0xbed3c4dd	-0.41361132
116	0x3f20e5ae	0.62850463
117	0xbc9e83e2	-0.019349996
118	0xbd5c72b8	-0.05382034
119	0xbebe993c	-0.37226284
120	0xbd8f544e	-0.06998502
121	0xbed4fddd	-0.41599932
122	0x3e862799	0.26202086
123	0xbcc46880	-0.02397561
124	0x3c41e712	0.011834877
125	0xbeffd7ea	-0.49969417
126	0xbef2ad8d	-0.47398034
127	0x3bf18bfd	0.007371424
128	0xbe8a5b83	-0.27022943
129	0xbd90e2fe	-0.07074545
130	0x3e969f50	0.2941842
131	0xbb645eb4	-0.0034846487
132	0x3cc8c65f	0.024508653
133	0xbdee223a	-0.11627622
134	0x3e969beb	0.2941583
135	0x3d00e4cf	0.03146821
136	0x3e519921	0.2046857
137	0x3f2acfa2	0.6672307
138	0xbedaf89a	-0.42767793
139	0x3ebb265b	0.365527
140	0xbe9d0b63	-0.3067275
141	0xbe442aed	-0.19157
142	0xbdcd2727	-0.10017233
143	0x3c7759de	0.01509711
144	0xbefd8532	-0.49515682
145	0xbe830311	-0.25588277
146	0x3efe84cf	0.497107
147	0x3e9d38f8	0.30707526
148	0xbf150877	-0.5821604
149	0x3cb361a7	0.02189715
150	0xbebf614c	-0.3737892
151	0x3eaa56d2	0.33269364
152	0xbde63d5a	-0.11242171
153	0x3f11ebed	0.5700062
154	0x3ca95eae	0.02067503
155	0x3d8da979	0.0691709
156	0x3d4c0add	0.049815048
157	0x3ddd4fe3	0.10806253
158	0x3dfead2c	0.12435374
159	0xbe6229b3	-0.2208622
160	0xbe23ead6	-0.16007552
161	0x3e83149a	0.25601655
162	0x3d50bd44	0.050961748
163	0xbe471642	-0.19442084
164	0x3e65a6e9	0.22426952
165	0x3d195382	0.037433155
166	0x3e26c908	0.16287625
167	0x3e8222ce	0.2541718
168	0xbe270480	-0.1631031
169	0x3f923dab	1.142507
170	0xbf147a01	-0.57998663
171	0xbe546221	-0.20740558
172	0x3df84e77	0.12124341
173	0x3d579307	0.05263045
174	0xbefeebed	-0.49789372
175	0x3db9953f	0.090616696
176	0xbef76c99	-0.4832504
177	0xbe3242e7	-0.17408334
178	0x3ec28fcb	0.3800033
179	0xbe987516	-0.2977683
180	0xbeaef9a0	-0.34174824
181	0xbed6139f	-0.41811845
182	0x3ee0c0ea	0.43897182
183	0xbe6f561a	-0.23372689
184	0x3f2a6d2b	0.6657283
185	0xbeaf79ef	-0.34272715
186	0x3d8fe47f	0.07026004
187	0xbeeef842	-0.4667378
188	0x3f2820d3	0.65675086
189	0xbfac23ec	-1.3448462
190	0xbe34c370	-0.17652678
191	0x3f0febc0	0.562191
192	0x3dd4c607	0.10389333
193	0x3c009b03	0.007849458
194	0xbd311606	-0.043233894
195	0xbd8ca311	-0.0686704
196	0x3eba03c9	0.36331013
197	0x3e3eb355	0.18623097
198	0xbcba5886	-0.02274729
199	0xbc8a6dcd	-0.01689806
200	0xbf1bc3f2	-0.60845864
201	0xbe6b2330	-0.22962642
202	0xbe10c5b9	-0.14137925
203	0x3d89415d	0.0670192
204	0x3d6842c0	0.056704283
205	0x3f1f1864	0.6214659
206	0xbe26b8c7	-0.16281424
207	0xbe3c2f27	-0.18377362
208	0x3dfebae5	0.12437991
209	0x3eb3d623	0.3512431
210	0xbf193340	-0.59843826
211	0xbe941511	-0.28922322
212	0x3f070919	0.52748257
213	0xbecd098f	-0.40046355
214	0xbc9ce675	-0.01915286
215	0x3e9f1fcc	0.31078947
216	0xbe26a866	-0.16275176
217	0x3de4bb22	0.11168505
218	0xbecc09ea	-0.39851314
219	0xbd38631b	-0.04501639
220	0xbdf483dd	-0.119392134
221	0xbf6a280c	-0.91467357
222	0x3f2c822f	0.67386144
223	0xbf258b63	-0.6466581
224	0xbe299df8	-0.16564167
225	0x3eb70d46	0.35752314
226	0x3f0fbfd0	0.5615206
227	0x3e0b2745	0.13589199
228	0xbe2060ec	-0.15661973
229	0x3dc89efb	0.09795948
230	0x3e3d02ee	0.18458149
231	0xbe08c63c	-0.1335687
232	0xbd57d1e9	-0.05269042
233	0xbe2591f5	-0.1616896
234	0x3eb3b4fe	0.35099024
235	0xbec39c7d	-0.3820533
236	0xbc99b369	-0.018762307
237	0x3ed01d78	0.40647483
238	0xbea58f29	-0.32335785
239	0xbf253174	-0.64528584
240	0xbf153ee0	-0.58299065
241	0x3cf70e58	0.030158207
242	0x3e793b79	0.24339093
243	0xbe6c1905	-0.23056419
244	0xbe8f97d5	-0.28045526
245	0x3e8e2f65	0.27770534
246	0x3ef1b190	0.47205782
247	0x3ed1dce8	0.4098885
248	0xbf0bad64	-0.5456145
249	0x3d0abcce	0.033871464
250	0x3e806caa	0.25082904
251	0x3dd24c84	0.102685004
252	0x3d5368e2	0.051613696
253	0x3e040816	0.1289371
254	0x3ea93455	0.3304774
255	0x3da3201f	0.07965111

network_body._body_endoder.seq_layers.0.bias f4 [128]
0	0x3ba2a45e	0.0049634418
1	0x3c059a39	0.008154445
2	0xbb065411	-0.0020496885
3	0xbc8d9cba	-0.017286647
4	0xbc6ac00c	-0.014328014
5	0xbb110f91	-0.0022134522
6	0xbc06f6c4	-0.008237544
7	0xbb8b48bd	-0.0042506144
8	0xbbaa6bb3	-0.005200827
9	0x3c5021ec	0.0127034
10	0x3c12d530	0.008961961
11	0xbb00b65f	-0.0019639952
12	0x3be90dc9	0.007112239
13	0x3c7a1d13	0.015265721
14	0x3c194f35	0.009357263
15	0x3c379a2b	0.01120619
16	0xbbb56dab	-0.005536755
17	0x3c79eebc	0.015254673
18	0x3cc92092	0.024551664
19	0xbc294770	-0.010331973
20	0x3c8502da	0.016236711
21	0x3c1ab639	0.009442859
22	0xbc5ff5ca	-0.0136694405
23	0x39d791ac	0.0004111653
24	0x3b62b83e	0.003459468
25	0x3c9b0138	0.01892148
26	0x3cd29eaa	0.025710423
27	0x39d7a904	0.00041133922
28	0x3bfe3129	0.007757325
29	0x3c0b6440	0.008507788
30	0x3c3160bd	0.010826287
31	0x3c20e2de	0.009819714
32	0xbc45329c	-0.012035992
33	0x3c82eb1c	0.01598125
34	0xbb94fc9f	-0.0045467163
35	0x3c7f18c8	0.015569873
36	0x3b4e85c3	0.0031512834
37	0x3c656b89	0.014002689
38	0x3c9d816e	0.019226756
39	0xbb6cb049	-0.0036115816
40	0x3bba9ec1	0.0056951945
41	0xba99bd06	-0.0011729307
42	0x3bc2d0d9	0.0059453067
43	0x3b62b0ae	0.0034590173
44	0x3c5c281e	0.013437299
45	0x3b5af5fd	0.003341078
46	0x3c374fba	0.011188442
47	0xbb83fe58	-0.004028123
48	0x3c603178	0.013683669
49	0x3c4c0392	0.012452023
50	0x3bd470f8	0.0064831935
51	0x3c39494b	0.011308978
52	0x3c3b93d7	0.011448822
53	0xbb2fb2e0	-0.0026809499
54	0xba55ebe3	-0.0008160455
55	0xbb4c7f33	-0.0031203746
56	0x3c24d8d2	0.01006146
57	0x3c1444cc	0.009049606
58	0x3c833a4d	0.01601901
59	0xbb0ceb62	-0.0021502604
60	0x3c497a45	0.012297218
61	0x3c55765b	0.013028706
62	0x3ca68761	0.020328226
63	0x3c1f2747	0.009713954
64	0xbc860c7f	-0.01636338
65	0xbbb4d050	-0.005517997
66	0xbbff2f8a	-0.0077876495
67	0x3bb2dec8	0.0054586865
68	0x3c1fbee2	0.0097501
69	0x3c849907	0.01618625
70	0x3c27d6d6	0.010244092
71	0xbb15cddc	-0.0022858297
72	0x3aa6982c	0.0012710146
73	0x3c4b9f85	0.012428169
74	0xbbb0f976	-0.005400832
75	0x3bc58cb5	0.0060287365
76	0xbb9c9fd2	-0.0047797943
77	0xbc6d47a6	-0.014482414
78	0x3c8be132	0.017075155
79	0x3b8003d9	0.0039067087
80	0x3bc91b1e	0.006137266
81	0x3c201b59	0.009772145
82	0x3c91fa0c	0.017819427
83	0x3cb5d4dc	0.022196226
84	0xba2abc4f	-0.00065130455
85	0xbbff5755	-0.007792393
86	0x3cba9bc6	0.022779357
87	0xbb8ea3ff	-0.004353046
88	0x3ce53ea6	0.027983975
89	0x3c140896	0.00903525
90	0x3c237ddc	0.009978738
91	0x3c9eeb1d	0.01939922
92	0xbc5ae527	-0.013360298
93	0xbc4077d7	-0.011747322
94	0x3c8b0495	0.016969958
95	0x3b411d44	0.0029466907
96	0x3c9a4421	0.018831315
97	0x3bff0b9a	0.0077833654
98	0x3b826644	0.003979476
99	0x3bb12eda	0.0054071965
100	0x3c3ed8a2	0.011648329
101	0x3cb04245	0.021515975
102	0xba7df06d	-0.00096870103
103	0xbb0ce6fb	-0.002149998
104	0x3c4d2106	0.01252008
105	0x3bb5554a	0.005533849
106	0x3c67c721	0.014146597
107	0x3bf480ce	0.007461644
108	0xbba303c9	-0.0049748165
109	0x3c254ff8	0.010089867
110	0x3b3c83b5	0.0028765027
111	0x3a691771	0.00088917377
112	0x3b6f781e	0.0036540101
113	0xbc1d1369	-0.009587147
114	0xbc598d2b	-0.013278286
115	0x3b434e74	0.00298014
116	0xbaa80817	-0.0012819794
117	0x3b7b1cb7	0.0038316676
118	0x3aee0ef0	0.0018162411
119	0x3b807f45	0.0039214217
120	0x3bac4274	0.0052569453
121	0x3cb03eae	0.021514263
122	0x3cd567e4	0.026050515
123	0x3ca6354e	0.02028909
124	0xba0aa9dc	-0.0005289593
125	0x3c51b727	0.012800015
126	0x3bd4a314	0.006489167
127	0x3c12f563	0.008969638

action_model._continuous_distribution.log_sigma f4 [1, 2]
0	0xbc008dc1	-0.007846297
1	0xbbd4c340	-0.006493002

action_model._continuous_distribution.mu.weight f4 [2, 128]
0	0x3ab005e6	0.0013429492
1	0xbd50b045	-0.050949354
2	0xbb927618	-0.0044696443
3	0xbc00fa99	-0.007872247
4	0xbc9ba590	-0.018999845
5	0x3c9a0838	0.018802747
6	0xbbb944c2	-0.0056539485
7	0x3c4a3c54	0.012343485
8	0xbca54ea2	-0.020179097
9	0xbc548de3	-0.012973282
10	0x3cb39adb	0.021924427
11	0xbc25e8a5	-0.010126268
12	0x3c3dd6e8	0.011586882
13	0xbd0fdd55	-0.035123188
14	0xbcc944ae	-0.024568882
15	0x3a8dea37	0.0010827248
16	0xbb49ae40	-0.0030774027
17	0xbd39bb75	-0.04534479
18	0x3d1f574a	0.038901605
19	0xbb06c7ba	-0.0020565824
20	0x3c3f02e1	0.011658401
21	0xbd04dc08	-0.0324364
22	0xbc81a2ae	-0.015824642
23	0xbcb6936c	-0.022287093
24	0x3c2c3fbc	0.010513242
25	0x3d36593f	0.044518705
26	0xbd0fcab4	-0.035105422
27	0xbbb7d557	-0.005610149
28	0x3d00b5b2	0.03142328
29	0xbbb5be85	-0.0055463933
30	0x3ce13c49	0.027494567
31	0x3d13f15b	0.036118846
32	0xbbcadf34	-0.0061911587
33	0x3c1e259a	0.00965252
34	0xbc8c4b12	-0.01712564
35	0x3c120c78	0.008914106
36	0xbab3ebf8	-0.001372694
37	0x3c2b2c8a	0.010447631
38	0x3d516ea8	0.05113092
39	0x3c6c93cc	0.014439534
40	0xbc1e01ba	-0.009643966
41	0x3cd2ce00	0.025732994
42	0x3c8ffe06	0.017577183
43	0x3ba2b909	0.0049659056
44	0xbc51d72b	-0.012807648
45	0x3c7a8fd3	0.015293079
46	0x3d29870f	0.041388568
47	0x3ad84357	0.0016499561
48	0xbcfd41a0	-0.030915082
49	0xbb049b9c	-0.0020234352
50	0xbc93179d	-0.017955596
51	0xbd1a1b37	-0.03762361
52	0xbd526584	-0.051366344
53	0x3ae60114	0.0017547929
54	0x3cc67dd0	0.024229914
55	0xbd00761e	-0.031362645
56	0xbd353b13	-0.04424579
57	0xbc91b5db	-0.01778691
58	0x3b7c0a81	0.003845841
59	0x3c235340	0.009968579
60	0xbc9929a9	-0.018696623
61	0x3d01a627	0.031652596
62	0xbd817c10	-0.06322491
63	0xbd209ef5	-0.039214093
64	0x3ca13c2c	0.019682012
65	0x3c6b37a1	0.014356525
66	0x3b849d99	0.0040471074
67	0xbd1a54b7	-0.037678447
68	0x3be21c3f	0.00690034
69	0x3c131d19	0.008979105
70	0x3d1123e4	0.03543462
71	0xbca945cc	-0.020663165
72	0x3bab7bc4	0.00523326
73	0x3d489523	0.048970353
74	0x3bc35d99	0.0059620854
75	0x3be74c80	0.00705868
76	0x3c000b47	0.007815189
77	0xba99b895	-0.0011727983
78	0x3d820c42	0.06349994
79	0x3cfc92a4	0.030831642
80	0xbc95aed7	-0.018271847
81	0x3bb09507	0.005388859
82	0xbb74c70a	-0.0037350082
83	0x3c6ed7ef	0.01457785
84	0x3baff64c	0.005369937
85	0x3c5f3a45	0.013624732
86	0x3d42464c	0.04743032
87	0xbcfe56ab	-0.031047186
88	0x3d9eabef	0.077476375
89	0xbcec7603	-0.028864866
90	0x3c367ae4	0.011137698
91	0x3b88abd4	0.004170874
92	0xbb108a28	-0.0022055004
93	0xbbbd3c56	-0.005775015
94	0x3cada477	0.021196587
95	0xbc2da8a5	-0.01059929
96	0xbc32db78	-0.010916583
97	0xbcc2db27	-0.02378614
98	0x3cf97a96	0.030453961
99	0xbb9ed5d9	-0.00484727
100	0xbc9af471	-0.018915387
101	0x3d0739e4	0.033014193
102	0x3ca26b82	0.019826654
103	0xbd00aeb6	-0.031416617
104	0x3d0b91e7	0.03407469
105	0xbc13233e	-0.00898057
106	0x3bc11da9	0.0058934283
107	0x3be88fbd	0.007097213
108	0x3c851fcf	0.01625052
109	0x3c02669f	0.007959037
110	0xbd2183de	-0.0394324
111	0x3d1d590b	0.038414996
112	0x3d0e522e	0.03474634
113	0xbbe8d46c	-0.007105401
114	0xbc7cc0a2	-0.015426787
115	0xbc401406	-0.011723524
116	0xbc148d1e	-0.009066848
117	0xbbb6c964	-0.005578207
118	0x3c8167ec	0.015796624
119	0x3ca9fef9	0.020751463
120	0x3ca5eba4	0.020253964
121	0x3d2c8138	0.04211542
122	0x3be3534e	0.006937421
123	0xbd317109	-0.04332069
124	0x3bd34b94	0.0064482186
125	0x3ad09308	0.0015912959
126	0xb93fccf7	-0.00018291535
127	0xbb93cf33	-0.004510784
128	0x3d5218f7	0.05129334
129	0xbbbb6334	-0.005718613
130	0x3d2ff5bd	0.042958964
131	0xbb5ce4e3	-0.0033705763
132	0xbcb9fc45	-0.0227033
133	0xba94d230	-0.0011354145
134	0xbc90d6ac	-0.017680489
135	0xbc820376	-0.01587079
136	0x3ce0adb7	0.027426584
137	0xbc9bffbe	-0.019042846
138	0x3c1646fa	0.009172196
139	0xbcedacc6	-0.029013049
140	0xbca6c79a	-0.02035885
141	0xbd01cfd8	-0.031692356
142	0xbbd9eb1c	-0.0066503417
143	0x3d23302f	0.039840873
144	0x3c5caa03	0.013468268
145	0xbd19e0a9	-0.03756777
146	0x3c49308b	0.01227964
147	0xbb815746	-0.0039471714
148	0xbd6ada5b	-0.057337146
149	0xbccc1199	-0.024910735
150	0x3b8f7b14	0.0043786857
151	0x3c9e7d5d	0.019346887
152	0xbcebef37	-0.02880059
153	0xbaed8e2f	-0.0018124039
154	0xbce493a6	-0.027902436
155	0x3c320023	0.01086429
156	0xbd22d66c	-0.03975527
157	0x3d07f372	0.033191152
158	0xbc852b97	-0.016256137
159	0x3c82dc76	0.015974265
160	0xbaef5898	-0.0018260656
161	0x3cd0a90a	0.02547123
162	0x3c5f130a	0.013615379
163	0xbd29d059	-0.04145846
164	0x3c3bca56	0.011461815
165	0x3d204ca8	0.039135605
166	0xbd0458da	-0.032311298
167	0xbcbcc70f	-0.023044137
168	0x3c941893	0.018078124
169	0xbc064231	-0.008194492
170	0xbcdc6b33	-0.026906585
171	0xbcc2f1bb	-0.023796907
172	0x3c863709	0.016383665
173	0xbb825da2	-0.003978447
174	0xbcc922ed	-0.024552787
175	0x3b985c87	0.004649702
176	0xbc580aab	-0.013186137
177	0xbd25fbb8	-0.04052326
178	0x3d3ea1ca	0.046541013
179	0xbcf811aa	-0.03028186
180	0xbd15a2f6	-0.036532365
181	0xbbe3485f	-0.0069361175
182	0x3ab5b429	0.0013862896
183	0x3c0adb45	0.0084751295
184	0x3d1a211b	0.037629228
185	0x3ba1a7ae	0.004933319
186	0xbd066a2e	-0.032816105
187	0xbce90374	-0.02844403
188	0x3c1745d7	0.00923296
189	0xbbf9de6c	-0.0076253917
190	0xbc41460c	-0.011796486
191	0x3d10d413	0.0353585
192	0xbc551b49	-0.013006994
193	0xbb927cbf	-0.0044704373
194	0xbc7d610e	-0.015465034
195	0x3cbaa557	0.022783918
196	0x3cb3c1bb	0.021942964
197	0x3d1e2673	0.038610887
198	0xbc38f23a	-0.01128822
199	0x3a176fc5	0.0005776848
200	0x3c541d62	0.0129464585
201	0xbcb94301	-0.022614958
202	0x3c788ecf	0.015170767
203	0xbce7e404	-0.028306969
204	0x3c513315	0.012768527
205	0x3bae7ac5	0.005324694
206	0x3cd3a338	0.025834665
207	0x3b8e9c7d	0.004352151
208	0x3d06f56b	0.032948893
209	0xbd3947f0	-0.04523462
210	0x3d36c00c	0.044616744
211	0x3cd9e437	0.02659808
212	0x3bb8e2c5	0.0056422674
213	0xb951c6d3	-0.00020005861
214	0x3c3a43f1	0.011368738
215	0xbbc05673	-0.0058696805
216	0xbc8c222b	-0.017106136
217	0xbceef9a9	-0.029171782
218	0xbbc39262	-0.005968378
219	0x3cfcd1f1	0.030861827
220	0x3c551b61	0.013007016
221	0xbc328843	-0.010896745
222	0xbcedfbc1	-0.02905071
223	0xbcce1e0e	-0.025160816
224	0xbd060be4	-0.032726184
225	0x3d011215	0.031511385
226	0xbbd24c99	-0.0064178226
227	0xbce27669	-0.027644353
228	0x3c120189	0.008911499
229	0x3b237b35	0.0024945263
230	0xbb28858a	-0.002571436
231	0x3b7461bb	0.0037289697
232	0xbcd9ec3a	-0.0266019
233	0x3ccb0d4a	0.02478661
234	0x3cd0f81c	0.025508933
235	0xbc902716	-0.017596763
236	0x3c6cb9c9	0.0144485915
237	0x3d26587a	0.04061172
238	0x3ca611dd	0.02027219
239	0xbc9c41b4	-0.019074298
240	0xbbae6595	-0.005322168
241	0xbcf255dd	-0.029581958
242	0xba84554e	-0.0010096224
243	0x3cad7ecb	0.021178624
244	0xbd28c323	-0.041201722
245	0x3c57bbe3	0.013167354
246	0xbccd7c7d	-0.025083775
247	0xbca9b590	-0.020716459
248	0x3bc3e8e3	0.00597869
249	0x3b9fa509	0.0048719686
250	0x3d14fc84	0.03637363
251	0x3cacadaf	0.021078913
252	0x3c90e398	0.01768665
253	0x3d07eb95	0.033183653
254	0xbcead25c	-0.02866476
255	0x3ccc1dd1	0.024916561

action_model._continuous_distribution.mu.bias f4 [2]
0	0x3afb6465	0.00191797
1	0x3b23a9e3	0.0024973087

onnx::Div_46 f4 [8]
0	0x3db21e44	0.08697179
1	0x3db0ae10	0.0862695
2	0x3f9c4f41	1.2211686
3	0x3ee42674	0.44560587
4	0x3f9ef257	1.2417706
5	0x3f8d4d98	1.1039305
6	0x3f9e0ed0	1.234827
7	0x3f8ca286	1.0987098
