results/Short_LowLR/3DBall/3DBall-449959.pt (torch, 49284 bytes, 32 tensors)

network_body.observation_encoder.processors.0.normalizer.running_mean f4 [8]
000000 a9 21 e5 bb 25 6b 69 bb ee 22 a3 3d 64 b3 46 40
       -0.006992538 -0.0035616842 0.07965647 3.1046991
000010 79 a0 c4 bd 06 88 e1 3d a8 90 71 bf 0b 4c e1 bd
       -0.0960092 0.110122725 -0.9436135 -0.11000832

network_body.observation_encoder.processors.0.normalizer.running_variance f4 [8]
000000 b6 66 4a 45 73 a3 2e 45 a2 5a 2f 49 1e e3 9d 47
       3238.4194 2794.2156 718250.1 80838.234
000010 6a 59 1c 49 78 88 10 49 f8 cb 1b 49 1c a3 e0 48
       640406.6 592007.5 638143.5 460056.88

network_body.processors.0.normalizer.running_mean f4 [8]
000000 a9 21 e5 bb 25 6b 69 bb ee 22 a3 3d 64 b3 46 40
       -0.006992538 -0.0035616842 0.07965647 3.1046991
000010 79 a0 c4 bd 06 88 e1 3d a8 90 71 bf 0b 4c e1 bd
       -0.0960092 0.110122725 -0.9436135 -0.11000832

network_body.processors.0.normalizer.running_variance f4 [8]
000000 b6 66 4a 45 73 a3 2e 45 a2 5a 2f 49 1e e3 9d 47
       3238.4194 2794.2156 718250.1 80838.234
000010 6a 59 1c 49 78 88 10 49 f8 cb 1b 49 1c a3 e0 48
       640406.6 592007.5 638143.5 460056.88

network_body._body_endoder.seq_layers.0.weight f4 [128, 8]
000000 5a 6e eb 3e d2 3e 71 3e d3 96 96 3e 41 7b c6 be
       0.4598263 0.2355912 0.29411945 -0.3876591
000010 2a 2a 08 bc aa f4 fd 3d 1f b6 94 bd 8c 26 c5 ba
       -0.008310834 0.124001816 -0.07261299 -0.0015041395
000020 78 d2 39 3f ac 20 f2 3e d9 cf c2 be 0e bc 91 3d
       0.72586775 0.47290552 -0.380492 0.07115947
000030 08 ed 84 be 93 06 a2 3d 7e fb 40 3e 64 31 55 bc
       -0.2596209 0.0791141 0.18845937 -0.013012264
000040 1c ec 19 be 3f d1 ae bd 69 a6 aa be 4f 11 0b 3e
       -0.15031475 -0.08536004 -0.33330086 0.13580821
000050 ef 75 ea be 88 ab 11 3f 33 99 9d be 55 85 09 3e
       -0.457931 0.5690236 -0.30780944 0.13429768
000060 44 d1 8c be 19 89 c3 3e da a8 57 be 52 fb 25 be
       -0.27503407 0.38190535 -0.21060506 -0.16209152
000070 ba b2 c9 be b5 30 26 bf fd 74 fb be a8 76 03 3f
       -0.3939417 -0.6491807 -0.49112692 0.5135293
000080 e8 14 fa be e0 5b 0e 3f 40 bd 41 3f 3b 16 63 bd
       -0.48844075 0.5560894 0.756794 -0.055441123
000090 4a 9e 6f be ce be 59 be 0b 24 29 3f de 17 b8 3e
       -0.23400226 -0.21264192 0.6607062 0.3595571
0000a0 09 c5 08 bf 00 d0 8f 3e 10 f9 59 be 99 09 55 3d
       -0.5342565 0.2808838 -0.21286416 0.052011106
0000b0 e3 09 8b bb a1 b1 cc be bc bb 80 be ed be a1 be
       -0.004243122 -0.3997927 -0.2514323 -0.31590977
0000c0 94 c0 64 bd c5 64 95 bd a8 ce 91 be 90 70 c6 bc
       -0.05584772 -0.07294611 -0.2847798 -0.024223596
0000d0 08 18 04 bf d3 26 0c 3f ef 0f 48 3f 61 cf 25 3f
       -0.5159917 0.5474674 0.7814931 0.6476956
0000e0 89 e8 ee 3e 71 b1 3f 3f bc 1f ac be e4 fb 37 bc
       0.46661785 0.7488013 -0.3361796 -0.011229489
0000f0 34 b4 5c be 71 48 fd be b6 50 d2 3e e0 1e 89 3e
       -0.21553117 -0.4946933 0.41077203 0.26781368
000100 d9 a2 9b be 2c 10 cf 3e 25 40 7e be 0f d7 2b bf
       -0.3039768 0.40442026 -0.24829157 -0.6712503
000110 f4 65 72 3d a3 d0 ac bd 57 8b 86 3e ca 12 99 be
       0.05917926 -0.08438232 0.26278183 -0.29897147
000120 0f 57 47 3e 9c 1b 30 bf b2 d0 96 bd e6 76 8d be
       0.19466804 -0.6879213 -0.07364024 -0.27629775
000130 a1 44 34 bf 57 d2 96 bd 64 84 75 bd 19 5c 84 3e
       -0.7041722 -0.07364338 -0.05994071 0.25851515
000140 df 35 9d bd cd 64 d9 3e b6 aa 56 bd d0 90 0e be
       -0.07676291 0.42459717 -0.052408896 -0.13922429
000150 f0 63 19 bf 9b f8 84 be 2f 9b 90 3e 41 0d 8f 3e
       -0.5991812 -0.2597092 0.28243396 0.279398
000160 c8 06 ed bc e5 16 8d be ed d2 d5 be 1f e6 cc 3d
       -0.028933898 -0.2755653 -0.41762486 0.100048296
000170 a1 d4 cb be af 2b 0c 3e 22 e0 b4 bd db 30 5f 3e
       -0.3981066 0.13688539 -0.088318124 0.2179598
000180 35 ee e9 3e 07 de f8 be 28 4a 90 3e ee 75 cf 3e
       0.4568955 -0.48606893 0.28181577 0.4051966
000190 b8 c4 b0 be ed e3 cf be 11 b3 10 bf 64 04 d0 bc
       -0.34525084 -0.4060358 -0.56523234 -0.025392719
0001a0 d6 de 57 bf 85 d1 af be 02 3a cc 39 f3 70 cf be
       -0.84324396 -0.34339538 0.0003895313 -0.4051586
0001b0 cf ad 44 3f 6a dc c9 be c1 20 2c be 7f 16 92 3e
       0.7682771 -0.39425975 -0.1680937 0.28532788
0001c0 ca ac 2b 3e b3 20 88 be 7d 9f ac be 01 da 23 3e
       0.16765133 -0.26587448 -0.3371543 0.1600113
0001d0 cd 9e e0 3d fa 9e f1 3e 11 5f 86 3e 0d f3 93 bd
       0.10967789 0.47191602 0.26244405 -0.07224093
0001e0 70 56 e7 3e 98 a8 35 be cb 44 0f 3d b0 20 78 3d
       0.45183134 -0.17740095 0.034977715 0.06057805
0001f0 9f f9 97 3e d5 f9 87 be 1f d0 fa be 30 f2 d0 3e
       0.29682633 -0.26557794 -0.4898691 0.40809774
000200 23 43 af 3e e1 a0 12 3d d0 c9 9e 3e fe b4 3f bf
       0.3423091 0.035797957 0.31013346 -0.7488555
000210 d2 1a 88 3d 70 3d 0d bf ab 70 ae be d7 a5 a3 bd
       0.066457406 -0.5517187 -0.34070334 -0.07990616
000220 8c ad d3 3e 55 89 93 be c8 99 50 bf 67 96 88 3d
       0.41343343 -0.28815714 -0.8148465 0.06669312
000230 ca b2 6a be 7b 1e c8 3e d2 3b 22 bf 2d ee 11 3f
       -0.22919765 0.39085755 -0.6337253 0.5700405
000240 1a 62 4b 3d 57 6e 25 be 76 5c 9a 3d 17 d4 19 3e
       0.049654104 -0.16155373 0.07537167 0.15022312
000250 e9 b2 a9 be 5a dd 91 3e 6c 23 4f 3f 5c ef 15 3f
       -0.3314431 0.2848919 0.80913424 0.5856836
000260 1b 9b 8e 3d 41 7e 03 be 96 3b b3 3d 68 61 ac be
       0.06963178 -0.12841131 0.087515995 -0.33668065
000270 c3 82 72 be a4 d0 e9 bd 67 43 8e 3e da a1 bd bd
       -0.23682694 -0.11416748 0.277858 -0.09259386
000280 b3 2d 12 bd 49 e4 8e 3d 57 d8 0c 3e 31 50 1f be
       -0.035688113 0.06977136 0.13754402 -0.15557934
000290 aa c4 c8 3e 68 50 85 be b5 df de 3d 4f 68 e3 3d
       0.39212543 -0.26037908 0.108825125 0.1110388
0002a0 45 90 03 bf 69 64 40 bf 52 2c db 3e 1c be 91 3e
       -0.5139201 -0.75153214 0.4280725 0.28465354
0002b0 b6 1a 5d be bc 1b 85 be d8 91 ac 3e 2d 86 f2 be
       -0.2159222 -0.25997722 0.3370502 -0.47367993
0002c0 ed ff 4e bd 86 fb d0 3e 0b 89 8d be 4f 3d 91 bc
       -0.05053704 0.40816897 -0.27643618 -0.01772943
0002d0 08 d2 65 3e 1a 24 a9 3e 9b a9 98 3e 1c 2d 39 be
       0.22443402 0.33035356 0.298169 -0.18083614
0002e0 7e 86 52 be 97 1c 57 3f e7 70 88 3c cf bf 4b bd
       -0.20559117 0.84028 0.016655399 -0.04974347
0002f0 47 e2 60 be a4 e9 0c be a7 db 03 be 7e eb bb 3d
       -0.21961318 -0.13761002 -0.1287676 0.09175776
000300 98 00 2d bc a2 52 bc 3d ce 42 e0 be 2c e2 b6 be
       -0.010559224 0.091954485 -0.43800968 -0.3571943
000310 7f 0e 1c 3f a5 51 f2 3d 3c ca cb 3d 67 08 04 bf
       0.6095962 0.11831979 0.099506825 -0.5157532
000320 cd c2 80 be b8 e8 ca be 1f bb f6 bd 91 f3 50 3e
       -0.2514862 -0.39630675 -0.12047409 0.20405413
000330 bf 24 ee 3d c1 9c e7 be 10 db 58 be 63 2f 09 bf
       0.116281025 -0.4523678 -0.21177316 -0.5358793
000340 e6 11 3a be 73 77 1c bf 95 00 a4 3e ae ca b6 be
       -0.1817089 -0.61119765 0.32031694 -0.35701507
000350 34 d2 0f bd b5 84 27 bf a0 c8 66 3e b0 a7 e7 3d
       -0.035112575 -0.6543687 0.2253747 0.11311281
000360 34 90 ad 3e bd 28 d5 bd 46 44 93 3e d4 b1 34 3f
       0.3389908 -0.10408161 0.28763026 0.70583844
000370 d1 47 e7 bd ba e5 12 bc e2 a4 41 3e b2 00 42 bd
       -0.11292995 -0.008965904 0.18910554 -0.047363944
000380 19 a6 e3 be 75 15 b4 3e 19 8a f3 3d 46 ad 87 3c
       -0.4446266 0.3517262 0.118915744 0.016562115
000390 1d 36 00 3f a7 4b c2 be 59 d5 70 3f f9 85 85 3e
       0.5008257 -0.37948343 0.9407554 0.26078776
0003a0 c0 85 51 be 9a fd c7 3e d3 f2 8e be 42 9a c0 3e
       -0.20461178 0.3906067 -0.27919635 0.3761769
0003b0 9c 86 f0 be 1b 8d 7c be aa 1d 7f 3f 68 7e 04 3f
       -0.469777 -0.24663202 0.9965464 0.5175538
0003c0 7e f3 de be 8a 43 18 be a2 76 17 3e 82 e7 f8 bb
       -0.43545145 -0.14869514 0.14791349 -0.0075959573
0003d0 1c 20 80 3e e6 00 67 bd fb 56 ad be 8b 69 7b 3f
       0.25024498 -0.05639734 -0.33855423 0.9820792
0003e0 b1 79 98 3e 7e b4 30 3e b4 9c 1e 3e 6c fb d8 3e
       0.29780343 0.17256352 0.15489465 0.4237932
0003f0 35 a7 74 be b6 c7 55 bd 49 25 67 be c6 17 23 3f
       -0.2389191 -0.052192412 -0.22572817 0.6370815

network_body._body_endoder.seq_layers.0.bias f4 [128]
000000 3f 87 ff ba 66 92 50 3b 28 3b 38 bc 6f 74 52 3b
       -0.0019495263 0.0031825542 -0.011244573 0.0032112857
000010 89 fe c2 3b 69 13 6c 3c 30 66 70 bc a2 b3 27 3c
       0.005950753 0.014408925 -0.014672801 0.010235699
000020 4a 08 6b 3b 98 1e ed 3c d1 5b a7 3a f4 b6 ca ba
       0.0035863095 0.028945252 0.0012768452 -0.0015465901
000030 4d 92 9b 3c 34 bb 44 bc 06 18 62 3b 30 f8 47 3b
       0.01899066 -0.012007523 0.0034499182 0.0030512922
000040 c0 14 cd 3b 0b cb dc bb fa ae 36 3c 1b ce 99 bc
       0.006258577 -0.006738072 0.011150116 -0.018775037
000050 a9 85 0f 3b 9e 89 05 3d ba 68 4b 3c 08 9e 4c 3c
       0.0021899736 0.032601945 0.0124151055 0.012488849
000060 fc ea 43 bc 2a 9b 5d 3c 82 81 f0 3b fd 8a d1 bb
       -0.01195788 0.0135257635 0.0073396573 -0.0063947425
000070 60 9d c8 3b cb ce c5 bb 52 45 60 3c f4 d5 27 3a
       0.006122276 -0.0060366145 0.013688402 0.0006402426
000080 c0 16 4f 3c 3e eb 93 3c 5b 32 6d 3c 77 41 fc 3a
       0.012639701 0.018056508 0.014477338 0.0019245584
000090 08 7e fd 3b fa cf ec 3c d6 07 d7 3b db 44 47 3a
       0.0077359714 0.028907765 0.0065622134 0.0007601508
0000a0 28 13 cc 3c d7 fe 87 bc a4 2d 2b 3c 9e a8 24 bc
       0.024911478 -0.01660101 0.010447893 -0.010049967
0000b0 73 92 10 bc 10 4c 06 3c 08 5f 6d bc 54 fa 4e 3c
       -0.008823979 0.008196846 -0.014487989 0.012632925
0000c0 a2 5b 77 3c 7f 84 08 bb 0a 43 21 3c 9d 85 1f 3d
       0.015097531 -0.0020830927 0.0098426435 0.038945783
0000d0 fd c9 e2 bb 16 2d 84 3c 7a 99 29 bb 4d 30 ac b9
       -0.0069210515 0.01613478 -0.0025878833 -0.00032842383
0000e0 74 ce a7 3b 2d ce 5a bc 5d 58 92 3b f3 6d ac 3c
       0.0051210467 -0.01335482 0.0044661 0.021048522
0000f0 fd 28 a3 3c d3 50 0f bc 0c 48 33 3b 8b 13 80 ba
       0.019917006 -0.008747297 0.0027356176 -0.0009771449
000100 bb fe 6b 3c c4 8c 9e 3b 0b dd 8c 3b b1 90 74 3b
       0.014403994 0.004838558 0.0042988113 0.0037317688
000110 0e 68 25 3c ac 3f b4 3c fd 91 e7 3b 9c a3 bd 3c
       0.010095609 0.022003017 0.0070669637 0.023149304
000120 28 3e a4 bb ab b9 3a 3a 02 4d 3d 3c b2 f1 b2 3c
       -0.0050122924 0.00071230036 0.011554005 0.021843765
000130 3d 71 88 ba 35 9c bd 3c b7 37 91 ba 18 c1 85 3c
       -0.0010409724 0.023145774 -0.0011079226 0.016327426
000140 1d 56 4d bc bd 22 18 3b 46 89 70 3c 00 cd 14 bc
       -0.012532738 0.0023214065 0.014681166 -0.009082079
000150 ca 92 f8 3a 57 c8 f5 bb fb 78 d1 3a 03 6e 1b 3c
       0.0018964645 -0.007500689 0.001598149 0.009486678
000160 9f 35 5b 3c 7f 51 c1 3b 01 90 82 3b 23 e9 08 3d
       0.0133794835 0.0058996077 0.0039844518 0.03342546
000170 f7 33 5f 3c 92 38 b4 bb 02 a5 fc 3b 3d 43 96 3c
       0.013623229 -0.005499908 0.0077101 0.018342609
000180 10 e6 88 bc c7 f1 e1 3b e6 4e 99 3c 5b 85 82 3c
       -0.016711265 0.006895277 0.01871438 0.01593273
000190 52 82 a0 bb 32 13 ac bc 54 1d ef 3b 78 b9 52 3c
       -0.004898348 -0.021005247 0.0072971974 0.012861602
0001a0 40 8a 34 3c 0c 22 2a bb 54 bd ce 3c 7c 8d 26 3c
       0.0110192895 -0.0025960235 0.025236763 0.010165568
0001b0 2a f7 09 bc 67 7a 8b 3c ed 73 40 3c ea d3 b4 3b
       -0.008420745 0.01702614 0.011746389 0.005518426
0001c0 cf 1e 81 3c 8c 24 fa bc cf 28 09 bc de 04 1f 3c
       0.015761761 -0.030535005 -0.008371546 0.00970575
0001d0 b7 71 31 3b 4c 3c 79 3b b5 69 06 3c 90 1c 11 bb
       0.0027075836 0.0038030325 0.008203913 -0.0022142269
0001e0 b8 db d2 3c ac ef 75 ba c9 4b 14 3c 73 30 0a 3c
       0.025739536 -0.0009381722 0.009051272 0.008434403
0001f0 20 55 d4 3c d5 7c 05 3d a2 38 c7 bb 66 72 8b bb
       0.025919497 0.032589752 -0.006079749 -0.0042555807

action_model._continuous_distribution.log_sigma f4 [1, 2]
000000 89 a4 3f bc c4 0e 03 bc
       -0.011696943 -0.007999126

action_model._continuous_distribution.mu.weight f4 [2, 128]
000000 b2 37 0f bd d3 a6 06 bd bb ee 6d bc 43 55 a1 bc
       -0.034965225 -0.03287394 -0.01452225 -0.019693976
000010 66 8b 38 3c 65 42 c2 3c e2 76 b5 bb b4 41 19 bd
       0.011263704 0.0237133 -0.0055378536 -0.037416175
000020 64 82 26 bc 97 74 29 bc 9d 17 6a bc c6 19 bf bc
       -0.0101629235 -0.010342739 -0.014287856 -0.02332772
000030 9f f3 e5 bb 72 9c 52 bc 41 82 1c bd f3 ed db bc
       -0.0070175673 -0.012854682 -0.038210157 -0.026846861
000040 b4 68 3a bd 4f 59 1c 3c 65 a4 a6 3c 8f 4b a6 bc
       -0.04551001 0.009542777 0.020342061 -0.020299701
000050 dc f0 e3 3a 3b a2 c2 3c ff 9b 74 3c 8d 52 28 3c
       0.0017390507 0.023758998 0.0149297705 0.010273588
000060 ad 4f c8 bc d3 33 d6 bc 4e a3 c7 3c 34 75 12 bc
       -0.024452055 -0.026147759 0.024369862 -0.008939076
000070 eb 19 b4 3b 3f 42 a3 bc cb f9 14 3c dc 24 ca bb
       0.0054962537 -0.01992905 0.009092758 -0.0061689448
000080 9b de 52 3c ca a4 b3 3c 74 96 b1 3c 92 2c 1a bc
       0.012870456 0.021929163 0.021678187 -0.00941004
000090 af 9a 8f 3c 92 36 31 3d 97 71 98 bd fb 77 60 3c
       0.017529814 0.043264933 -0.074435405 0.013700481
0000a0 f8 74 3a bd 84 ed 87 bc b7 c0 fc 3b 40 d7 98 bc
       -0.045521706 -0.016592748 0.007713403 -0.018657327
0000b0 02 88 14 3c e4 b0 34 3d 2e 42 07 bb fd 39 4b 3c
       0.00906563 0.04411401 -0.0020638811 0.012403962
0000c0 eb 82 08 bd 96 b6 37 bd 15 fd 3b 3c 98 ae 33 3d
       -0.033327978 -0.044851862 0.011473914 0.043867677
0000d0 17 d4 85 3a 3c 97 9c bc bf d6 2e 3c 96 73 f8 ba
       0.0010210302 -0.019115083 0.010671317 -0.0018955346
0000e0 47 e1 38 bc 4b 0e b8 bc f9 70 6e 3c 20 f4 f6 3c
       -0.011284179 -0.022467753 0.014553302 0.030145705
0000f0 f6 5b c5 3c 47 75 3a 3c 73 c7 83 3b d3 b0 5a 3c
       0.024091702 0.0113805 0.004021579 0.013347822
000100 f7 9e de bb f3 04 e6 bb c3 dc 11 3b 08 73 62 3c
       -0.0067938524 -0.007019633 0.0022256828 0.013821371
000110 fc 3c 58 3c e9 d0 d6 3c 88 8e e4 bc 22 e4 b5 3b
       0.013198134 0.026222663 -0.027899995 0.005550877
000120 25 b6 e7 bc 49 4f 9d bc fd 91 d6 3c e7 60 de 3c
       -0.028285095 -0.019202845 0.02619266 0.027145816
000130 a0 bc 86 bc 6c 97 3f 3d 09 b4 40 3c c0 e1 49 bd
       -0.016447365 0.046775267 0.011761674 -0.049287558
000140 3b 2c 95 bc a7 15 fa 3a 67 11 ec 3c d5 84 2d bc
       -0.018209567 0.0019079939 0.028816892 -0.010590752
000150 5e de 12 3c 8f f6 0f bd 30 89 c7 3c 98 71 4e 3c
       0.008964149 -0.035147246 0.024357408 0.012600325
000160 13 a0 98 3c 45 31 5d bc 56 9d d0 bc 6f 72 0a 3d
       0.018631017 -0.013500516 -0.025465649 0.03380054
000170 d4 b5 ac 3c f1 ef a5 bc bb 49 08 3d 10 5a bb bc
       0.021082796 -0.020256015 0.03327344 -0.022870094
000180 7e ec 27 bc 60 77 a0 bc d0 16 35 3d 29 39 31 bd
       -0.010249255 -0.019588172 0.04421121 -0.043267403
000190 3b 42 42 bc a8 60 a0 3b bd c7 a7 3c 87 25 15 3d
       -0.011856611 0.004894335 0.020480985 0.036412742
0001a0 c1 2f 5a 3d ac f4 53 3c c8 83 41 bc bd 02 e7 3c
       0.053268198 0.012936752 -0.011811204 0.028199548
0001b0 61 4a 34 bc 18 67 0f 3d d3 d1 a4 3c a1 50 f2 bc
       -0.011004061 0.035010427 0.020119583 -0.029579462
0001c0 cb ca 01 bd d7 82 0d ba 66 55 98 bb b8 be bc 3c
       -0.03168754 -0.000539822 -0.004648852 0.02304016
0001d0 12 dd 4f 3a f9 f9 65 bc 1e e2 86 3c 0e 36 4a bd
       0.00079293654 -0.014036649 0.016465243 -0.049367957
0001e0 cb 77 bd 3b 28 6e fe bc 85 7f 03 3d d0 75 a7 bc
       0.0057821027 -0.031058386 0.032104034 -0.02044192
0001f0 64 0e da 3c 8e 8a 03 bc bf 06 43 bd 7b a8 9a bc
       0.02661819 -0.0080286395 -0.047613855 -0.018879166
000200 05 cc d9 3b 8a c8 94 bc 53 f5 ab 3c d1 40 e4 bc
       0.0066466355 -0.01816203 0.020991003 -0.027862938
000210 82 45 0e bc 80 0f 60 3c 50 ee 87 bb 04 be 2e bd
       -0.008683564 0.0136755705 -0.004148282 -0.04266168
000220 ad 32 59 3d 1a 9a ce 3c bf 78 51 3c d2 81 95 3c
       0.053026844 0.025219966 0.012785136 0.01825038
000230 01 58 b5 3c 9c ba cf bc 02 36 47 3d 69 fd c5 bc
       0.02213669 -0.025357537 0.04863549 -0.024168687
000240 d9 b0 a4 bc 64 ec 8e bb 73 ec 6d bb 56 21 93 bc
       -0.020103859 -0.004361676 -0.0036304265 -0.017960232
000250 0f 49 c5 b9 c8 d7 f0 3c 38 fc bf bb f3 b5 7e bc
       -0.000376292 0.029399768 -0.0058589242 -0.01554631
000260 0f 6e 27 bd b9 bd 14 3d e8 de cb 3c 35 af c3 3b
       -0.040876444 0.036313746 0.024886563 0.005971814
000270 bd 42 6c bc 5e ca 3b bd 55 cd 3f bc 46 00 9e bc
       -0.0144202085 -0.04584729 -0.01170667 -0.01928724
000280 47 5a 18 3d aa b3 f5 bb 89 5d 30 3c 5a 51 9e 3c
       0.03719547 -0.0074982243 0.010764488 0.0193259
000290 ba fc 17 3c 3f 0f 18 3b 6b 9c 44 3c 5a b0 b4 bc
       0.009276563 0.0023202447 0.012000184 -0.022056747
0002a0 16 3a 32 3d 39 bb 53 bc b0 46 05 3c 32 bd 4f bd
       0.043512426 -0.012923055 0.008134529 -0.05071754
0002b0 46 5f 27 bc 91 08 3b 3d 53 3a 86 bc d6 63 be bb
       -0.010215586 0.045662466 -0.016385233 -0.005810241
0002c0 a5 9a b6 3c 12 99 59 bc 87 4c 48 bb fc 96 ff 3c
       0.022290537 -0.013281124 -0.0030563192 0.031199925
0002d0 20 77 c6 bc 1a 66 09 3d 3b 3a 24 3d 39 4c 2d 3c
       -0.024226725 0.033544637 0.040094595 0.010577255
0002e0 59 af d4 3c 58 2d 11 bd 50 ca 7d bb 8c f2 d9 3c
       0.025962519 -0.035443634 -0.0038725324 0.026604913
0002f0 0f 09 e1 bb a9 bb 91 3b 27 82 16 bd 37 69 03 3c
       -0.006867535 0.0044474197 -0.036745217 0.008020691
000300 2b 8c 90 3c b7 87 86 3c b7 e2 a3 3c 24 50 79 bb
       0.017644962 0.016422136 0.020005567 -0.0038042152
000310 61 24 8d bd be d0 8e bc 95 9a b7 3b b6 aa 70 3d
       -0.06891704 -0.01743352 0.0056031444 0.058756553
000320 fc 7a 67 bd 40 cb 41 bc 2c 43 41 bc 1b 1d 0d bc
       -0.05651377 -0.011828244 -0.0117958 -0.008612896
000330 9b ef ff bc 8e 9d a0 3c 63 97 fb bc 3d bf d5 3c
       -0.031242182 0.019606378 -0.030711835 0.026092166
000340 da be 32 bc c5 e5 39 bc e6 c6 d5 3c 01 61 da ba
       -0.01090976 -0.011346285 0.026095819 -0.001666099
000350 5d 57 2b bc ae 1e b0 bc 30 6b b8 bc e1 70 88 bc
       -0.010457841 -0.021499004 -0.022512048 -0.016655387
000360 89 d3 00 3d e8 2b bf 3b 27 3d de 3b 44 6f 89 3c
       0.031451736 0.0058340915 0.0067821923 0.016776688
000370 f7 fb ac bb 9a f2 78 3c 6a 82 58 bc 12 05 c5 3c
       -0.00527906 0.0151945595 -0.013214687 0.02405027
000380 01 3f 8e 3b b2 03 9b 3c 4e 2a 99 3c 19 fb d4 3c
       0.0043410067 0.01892266 0.01869693 0.025998639
000390 e3 a0 ab 3c 2a 8a 72 bc e1 05 15 bc 91 0a 04 bd
       0.02095074 -0.014803449 -0.00909564 -0.03223664
0003a0 8e c3 c8 3b 36 8f ed bc 75 b6 50 3d 70 74 5e ba
       0.0061268276 -0.028998952 0.050955255 -0.00084859785
0003b0 cb 93 39 bc e4 0c 30 3c c4 53 d7 bc 40 ad b8 bc
       -0.0113267405 0.010745261 -0.02628506 -0.02254355
0003c0 55 56 33 3d 44 bb 35 3b d4 27 21 bb 6c c8 a6 3c
       0.043783505 0.0027730027 -0.002459039 0.02035924
0003d0 f8 82 f2 bc 39 8f 71 3c 1f 4f 25 bc c1 7b 95 bc
       -0.029603466 0.01474362 -0.010089665 -0.018247487
0003e0 1b 25 59 3d 72 ad 3c 3c b7 3d 0a bd 20 55 a3 3b
       0.053013902 0.011515962 -0.033750262 0.004984513
0003f0 74 50 a4 bc 3b f4 eb 3c 10 a3 11 bd 56 93 81 bc
       -0.020057894 0.028802982 -0.0355559 -0.015817326

action_model._continuous_distribution.mu.bias f4 [2]
000000 ec 0e 1e 3c a8 5f 3c 3c
       0.009647112 0.011497416

exp_avg f4 [128, 8]
000000 31 d2 1e ba ce 4d 13 3a b2 30 e8 39 f7 b7 9d b8
       -0.00060585426 0.0005619199 0.0004428677 -7.5206095e-05
000010 af 86 99 b9 aa c9 34 3a 8b f4 57 b9 96 85 c0 b6
       -0.0002928278 0.00068965054 -0.00020595097 -5.7375973e-06
000020 65 65 28 ba 99 02 78 37 48 5d ee 39 9c b2 a0 b7
       -0.00064238004 1.4782557e-05 0.00045464397 -1.9156658e-05
000030 c2 63 11 38 8e 04 78 3a 20 66 12 39 05 32 43 b9
       3.46636e-05 0.0009461128 0.0001396169 -0.00018615283
000040 08 04 c0 b9 7d 93 f1 39 3e 9c a2 39 2e 88 3d b8
       -0.00036624097 0.0004607699 0.00031015457 -4.518794e-05
000050 52 70 fc b7 57 15 9b 39 9e 16 8b b9 c7 60 b9 39
       -3.0093044e-05 0.00029579803 -0.00026528997 0.00035358054
000060 07 8a 5d b9 97 59 ff b9 b2 85 c8 39 43 08 89 b8
       -0.00021127622 -0.0004870414 0.00038246583 -6.534208e-05
000070 32 42 97 39 18 32 28 3a 29 b2 23 39 28 cf 67 b9
       0.00028850284 0.0006416156 0.00015611261 -0.00022107048
000080 4a a9 83 39 ac 3d 83 b9 08 98 d2 b8 ca c5 40 b7
       0.00025112397 -0.00025032216 -0.00010041898 -1.1490143e-05
000090 9e cc 9a 36 1b 78 80 b9 5b 8d 8b 38 04 ac 70 b9
       4.613378e-06 -0.00024503548 6.654366e-05 -0.00022952264
0000a0 df fd fd 39 a9 f2 fc 38 ee c6 a6 b9 e9 3e 03 b8
       0.0004844507 0.00012061495 -0.00031810201 -3.1291424e-05
0000b0 4c 03 93 b9 e5 83 24 ba c0 78 49 36 ca eb 9a 38
       -0.0002804048 -0.00062757573 3.002162e-06 7.3872114e-05
0000c0 63 5d 19 b9 3b 80 e5 b7 ca 08 c5 37 7d cd 3a b8
       -0.00014626006 -2.735864e-05 2.3488323e-05 -4.453723e-05
0000d0 8d 3b aa b7 db 30 16 39 3e 8a c2 38 72 8c a4 b7
       -2.029331e-05 0.00014323315 9.2763905e-05 -1.9615723e-05
0000e0 5a b5 4e ba 3b e2 83 b9 38 b2 e4 39 1e 5b d4 b8
       -0.00078853 -0.00025154822 0.00043620332 -0.0001012592
0000f0 3a f8 9d 38 ea d1 a2 3a f4 dd be 39 31 69 ca b9
       7.532579e-05 0.0012422178 0.00036404992 -0.00038606816
000100 e3 e0 af b9 3e ac 59 3a ab 0e 66 39 e1 56 86 b8
       -0.00033546155 0.0008303559 0.00021939974 -6.4058004e-05
000110 75 5c a4 39 c0 77 6d b8 20 e2 46 ba 49 5f 5c 3a
       0.00031349403 -5.661673e-05 -0.0007586796 0.00084065326
000120 e9 d2 56 b9 48 6b 71 39 45 ac 80 39 f5 03 4b 38
       -0.000204872 0.00023023516 0.00024542413 4.8402657e-05
000130 94 b5 3f 39 98 18 14 39 bc 07 41 b9 30 74 f9 39
       0.00018282823 0.00014123542 -0.00018408796 0.00047579547
000140 a7 50 b4 b9 ca c0 a2 39 d2 ca 8f 39 92 df 09 37
       -0.00034392366 0.00031042687 0.00027426198 8.21789e-06
000150 2e 88 76 38 7b 43 9c 39 45 9f 77 b9 c5 d9 93 39
       5.8777798e-05 0.00029804916 -0.00023615088 0.00028200276
000160 e8 b8 14 ba 0a 31 5b 39 de 7d c2 39 b4 6c b5 b7
       -0.0005673305 0.00020903736 0.00037096342 -2.16275e-05
000170 0a 35 63 39 51 ec d2 39 aa 6c c7 b8 2d a6 05 3a
       0.00021668166 0.0004023039 -9.5093e-05 0.00050983095
000180 98 0a 91 b6 08 7d ae 39 74 79 64 39 58 c9 d6 38
       -4.32257e-06 0.00033281022 0.00021789019 0.000102418184
000190 82 72 0f b8 29 1e 4d 38 f0 c1 d6 b8 54 ee 98 39
       -3.42005e-05 4.8903898e-05 -0.00010240439 0.00029169268
0001a0 bd ab 85 b9 de 04 8e b9 63 c1 e8 38 ba 02 21 39
       -0.00025495692 -0.00027087977 0.00011098643 0.00015355172
0001b0 a0 38 99 b8 34 95 ac 39 3b c8 02 b9 18 1b ae b9
       -7.306156e-05 0.00032917561 -0.00012472358 -0.00033208053
0001c0 55 f2 19 ba c7 c4 b5 39 28 85 14 3a 8a 17 33 38
       -0.0005872597 0.0003466962 0.0005665594 4.2698848e-05
0001d0 db bb 03 3a 47 28 40 3a 31 c8 9f 38 4e 0c 95 3a
       0.0005025246 0.00073302205 7.6189994e-05 0.0011371465
0001e0 c9 24 2d ba e0 2a 57 b9 fc e4 16 39 4b 97 0b 39
       -0.00066049077 -0.0002051997 0.00014390418 0.00013312434
0001f0 b8 87 09 38 50 ac ce 39 ef fb 55 b9 62 09 90 b9
       3.2789743e-05 0.00039419765 -0.00020407116 -0.0002747281
000200 dd 32 6d ba 98 4a aa b8 d7 e5 28 3a 09 8d f2 b8
       -0.0009048412 -8.120126e-05 0.000644294 -0.00011565729
000210 3a 9c 7e b9 ec 7d 7d 3a 58 b0 ce b9 8b 03 68 b9
       -0.00024281527 0.0009669948 -0.00039422768 -0.00022126564
000220 8e 97 6a 39 da 12 25 b8 3c 0a 18 b9 d6 4d 31 b8
       0.00022372438 -3.9356622e-05 -0.00014499662 -4.227258e-05
000230 fe 8f 46 b8 3b 4c 0b b9 64 b7 d5 37 30 a4 c7 b8
       -4.7340982e-05 -0.00013284471 2.5476977e-05 -9.519642e-05
000240 2c 63 05 3a bc 9e 38 b8 b7 59 ce b8 e4 7a 18 38
       0.0005088325 -4.401685e-05 -9.839556e-05 3.6354075e-05
000250 fb f2 d7 b8 36 da e5 b9 81 00 da b8 e7 53 b1 b9
       -0.000102972575 -0.00043840864 -0.00010395144 -0.00033822583
000260 b8 92 f7 b9 ff 90 1d b9 2c 0e 03 39 44 7f 1b b9
       -0.00047220825 -0.00015026702 0.00012498413 -0.00014829362
000270 ce 7e ed b8 db 2a 06 3a ac 84 0b 39 b0 cd fb b8
       -0.0001132466 0.00051180803 0.00013305497 -0.00012006925
000280 10 0c 35 38 2e 06 04 b7 a8 34 31 b7 bf df f6 b6
       4.3164997e-05 -7.869252e-06 -1.0562282e-05 -7.357419e-06
000290 8e 7f 56 b6 da 17 e8 b7 10 3e 33 36 50 10 85 b7
       -3.1962732e-06 -2.7667662e-05 2.6709204e-06 -1.5862432e-05
0002a0 8e 2f 2a 3a b2 09 99 39 5b dc 0e 39 29 49 1b 39
       0.00064920716 0.00029189658 0.00013624264 0.00014809206
0002b0 60 ee 84 b7 f6 67 f2 b9 00 24 65 b9 6f 7d 65 39
       -1.5846628e-05 -0.00046235294 -0.00021852553 0.0002188587
0002c0 6e 16 aa 39 5a 38 56 b9 c0 da 45 b9 96 16 c7 b7
       0.00032441638 -0.00020429623 -0.00018868875 -2.3733166e-05
0002d0 08 3c 4d b8 af 0c ba b9 ba b7 0d 38 2c 37 19 b9
       -4.8931717e-05 -0.00035486135 3.378813e-05 -0.0001461177
0002e0 72 15 80 39 39 84 f0 b9 3a ba 77 b9 1f 4b 5e b8
       0.0002443004 -0.0004587488 -0.0002362513 -5.2998887e-05
0002f0 58 2a 0b 38 e0 86 36 b9 67 87 a5 39 50 14 61 b9
       3.317962e-05 -0.00017407117 0.00031572135 -0.00021465239
000300 5a 78 32 ba b0 78 9c b9 80 f3 c2 37 d8 17 87 39
       -0.0006808095 -0.00029844558 2.323999e-05 0.00025766972
000310 2b 2d 68 b9 bc 34 37 3a 6c f5 f6 38 18 15 1b ba
       -0.0002214207 0.0006988754 0.000117759075 -0.0005915924
000320 6c b3 15 ba 87 3b e5 39 e6 b3 b1 39 f4 0d ca b8
       -0.0005710635 0.00043722635 0.00033894106 -9.6347096e-05
000330 54 61 ab 39 5a e4 6b 39 d4 d2 c2 b9 b8 b2 4c 3a
       0.00032688177 0.00022496414 -0.00037159643 0.00078086136
000340 8d 54 1d 3a f2 39 8c 39 5b af 02 b9 da d1 a4 38
       0.0006001674 0.00026746053 -0.00012463091 7.859217e-05
000350 4e e5 41 39 f4 18 15 ba 57 63 fc b7 5b 58 4c 39
       0.00018491337 -0.0005687617 -3.0087e-05 0.00019487871
000360 33 18 c8 b8 02 da 14 39 75 65 c7 38 6c 19 a7 37
       -9.5412506e-05 0.00014195594 9.507957e-05 1.991979e-05
000370 de e4 f2 37 38 98 0f 39 73 ed 90 b8 f2 3d 29 39
       2.8955223e-05 0.00013694249 -6.9106834e-05 0.00016140172
000380 aa d1 eb 38 cf 8e ea b8 44 36 7f b8 fc b3 9c b7
       0.00011244726 -0.0001118459 -6.0847276e-05 -1.8680461e-05
000390 c7 c1 22 b9 de f2 48 b8 7e 63 63 38 d5 d9 b4 b9
       -0.00015521712 -4.7909904e-05 5.4213677e-05 -0.00034494573
0003a0 c9 32 0e ba 33 c9 00 ba c8 45 16 39 4e f3 c5 b8
       -0.00054244377 -0.00049127935 0.0001433111 -9.439011e-05
0003b0 b6 68 f9 b8 b6 77 6d 3a fc c1 1f 3a 2b 78 30 ba
       -0.00011892749 0.0009058671 0.00060942746 -0.00067317736
0003c0 a5 bf a9 39 aa e0 20 b9 96 81 87 b7 ef 38 38 b8
       0.00032376978 -0.00015342483 -1.6153597e-05 -4.3922042e-05
0003d0 7e 26 9a 37 3f 75 00 b8 f0 24 4e b8 10 b7 85 b9
       1.8376155e-05 -3.0626772e-05 -4.9148628e-05 -0.0002550413
0003e0 fd 06 17 b9 96 c8 6a b9 00 33 88 b6 d0 d5 b1 b8
       -0.00014403086 -0.00022390703 -4.059053e-06 -8.4798434e-05
0003f0 ba 19 c5 38 c8 75 20 39 34 29 0d 38 82 7a 69 b9
       9.398484e-05 0.00015302666 3.3655393e-05 -0.0002226625

exp_avg_sq f4 [128, 8]
000000 69 9c c3 35 9c 7d 9d 35 84 4e dc 35 a6 39 68 35
       1.4574154e-06 1.1733969e-06 1.6414128e-06 8.6510624e-07
000010 e3 dc b7 35 16 a7 89 35 22 00 e0 35 dd 82 69 35
       1.3698849e-06 1.0255924e-06 1.6689339e-06 8.6989695e-07
000020 85 00 fc 35 04 09 ed 35 cb ac 0c 36 a3 11 a9 35
       1.8775614e-06 1.76605e-06 2.0962204e-06 1.2596614e-06
000030 8b 02 02 36 4f f8 d2 35 c1 c2 c7 35 86 89 b7 35
       1.937299e-06 1.5718487e-06 1.4883336e-06 1.3674587e-06
000040 60 b5 0f 35 24 a2 2e 35 8f 33 39 35 41 06 16 35
       5.3535587e-07 6.5055997e-07 6.89929e-07 5.5888455e-07
000050 58 f9 51 35 64 59 cc 34 83 a1 85 35 37 3c da 34
       7.822141e-07 3.8063e-07 9.956278e-07 4.0649476e-07
000060 d9 56 93 35 24 7b ba 35 04 cf eb 35 f1 e7 82 35
       1.097763e-06 1.3893919e-06 1.7569114e-06 9.753259e-07
000070 e9 c0 cb 35 fd 38 97 35 0b bd 1a 36 1f f6 93 35
       1.5180823e-06 1.1266962e-06 2.3057826e-06 1.1023984e-06
000080 5b 22 5e 34 ea fd 87 34 41 73 93 34 3c 31 12 34
       2.068786e-07 2.5330456e-07 2.7464742e-07 1.3615221e-07
000090 20 bc 85 34 b6 60 52 34 fa 32 2a 34 dd 20 44 34
       2.491006e-07 1.9592957e-07 1.5851029e-07 1.8265878e-07
0000a0 d4 89 4e 35 fa 42 57 35 dc 9c 8a 35 73 15 2a 35
       7.6941546e-07 8.0191205e-07 1.0327453e-06 6.336115e-07
0000b0 fe 9b 7d 35 b1 dd 34 35 3e 8f 97 35 59 78 18 35
       9.4476843e-07 6.737783e-07 1.1292066e-06 5.679954e-07
0000c0 31 37 86 33 4d 1d 8e 33 91 78 a0 33 3d 20 28 33
       6.2499005e-08 6.61772e-08 7.4725115e-08 3.914487e-08
0000d0 9f 55 9d 33 be 22 7f 33 9a 66 50 33 10 50 86 33
       7.3264566e-08 5.9403412e-08 4.852209e-08 6.2544245e-08
0000e0 c3 db 86 36 71 ae 92 36 90 78 b0 36 e2 57 38 36
       4.019095e-06 4.3714467e-06 5.259244e-06 2.746929e-06
0000f0 70 72 a2 36 e2 4b 8b 36 36 8f 58 36 76 14 8a 36
       4.8412985e-06 4.1513567e-06 3.2269868e-06 4.1151025e-06
000100 49 b8 e6 35 2d c2 21 36 eb 03 4b 36 6c 74 aa 35
       1.7189969e-06 2.4103895e-06 3.0251638e-06 1.269987e-06
000110 26 34 34 36 38 35 01 36 2b 66 37 36 2d 02 21 36
       2.6852445e-06 1.9253475e-06 2.7328595e-06 2.3992136e-06
000120 77 91 15 35 ad 0c 40 35 89 c1 4d 35 8d 7e 01 35
       5.5718505e-07 7.154402e-07 7.665008e-07 4.82404e-07
000130 93 fe 68 35 c9 04 fc 34 28 d1 81 35 c1 0b 1a 35
       8.679719e-07 4.694214e-07 9.672121e-07 5.7386575e-07
000140 74 a0 c4 34 59 d2 ff 34 1a 19 03 35 d0 89 8a 34
       3.662459e-07 4.76505e-07 4.883783e-07 2.5804775e-07
000150 d1 25 0c 35 5e 8f c6 34 c7 68 bc 34 8d e4 bd 34
       5.2209094e-07 3.6984687e-07 3.5093964e-07 3.5370286e-07
000160 61 d1 48 35 f7 cb 6e 35 36 e2 91 35 07 f6 38 35
       7.481049e-07 8.8958717e-07 1.0869178e-06 6.890336e-07
000170 f3 bb 8c 35 f4 39 2f 35 8d bc 88 35 bd 5f 30 35
       1.0485513e-06 6.5276913e-07 1.0187665e-06 6.5704427e-07
000180 a8 f6 42 35 d2 01 42 35 4a 34 42 35 d5 1c 3e 35
       7.2629564e-07 7.227328e-07 7.234672e-07 7.082247e-07
000190 b8 e8 5e 35 de 05 bf 34 8c 1c 91 35 6b d5 e9 34
       8.3040095e-07 3.558079e-07 1.081165e-06 4.3554914e-07
0001a0 c7 f8 67 35 0b 7e 92 35 76 7d 9d 35 ae 6b 2f 35
       8.6416225e-07 1.0914531e-06 1.1733925e-06 6.5349275e-07
0001b0 44 68 c4 35 12 53 4e 35 93 54 af 35 32 c1 88 35
       1.4633483e-06 7.6861863e-07 1.306313e-06 1.0189017e-06
0001c0 8f 5d 72 36 86 54 95 36 bd d0 97 36 77 7d 4e 36
       3.6115268e-06 4.450386e-06 4.524451e-06 3.0769422e-06
0001d0 3c 00 a4 36 c1 08 3c 36 f3 57 37 36 8a b6 60 36
       4.887608e-06 2.8019278e-06 2.7320318e-06 3.3484853e-06
0001e0 d7 22 f5 35 0d 13 e3 35 cd 03 06 36 9e d8 c3 35
       1.8264062e-06 1.6918362e-06 1.9969768e-06 1.4591676e-06
0001f0 18 a5 19 36 8e 45 a3 35 40 4d 3c 36 c9 bf c9 35
       2.2894874e-06 1.216469e-06 2.8059148e-06 1.5031484e-06
000200 88 9d 0e 36 55 ce ef 35 e3 fa 32 36 4f 2e b4 35
       2.1251344e-06 1.7866938e-06 2.6670102e-06 1.3424523e-06
000210 99 b3 2c 36 ad 86 07 36 a1 f4 8f 36 03 94 eb 35
       2.5734537e-06 2.019496e-06 4.2902107e-06 1.7551941e-06
000220 8e 02 0d 34 2e 39 17 34 38 08 3d 34 31 57 0b 34
       1.3132578e-07 1.4083773e-07 1.7604987e-07 1.2977104e-07
000230 40 94 3f 34 72 8a c7 33 fa 80 8f 34 84 f0 e7 33
       1.7842194e-07 9.291843e-08 2.6729668e-07 1.0800525e-07
000240 d7 db 22 35 37 e7 19 35 03 5c 30 35 d9 fd d1 34
       6.066961e-07 5.7333403e-07 6.5699004e-07 3.9113982e-07
000250 54 eb 2c 35 5f 37 0d 35 1e ce cc 34 75 6e fc 34
       6.441744e-07 5.260717e-07 3.814793e-07 4.7019026e-07
000260 b1 49 f4 34 8b b6 f3 34 50 70 21 35 69 38 80 34
       4.550216e-07 4.5395095e-07 6.014061e-07 2.3882902e-07
000270 90 bc 2a 35 0a 95 08 35 3c 99 03 35 88 1f 12 35
       6.360433e-07 5.088083e-07 4.902429e-07 5.443512e-07
000280 6c fc 83 31 a8 e7 81 31 0d 5a 9e 31 8f bd 37 31
       3.841299e-09 3.7807304e-09 4.608643e-09 2.6737756e-09
000290 25 c8 bd 31 f8 32 7f 31 0d 89 90 31 bd b7 81 31
       5.5233778e-09 3.7136356e-09 4.2065325e-09 3.7752828e-09
0002a0 20 07 bf 35 ec ef e8 35 da 62 da 35 15 1a a9 35
       1.4232683e-06 1.7355173e-06 1.6271035e-06 1.2599072e-06
0002b0 fb 75 06 36 bd 48 91 35 6e 32 99 35 27 33 c3 35
       2.003623e-06 1.0824511e-06 1.1414065e-06 1.454352e-06
0002c0 89 d2 66 34 b0 3e 81 34 08 70 8f 34 12 bc 17 34
       2.1497011e-07 2.4073734e-07 2.671734e-07 1.413139e-07
0002d0 bc 3d 86 34 86 9a 5a 34 a3 d7 2e 34 04 62 3d 34
       2.5004363e-07 2.0359047e-07 1.6283461e-07 1.7637655e-07
0002e0 c9 ad a7 34 e3 90 fe 34 93 95 ea 34 50 ba 9b 34
       3.123262e-07 4.7416606e-07 4.3694726e-07 2.900656e-07
0002f0 04 e1 e2 34 9e 1c 91 34 fa 3f f5 34 05 1a 91 34
       4.22595e-07 2.7029176e-07 4.5681355e-07 2.7027286e-07
000300 9b 4a e3 35 7a 87 0d 36 3b 3c 2f 36 e9 c2 a4 35
       1.6934531e-06 2.1089495e-06 2.611209e-06 1.2275679e-06
000310 3f 3b 32 36 1d 2f e0 35 b6 b7 32 36 e7 d9 03 36
       2.6558553e-06 1.6703012e-06 2.6631e-06 1.9647357e-06
000320 73 97 00 36 ae 63 29 36 30 d1 35 36 3c 44 ff 35
       1.9161641e-06 2.5240984e-06 2.7092865e-06 1.9018839e-06
000330 cd ee 33 36 d9 df d3 35 24 dc 40 36 8a c5 e9 35
       2.681208e-06 1.5785873e-06 2.8738368e-06 1.7417344e-06
000340 6e eb 8a 35 11 53 bb 35 70 e7 ba 35 05 07 3c 35
       1.035032e-06 1.3956761e-06 1.3925437e-06 7.004567e-07
000350 6f 7b e2 35 82 41 a3 35 9e 6e af 35 bb c3 b4 35
       1.6874236e-06 1.2163512e-06 1.307071e-06 1.346801e-06
000360 fc 59 3f 34 c8 84 37 34 3c 3b 3e 34 25 77 33 34
       1.7820997e-07 1.7091509e-07 1.7716678e-07 1.6714019e-07
000370 53 e2 43 34 de c4 e1 33 29 1e e6 33 c7 81 dc 33
       1.8243126e-07 1.0513189e-07 1.0715696e-07 1.0268155e-07
000380 d2 22 89 34 a9 06 c1 34 7a 28 ca 34 b7 32 57 34
       2.5543574e-07 3.5953897e-07 3.7654883e-07 2.0041885e-07
000390 e0 bb cd 34 40 93 8a 34 f1 66 69 34 a0 b1 b6 34
       3.8320923e-07 2.5811642e-07 2.1737266e-07 3.402938e-07
0003a0 3b 56 65 36 20 1a 8e 36 9c a7 9c 36 c3 88 45 36
       3.4173852e-06 4.234971e-06 4.6686746e-06 2.9434893e-06
0003b0 9c b8 96 36 12 bf 5e 36 49 3a 37 36 b2 71 85 36
       4.4918397e-06 3.3191795e-06 2.7303051e-06 3.9769448e-06
0003c0 c6 7b 76 34 88 23 97 34 b4 9e 9e 34 72 fd 63 34
       2.2955564e-07 2.8151794e-07 2.9545265e-07 2.1233225e-07
0003d0 15 2b c9 34 4e de 33 34 04 f9 df 34 16 05 90 34
       3.7470514e-07 1.6751548e-07 4.171817e-07 2.682579e-07
0003e0 e1 36 14 35 11 34 16 35 f7 72 25 35 3a e5 0a 35
       5.5214156e-07 5.595512e-07 6.1634586e-07 5.1742575e-07
0003f0 4b 6e 1c 35 59 6b bc 34 21 98 22 35 b2 c4 e5 34
       5.8275026e-07 3.5095835e-07 6.057108e-07 4.279769e-07

exp_avg f4 [128]
000000 44 f9 20 39 84 a8 45 b9 0a 5f 39 39 1b 08 ef b8
       0.00015351648 -0.00018850161 0.0001767838 -0.00011397918
000010 92 a9 77 b9 e3 d8 78 b9 d2 2f e4 38 12 c2 c5 b9
       -0.00023618925 -0.0002373192 0.000108807944 -0.00037719362
000020 aa 15 63 b9 50 d2 3e b9 11 11 e2 38 2c 58 87 38
       -0.00021656477 -0.0001819816 0.00010779699 6.453725e-05
000030 c0 17 99 b8 dd b5 b5 39 dc 7f f4 b8 a6 18 16 b9
       -7.300032e-05 0.0003465851 -0.00011658642 -0.00014314297
000040 9f c5 79 b9 6c 0c 48 b8 e0 f0 94 b9 b0 eb 53 39
       -0.0002382011 -4.7695285e-05 -0.00028408226 0.00020210329
000050 bd a3 53 b7 0e 40 2c ba 7d 07 3c b9 c8 e8 83 b9
       -1.2614703e-05 -0.0006570824 -0.00017931867 -0.00025159703
000060 74 b9 10 3a 84 4e bb b9 9a 5d 43 b9 2c ce 04 38
       0.0005520799 -0.00035725918 -0.00018631518 3.1663265e-05
000070 bc 27 9c b8 93 ad a9 39 93 f7 82 b9 7a 0c 06 b9
       -7.446061e-05 0.00032363515 -0.0002497999 -0.00012783884
000080 6a 46 96 b9 2f cd 0b ba 32 0e 04 ba 49 93 f2 38
       -0.00028662692 -0.0005333004 -0.00050375157 0.00011566893
000090 4b 57 48 b9 96 79 8f ba 04 13 76 b9 3d 5c 8c b8
       -0.00019106005 -0.001094627 -0.00023467472 -6.692901e-05
0000a0 4d 57 36 ba 04 fd 50 39 fc e5 19 b9 98 ea 67 39
       -0.0006955758 0.00019930681 -0.00014676893 0.0002211727
0000b0 d6 89 24 b9 9c 4c 02 ba a7 75 85 37 38 a3 5d b9
       -0.00015691607 -0.0004970522 1.5909622e-05 -0.00021137006
0000c0 b3 df e6 b9 bd 16 f1 b8 ef 43 20 b9 b7 b1 91 ba
       -0.00044035687 -0.00011496011 -0.00015284096 -0.0011115585
0000d0 3c 7f b4 b6 28 99 4d b8 91 1d 6d b8 3f 32 87 b8
       -5.37923e-06 -4.9018447e-05 -5.653274e-05 -6.446661e-05
0000e0 d1 24 b4 38 29 34 74 39 f4 cd 0d b9 90 a3 d4 b9
       8.5899264e-05 0.00023289084 -0.00013523531 -0.00040557655
0000f0 46 0d e8 b9 4d c5 72 b8 54 a6 04 b9 b0 9f 9f b6
       -0.00044260378 -5.7881047e-05 -0.00012650463 -4.7571593e-06
000100 10 5b 57 b9 c3 50 8a 38 fb 98 ff 37 03 f0 bc b9
       -0.00020537921 6.595396e-05 3.0469606e-05 -0.00036036977
000110 66 0d 53 ba 2a 25 32 ba 09 9c 3e b9 f4 f3 c9 b9
       -0.0008051008 -0.0006795699 -0.0001817794 -0.00038519467
000120 11 83 9f 39 01 ff 0c b9 a7 55 51 ba f7 f9 16 ba
       0.00030424495 -0.00013446437 -0.00079854805 -0.00057592936
000130 50 83 08 b7 04 3f 60 ba 48 8c 4d b9 08 df df b9
       -8.136805e-06 -0.0008554312 -0.00019602582 -0.00042700046
000140 92 c4 5a b8 88 87 01 b9 78 0d 8b ba a9 eb cf 38
       -5.215832e-05 -0.00012352888 -0.0010608872 9.914424e-05
000150 89 7d 53 b9 ca 05 5f 39 cb 7a 75 b9 e4 d6 85 b9
       -0.00020169294 0.00021269094 -0.00023410765 -0.00025527843
000160 c8 dd 8b b9 f9 75 9c b7 fb 41 91 38 37 83 36 ba
       -0.00026677386 -1.8651584e-05 6.9264286e-05 -0.00069623016
000170 41 f8 af b9 ee 62 db 38 86 f9 fd b9 3c 88 b9 b9
       -0.00033563565 0.00010461161 -0.0004844183 -0.00035387452
000180 6e 85 5c 39 54 e9 7c 38 08 1b 0f ba 46 2d 9e b9
       0.00021030541 6.0298786e-05 -0.0005459045 -0.0003016984
000190 80 08 c4 b5 8e 55 e7 b8 22 34 96 b9 b6 7d 0c ba
       -1.4605612e-06 -0.00011030874 -0.00028649071 -0.00053593086
0001a0 b0 76 2a ba 99 49 8f b9 90 99 11 ba f6 0e 82 b9
       -0.0006502671 -0.0002732992 -0.00055541936 -0.0002480668
0001b0 48 48 f5 38 d8 95 fa b9 a7 93 f7 b9 5b 40 68 b8
       0.00011695974 -0.00047795358 -0.0004722152 -5.5373046e-05
0001c0 dc e7 a5 b9 9d a5 56 37 3c 18 2d 38 43 cf db b9
       -0.00031644 1.2793954e-05 4.1268984e-05 -0.00041925357
0001d0 66 37 91 b9 3c 71 0b 38 92 c1 19 b9 dc 08 86 39
       -0.0002769783 3.324564e-05 -0.00014663328 0.00025565072
0001e0 ab 9f 02 ba 45 b3 14 39 44 01 0c ba 26 9c 29 b9
       -0.0004982899 0.00014181163 -0.0005340765 -0.00016175266
0001f0 45 06 32 ba 99 62 13 ba 63 2a 71 39 d0 48 2b 38
       -0.00067910954 -0.0005622297 0.00022999341 4.083739e-05

exp_avg_sq f4 [128]
000000 ff f2 c0 35 9a 38 14 36 e1 fb 44 35 19 7b c7 35
       1.4375836e-06 2.2086665e-06 7.338222e-07 1.4862482e-06
000010 30 82 b5 34 32 95 79 35 d9 28 cf 33 f0 60 c8 36
       3.38086e-07 9.2976836e-07 9.646619e-08 5.9717495e-06
000020 c3 e4 61 36 c0 2e 79 35 58 93 1a 35 2b c3 8b 35
       3.366077e-06 9.282776e-07 5.7583884e-07 1.0413108e-06
000030 c1 50 51 35 82 cd 9a 35 f2 a6 a8 36 75 9a ef 35
       7.797608e-07 1.1533705e-06 5.026225e-06 1.785184e-06
000040 1a ed 21 36 da 76 21 34 f6 88 57 35 fd 2b 53 35
       2.412888e-06 1.5037531e-07 8.0293046e-07 7.8667637e-07
000050 1d 6f a9 31 25 dc 1e 36 a5 7c a7 34 22 9a fa 34
       4.9311795e-09 2.3671976e-06 3.1196865e-07 4.6678275e-07
000060 0b 8b 35 36 be c3 31 36 25 ed d3 35 59 50 44 34
       2.7052035e-06 2.6488992e-06 1.5789743e-06 1.8283153e-07
000070 60 47 e8 34 c5 b0 b7 36 35 1a 9b 34 97 94 24 35
       4.32653e-07 5.4744037e-06 2.8890068e-07 6.131099e-07
000080 6c 5b 00 36 57 e1 30 35 da c4 6b 35 50 10 52 35
       1.91267e-06 6.589302e-07 8.783078e-07 7.8254834e-07
000090 e2 cd 2b 35 b7 88 2f 36 da 2b 03 37 fe b7 9a 35
       6.4002063e-07 2.615661e-06 7.818418e-06 1.1527443e-06
0000a0 68 f5 d3 36 dc cf 40 35 41 dd 11 34 88 41 4e 36
       6.316859e-06 7.182805e-07 1.3584669e-07 3.0734536e-06
0000b0 88 07 5e 34 0d c5 fd 36 53 30 d3 34 99 9a ab 34
       2.0678101e-07 7.5629273e-06 3.9336973e-07 3.1963717e-07
0000c0 17 c0 2d 36 91 09 53 36 df 25 25 34 74 0e a5 36
       2.589082e-06 3.1447019e-06 1.53806e-07 4.9190658e-06
0000d0 d9 86 40 35 98 4a fd 35 df fd b8 35 e6 12 15 34
       7.1721803e-07 1.8871679e-06 1.3782955e-06 1.3883582e-07
0000e0 a5 8e 9d 35 e4 99 17 36 e6 6d 9b 34 14 d2 12 36
       1.1738927e-06 2.259033e-06 2.8950961e-07 2.1877977e-06
0000f0 32 0e 81 35 89 a0 4a 34 bb bd 04 36 cd 3b a0 34
       9.61538e-07 1.8871118e-07 1.977997e-06 2.9845833e-07
000100 11 99 0c 35 cd fe 06 35 46 b1 2d 35 8d b8 aa 34
       5.2376805e-07 5.0289674e-07 6.470549e-07 3.1799246e-07
000110 bf a5 0f 37 14 c1 c4 35 ad da b0 35 ec aa be 36
       8.562055e-06 1.4659331e-06 1.3176665e-06 5.682339e-06
000120 76 5d f3 36 e0 d7 21 35 85 2f 8f 35 f6 42 8d 35
       7.2528446e-06 6.0291313e-07 1.066816e-06 1.0524807e-06
000130 5f 8b d8 35 e0 10 86 36 47 e8 a9 35 74 5a 72 36
       1.6133816e-06 3.9954757e-06 1.2659083e-06 3.611346e-06
000140 f4 13 32 35 77 94 7b 34 48 7f 3d 36 e8 77 2d 34
       6.6339203e-07 2.3430208e-07 2.8237282e-06 1.6155502e-07
000150 2e 6c 79 34 ce 53 e1 35 a0 fe d4 35 71 74 3f 35
       2.3229288e-07 1.6788197e-06 1.5869336e-06 7.132249e-07
000160 35 ef d0 35 30 27 b3 34 b7 7f 5a 35 9f 8f 09 36
       1.5566826e-06 3.336986e-07 8.139718e-07 2.049819e-06
000170 3b 84 34 35 eb da 79 35 96 0a 00 36 1e 0c d5 35
       6.7247646e-07 9.3078296e-07 1.9079648e-06 1.5873263e-06
000180 ce 1a 58 34 e0 c2 4b 35 0e aa 4b 36 14 c8 87 36
       2.0126319e-07 7.5906974e-07 3.0348342e-06 4.0466057e-06
000190 27 53 28 35 7b 0d 8b 34 18 e1 16 35 4e 35 5d 36
       6.270588e-07 2.5900576e-07 5.620691e-07 3.2962594e-06
0001a0 aa 9e 7e 36 6a 56 ab 35 29 18 b8 36 cf 9b 81 35
       3.7941304e-06 1.2765643e-06 5.48644e-06 9.656595e-07
0001b0 99 1a b4 34 c7 5a 06 36 56 d0 95 35 8c 37 c4 35
       3.3546965e-07 2.0020395e-06 1.1161999e-06 1.4619304e-06
0001c0 1c d3 8c 36 03 69 42 32 d8 b0 1c 33 19 10 81 35
       4.1969015e-06 1.1316163e-08 3.648242e-08 9.615934e-07
0001d0 d6 f4 b1 35 d3 4a 08 35 bb c4 17 35 d5 0f aa 36
       1.3258784e-06 5.077283e-07 5.6538164e-07 5.068238e-06
0001e0 fd df 6f 36 e5 b1 ac 35 a5 10 4f 36 fb db 24 35
       3.5744154e-06 1.2866773e-06 3.0855092e-06 6.1414875e-07
0001f0 25 a6 e4 35 28 ea 9d 35 d9 89 a5 36 e4 1b 74 35
       1.7035678e-06 1.176556e-06 4.933431e-06 9.093767e-07

exp_avg f4 [1, 2]
000000 68 0d fa 3c bd 43 eb bb
       0.03052397 -0.007179706

exp_avg_sq f4 [1, 2]
000000 fb c4 06 3c b8 e5 00 3c
       0.008225675 0.007867269

exp_avg f4 [2, 128]
000000 e8 88 92 39 cc 67 6e 3c 58 c4 0e bc b2 ae b0 3b
       0.00027949293 0.014551114 -0.008713804 0.005391919
000010 8e da a5 bc a5 2f 33 bb 54 7f 9d bc bd 4c b9 3c
       -0.020245817 -0.002734163 -0.019225754 0.0226196
000020 54 5e 87 bb 24 6f ba 3b 86 75 4d 3b 00 a5 24 3b
       -0.004131118 0.0056895185 0.0031350567 0.0025122762
000030 24 48 48 3c 05 44 9c bc f2 03 34 bb 0c bc 28 3c
       0.012224231 -0.019075403 -0.0027468172 0.01029874
000040 a8 58 24 3c c8 c2 34 3c f0 8f 4f bc 67 8a 81 3b
       0.010030903 0.011032768 -0.012668595 0.0039532664
000050 f4 b5 fb 3a c6 80 0c 3a be 43 09 bc a0 fd 31 bc
       0.0019204007 0.0005359765 -0.008377967 -0.010863692
000060 53 b9 e3 3a 48 c1 cb 3b 24 85 82 3b 7e 7e c8 3b
       0.0017373957 0.0062181093 0.0039831568 0.0061185947
000070 db c3 3b bc 39 fa 76 ba e8 c9 93 bc 7e ef 93 39
       -0.01146027 -0.00094214414 -0.018040612 0.0002821646
000080 f1 7b 48 bc d1 fc a3 bc 9f bf 44 bc 46 2d 6b bc
       -0.012236581 -0.020018013 -0.012008577 -0.014354056
000090 d9 4e 2b bc 99 c0 bf bc c1 1c 20 3c ee 25 0a 3c
       -0.01045581 -0.023407267 0.00977248 0.008431895
0000a0 17 7d 97 3c d8 70 2a bc f8 da 1b bc 36 1c 0c bc
       0.018492265 -0.010402881 -0.009512655 -0.008551648
0000b0 2c ab 9d bc b2 b2 74 3c 88 47 df 39 43 c8 04 bc
       -0.01924666 0.014935182 0.0004258717 -0.008104387
0000c0 67 1f 83 3c 88 fe 66 3c 79 16 d3 bb fe e2 0c bc
       0.016006185 0.014098771 -0.006441888 -0.008599041
0000d0 60 9b 37 bc bd f0 05 3c 80 b7 66 ba 0e 5f a5 3b
       -0.011206478 0.008175072 -0.00088011473 0.005046732
0000e0 b8 92 b6 3b f5 e3 8b bb 9e f3 56 bb fa 65 f5 3a
       0.0055716895 -0.004269118 -0.0032799016 0.0018722408
0000f0 67 80 46 bc 4b 71 f1 3b a0 17 48 bc e1 1b a0 3b
       -0.012115574 0.007368242 -0.012212664 0.004886136
000100 7a 22 23 3c da 4f 15 bb 03 5a 7c bb a9 cb b8 bc
       0.00995695 -0.002278319 -0.00385058 -0.02255805
000110 82 57 e4 bb 1e c7 5d bc c4 83 87 3c 10 ef a0 39
       -0.0069684396 -0.013536243 0.016542323 0.00030695694
000120 36 94 df 3b 38 6f a7 3c 68 6b 06 bd eb 79 8c bc
       0.006823088 0.020438775 -0.032817274 -0.017147979
000130 37 8b 72 bb 81 72 e4 bb 66 22 8f bb 43 dd 48 3c
       -0.0037009248 -0.0069716577 -0.0043681143 0.012259784
000140 d0 fe 5f 3c 48 6b 89 3a 2a c9 18 bd e5 7e 0b bc
       0.013671592 0.0010484243 -0.03730122 -0.008514141
000150 6b 92 a5 bc d4 e7 9a 3b 10 62 df 3a 0a 9f a6 bc
       -0.02021142 0.004727343 0.0017042775 -0.020339508
000160 e4 7b ff ba f9 d3 8a 3c 66 95 dc 3b 98 c1 37 bc
       -0.0019491878 0.01694678 0.006731677 -0.01121559
000170 0c 78 8a bc fd 6c 37 bb 15 31 0b bc 40 96 56 3c
       -0.016902946 -0.0027988546 -0.008495589 0.013097346
000180 f5 4e 3a bc 94 c4 47 3b 12 dc 69 bb f6 6a 27 3c
       -0.011371364 0.003048216 -0.003568415 0.010218373
000190 38 d9 27 bb 54 05 81 bc 20 33 ae bb e7 92 42 bc
       -0.002561165 -0.015749611 -0.005316153 -0.011875845
0001a0 cc 9c 6f bb 39 ae fc bb 3d c0 08 3c bc 77 df ba
       -0.0036561964 -0.0077111986 0.008346614 -0.0017049233
0001b0 e6 9a 36 bb 92 0a c8 ba 7d 4e 2a bc 38 24 13 3c
       -0.0027863323 -0.0015261939 -0.01039469 0.008980803
0001c0 a6 20 07 3c 7c 96 0d bd fa 89 90 bb 49 14 aa bc
       0.00824753 -0.03456734 -0.0044109793 -0.020761626
0001d0 f7 75 a1 bc ab 61 88 bb 01 24 1e bc 64 12 22 bc
       -0.01970957 -0.0041620336 -0.009652139 -0.00989208
0001e0 75 5c d3 3a 23 b0 01 3b 44 da 89 bc 48 12 97 3c
       0.0016125577 0.0019788824 -0.01682771 0.018441334
0001f0 bd be c7 bc ae 15 46 3c 21 1e 98 3b 09 67 33 3b
       -0.024382943 0.01209013 0.0046422635 0.0027374646
000200 65 db b9 3b c6 d5 a7 3b 3e 44 23 3b a9 79 c3 3c
       0.005671906 0.0051219193 0.0024912502 0.023861723
000210 da d8 ea 3b 1b bd b6 3b bd d8 e6 ba 38 89 3c 3c
       0.007166964 0.0055767423 -0.00176122 0.011507325
000220 40 00 ad ba c4 f4 eb bb 03 26 ed 3b 93 e6 14 bb
       -0.0013198927 -0.007200809 0.0072371974 -0.002272044
000230 52 e8 9f 3a 0e 3f 17 3c a8 58 bd bb fe 95 de 3b
       0.0012199974 0.009231342 -0.005778391 0.006792783
000240 41 82 9f 3b 6e 1d 12 3b 44 46 06 3b 25 ee b9 bb
       0.0048678224 0.0022295373 0.002048866 -0.005674141
000250 d2 1d 9d 3b 59 05 92 bc 71 ff 01 bb a4 7c 99 3c
       0.0047948146 -0.017824816 -0.0019836093 0.018736191
000260 5a 97 c7 bb 32 f1 2f bc 53 09 d0 ba df ad 6d 3b
       -0.0060910406 -0.010738658 -0.001587192 0.0036266965
000270 43 b9 d8 3b 48 d3 6f 3b e4 d5 83 3c 69 6e 7a 3c
       0.006613882 0.003659444 0.016093202 0.015285113
000280 98 c3 9d 39 07 ce 42 3c b3 a6 0d bc 8b 4e 1f 3b
       0.00030091102 0.011889941 -0.008645701 0.002430829
000290 3c a9 fb 3b 3a 46 00 3b 40 5f 6f bb 07 b3 85 3c
       0.0076800864 0.0019573108 -0.003652528 0.016320718
0002a0 fa 02 58 bb 76 be 8f 3a 54 8f 0f bc 00 79 4d 3b
       -0.0032960759 0.0010966796 -0.008762199 0.003135264
0002b0 23 a2 a9 3b bf 01 36 bc 7b 5a c4 3a a8 a4 25 3c
       0.005176799 -0.011108815 0.0014980579 0.010110058
0002c0 c6 3b e9 bb f1 ed 45 bb 58 42 96 3b ac 26 83 bc
       -0.0071177213 -0.0030201639 0.0045855455 -0.016009651
0002d0 52 08 38 3a 57 ca 12 3b 55 d7 1c 3c 80 fa 32 b8
       0.0007020283 0.0022398436 0.0095728235 -4.2671803e-05
0002e0 5a 5c 4c 3c 3f 1e a4 3b 40 07 88 3b d6 10 cd bb
       0.01247319 0.0050084884 0.004151255 -0.0062581105
0002f0 64 ba 9e 3b c1 79 09 bc c9 d2 0a 3c 8a f4 be 3b
       0.004843997 -0.008390845 0.008473107 0.005827491
000300 d8 62 a7 bb 47 14 9a 3a bb 0c 02 3c 98 c0 81 3c
       -0.0051082186 0.0011755311 0.0079376055 0.015838906
000310 47 b5 87 3c 53 80 11 3c de bc 63 bb 5a 4a 44 bb
       0.016565932 0.0088806925 -0.0034750025 -0.0029951544
000320 8c 10 eb 3a fc d8 c3 3b d4 4f dd 3a 18 b4 7d 3a
       0.0017934009 0.0059767943 0.0016884753 0.000967802
000330 66 a2 ae 3b 0d 8b 0e bc 2f db 0d 3c b6 4d b0 bb
       0.005329418 -0.0087001445 0.0086582145 -0.0053803576
000340 e8 60 c0 bb 58 0c 98 3c 04 7d c2 bb 64 7e 2f 3c
       -0.005870927 0.018560573 -0.005935313 0.010711286
000350 08 9e aa 3b 8e d3 1e ba f8 9f 12 3c 4b ee 84 3b
       0.005206827 -0.0006058746 0.008949272 0.004056727
000360 26 42 3e 3a d2 71 5e 3c b8 78 80 3c e8 39 b5 bb
       0.00072577817 0.013576942 0.015682563 -0.0055305846
000370 bb a5 ed 3a 0a f2 07 bb 3d a1 88 3c 7e 32 48 bc
       0.0018131057 -0.0020743632 0.016678447 -0.0122190695
000380 46 cd a7 3c ca 78 b0 3a 95 ee e1 3a 2e a9 9b 39
       0.020483624 0.0013463732 0.0017237241 0.00029689952
000390 8c a0 ae ba 92 bc a9 3b 0b ca 90 3c d4 c9 92 3a
       -0.0013322993 0.00517995 0.017674467 0.0011199065
0003a0 1d bc 61 3b 51 67 c7 3b 5a e0 3a bb 06 34 0c 3b
       0.00344444 0.0060853143 -0.0028515072 0.0021393313
0003b0 12 e8 dd 3b 8c 01 7e b9 f2 48 28 3c a8 89 f3 3b
       0.0067720497 -0.00024223904 0.010271298 0.0074321814
0003c0 f6 35 5c bb 52 3e 7a 3b 64 38 1e 3c 10 89 8f 3b
       -0.00336015 0.0038184118 0.009656999 0.004380353
0003d0 a5 80 82 3c 07 00 a8 3b ca 07 82 3c bc d4 98 3c
       0.015930483 0.0051269564 0.015872855 0.018656127
0003e0 5d 63 cf bb fd c4 2e bb d8 45 31 3c 14 8d 77 bb
       -0.0063289837 -0.0026667707 0.010819875 -0.0037773298
0003f0 27 e5 44 3c e8 04 80 bc 9d 63 52 3b 91 14 22 3c
       0.012017525 -0.01562734 0.0032102831 0.009892599
