results/Short_LowLR/3DBall/3DBall-349972.onnx (onnx, 10026 bytes, 7 tensors)

network_body.observation_encoder.processors.0.normalizer.running_mean f4 [8]
0	0xbc0734a0	-0.008252293
1	0xbb82ce05	-0.0039918446
2	0x3db62012	0.08892836
3	0x4045f44f	3.0930364
4	0xbdc5ab0d	-0.09651766
5	0x3dffd395	0.12491528
6	0xbf78cade	-0.9718455
7	0xbded2b1c	-0.11580488

network_body._body_endoder.seq_layers.0.weight f4 [128, 8]
0	0x3eea0e73	0.4571415
1	0x3e71a49b	0.23597948
2	0x3e977aa5	0.29585758
3	0xbec6b191	-0.38807347
4	0xbc02d00b	-0.007984172
5	0x3e02c5d5	0.1277078
6	0xbd93bb42	-0.07213451
7	0xbaa6bc79	-0.0012720964
8	0x3f390548	0.72273684
9	0x3ef17c66	0.4716522
10	0xbec25447	-0.37954924
11	0x3d90af02	0.0706463
12	0xbe855d90	-0.26047945
13	0x3da98bb4	0.082785994
14	0x3e415b52	0.18882492
15	0xbc73adf9	-0.014873021
16	0xbe1bea2e	-0.15226051
17	0xbdab0e6d	-0.08352361
18	0xbeaa06c9	-0.33208302
19	0x3e0b303e	0.13592622
20	0xbeea037d	-0.45705786
21	0x3f122460	0.57086754
22	0xbe9d767e	-0.30754465
23	0x3e0b1e7b	0.13585846
24	0xbe8e1363	-0.27749166
25	0x3ec2a85b	0.3801907
26	0xbe56b979	-0.2096919
27	0xbe25c3d4	-0.16187984
28	0xbeca67cc	-0.39532316
29	0xbf259686	-0.64682806
30	0xbefba75b	-0.4915112
31	0x3f02f57a	0.5115582
32	0xbef8e441	-0.48611644
33	0x3f0e09bd	0.5548361
34	0x3f41531a	0.7551743
35	0xbd65ff9c	-0.05615197
36	0xbe70baf6	-0.2350882
37	0xbe5ce9a1	-0.21573497
38	0x3f28ee14	0.6598828
39	0x3eb72d82	0.35776907
40	0xbf07e422	-0.5308248
41	0x3e905736	0.28191537
42	0xbe5b04ae	-0.21388504
43	0x3d509c5c	0.050930366
44	0xbb66639e	-0.0035154591
45	0xbece43ae	-0.4028601
46	0xbe80f254	-0.25184882
47	0xbea0d8c0	-0.31415367
48	0xbd723603	-0.05913354
49	0xbd980bde	-0.074241385
50	0xbe916dc3	-0.28404054
51	0xbcc49395	-0.023996154
52	0xbf044c4d	-0.51678926
53	0x3f0d0e8c	0.5510032
54	0x3f486bb1	0.78289324
55	0x3f256092	0.6460048
56	0x3eed6de6	0.46372908
57	0x3f3f46be	0.7471732
58	0xbeabd6fa	-0.33562452
59	0xbc3df9c9	-0.011595198
60	0xbe5e14c4	-0.21687609
61	0xbefbd154	-0.49183142
62	0x3ed25c0c	0.4108585
63	0x3e87e9db	0.26545605
64	0xbe9bb120	-0.30408573
65	0x3ed031ac	0.40662897
66	0xbe7d84b1	-0.24757649
67	0xbf2bc05a	-0.6709038
68	0x3d781e76	0.060575925
69	0xbdabeca4	-0.08394745
70	0x3e861f29	0.26195648
71	0xbe9794bd	-0.29605666
72	0x3e45cbf7	0.19316088
73	0xbf2f75e4	-0.6853926
74	0xbd94b242	-0.072605625
75	0xbe8da73b	-0.2766665
76	0xbf33f7ec	-0.70300174
77	0xbd93db6f	-0.07219588
78	0xbd766ef7	-0.060164418
79	0x3e8572a2	0.2606402
80	0xbda1a4ed	-0.07892785
81	0x3eda259b	0.42606816
82	0xbd509197	-0.050920095
83	0xbe0e3c1e	-0.1389012
84	0xbf192b3c	-0.59831595
85	0xbe83a9bf	-0.25715443
86	0x3e908da0	0.2823305
87	0x3e8fde9f	0.28099534
88	0xbd02a33f	-0.031893965
89	0xbe8c504f	-0.2740502
90	0xbed5117c	-0.41614902
91	0x3dcd27c5	0.10017351
92	0xbecb8309	-0.3974841
93	0x3e0f3143	0.13983636
94	0xbdb49930	-0.08818281
95	0x3e606144	0.21912104
96	0x3ee9727c	0.45595157
97	0xbef78c30	-0.48349142
98	0x3e90a062	0.28247362
99	0x3ecf6445	0.40506187
100	0xbeb050ca	-0.34436637
101	0xbecf83a6	-0.40530127
102	0xbf10c3d9	-0.5654884
103	0xbcbfcbf5	-0.023412684
104	0xbf5855db	-0.84506005
105	0xbeb0d1b5	-0.34534994
106	0x3a844e8b	0.0010094208
107	0xbecf1f67	-0.40453646
108	0x3f448dbf	0.7677879
109	0xbec8e882	-0.3923989
110	0xbe2be26e	-0.16785595
111	0x3e9116ce	0.2833771
112	0x3e299662	0.16561273
113	0xbe871d0d	-0.2638935
114	0xbeabcb44	-0.33553517
115	0x3e2388f8	0.15970218
116	0x3de2d082	0.11074926
117	0x3ef2ff11	0.47460225
118	0x3e867ae7	0.26265642
119	0xbd8f8325	-0.07007436
120	0x3ee619a4	0.44941437
121	0xbe379579	-0.17928113
122	0x3d146511	0.036229197
123	0x3d77dc97	0.060513105
124	0x3e97938d	0.2960476
125	0xbe868567	-0.26273653
126	0xbefb0ec1	-0.49034694
127	0x3ed009e6	0.40632552
128	0x3eadceaa	0.33946735
129	0x3d0d8262	0.03454817
130	0x3e9fc60f	0.31205794
131	0xbf3fd400	-0.7493286
132	0x3d86e509	0.06586654
133	0xbf0c574e	-0.54820716
134	0xbeae8907	-0.3408892
135	0xbda6a5d2	-0.081370965
136	0x3ed50e25	0.41612354
137	0xbe93f6a9	-0.28899124
138	0xbf50ebe3	-0.81609935
139	0x3d886c90	0.06661332
140	0xbe6ae5d4	-0.22939235
141	0x3ec6c939	0.38825396
142	0xbf224320	-0.63383675
143	0x3f11e21e	0.5698565
144	0x3d594395	0.053042967
145	0xbe25bd42	-0.16185477
146	0x3d96f91b	0.07371732
147	0x3e19d0f4	0.15021116
148	0xbea9db51	-0.33175138
149	0x3e8fc00a	0.28076202
150	0x3f4ed5b1	0.8079482
151	0x3f15e340	0.5854988
152	0x3d882318	0.066473186
153	0xbe05c90a	-0.13064972
154	0x3db56925	0.08857945
155	0xbeac9386	-0.337063
156	0xbe7393da	-0.2378687
157	0xbde295b9	-0.110637136
158	0x3e8ec76c	0.27886522
159	0xbdc2a708	-0.09504515
160	0xbd065e70	-0.032804906
161	0x3d905504	0.070474654
162	0x3e0b5df8	0.13610065
163	0xbe1f607d	-0.15564151
164	0x3ec8d73e	0.39226717
165	0xbe86f102	-0.2635575
166	0x3dde606c	0.10858235
167	0x3de52f44	0.11190656
168	0xbf02e20d	-0.51126176
169	0xbf3fd646	-0.7493633
170	0x3edaffde	0.42773336
171	0x3e912f45	0.28356376
172	0xbe5c5102	-0.21515277
173	0xbe866b10	-0.26253557
174	0x3eabb954	0.33539832
175	0xbef150a2	-0.4713183
176	0xbd410769	-0.047126208
177	0x3ed07e83	0.4072152
178	0xbe8e739b	-0.27822575
179	0xbc948afd	-0.018132681
180	0x3e650f5e	0.22369143
181	0x3ea71969	0.32636574
182	0x3e98245f	0.2971525
183	0xbe3a30a2	-0.18182614
184	0xbe511147	-0.20416747
185	0x3f56afd6	0.83862054
186	0x3c7e0f4b	0.015506576
187	0xbd4e7975	-0.0504088
188	0xbe61f81f	-0.22067307
189	0xbe0e89f6	-0.13919815
190	0xbe03ddab	-0.12877528
191	0x3db7f90f	0.08983051
192	0xbc4ffb35	-0.01269417
193	0x3db7a463	0.08966901
194	0xbee0002d	-0.43750134
195	0xbeb6cd42	-0.35703474
196	0x3f1bdaa2	0.6088048
197	0x3df76994	0.12080684
198	0x3dce7759	0.100813575
199	0xbf04cf73	-0.5187904
200	0xbe81e0d3	-0.2536684
201	0xbec9ddc1	-0.39426997
202	0xbdf44678	-0.11927503
203	0x3e50e55f	0.20399998
204	0x3def82cd	0.1169487
205	0xbee6994c	-0.4503883
206	0xbe59c274	-0.21265584
207	0xbf08afec	-0.53393435
208	0xbe374b21	-0.17899753
209	0xbf1bf5ae	-0.6092175
210	0x3ea35bcc	0.31905973
211	0xbeb6e4dc	-0.3572148
212	0xbd0c6476	-0.034275495
213	0xbf2842da	-0.6572701
214	0x3e666ad8	0.22501695
215	0x3dec263f	0.11530732
216	0x3eac46f1	0.33647874
217	0xbdd23e39	-0.10265774
218	0x3e94109f	0.2891893
219	0x3f34b492	0.7058803
220	0xbde5df6c	-0.11224255
221	0xbbbd18a2	-0.0057707587
222	0x3e41a84b	0.18911855
223	0xbd3c14a8	-0.045918137
224	0xbee37924	-0.4442836
225	0x3eb2ec06	0.34945697
226	0x3df0ed98	0.117640674
227	0x3c85057f	0.016237972
228	0x3effc69b	0.4995621
229	0xbec300df	-0.38086602
230	0x3f70d517	0.9407515
231	0x3e8420c7	0.25806257
232	0xbe541582	-0.2071133
233	0x3ec6e884	0.3884927
234	0xbe8f133d	-0.27944365
235	0x3ec0b1d6	0.37635678
236	0xbef1483d	-0.47125426
237	0xbe7a808f	-0.24463104
238	0x3f7f3ff3	0.99706954
239	0x3f03ccc3	0.51484317
240	0xbede1a8c	-0.4337963
241	0xbe1a15a7	-0.15047322
242	0x3e16413b	0.14673321
243	0xbc053e14	-0.008132476
244	0x3e7f41cc	0.24927443
245	0xbd6df1bb	-0.05809186
246	0xbeadb68a	-0.3392833
247	0x3f7b1062	0.98071873
248	0x3e97a720	0.29619694
249	0x3e2e402f	0.17016672
250	0x3e1ec334	0.15504152
251	0x3ed8fbb9	0.4237955
252	0xbe76214d	-0.2403614
253	0xbd4ecc32	-0.050487705
254	0xbe67caeb	-0.22636001
255	0x3f228ba0	0.634943

network_body._body_endoder.seq_layers.0.bias f4 [128]
0	0xbace47af	-0.0015737916
1	0x3b266dbb	0.0025394994
2	0xbc35c04e	-0.011093212
3	0x3b321d76	0.0027178205
4	0x3b8449de	0.004037126
5	0x3c545e03	0.012961867
6	0xbc51668c	-0.012780797
7	0x3c16023e	0.009155808
8	0x3b31c15b	0.0027123305
9	0x3cd9364c	0.026515149
10	0x3aa93b5c	0.0012911367
11	0xbb03b25d	-0.0020095326
12	0x3c8d2fb3	0.017234659
13	0xbc309e1a	-0.010779882
14	0x3b44791f	0.002997942
15	0x3b11c259	0.0022241084
16	0x3bb06e34	0.005384231
17	0xbbcad972	-0.0061904723
18	0x3c1f6e96	0.009730956
19	0xbc8af463	-0.016962236
20	0x3ae87d2f	0.0017737503
21	0x3cec7d12	0.028868232
22	0x3c3355c0	0.010945737
23	0x3c3d778a	0.011564145
24	0xbc2842be	-0.010269819
25	0x3c3eb3a2	0.0116395075
26	0x3bc37e4b	0.005965983
27	0xbbd514fe	-0.0065027466
28	0x3bba6bdd	0.005689128
29	0xbbb0df4d	-0.0053977133
30	0x3c47f1af	0.012203618
31	0x3971ba92	0.00023053054
32	0x3c3301be	0.010925708
33	0x3c814151	0.015778216
34	0x3c304579	0.010758751
35	0x3ad10331	0.0015946386
36	0x3be72993	0.0070545166
37	0x3cd1f076	0.025627356
38	0x3bc1e353	0.0059169917
39	0x3a0a3c97	0.0005273311
40	0x3cba608f	0.02275112
41	0xbc791077	-0.015201679
42	0x3bf9d257	0.0076239514
43	0xbc17696f	-0.009241446
44	0xbc1a61ed	-0.009422761
45	0x3bdf1233	0.0068075894
46	0xbc5d98e3	-0.013525221
47	0x3c39cbe7	0.011340118
48	0x3c5e48cd	0.013567162
49	0xbb0e8859	-0.002174875
50	0x3c0c9139	0.008579546
51	0x3d0e54b1	0.034748737
52	0xbbdf87b2	-0.006821596
53	0x3c71f375	0.014767517
54	0xbb2e78a3	-0.0026622198
55	0xbb311280	-0.0027019083
56	0x3b939b7b	0.0045046187
57	0xbc460891	-0.012087003
58	0x3b78c30f	0.003795806
59	0x3c9bff4e	0.019042637
60	0x3c93cb40	0.018041253
61	0xbc2165a3	-0.009850892
62	0x3b39365b	0.0028261158
63	0xba9817c7	-0.0011603766
64	0x3c4f4ad2	0.012652116
65	0x3b90c44a	0.0044179307
66	0x3b64c57e	0.0034907754
67	0x3ab38c86	0.0013698495
68	0x3c13a710	0.009011999
69	0x3ca3079d	0.019901091
70	0x3bc7daf7	0.0060991007
71	0x3cacbe75	0.02108691
72	0xbb927191	-0.0044691046
73	0xba71702f	-0.0009210137
74	0x3c028186	0.007965451
75	0x3c9f7af9	0.019467818
76	0xba9be9f4	-0.0011895285
77	0x3ca60aed	0.020268882
78	0xba850b0c	-0.0010150387
79	0x3c70a68e	0.014688147
80	0xbc4d6b85	-0.012537842
81	0x3ad22dac	0.001603534
82	0x3c358739	0.011079603
83	0xbc0384ad	-0.008027238
84	0x3965dc45	0.00021921199
85	0xbbdbf583	-0.006712617
86	0x3ac358f1	0.0014903826
87	0x3c0bc26f	0.008530243
88	0x3c42ea28	0.0118966475
89	0x3b94424e	0.0045245057
90	0x3b56c625	0.0032771912
91	0x3cf5c642	0.030001763
92	0x3c40d26e	0.01176892
93	0xbba21100	-0.004945874
94	0x3be85fea	0.007091512
95	0x3c84c586	0.016207468
96	0xbc7e1e5f	-0.015510171
97	0x3bc5de3a	0.0060384544
98	0x3c887182	0.016655687
99	0x3c779805	0.015111928
100	0xbbc58880	-0.006028235
101	0xbca8c5dc	-0.02060216
102	0x3bdc3ca9	0.0067210984
103	0x3c3cb9fb	0.011518951
104	0x3c1f22b3	0.009712863
105	0xbb44ba44	-0.003001825
106	0x3cbfaa8d	0.023396755
107	0x3c15943e	0.009129582
108	0xbbf5d140	-0.007501751
109	0x3c71124f	0.014713838
110	0x3c2d4890	0.010576382
111	0x3b9df01d	0.0048198835
112	0x3c710249	0.0147100175
113	0xbceb7bc2	-0.028745536
114	0xbc021591	-0.007939712
115	0x3bfe0511	0.007752069
116	0x3af57667	0.0018727303
117	0x3b52d292	0.0032168967
118	0x3bfdcaae	0.0077451086
119	0xbb289ef9	-0.002572952
120	0x3cbd0a01	0.02307606
121	0xba4f9309	-0.0007918333
122	0x3c01f208	0.00793124
123	0x3be723ee	0.0070538437
124	0x3cc27b47	0.023740424
125	0x3cf056fe	0.029338356
126	0xbbb25b64	-0.0054430235
127	0xbb8a083e	-0.0042124083

action_model._continuous_distribution.log_sigma f4 [1, 2]
0	0xbc2c20ea	-0.010505894
1	0xbbdaa3e4	-0.0066723693

action_model._continuous_distribution.mu.weight f4 [2, 128]
0	0xbd0cbe7f	-0.03436136
1	0xbcf6d364	-0.030130096
2	0xbc89bc05	-0.016813288
3	0xbc965bd2	-0.01835433
4	0x3c1607ae	0.009157104
5	0x3cbf63a1	0.023362936
6	0xbc028f59	-0.007968747
7	0xbd0d8a42	-0.03455568
8	0xbc2e92dc	-0.010655131
9	0xbc13f992	-0.00903167
10	0xbc5d25c1	-0.013497771
11	0xbcbcbbb6	-0.023038726
12	0xbbaa4c2d	-0.005197069
13	0xbc5cc0b6	-0.01347368
14	0xbd23540d	-0.03987508
15	0xbcca68d6	-0.024708193
16	0xbd3147c9	-0.04328135
17	0x3c3667ac	0.011133116
18	0x3c992610	0.018694907
19	0xbc9feb3d	-0.01952135
20	0x3b3b63c5	0.0028593403
21	0x3cb0ecf8	0.02159737
22	0x3c4d4754	0.012529213
23	0x3c2454d1	0.010029987
24	0xbcc7927e	-0.024361845
25	0xbcd13a5b	-0.025540521
26	0x3cd3a1e3	0.02583403
27	0xbc08e1cd	-0.008354616
28	0x3b9cb9b4	0.0047828797
29	0xbca21383	-0.019784695
30	0x3c07006a	0.008239845
31	0xbba4505f	-0.005014464
32	0x3c3676db	0.011136736
33	0x3ca33104	0.019920833
34	0x3c959f0d	0.018264318
35	0xbc2334d9	-0.00996133
36	0x3c918e35	0.017768005
37	0x3d1f5ca6	0.038906716
38	0xbd92b793	-0.0716392
39	0x3c6ac1d6	0.014328441
40	0xbd2d2383	-0.042270195
41	0xbc92327d	-0.01784634
42	0x3bc40888	0.0059824623
43	0xbca5e444	-0.020250447
44	0x3bdee7b0	0.0068025216
45	0x3d3864f0	0.045018137
46	0xbb104473	-0.0022013455
47	0x3c4484f0	0.011994585
48	0xbcf9ade1	-0.03047842
49	0xbd2e4236	-0.042543612
50	0x3c366110	0.01113154
51	0x3d260d88	0.04054025
52	0xba3d6501	-0.00072248286
53	0xbc8b1062	-0.016975585
54	0x3c3b2bdb	0.01142403
55	0xbafc1c53	-0.0019234515
56	0xbc24d061	-0.010059447
57	0xbcb3db25	-0.021955082
58	0x3c70a396	0.014687439
59	0x3cf160ba	0.029465068
60	0x3cb12a62	0.021626655
61	0x3c45344d	0.012036395
62	0x3b61a270	0.0034429096
63	0x3c781890	0.015142575
64	0xbbc5f28b	-0.0060408763
65	0xbbe23260	-0.006902978
66	0x3aa5d900	0.0012653172
67	0x3c359924	0.011083875
68	0x3c58f249	0.013241359
69	0x3cc786a7	0.0243562
70	0xbcd63b80	-0.026151419
71	0x3b92c9b4	0.0044796113
72	0xbcdca750	-0.02693525
73	0xbc7b0b06	-0.015322452
74	0x3cb1284c	0.02162566
75	0x3cc8cf54	0.024512924
76	0xbc830aea	-0.015996415
77	0x3d32b9a3	0.04363407
78	0x3c38b16a	0.011272768
79	0xbd3d4ae6	-0.046214007
80	0xbc7f446c	-0.015580278
81	0x3b542f2d	0.0032376752
82	0x3cc5e585	0.024157295
83	0xbc300c84	-0.010745171
84	0x3bf29ba8	0.0074038096
85	0xbd0504e6	-0.032475375
86	0x3cd2e90b	0.02574589
87	0x3c322f4f	0.010875537
88	0x3c99ccad	0.018774355
89	0xbc3543f7	-0.011063567
90	0xbcc27790	-0.023738652
91	0x3cfdef2f	0.03099784
92	0x3c997f6b	0.018737515
93	0xbcacde55	-0.02110211
94	0x3d09db59	0.03365645
95	0xbcaf296b	-0.021382054
96	0xbc278802	-0.010225298
97	0xbc98c78f	-0.018649844
98	0x3d2def9b	0.042464834
99	0xbd2a5ba0	-0.041591287
100	0xbc5cedb5	-0.013484408
101	0x3a3583ca	0.000692424
102	0x3cac2ebc	0.021018378
103	0x3d0fb41a	0.035083868
104	0x3d57f59b	0.052724462
105	0x3c3450b8	0.011005573
106	0xbc38c415	-0.011277218
107	0x3ce51327	0.027963234
108	0xbc354324	-0.011063371
109	0x3d07f1a8	0.033189446
110	0x3c9f65a1	0.01945764
111	0xbcd5c1e3	-0.026093429
112	0xbcf8ee2e	-0.03038701
113	0xbba28a85	-0.0049603605
114	0xbb87e005	-0.0041465783
115	0x3cabcf54	0.020972885
116	0xba3a2720	-0.0007101167
117	0xbc58c30b	-0.013230096
118	0x3c88351d	0.016626889
119	0xbd480f75	-0.048842866
120	0x3baf5757	0.005350988
121	0xbcf8e9d9	-0.030384945
122	0x3cfe5a14	0.031048812
123	0xbc903340	-0.017602563
124	0x3cc9995c	0.02460926
125	0xbbd92382	-0.0066265473
126	0xbd3de274	-0.04635854
127	0xbc8d1f2b	-0.017226776
128	0x3bfa1203	0.0076315417
129	0xbc8d51fc	-0.017251007
130	0x3ca0d216	0.019631427
131	0xbcd96f84	-0.026542433
132	0xbbe6e1bc	-0.0070459526
133	0x3c5e3d26	0.013564384
134	0xbb856aed	-0.0040715844
135	0xbd277929	-0.04088703
136	0x3d575e5a	0.052580215
137	0x3cb5b9b0	0.02218327
138	0x3c5f2625	0.013619934
139	0x3c8552fd	0.016274923
140	0x3caa52a7	0.020791365
141	0xbccc6096	-0.0249484
142	0x3d3e1cc8	0.046414167
143	0xbcbe7477	-0.023248894
144	0xbca3c0da	-0.01998942
145	0xbb94eb94	-0.0045446847
146	0xbb4de337	-0.0031415948
147	0xbca6d9a9	-0.02036746
148	0x3ae324dc	0.001732971
149	0x3cd38e58	0.02582471
150	0xbba94899	-0.005166125
151	0xbc5f369e	-0.013623862
152	0xbd2be6f3	-0.041968297
153	0x3d0a802f	0.03381365
154	0x3cbea1c1	0.02327049
155	0x3bb84bfb	0.005624292
156	0xbc5471c8	-0.012966581
157	0xbd391a57	-0.045191135
158	0xbc27c9d0	-0.010240987
159	0xbc8e5b1c	-0.017377429
160	0x3d15c131	0.036561195
161	0xbbb62a0b	-0.005559211
162	0x3c0f3397	0.008740327
163	0x3c9a5682	0.018840078
164	0x3c1a168f	0.009404792
165	0x3b30260e	0.002687815
166	0x3c3ab306	0.011395222
167	0xbcabfa5c	-0.020993404
168	0x3d2de9fb	0.04245947
169	0xbc48be37	-0.012252382
170	0x3bc7f476	0.00610214
171	0xbd4a9702	-0.04946042
172	0xbc28b60d	-0.010297311
173	0x3d341b59	0.043971393
174	0xbc869858	-0.016430065
175	0xbb8f3674	-0.004370505
176	0x3ca5846a	0.020204742
177	0xbc682803	-0.014169696
178	0xbb0e8585	-0.0021747064
179	0x3ce461c7	0.027878655
180	0xbcbc24ba	-0.022966731
181	0x3d058d63	0.03260554
182	0x3d267a92	0.040644236
183	0x3c11633f	0.00887376
184	0x3cd8d7cd	0.02647009
185	0xbd1141d2	-0.03546316
186	0xbb4a5b79	-0.0030877276
187	0x3cce2ded	0.025168383
188	0xbbcb699a	-0.006207657
189	0x3aeed086	0.0018220104
190	0xbd123d80	-0.035703182
191	0x3c037368	0.00802312
192	0x3c81e36f	0.01585552
193	0x3c87357b	0.016504994
194	0x3ca3f448	0.020013943
195	0xbb3e9ae2	-0.0029084017
196	0xbd87f86e	-0.06639181
197	0xbc83ba42	-0.016080026
198	0x3ba08bc0	0.004899472
199	0x3d6869c8	0.056741506
200	0xbd66a56f	-0.056310114
201	0xbc265b58	-0.010153614
202	0xbc49bf8e	-0.012313737
203	0xbc084bc3	-0.008318844
204	0xbcf161be	-0.029465552
205	0x3c8becd3	0.0170807
206	0xbcf5cb4f	-0.030004172
207	0x3cbf86a6	0.023379635
208	0xbc428174	-0.011871684
209	0xbc126c5d	-0.008936969
210	0x3cd2e12f	0.025742142
211	0xba2d90ed	-0.0006621022
212	0xbc1ce4cd	-0.009576035
213	0xbca9d697	-0.020732207
214	0xbca90345	-0.020631442
215	0xbc8130ee	-0.015770402
216	0x3d001744	0.031272188
217	0x3bd4d503	0.0064951195
218	0x3c00ff7a	0.00787341
219	0x3c7cb9d5	0.015425165
220	0xbb87c641	-0.0041435068
221	0x3c7a6c29	0.015284576
222	0xbc340b94	-0.010989089
223	0x3cb0ebb7	0.021596773
224	0x3bdbfd3a	0.0067135366
225	0x3c965337	0.018350227
226	0x3c8f5f31	0.017501445
227	0x3cd1a02b	0.02558907
228	0x3c997d7a	0.01873659
229	0xbc70cf2e	-0.014697833
230	0xbbeb5063	-0.0071812137
231	0xbcf9e306	-0.030503761
232	0x3be103d2	0.0068669105
233	0xbcdf2dae	-0.027243461
234	0x3d4902ad	0.049074817
235	0xba3d00cc	-0.00072098966
236	0xbc2beb77	-0.010493151
237	0x3c145506	0.009053474
238	0xbcd072aa	-0.025445301
239	0xbca601b8	-0.020264491
240	0x3d2d0528	0.042241246
241	0x3b5d7211	0.0033789913
242	0xba4a8280	-0.00077251345
243	0x3cab3fe3	0.020904487
244	0xbcdf0e4a	-0.027228493
245	0x3c71ec53	0.014765817
246	0xbc128d9a	-0.008944893
247	0xbc875c70	-0.01652357
248	0x3d4f5f11	0.05062777
249	0x3c32653d	0.010888395
250	0xbd06c3a9	-0.03290144
251	0x3b94ee2d	0.0045449943
252	0xbc946638	-0.018115148
253	0x3cd2bd9e	0.025725182
254	0xbd0e2930	-0.03470725
255	0xbc7bde18	-0.0153727755

action_model._continuous_distribution.mu.bias f4 [2]
0	0x3c0c4c60	0.008563131
1	0x3c2990c9	0.010349461

onnx::Div_46 f4 [8]
0	0x3db4ba5a	0.08824606
1	0x3da65adc	0.08122799
2	0x3fa22a44	1.2669148
3	0x3eddcf9f	0.43322465
4	0x3f9a473a	1.2052987
5	0x3f9810c5	1.1880118
6	0x3f95c6fe	1.1701353
7	0x3f86d37e	1.0533292
