results/Short_LowLR/3DBall/3DBall-499992.onnx (onnx, 10026 bytes, 7 tensors)

network_body.observation_encoder.processors.0.normalizer.running_mean f4 [8]
000000 f9 32 d8 bb 0a 6d 60 bb 75 37 a0 3d 2c f5 46 40
       -0.0065978733 -0.003424468 0.078230776 3.108714
000010 42 c6 cb bd 14 91 d6 3d 8b 3d 6f bf 7c 3c e0 bd
       -0.09949924 0.1047689 -0.9345328 -0.109490365

network_body._body_endoder.seq_layers.0.weight f4 [128, 8]
000000 b2 a1 eb 3e 72 3e 71 3e a8 85 96 3e fd 69 c6 be
       0.460218 0.23558977 0.29398847 -0.38752738
000010 9a 37 09 bc 98 eb fc 3d 64 dc 94 bd 43 5a cc ba
       -0.008375073 0.123496234 -0.07268599 -0.0015590865
000020 83 ec 39 3f b5 30 f2 3e b8 d8 c2 be 19 e1 91 3d
       0.72626513 0.47302786 -0.38055968 0.07123012
000030 6c e1 84 be 86 20 a1 3d 8e e9 40 3e 47 fc 51 bc
       -0.25953233 0.078675315 0.18839094 -0.012816495
000040 a5 b9 19 be 1c 4e af bd 4b b6 aa be 5e 23 0b 3e
       -0.15012224 -0.0855982 -0.33342203 0.1358771
000050 3b 8a ea be 89 98 11 3f 98 a8 9d be 85 3e 09 3e
       -0.45808586 0.56873375 -0.3079269 0.13402756
000060 39 a6 8c be 8a a5 c3 3e e5 ab 57 be 89 0d 26 be
       -0.27470568 0.38212234 -0.21061666 -0.16216101
000070 6b a7 c9 be a7 3e 26 bf 28 68 fb be 96 82 03 3f
       -0.39385542 -0.6493935 -0.49102902 0.51371133
000080 28 43 fa be 7f 63 0e 3f 36 c3 41 3f 52 51 63 bd
       -0.4887936 0.5562057 0.75688493 -0.055497475
000090 61 78 6f be 6e 45 59 be 8e 27 29 3f 15 33 b8 3e
       -0.23385765 -0.21217892 0.6607598 0.35976472
0000a0 3a e3 08 bf e8 b7 8f 3e a6 f6 59 be 2e c9 55 3d
       -0.5347172 0.28069997 -0.21285495 0.052193813
0000b0 87 86 89 bb e3 86 cc be aa b8 80 be 30 d5 a1 be
       -0.004196945 -0.3994666 -0.25140887 -0.31607962
0000c0 7d 27 63 bd 51 e8 94 bd 0c d6 91 be f1 a0 c7 bc
       -0.05545758 -0.07270873 -0.28483617 -0.024368735
0000d0 d5 15 04 bf 0e 0c 0c 3f f8 00 48 3f d1 d9 25 3f
       -0.51595813 0.54705894 0.7812648 0.64785486
0000e0 07 17 ef 3e e6 ba 3f 3f 5e 23 ac be 70 0d 38 bc
       0.46697256 0.7489456 -0.33620733 -0.0112336725
0000f0 f0 90 5c be 99 6f fd be 05 4c d2 3e 70 3f 89 3e
       -0.21539664 -0.49499205 0.41073623 0.2680621
000100 8e a0 9b be 12 f0 ce 3e ff 57 7e be da d3 2b bf
       -0.3039593 0.40417534 -0.24838255 -0.67120135
000110 dc 9b 71 3d 13 10 ad bd 20 94 86 3e 25 47 99 be
       0.05898653 -0.084503315 0.26284885 -0.2993709
000120 c5 7d 47 3e 68 2e 30 bf aa ef 96 bd 85 68 8d be
       0.19481571 -0.6882081 -0.07369931 -0.27618805
000130 e8 4f 34 bf a5 44 97 bd f2 bb 75 bd f0 36 84 3e
       -0.7043443 -0.0738614 -0.05999369 0.25823164
000140 56 97 9c bd de 53 d9 3e 5a 17 57 bd 2c 7f 0e be
       -0.076460525 0.42446798 -0.052512504 -0.139157
000150 95 6d 19 bf c5 2c 85 be ad 98 90 3e ad ef 8e 3e
       -0.59932834 -0.2601072 0.28241482 0.27917233
000160 f7 76 ea bc 21 2b 8d be 68 e3 d5 be 83 01 cd 3d
       -0.02862118 -0.27571967 -0.4177506 0.10010054
000170 f5 e5 cb be 66 c3 0b 3e f4 0f b5 bd 74 fc 5e 3e
       -0.3982388 0.13648757 -0.088409334 0.2177599
000180 31 fd e9 3e eb 00 f9 be 80 47 90 3e 6a 82 cf 3e
       0.45700982 -0.48633513 0.2817955 0.40529186
000190 11 d4 b0 be 32 f7 cf be 2f b5 10 bf f3 9c d1 bc
       -0.34536794 -0.40618283 -0.56526464 -0.025587535
0001a0 27 c9 57 bf e2 9f af be 76 3d e7 39 c1 93 cf be
       -0.8429131 -0.34301668 0.00044105545 -0.40542415
0001b0 af a6 44 3f bd ef c9 be 79 24 2c be ed 28 92 3e
       0.7681684 -0.39440718 -0.16810788 0.2854685
0001c0 17 e7 2b 3e 12 3f 88 be 13 b1 ac be 70 f7 23 3e
       0.16787373 -0.2661062 -0.33728847 0.16012359
0001d0 94 70 e0 3d 55 6f f1 3e c9 5a 86 3e 12 7b 94 bd
       0.109589726 0.47155252 0.2624114 -0.07250036
0001e0 97 84 e7 3e 8e 5a 35 be b5 10 0f 3d cd e3 77 3d
       0.45218346 -0.17710325 0.034928042 0.060519982
0001f0 1f f3 97 3e 65 21 88 be bf c7 fa be 7c ff d0 3e
       0.29677674 -0.26587978 -0.4898052 0.4081992
000200 15 75 af 3e bb 44 13 3d ab b2 9e 3e a7 ad 3f bf
       0.34269014 0.03595422 0.30995688 -0.7487435
000210 03 2e 88 3d 63 59 0d bf 55 69 ae be 86 56 a3 bd
       0.06649401 -0.5521452 -0.34064737 -0.079754874
000220 d8 81 d3 3e 9e 81 93 be 32 94 50 bf 0a 8e 88 3d
       0.4131 -0.28809828 -0.8147613 0.06667717
000230 31 9f 6a be c6 4b c8 3e fa 35 22 bf b6 f3 11 3f
       -0.22912289 0.3912031 -0.6336361 0.570125
000240 83 a1 49 3d 3b 76 25 be 4e 94 9a 3d e2 d2 19 3e
       0.049226295 -0.16158383 0.07547818 0.15021852
000250 8d a8 a9 be c0 24 92 3e 2c 2e 4f 3f 57 f4 15 3f
       -0.33136407 0.28543663 0.8092983 0.5857596
000260 8c 70 8f 3d 90 34 03 be f1 f2 b2 3d fd 63 ac be
       0.070038885 -0.1281302 0.08737744 -0.33670035
000270 e2 6b 72 be 0e b9 ea bd de 31 8e 3e 5c 1b bd bd
       -0.23673967 -0.11461078 0.2777242 -0.09233734
000280 99 ee 13 bd 00 e4 8e 3d 80 f6 0c 3e 50 50 1f be
       -0.036116216 0.06977081 0.13765907 -0.1555798
000290 97 d0 c8 3e 37 17 85 be e6 eb de 3d b4 88 e3 3d
       0.3922164 -0.25994274 0.10884838 0.111100584
0002a0 be a9 03 bf 24 7b 40 bf 02 2c db 3e 01 dd 91 3e
       -0.5143088 -0.751879 0.42807013 0.28488925
0002b0 ec 11 5d be 8b f4 84 be b4 b1 ac 3e 54 a5 f2 be
       -0.21588868 -0.2596782 0.33729327 -0.4739176
0002c0 1c d7 50 bd df 04 d1 3e 7d 76 8d be 8f 12 91 bc
       -0.050986394 0.4082403 -0.27629462 -0.017709045
0002d0 3e f1 65 3e e7 68 a9 3e 38 ba 98 3e 1f 07 39 be
       0.22455308 0.33087847 0.29829574 -0.18069123
0002e0 de bf 52 be 83 26 57 3f 6d 1d 89 3c 8d d9 4b bd
       -0.20581004 0.8404314 0.016737664 -0.04976802
0002f0 95 b1 60 be e1 9e 0c be ac cd 03 be e0 77 bc 3d
       -0.21942742 -0.13732482 -0.12871426 0.09202552
000300 9c 13 27 bc 83 00 bd 3d b2 3d e0 be f0 fb b6 be
       -0.010197546 0.09228613 -0.4379707 -0.35739088
000310 41 0c 1c 3f 1c d4 f1 3d 5a 8b cb 3d 55 f4 03 bf
       0.609562 0.11808035 0.099386886 -0.51544696
000320 34 aa 80 be 36 07 cb be bd 03 f7 bd 65 0b 51 3e
       -0.25129855 -0.3965394 -0.1206126 0.20414503
000330 e1 eb ed 3d d1 c0 e7 be 6a d0 58 be 40 3e 09 bf
       0.11617256 -0.45264295 -0.21173254 -0.5361061
000340 35 77 3a be b7 8d 1c bf 3b 0b a4 3e 13 b7 b6 be
       -0.18209536 -0.6115374 0.32039818 -0.3568655
000350 7e af 0f bd 79 70 27 bf 27 d7 66 3e 3a 4c e7 3d
       -0.03507947 -0.65405995 0.22543012 0.11293836
000360 32 bd ad 3e 4f 56 d5 bd 48 3c 93 3e 6a b7 34 3f
       0.33933407 -0.10416853 0.28756928 0.7059237
000370 bb 84 e7 bd 45 28 1a bc 59 9b 41 3e 48 aa 42 bd
       -0.11304613 -0.009409015 0.18906917 -0.047525674
000380 f5 ad e3 be 56 38 b4 3e 4f c2 f3 3d 24 56 86 3c
       -0.44468656 0.3519923 0.11902296 0.016398497
000390 ed 39 00 3f 31 2b c2 be 87 d0 70 3f 07 a9 85 3e
       0.5008839 -0.37923577 0.9406819 0.2610552
0003a0 fb 34 51 be b1 20 c8 3e b5 ec 8e be 1f 83 c0 3e
       -0.20430367 0.39087442 -0.27914968 0.37600037
0003b0 3c 7a f0 be 4e b7 7c be ed 13 7f 3f c9 8f 04 3f
       -0.46968257 -0.246793 0.9963978 0.517819
0003c0 b0 0e df be 4f 0c 18 be ff 90 17 3e 7d 43 fb bb
       -0.43565893 -0.14848445 0.14801405 -0.0076679573
0003d0 b7 29 80 3e fb d2 65 bd 4f 47 ad be 39 72 7b 3f
       0.25031826 -0.05610941 -0.33843467 0.98221165
0003e0 4c 92 98 3e 27 01 31 3e 80 98 1e 3e 45 f1 d8 3e
       0.29799116 0.17285596 0.15487862 0.42371574
0003f0 5f 91 74 be 27 60 56 bd 8b 10 67 be 28 23 23 3f
       -0.2388358 -0.05233779 -0.22564904 0.6372552

network_body._body_endoder.seq_layers.0.bias f4 [128]
000000 22 3d fb ba 14 76 57 3b 79 49 37 bc 19 bd 52 3b
       -0.0019167999 0.0032876777 -0.011186951 0.0032156168
000010 67 87 c7 3b 49 c1 6f 3c 49 db 74 bc ae a1 29 3c
       0.0060891393 0.014633485 -0.01494486 0.010353489
000020 13 b5 73 3b 06 f0 ef 3c 73 80 b0 3a 47 48 bd ba
       0.0037186786 0.029289257 0.0013466015 -0.0014441096
000030 c8 66 9e 3c 78 06 49 bc 26 c2 68 3b 5f c2 49 3b
       0.01933612 -0.012269609 0.0035516112 0.003078602
000040 a4 06 d2 3b 80 39 df bb 1c 3a 39 3c 41 9b 9b bc
       0.006409483 -0.0068122745 0.011305358 -0.01899493
000050 d0 33 11 3b fd 95 07 3d c2 1b 4e 3c 0c eb 4c 3c
       0.0022156127 0.033102024 0.01257986 0.012507211
000060 48 b8 48 bc 64 b8 62 3c f2 47 f8 3b eb 88 cd bb
       -0.012250967 0.013837907 0.007576936 -0.0062724254
000070 4b 9b c7 3b be 66 ca bb e3 1b 62 3c 30 d2 1b 3a
       0.0060915104 -0.0061767986 0.013800594 0.0005944101
000080 a9 bf 52 3c 30 29 96 3c b5 12 75 3c 9e 91 08 3b
       0.012863078 0.018330187 0.014958073 0.0020838748
000090 1e a6 01 3c ba 20 f0 3c 76 63 da 3b 20 e7 47 3a
       0.007913141 0.02931248 0.0066646887 0.0007625688
0000a0 42 f5 ce 3c f6 17 8a bc b3 56 30 3c e4 a7 27 bc
       0.025263432 -0.016857129 0.010762858 -0.010232899
0000b0 ad 55 0f bc 43 2e 0a 3c c4 98 71 bc 6c a2 50 3c
       -0.008748454 0.008433881 -0.014745895 0.012734037
0000c0 1c 8a 7b 3c 83 0f 04 bb 75 58 24 3c d7 b2 21 3d
       0.015352752 -0.0020150847 0.010030855 0.039477196
0000d0 96 23 e6 bb 45 c3 86 3c 48 5d 26 bb d0 0c 43 38
       -0.007023285 0.016450534 -0.002538519 4.6503555e-05
0000e0 71 2d ad 3b ac fb 5d bc a1 13 93 3b 8e f0 ae 3c
       0.005284958 -0.013548773 0.004488424 0.02135494
0000f0 ce 90 a4 3c 93 ec 0b bc 5b a5 2d 3b 35 70 7d ba
       0.02008858 -0.00854029 0.0026496265 -0.0009667904
000100 98 0c 71 3c 94 17 a2 3b 6b 76 94 3b 49 cf 82 3b
       0.014712475 0.0049466584 0.004530718 0.0039919955
000110 05 fb 25 3c bf d1 b5 3c 20 4d ed 3b 9f aa c0 3c
       0.0101306485 0.022194741 0.00724186 0.023518858
000120 49 a7 a9 bb 3d d7 69 3a 84 3b 44 3c 5a c5 b5 3c
       -0.0051774126 0.00089203176 0.01197708 0.022188831
000130 81 d5 96 ba 27 b6 c0 3c e8 c8 9b ba 9e e5 87 3c
       -0.0011507721 0.023524357 -0.0011885436 0.016588982
000140 f3 39 4e bc a4 21 17 3b 61 b2 78 3c 55 ff 15 bc
       -0.012587058 0.0023060823 0.015179248 -0.009155114
000150 99 bf 06 3b 54 14 fa bb 2a a2 c3 3a 07 45 1d 3c
       0.0020560978 -0.007631818 0.0014925648 0.009598977
000160 e6 e9 5f 3c dd 5a c9 3b 5d 5c 87 3b c9 a3 0a 3d
       0.013666606 0.006144865 0.0041308836 0.033847604
000170 13 98 62 3c 7c 2c b5 bb 1e 35 fd 3b aa a1 98 3c
       0.013830203 -0.0055289846 0.0077272793 0.018631775
000180 05 23 8a bc a5 ea e8 3b b7 65 9b 3c cd ae 83 3c
       -0.016862402 0.00710805 0.0189694 0.016074562
000190 41 0d 98 bb 57 cd ac bc fc 98 ee 3b ba 55 55 3c
       -0.004640252 -0.021094007 0.0072814208 0.013020927
0001a0 ca 26 38 3c 33 23 2d bb 8f 23 d1 3c 59 b7 28 3c
       0.011239717 -0.0026418685 0.025529651 0.01029762
0001b0 a5 38 0d bc 8c b9 8d 3c 76 a3 41 3c e8 7c b6 3b
       -0.008619462 0.01730039 0.011818757 0.005569089
0001c0 83 c5 82 3c 1c f6 f9 bc 8c 3c 0b bc 03 fa 22 3c
       0.015963322 -0.030512862 -0.008498322 0.009947303
0001d0 3d 8b 32 3b 8f e6 7f 3b 29 37 05 3c ca a9 12 bb
       0.0027243637 0.0039047336 0.008130827 -0.0022379034
0001e0 48 0f d6 3c 93 2d 7c ba e2 42 15 3c 9d 74 0c 3c
       0.026130334 -0.0009619828 0.009110184 0.008572725
0001f0 c8 ce d5 3c e0 34 07 3d 74 ee ca bb 2e 45 8e bb
       0.026099578 0.03300941 -0.0061929766 -0.004341743

action_model._continuous_distribution.log_sigma f4 [1, 2]
000000 4c 31 42 bc a6 20 06 bc
       -0.011852574 -0.008186495

action_model._continuous_distribution.mu.weight f4 [2, 128]
000000 93 d3 0f bd 4a 28 08 bd 41 2e 69 bc 10 d5 a2 bc
       -0.035113882 -0.033241548 -0.014232219 -0.019876987
000010 6a 03 3c 3c 2f be c2 3c 52 d7 a9 bb 23 c7 1a bd
       0.011475423 0.023772327 -0.005183139 -0.037787568
000020 a6 5a 25 bc 83 51 2c bc bc 46 6c bc f6 e7 be bc
       -0.010092413 -0.010517481 -0.014421161 -0.023303967
000030 a5 db f0 bb a1 a3 4f bc 16 2e 1b bd 99 19 de bc
       -0.0073504024 -0.0126732895 -0.037885748 -0.027111815
000040 b9 b8 3b bd ba 33 1a 3c 37 b6 a8 3c 24 90 a7 bc
       -0.045830462 0.009411747 0.0205947 -0.020454474
000050 17 ea d6 3a c6 c9 c4 3c e2 5e 7a 3c 0c 3c 28 3c
       0.0016396669 0.024021994 0.015281411 0.010268223
000060 d3 a6 c7 bc 25 4a d6 bc 7c 7b c6 3c c6 b7 14 bc
       -0.02437154 -0.026158402 0.024228804 -0.009077018
000070 a9 07 b8 3b 51 48 a3 bc f0 eb 17 3c eb aa d1 bb
       0.0056161475 -0.019931944 0.0092725605 -0.006398549
000080 ae 22 56 3c 4a 50 b6 3c 7b 58 b5 3c 9c c3 19 bc
       0.013069792 0.022255082 0.022136917 -0.009385016
000090 0a 39 90 3c 9f 82 33 3d dd 0e 99 bd 50 5b 60 3c
       0.017605323 0.04382574 -0.07473538 0.013693646
0000a0 c5 ed 3b bd 0b 77 86 bc 35 a8 01 3c cd 33 97 bc
       -0.04588105 -0.016414186 0.007913639 -0.018457318
0000b0 de 3e 1a 3c b5 5d 34 3d b4 56 09 bb ec f8 4b 3c
       0.009414403 0.04403468 -0.002095622 0.012449484
0000c0 a2 d7 09 bd 68 0e 39 bd 8b 8e 3e 3c b5 73 35 3d
       -0.03365291 -0.045179754 0.011630665 0.0442998
0000d0 6c 53 a2 3a 45 c8 9f bc 0d a4 2d 3c ee 7a 02 bb
       0.0012384481 -0.019504676 0.010598195 -0.0019909698
0000e0 8a f4 3b bc eb 03 b9 bc bd c5 6d 3c 12 8d f7 3c
       -0.011471877 -0.022584876 0.0145124765 0.030218635
0000f0 96 81 c7 3c 0b 12 3a 3c e5 26 89 3b 1b 8d 55 3c
       0.024353784 0.011356841 0.004185545 0.01303413
000100 8d ac e3 bb 0b 75 e7 bb e9 ef 14 3b a9 3f 68 3c
       -0.00694806 -0.007063513 0.0022726005 0.014175334
000110 8b 3f 57 3c e2 af d8 3c 5e a1 e6 bc 38 c8 b9 3b
       0.013137708 0.026451055 -0.028153118 0.00566962
000120 f8 61 e8 bc 35 27 a1 bc 4f 79 db 3c ab 22 e2 3c
       -0.028367028 -0.019672016 0.026791243 0.027604422
000130 9d c1 86 bc df 47 41 3d 63 f3 41 3c e2 92 4b bd
       -0.016449744 0.047187682 0.011837813 -0.049700625
000140 03 43 97 bc 10 79 df 3a 0f 39 f1 3c 7a 20 2e bc
       -0.01846457 0.0017049629 0.029446153 -0.01062786
000150 01 a5 17 3c c3 25 11 bd 13 8d c5 3c 42 a4 53 3c
       0.009255649 -0.035436403 0.024115121 0.01291758
000160 64 67 99 3c 6f 7c 62 bc 72 9f d2 bc b8 d9 0b 3d
       0.018726058 -0.013823613 -0.025710795 0.03414318
000170 a6 13 af 3c fa 42 a4 bc 7a ff 07 3d b6 55 bc bc
       0.021371674 -0.020051468 0.033202626 -0.022990089
000180 c5 cc 26 bc ec fb a1 bc 07 ce 35 3d 62 17 32 bd
       -0.010180657 -0.019773446 0.044385936 -0.04347933
000190 a5 93 40 bc 1d 54 b1 3b f8 cb a6 3c 70 4a 16 3d
       -0.011753951 0.0054116384 0.020360932 0.036692083
0001a0 57 ec 5a 3d 24 ea 56 3c 71 10 42 bc b3 c2 e7 3c
       0.053448047 0.013117347 -0.01184474 0.028291082
0001b0 71 e2 32 bc f3 03 10 3d 32 95 a5 3c a6 ec f5 bc
       -0.010918246 0.035160016 0.020212743 -0.03002007
0001c0 1e 7f 02 bd 55 81 84 38 bf f4 96 bb a7 f7 be 3c
       -0.03185951 6.3183405e-05 -0.0046068127 0.02331145
0001d0 7b c9 8a 3a ed dc 65 bc 1c df 85 3c de 37 4a bd
       0.001058861 -0.014029724 0.016341738 -0.049369685
0001e0 98 7f bf 3b 66 47 fe bc 8a fc 03 3d 32 b7 a9 bc
       0.005844068 -0.031039905 0.032223262 -0.020717237
0001f0 f8 d6 db 3c cc b4 06 bc d3 94 43 bd 5c 9b 9b bc
       0.026835904 -0.008221816 -0.04774935 -0.01899498
000200 67 84 d6 3b 99 93 95 bc ac 39 ad 3c a1 05 e5 bc
       0.0065465453 -0.018258857 0.021145664 -0.027956786
000210 0f 92 10 bc 0d ce 61 3c 8f bd 89 bb 04 70 2f bd
       -0.008823886 0.0137820365 -0.0042035053 -0.042831436
000220 22 16 59 3d 45 5c d1 3c 7c f1 4f 3c 49 7d 97 3c
       0.052999623 0.025556693 0.012691852 0.018492358
000230 7f 30 b7 3c 33 22 cf bc f6 56 48 3d 91 2a c6 bc
       0.022361992 -0.025284862 0.048911057 -0.02419022
000240 4c be a4 bc 4d 95 8c bb a3 aa 6e bb 21 67 91 bc
       -0.020110272 -0.004290259 -0.0036417625 -0.017749371
000250 87 0b 13 ba d1 0f f5 3c fd ae c3 bb 81 06 81 bc
       -0.00056093227 0.029914768 -0.005971788 -0.015750172
000260 fd e8 26 bd a4 63 16 3d b0 d5 cd 3c ca d6 c7 3b
       -0.04074954 0.03671612 0.025126308 0.006098603
000270 e3 69 6d bc 1c e1 3b bd e1 ef 40 bc f1 31 9f bc
       -0.014490577 -0.045868978 -0.011775942 -0.019432994
000280 11 9b 18 3d 75 90 fd bb 6a 94 35 3c b8 47 9f 3c
       0.037257258 -0.007738168 0.011082748 0.019443378
000290 84 4e 1a 3c 61 b6 11 3b b1 39 47 3c ff f1 b4 bc
       0.009418134 0.002223395 0.012159751 -0.022088049
0002a0 52 0b 33 3d 97 d1 52 bc f6 d0 07 3c 97 3c 50 bd
       0.043711968 -0.012867353 0.008289566 -0.050839033
0002b0 95 59 27 bc 16 19 3c 3d 6c 27 85 bc b8 98 c1 bb
       -0.010214229 0.04592236 -0.01625415 -0.005908098
0002c0 88 21 b9 3c 46 c7 57 bc 54 0a 4f bb 76 97 01 3d
       0.022598997 -0.013170069 -0.003159185 0.031638585
0002d0 c2 40 c7 bc 1b 59 0a 3d 28 f2 23 3d 52 16 32 3c
       -0.024322871 0.033776384 0.04002586 0.010869579
0002e0 25 99 d4 3c 17 03 11 bd 88 03 83 bb 45 19 dc 3c
       0.025951931 -0.035403337 -0.0039982237 0.026867518
0002f0 40 d5 e0 bb a6 ef 9d 3b fd aa 16 bd d3 40 04 3c
       -0.006861359 0.004819828 -0.03678416 0.008072096
000300 98 92 92 3c 8f a4 86 3c 1c dd a4 3c e7 c8 7c bb
       0.017892167 0.01643589 0.020124964 -0.0038571896
000310 c0 95 8d bd 96 9d 8f bc 9b 71 bc 3b 69 3d 72 3d
       -0.06913328 -0.017531198 0.0057508475 0.059140597
000320 b2 31 67 bd ad 30 45 bc d2 71 41 bc 33 dc 0c bc
       -0.056443878 -0.012035531 -0.011806922 -0.008597421
000330 b7 54 00 bd be 3e a3 3c 86 79 fc bc c6 14 d8 3c
       -0.03133079 0.019927379 -0.030819666 0.026377093
000340 90 98 2f bc 09 34 3d bc 3f 32 d6 3c f9 f2 e4 ba
       -0.010717526 -0.011548051 0.026147006 -0.0017467431
000350 fa 1f 2b bc 3d c5 b1 bc f6 fc b8 bc 52 d6 88 bc
       -0.0104446355 -0.021700496 -0.022581559 -0.016703758
000360 e4 4d 01 3d 10 ff be 3b 97 0a db 3b 4e e1 8a 3c
       0.031568423 0.0058287457 0.006684612 0.016953137
000370 20 4b b4 bb 64 e0 7a 3c dd 47 5b bc 4d d5 c7 3c
       -0.0055021197 0.015312288 -0.013383833 0.024393702
000380 c5 31 87 3b 8e f7 9b 3c 4d c1 9a 3c f0 37 d5 3c
       0.004125806 0.019038942 0.018891001 0.02602765
000390 fa 50 ae 3c 3a ec 71 bc bb 39 18 bc f5 b9 04 bd
       0.021278847 -0.014765793 -0.009291108 -0.032403905
0003a0 50 bc c8 3b 2c e6 ee bc 57 bc 51 3d c1 45 4a ba
       0.006125964 -0.029162489 0.051205005 -0.00077160826
0003b0 b9 16 3a bc ba 29 35 3c fa 48 d8 bc a3 96 ba bc
       -0.011357957 0.011057312 -0.026401985 -0.022776907
0003c0 47 22 34 3d 68 c9 28 3b af 9b 27 bb 9e 7d a5 3c
       0.043978002 0.0025754813 -0.0025574972 0.0202015
0003d0 b9 7f f4 bc 22 fe 72 3c b7 46 26 bc 06 dd 95 bc
       -0.02984606 0.014831098 -0.010148696 -0.018293869
0003e0 ba 8c 5a 3d 36 23 3e 3c cc ab 0a bd 2f 12 a5 3b
       0.053356864 0.011605075 -0.033855245 0.005037568
0003f0 c3 ef a5 bc a2 d1 ee 3c 0e 02 12 bd 9c 38 81 bc
       -0.020255929 0.029152695 -0.03564649 -0.015774064

action_model._continuous_distribution.mu.bias f4 [2]
000000 06 f1 1f 3c 43 54 40 3c
       0.009762054 0.01173884

onnx::Div_46 f4 [8]
000000 98 27 ab 3d e8 a6 9f 3d 6f 75 a1 3f c0 fb d7 3e
       0.08357161 0.07795507 1.2613963 0.42184258
000010 0e 39 98 3f 9a 8a 90 3f 56 df 99 3f fb 8f 7e 3f
       1.1892412 1.1292298 1.2021282 0.99438447
