results/Short_LowLR/3DBall/3DBall-449950.onnx (onnx, 10026 bytes, 7 tensors)

network_body.observation_encoder.processors.0.normalizer.running_mean f4 [8]
-0.0024458645 -0.0038096013 0.044145893 3.1032634 -0.012555309 0.03554831 -0.9927549 -0.039341066
00000000: cc4a 20bb 81aa 79bb 53d2 343d de9b 4640
00000010: c8b4 4dbc 1b9b 113d 2f25 7ebf 1924 21bd

network_body._body_endoder.seq_layers.0.weight f4 [128, 8]
0.17484096 -0.06780049 0.31132892 0.5921854 -0.19391379 -0.1482393 0.36530834 0.010229576
0.28595266 0.1353327 -0.12088311 -0.225884 -0.22206749 -0.09788887 -0.10362517 0.4797142
-0.5118554 0.025368603 0.35575444 -0.16656902 -0.29259244 0.7118181 0.8429251 -0.29884666
0.1972365 -0.24936981 0.61844176 -0.4112688 0.14909136 0.21816298 -0.26886445 -0.47214237
-0.14984289 -0.34297955 -0.12307487 -0.04156123 0.1879385 0.11382686 -0.6270525 -0.04096856
-0.052562464 -0.25078583 0.5368061 -0.22307868 -0.11690346 -0.1257975 0.086777285 -0.05817007
0.28293702 -0.42382094 0.58170635 -0.08692824 -0.11037583 -0.514732 -0.073355794 0.2607712
-0.42175815 0.044617284 0.31663176 -0.5452472 -0.13742615 -0.07945421 1.3812878 -0.22328475
0.017506303 -0.341915 -0.17435673 1.032122 0.1602091 0.4511297 -0.107021 0.16123371
0.25336123 0.25100988 -0.0890547 -0.22162008 -0.10273431 0.11887551 -0.64236236 0.48130333
-0.5905327 -0.6540682 0.14866093 0.03894397 -0.059414353 0.47959426 -0.38053066 0.035646185
0.16169992 0.20774667 -0.057469018 0.24223022 -0.043518577 -0.18225911 -0.58945405 -0.25686675
-0.11285952 0.2918876 -0.23015752 -0.034195464 0.84775627 0.12648585 0.30587617 0.25747705
0.45499125 0.34366378 0.30683297 0.08708246 0.18427852 -0.1775969 0.6332545 0.116219684
0.47474673 0.30171353 0.068351425 -0.4137562 0.6283333 -0.018835386 -0.05383447 -0.37253463
-0.069900565 -0.4155974 0.26207128 -0.024076702 0.012026156 -0.49974215 -0.4740363 0.007826603
-0.27026013 -0.070285045 0.2942874 -0.0035126752 0.02468034 -0.116210535 0.29415196 0.031943947
0.20433788 0.6669452 -0.42764914 0.36544403 -0.30688867 -0.19120495 -0.100231245 0.014731106
-0.49473906 -0.2557245 0.49706814 0.30707642 -0.5820432 0.021459969 -0.37380514 0.3329678
-0.11268576 0.5696183 0.020684456 0.069102 0.049605392 0.10840715 0.12436376 -0.22137551
-0.16005936 0.25555742 0.050862823 -0.19441232 0.2240431 0.037395153 0.16282937 0.25371253
-0.16344233 1.142236 -0.5799301 -0.20744011 0.12108458 0.052965023 -0.49794286 0.09029943
-0.48365548 -0.1740292 0.38011706 -0.29774362 -0.34177658 -0.4176528 0.43894517 -0.23371483
0.665456 -0.34254396 0.0703294 -0.4669388 0.65684265 -1.3445821 -0.17663784 0.56240124
0.10401231 0.0074146558 -0.043338362 -0.068553135 0.36312845 0.18611301 -0.022709448 -0.017351476
-0.6080568 -0.22961393 -0.14146154 0.06696385 0.056756664 0.6210248 -0.16291715 -0.18368207
0.12400252 0.35088342 -0.5984394 -0.2892749 0.5273002 -0.40013006 -0.019245617 0.31044704
-0.16293961 0.11204324 -0.39844677 -0.044988275 -0.119297445 -0.91451627 0.673719 -0.6462929
-0.16539784 0.35723 0.5614108 0.13589846 -0.15669803 0.097666755 0.18455361 -0.13386917
-0.052752044 -0.16132507 0.35103446 -0.38217068 -0.018600855 0.40649265 -0.32351205 -0.6448834
-0.58265716 0.029960854 0.24326314 -0.23062137 -0.2805033 0.27727124 0.47194153 0.40974686
-0.54517776 0.034130264 0.25079653 0.10265064 0.051746435 0.1284342 0.33041158 0.079985335
00000000: 8209 333e fcda 8abd 8166 9f3e 7699 173f
00000010: 5691 46be 0bcc 17be b209 bb3e f499 273c
00000020: 6368 923e a894 0a3e 9091 f7bd 234e 67be
00000030: a965 63be f679 c8bd 6f39 d4bd 1a9d f53e
00000040: f508 03bf d1d1 cf3c 7225 b63e 1291 2abe
00000050: adce 95be b639 363f f0c9 573f 6e02 99be
00000060: 5df8 493e cd5a 7fbe 3352 1e3f d391 d2be
00000070: 68ab 183e 1e66 5f3e 9aa8 89be a5bc f1be
00000080: 6a70 19be 049b afbe ad0e fcbd 1c3c 2abd
00000090: f372 403e 0f1e e93d 8386 20bf a6ce 27bd
000000a0: bd4b 57bd 0067 80be 206c 093f bd6e 64be
000000b0: 156b efbd 0fd1 00be 4ab8 b13d bd43 6ebd
000000c0: 1fdd 903e 0fff d8be b5ea 143f 6f07 b2bd
000000d0: b90c e2bd 7ac5 03bf 903b 96bd cd83 853e
000000e0: aff0 d7be 9dc0 363d 8f1d a23e 5295 0bbf
000000f0: 71b9 0cbe e4b8 a2bd 0ace b03f c2a4 64be
00000100: 6169 8f3c 7c0f afbe 928a 32be 931c 843f
00000110: db0d 243e 79fa e63e d32d dbbd 731a 253e
00000120: 90b8 813e 5e84 803e 5062 b6bd 60f0 62be
00000130: 5e66 d2bd 0175 f33d dc71 24bf 646d f63e
00000140: 272d 17bf 0371 27bf 923a 183e b683 1f3d
00000150: 775c 73bd 618d f53e ead4 c2be bc01 123d
00000160: aa94 253e 8bbb 543e a264 6bbd 330b 783e
00000170: 8940 32bd 22a2 3abe 76e6 16bf 0a84 83be
00000180: e422 e7bd 4b72 953e 6aae 6bbe 8b10 0cbd
00000190: 8e06 593f 8285 013e cd9b 9c3e 08d4 833e
000001a0: 9df4 e83e b3f4 af3e 3619 9d3e 4a58 b23d
000001b0: 82b3 3c3e f6db 35be f81c 223f 9604 ee3d
000001c0: 0112 f33e 327a 9a3e d5fb 8b3d dad7 d3be
000001d0: 73da 203f ab4c 9abc 8981 5cbd dcbc bebe
000001e0: 0728 8fbd 2fc9 d4be 352e 863e 813c c5bc
000001f0: 5b09 453c 34de ffbe e3b4 f2be 273b 003c
00000200: 895f 8abe 9bf1 8fbd d7ac 963e e934 66bb
00000210: 6d2e ca3c caff edbd 169b 963e a8d7 023d
00000220: f33d 513e ecbc 2a3f d4f4 dabe 7b1b bb3e
00000230: 8320 9dbe 3bcb 43be 0a46 cdbd bd5a 713c
00000240: 704e fdbe 52ee 82be b77f fe3e 1f39 9d3e
00000250: c800 15bf d1cc af3c 6363 bfbe c17a aa3e
00000260: cbc7 e6bd 81d2 113f 7372 a93c 5985 8d3d
00000270: 062f 4b3d 9104 de3d 6db2 fe3d 43b0 62be
00000280: 9ae6 23be 6cd8 823e 8955 503d 0614 47be
00000290: 8e6b 653e a92b 193d bebc 263e 9ce6 813e
000002a0: 6d5d 27be ca34 923f 4d76 14bf 2e6b 54be
000002b0: 31fb f73d daf1 583d 5ef2 febe e8ee b83d
000002c0: b1a1 f7be b634 32be b49e c23e da71 98be
000002d0: 57fd aebe 96d6 d5be 6cbd e03e f152 6fbe
000002e0: 535b 2a3f ec61 afbe dc08 903d 9a12 efbe
000002f0: d726 283f 441b acbf 8de0 34be 87f9 0f3f
00000300: 6804 d53d a4f6 f23b 9183 31bd 9665 8cbd
00000310: f9eb b93e 6994 3e3e 2a09 babc af24 8ebc
00000320: 9ca9 1bbf ea1f 6bbe 4bdb 10be 5824 893d
00000330: ad79 683d 7bfb 1e3f c1d3 26be 2717 3cbe
00000340: 09f5 fd3d fea6 b33e 5333 19bf d71b 94be
00000350: 25fd 063f d9dd ccbe fca8 9dbc eaf2 9e3e
00000360: a4d9 26be ed76 e53d 3701 ccbe a045 38bd
00000370: 3852 f4bd bd1d 6abf d978 2c3f 7473 25bf
00000380: 0d5e 29be dae6 b63e 9eb8 0f3f f728 0b3e
00000390: 7375 20be 8205 c83d 9ffb 3c3e 0015 09be
000003a0: 8712 58bd 6632 25be caba b33e e0ab c3be
000003b0: d260 98bc ce1f d03e 5fa3 a5be 1417 25bf
000003c0: 0529 15bf 7770 f53c f919 793e 0228 6cbe
000003d0: 219e 8fbe 7ff6 8d3e 52a2 f13e 57ca d13e
000003e0: c590 0bbf 2dcc 0b3d 6768 803e 803a d23d
000003f0: 12f4 533d 4184 033e b52b a93e 5acf a33d

network_body._body_endoder.seq_layers.0.bias f4 [128]
0.0048879366 0.007940285 -0.0021837924 -0.017110184 -0.0141344275 -0.0022437796 -0.008257402 -0.0042362944
-0.0052371784 0.012452815 0.008547349 -0.0019500894 0.006965205 0.015052 0.009160676 0.011052696
-0.005580215 0.015070122 0.024333784 -0.010362397 0.016070783 0.009249968 -0.013633393 0.0001598334
0.0034634867 0.018558929 0.02538251 0.00018054935 0.0076849856 0.008220843 0.010598219 0.009613872
-0.011887578 0.01574084 -0.0046224603 0.015437033 0.0029694547 0.013800513 0.019013723 -0.0035595824
0.0055661853 -0.0011391253 0.005850143 0.0034195445 0.013149261 0.003130525 0.01104719 -0.004243653
0.013494727 0.012316192 0.006359358 0.01118605 0.011193466 -0.0027309272 -0.00087903556 -0.0030817331
0.00987552 0.008830494 0.015888887 -0.0021478215 0.01213551 0.012880953 0.02004591 0.009534671
-0.016167242 -0.0056509497 -0.007691879 0.005368018 0.009623711 0.015943252 0.01015398 -0.002517853
0.0011671964 0.012358834 -0.005577704 0.005944747 -0.004730018 -0.014478062 0.016775785 0.003828188
0.0059027015 0.009663105 0.017494684 0.02187595 -0.00080398854 -0.00765724 0.022440244 -0.004355671
0.027687626 0.008977029 0.009959445 0.019095086 -0.013374047 -0.011601518 0.016790774 0.0027757585
0.018534757 0.0076209656 0.0039322535 0.005192037 0.011391653 0.021174226 -0.0009958377 -0.0022915988
0.012358912 0.005370305 0.013907677 0.0074054 -0.0049492135 0.009947562 0.0028468976 0.0008264638
0.0036051592 -0.0094599845 -0.0133468965 0.0027320695 -0.0013733887 0.0035419858 0.0016030407 0.003917522
0.004876247 0.021274082 0.02568595 0.02000342 -0.00056028593 0.0125670405 0.0063939374 0.00883128
00000000: fc2a a03b f817 023c f51d 0fbb a82a 8cbc
00000010: 1694 67bc 600c 13bb 0e4a 07bc 9dd0 8abb
00000020: a39c abbb e406 4c3c 2e0a 0c3c 249a ffba
00000030: 603c e43b aa9c 763c a916 163c 5e16 353c
00000040: 3cda b6bb ace8 763c a557 c73c 0bc7 29bc
00000050: e0a6 833c 2e8d 173c 985e 5fbc f498 2739
00000060: aafb 623b e508 983c fbee cf3c d951 3d39
00000070: 55d2 fb3b b7b0 063c 27a4 2d3c 8083 1d3c
00000080: 1ec4 42bc eff2 803c 0278 97bb 9ceb 7c3c
00000090: 2f9b 423b 8c1b 623c abc2 9b3c e247 69bb
000000a0: 8c64 b63b b44e 95ba 8eb2 bf3b 701a 603b
000000b0: ff6f 573c 7e29 4d3b 46ff 343c 570e 8bbb
000000c0: fd18 5d3c dac9 493c 2962 d03b b245 373c
000000d0: cd64 373c 5bf9 32bb 146f 66ba e7f6 49bb
000000e0: efcc 213c c7ad 103c 6929 823c 77c2 0cbb
000000f0: 05d4 463c a20a 533c 5237 a43c 4f37 1c3c
00000100: 2a71 84bc 9a2b b9bb 280c fcbb 33e6 af3b
00000110: c5ac 1d3c 6c9b 823c e15c 263c 9002 25bb
00000120: 9dfc 983a b57c 4a3c 2cc5 b6bb 27cc c23b
00000130: 44fe 9abb 6535 6dbc 5f6d 893c 56e2 7a3b
00000140: 736b c13b 0052 1e3c 0351 8f3c 3135 b33c
00000150: c2c2 52ba 96e9 fabb 9ad4 b73c 04ba 8ebb
00000160: 29d1 e23c 6314 133c f12c 233c 4c6d 9c3c
00000170: d21e 5bbc 4b14 3ebc ce8c 893c 80e9 353b
00000180: 34d6 973c 4bb9 f93b 22da 803b f721 aa3b
00000190: 0ea4 3a3c 9275 ad3c c586 82ba a62e 16bb
000001a0: 097d 4a3c 62f9 af3b 06dd 633c ffa8 f23b
000001b0: 032d a2bb 19fb 223c 0493 3a3b 0ca7 583a
000001c0: 8944 6c3b 0dfe 1abc f1ac 5abc 850c 333b
000001d0: 4703 b4ba a920 683b 1f1d d23a 8e5e 803b
000001e0: edc8 9f3b fc46 ae3c 576b d23c 36de a33c
000001f0: 27e0 12ba fde5 4d3c 3c84 d13b 13b1 103c

action_model._continuous_distribution.log_sigma f4 [1, 2]
-0.0077190474 -0.006363801
00000000: 10f0 fcbb 6f87 d0bb

action_model._continuous_distribution.mu.weight f4 [2, 128]
0.0015242436 -0.05053272 -0.004986381 -0.0080404775 -0.01912237 0.018668095 -0.0053098747 0.012136202
-0.020248877 -0.012863242 0.021458266 -0.009970641 0.011597245 -0.034795064 -0.024264866 0.0012129004
-0.0033367502 -0.04513055 0.03856994 -0.0021984465 0.011578329 -0.032406647 -0.015996072 -0.021863548
0.010503696 0.04393805 -0.03481519 -0.0054055452 0.03119287 -0.005890244 0.027016561 0.035616364
-0.0064174747 0.009438694 -0.016865663 0.009010468 -0.0013044872 0.010494036 0.050637227 0.01436755
-0.00963149 0.025851285 0.017296271 0.0051195286 -0.012522995 0.014995791 0.040937606 0.0016112755
-0.030572705 -0.0018401246 -0.017794007 -0.037295397 -0.05121479 0.001854219 0.024113819 -0.031513534
-0.043861702 -0.017515438 0.0038600706 0.009920779 -0.018530786 0.03130325 -0.06274259 -0.038924154
0.020038137 0.013929014 0.004002801 -0.037588008 0.0067906827 0.008999248 0.035188343 -0.020267017
0.0051266854 0.04887498 0.00626141 0.0071259863 0.007777722 -0.0016891706 0.06314377 0.03052979
-0.017793521 0.005389908 -0.004052395 0.014238766 0.0052150097 0.013717673 0.047033917 -0.031078635
0.07704856 -0.028655715 0.011119222 0.0040167 -0.0027323985 -0.00571759 0.020949244 -0.0106822895
-0.010838402 -0.023729611 0.03037463 -0.0045380704 -0.018522503 0.03265509 0.019708173 -0.03129767
0.03365318 -0.008836564 0.0057571153 0.0069388878 0.016225368 0.0081038335 -0.039498784 0.038497765
0.034597974 -0.0074495957 -0.015241602 -0.011749246 -0.009388607 -0.005538437 0.0154455975 0.020768896
0.019783886 0.04177752 0.0067095086 -0.043079313 0.0064905765 0.0014483572 1.6072267e-05 -0.0043891743
0.05126457 -0.005267902 0.042748976 -0.0035672192 -0.022793695 -0.0013534037 -0.017661689 -0.016022224
0.027307348 -0.018760882 0.0088827275 -0.028997786 -0.019997766 -0.03139237 -0.0064449916 0.039699055
0.013448911 -0.037370335 0.012181985 -0.003690641 -0.05679076 -0.024571694 0.0040415702 0.019566953
-0.028609434 -0.0020848433 -0.027550343 0.010679934 -0.039640184 0.03288248 -0.01611182 0.016021721
-0.001784959 0.02510057 0.013829553 -0.04116252 0.011213034 0.038834658 -0.032311194 -0.023046592
0.017844394 -0.0079178205 -0.026830578 -0.02365702 0.016260615 -0.00380055 -0.024517547 0.004356523
-0.01305703 -0.040212557 0.046453044 -0.030061243 -0.036140658 -0.006697407 0.0015011207 0.008237587
0.037645042 0.0049027004 -0.03247133 -0.028311506 0.009178124 -0.0077214604 -0.011767667 0.03523095
-0.013052034 -0.0046962094 -0.015508547 0.022835972 0.021797333 0.038258243 -0.011176012 0.00030125902
0.012953449 -0.022494486 0.014867905 -0.028009396 0.012959196 0.005322509 0.025523175 0.0044861906
0.032846797 -0.04485772 0.044119127 0.026214177 0.0054237307 -9.335364e-05 0.011090114 -0.0058820955
-0.017054534 -0.029173663 -0.005915485 0.030437194 0.012952359 -0.011156081 -0.028742483 -0.024866235
-0.0322989 0.031407353 -0.006304777 -0.027321238 0.008729259 0.0024082516 -0.0027176698 0.0033220015
-0.026528593 0.02468916 0.025197221 -0.017379096 0.014556975 0.040435016 0.020191552 -0.018590508
-0.005177569 -0.029600807 -0.0014877626 0.020717457 -0.040945522 0.012817214 -0.024806544 -0.02056366
0.005712085 0.0047248076 0.035975665 0.020779952 0.017691217 0.03287168 -0.028372498 0.0247827
00000000: 21c9 c73a 66fb 4ebd cc64 a3bb 35bc 03bc
00000010: 84a6 9cbc d5ed 983c 75fe adbb ecd6 463c
00000020: f9e0 a5bc 59c0 52bc 3fc9 af3c e65b 23bc
00000030: 5f02 3e3c 4585 0ebd 1dc7 c6bc 2ffa 9e3a
00000040: 61ad 5abb d0da 38bd 83fb 1d3d d013 10bb
00000050: 08b3 3d3c d5bc 04bd 320a 83bc 2f1b b3bc
00000060: b217 2c3c 62f8 333d 5f9a 0ebd 0021 b1bb
00000070: 3188 ff3c f302 c1bb d651 dd3c 77e2 113d
00000080: ae49 d2bb c1a4 1a3c dc29 8abc a4a0 133c
00000090: 54fb aaba 2def 2b3c fb68 4f3d df65 6b3c
000000a0: 66cd 1dbc 13c6 d33c e9b0 8d3c b8c1 a73b
000000b0: 3f2d 4dbc e8b0 753c 31ae 273d 6f31 d33a
000000c0: 9c73 fabc 5630 f1ba bdc4 91bc 0fc3 18bd
000000d0: 9ac6 51bd 4409 f33a 588a c53c 5614 01bd
000000e0: 54a8 33bd 897c 8fbc 3df9 7c3b c38a 223c
000000f0: e0cd 97bc d637 003d 307f 80bd ef6e 1fbd
00000100: 0527 a43c 8536 643c ee29 833b e2f5 19bd
00000110: 6084 de3b 9571 133c a721 103d 0407 a6bc
00000120: c1fd a73b 2231 483d 842c cd3b 1b81 e93b
00000130: 43dc fe3b 2967 ddba 8551 813d 9c19 fa3c
00000140: b8c3 91bc d39d b03b f4c9 84bb b749 693c
00000150: ace2 aa3b 17c0 603c a3a6 403d 9f98 febc
00000160: a3cb 9d3d 64bf eabc 662d 363c 869e 833b
00000170: 0a12 33bb 9f5a bbbb c09d ab3c c504 2fbc
00000180: 8e93 31bc 9a64 c2bc 37d4 f83c 18b4 94bb
00000190: 81bc 97bc 58c1 053d 0973 a13c fc31 00bd
000001a0: ebd7 093d 3cc7 10bc 2fa6 bc3b 9c5f e33b
000001b0: 10eb 843c f1c5 043c 7ac9 21bd d5af 1d3d
000001c0: 9bb6 0d3d bd1b f4bb eab7 79bc e97f 40bc
000001d0: acd2 19bc c77b b5bb 880f 7d3c 8823 aa3c
000001e0: d111 a23c e81e 2b3d 70db db3b ef73 30bd
000001f0: e7ae d43b ced6 bd3a eed2 8637 10d3 8fbb
00000200: ccfa 513d 5d9e acbb 8d19 2f3d 02c8 69bb
00000210: d8b9 babc b164 b1ba 3faf 90bc 0a41 83bc
00000220: a9b3 df3c 6cb0 99bc dc88 113c c48c edbc
00000230: 5bd2 a3bc 4995 00bd 8230 d3bb 7a9b 223d
00000240: d258 5c3c a311 19bd f396 473c aede 71bb
00000250: 6e9d 68bd 944a c9bc 266f 843b e04a a03c
00000260: 555e eabc dea1 08bb 42b1 e1bc e4fa 2e3c
00000270: bf5d 22bd c8af 063d effc 83bc fc3f 833c
00000280: 49f5 e9ba b69f cd3c 5995 623c 089a 28bd
00000290: e0b6 373c 1711 1f3d be58 04bd 35cc bcbc
000002a0: 682e 923c bfb9 01bc cdcb dbbc 5ecc c1bc
000002b0: fb34 853c a612 79bb 06d9 c8bc 2ac1 8e3b
000002c0: 27ed 55bc ecb5 24bd 8c45 3e3d ff42 f6bc
000002d0: 3a08 14bd ec75 dbbb 41c1 c43a f2f6 063c
000002e0: b031 1a3d d5a6 a03b a800 05bd 88ed e7bc
000002f0: d85f 163c 4e04 fdbb 2ccd 40bc 544e 103d
00000300: 33d8 55bc a9e2 99bb 9017 7ebc 8112 bb3c
00000310: 5290 b23c adb4 1c3d 981b 37bc 4df2 9d39
00000320: b43a 543c 5b46 b8bc 8398 733c f673 e5bc
00000330: cf52 543c 7168 ae3b fa15 d13c e500 933b
00000340: 5d8a 063d bbbc 37bd 42b6 343d 1dbf d63c
00000350: 8db9 b13b dbc6 c3b8 4fb3 353c 98be c0bb
00000360: f3b5 8bbc 9bfd eebc afd6 c1bb 6c57 f93c
00000370: 2236 543c ffc7 36bc 5b75 ebbc 46b4 cbbc
00000380: da4b 04bd ffa4 003d 4e98 cebb cad0 dfbc
00000390: 2a05 0f3c c2d3 1d3b ef1a 32bb f0b5 593b
000003a0: 7e52 d9bc ec40 ca3c 676a ce3c 9b5e 8ebc
000003b0: 6180 6e3c 309f 253d c168 a53c 1f4b 98bc
000003c0: 99a8 a9bb 647d f2bc 0701 c3ba a8b7 a93c
000003d0: 7eb6 27bd 4bff 513c 1837 cbbc 1f75 a8bc
000003e0: 712c bb3b 8fd2 9a3b 385b 133d b83a aa3c
000003f0: 2ced 903c 74a4 063d 716d e8bc 1705 cb3c

action_model._continuous_distribution.mu.bias f4 [2]
0.0019295837 0.002436158
00000000: 16ea fc3a f3a7 1f3b

onnx::Div_46 f4 [8]
0.088100635 0.08747107 1.2278531 0.44875622 1.2467989 1.1232654 1.2214401 1.1167833
00000000: 1b6e b43d 0824 b33d 4a2a 9d3f 60c3 e53e
00000010: 1b97 9f3f 29c7 8f3f 2658 9c3f c1f2 8e3f
