results/Short_LowLR/3DBall/3DBall-349972.pt (torch, 49284 bytes, 32 tensors)

network_body.observation_encoder.processors.0.normalizer.running_mean f4 [8]
0	0xbc0734a0	-0.008252293
1	0xbb82ce05	-0.0039918446
2	0x3db62012	0.08892836
3	0x4045f44f	3.0930364
4	0xbdc5ab0d	-0.09651766
5	0x3dffd395	0.12491528
6	0xbf78cade	-0.9718455
7	0xbded2b1c	-0.11580488

network_body.observation_encoder.processors.0.normalizer.running_variance f4 [8]
0	0x452a55e5	2725.3684
1	0x451051e0	2309.1172
2	0x49092445	561732.3
3	0x47804a19	65684.195
4	0x48f840b0	508421.5
5	0x48f12ec3	493942.1
6	0x48e9fa9b	479188.84
7	0x48bd98fe	388295.94

network_body.processors.0.normalizer.running_mean f4 [8]
0	0xbc0734a0	-0.008252293
1	0xbb82ce05	-0.0039918446
2	0x3db62012	0.08892836
3	0x4045f44f	3.0930364
4	0xbdc5ab0d	-0.09651766
5	0x3dffd395	0.12491528
6	0xbf78cade	-0.9718455
7	0xbded2b1c	-0.11580488

network_body.processors.0.normalizer.running_variance f4 [8]
0	0x452a55e5	2725.3684
1	0x451051e0	2309.1172
2	0x49092445	561732.3
3	0x47804a19	65684.195
4	0x48f840b0	508421.5
5	0x48f12ec3	493942.1
6	0x48e9fa9b	479188.84
7	0x48bd98fe	388295.94

network_body._body_endoder.seq_layers.0.weight f4 [128, 8]
0	0x3eea0e73	0.4571415
1	0x3e71a49b	0.23597948
2	0x3e977aa5	0.29585758
3	0xbec6b191	-0.38807347
4	0xbc02d00b	-0.007984172
5	0x3e02c5d5	0.1277078
6	0xbd93bb42	-0.07213451
7	0xbaa6bc79	-0.0012720964
8	0x3f390548	0.72273684
9	0x3ef17c66	0.4716522
10	0xbec25447	-0.37954924
11	0x3d90af02	0.0706463
12	0xbe855d90	-0.26047945
13	0x3da98bb4	0.082785994
14	0x3e415b52	0.18882492
15	0xbc73adf9	-0.014873021
16	0xbe1bea2e	-0.15226051
17	0xbdab0e6d	-0.08352361
18	0xbeaa06c9	-0.33208302
19	0x3e0b303e	0.13592622
20	0xbeea037d	-0.45705786
21	0x3f122460	0.57086754
22	0xbe9d767e	-0.30754465
23	0x3e0b1e7b	0.13585846
24	0xbe8e1363	-0.27749166
25	0x3ec2a85b	0.3801907
26	0xbe56b979	-0.2096919
27	0xbe25c3d4	-0.16187984
28	0xbeca67cc	-0.39532316
29	0xbf259686	-0.64682806
30	0xbefba75b	-0.4915112
31	0x3f02f57a	0.5115582
32	0xbef8e441	-0.48611644
33	0x3f0e09bd	0.5548361
34	0x3f41531a	0.7551743
35	0xbd65ff9c	-0.05615197
36	0xbe70baf6	-0.2350882
37	0xbe5ce9a1	-0.21573497
38	0x3f28ee14	0.6598828
39	0x3eb72d82	0.35776907
40	0xbf07e422	-0.5308248
41	0x3e905736	0.28191537
42	0xbe5b04ae	-0.21388504
43	0x3d509c5c	0.050930366
44	0xbb66639e	-0.0035154591
45	0xbece43ae	-0.4028601
46	0xbe80f254	-0.25184882
47	0xbea0d8c0	-0.31415367
48	0xbd723603	-0.05913354
49	0xbd980bde	-0.074241385
50	0xbe916dc3	-0.28404054
51	0xbcc49395	-0.023996154
52	0xbf044c4d	-0.51678926
53	0x3f0d0e8c	0.5510032
54	0x3f486bb1	0.78289324
55	0x3f256092	0.6460048
56	0x3eed6de6	0.46372908
57	0x3f3f46be	0.7471732
58	0xbeabd6fa	-0.33562452
59	0xbc3df9c9	-0.011595198
60	0xbe5e14c4	-0.21687609
61	0xbefbd154	-0.49183142
62	0x3ed25c0c	0.4108585
63	0x3e87e9db	0.26545605
64	0xbe9bb120	-0.30408573
65	0x3ed031ac	0.40662897
66	0xbe7d84b1	-0.24757649
67	0xbf2bc05a	-0.6709038
68	0x3d781e76	0.060575925
69	0xbdabeca4	-0.08394745
70	0x3e861f29	0.26195648
71	0xbe9794bd	-0.29605666
72	0x3e45cbf7	0.19316088
73	0xbf2f75e4	-0.6853926
74	0xbd94b242	-0.072605625
75	0xbe8da73b	-0.2766665
76	0xbf33f7ec	-0.70300174
77	0xbd93db6f	-0.07219588
78	0xbd766ef7	-0.060164418
79	0x3e8572a2	0.2606402
80	0xbda1a4ed	-0.07892785
81	0x3eda259b	0.42606816
82	0xbd509197	-0.050920095
83	0xbe0e3c1e	-0.1389012
84	0xbf192b3c	-0.59831595
85	0xbe83a9bf	-0.25715443
86	0x3e908da0	0.2823305
87	0x3e8fde9f	0.28099534
88	0xbd02a33f	-0.031893965
89	0xbe8c504f	-0.2740502
90	0xbed5117c	-0.41614902
91	0x3dcd27c5	0.10017351
92	0xbecb8309	-0.3974841
93	0x3e0f3143	0.13983636
94	0xbdb49930	-0.08818281
95	0x3e606144	0.21912104
96	0x3ee9727c	0.45595157
97	0xbef78c30	-0.48349142
98	0x3e90a062	0.28247362
99	0x3ecf6445	0.40506187
100	0xbeb050ca	-0.34436637
101	0xbecf83a6	-0.40530127
102	0xbf10c3d9	-0.5654884
103	0xbcbfcbf5	-0.023412684
104	0xbf5855db	-0.84506005
105	0xbeb0d1b5	-0.34534994
106	0x3a844e8b	0.0010094208
107	0xbecf1f67	-0.40453646
108	0x3f448dbf	0.7677879
109	0xbec8e882	-0.3923989
110	0xbe2be26e	-0.16785595
111	0x3e9116ce	0.2833771
112	0x3e299662	0.16561273
113	0xbe871d0d	-0.2638935
114	0xbeabcb44	-0.33553517
115	0x3e2388f8	0.15970218
116	0x3de2d082	0.11074926
117	0x3ef2ff11	0.47460225
118	0x3e867ae7	0.26265642
119	0xbd8f8325	-0.07007436
120	0x3ee619a4	0.44941437
121	0xbe379579	-0.17928113
122	0x3d146511	0.036229197
123	0x3d77dc97	0.060513105
124	0x3e97938d	0.2960476
125	0xbe868567	-0.26273653
126	0xbefb0ec1	-0.49034694
127	0x3ed009e6	0.40632552
128	0x3eadceaa	0.33946735
129	0x3d0d8262	0.03454817
130	0x3e9fc60f	0.31205794
131	0xbf3fd400	-0.7493286
132	0x3d86e509	0.06586654
133	0xbf0c574e	-0.54820716
134	0xbeae8907	-0.3408892
135	0xbda6a5d2	-0.081370965
136	0x3ed50e25	0.41612354
137	0xbe93f6a9	-0.28899124
138	0xbf50ebe3	-0.81609935
139	0x3d886c90	0.06661332
140	0xbe6ae5d4	-0.22939235
141	0x3ec6c939	0.38825396
142	0xbf224320	-0.63383675
143	0x3f11e21e	0.5698565
144	0x3d594395	0.053042967
145	0xbe25bd42	-0.16185477
146	0x3d96f91b	0.07371732
147	0x3e19d0f4	0.15021116
148	0xbea9db51	-0.33175138
149	0x3e8fc00a	0.28076202
150	0x3f4ed5b1	0.8079482
151	0x3f15e340	0.5854988
152	0x3d882318	0.066473186
153	0xbe05c90a	-0.13064972
154	0x3db56925	0.08857945
155	0xbeac9386	-0.337063
156	0xbe7393da	-0.2378687
157	0xbde295b9	-0.110637136
158	0x3e8ec76c	0.27886522
159	0xbdc2a708	-0.09504515
160	0xbd065e70	-0.032804906
161	0x3d905504	0.070474654
162	0x3e0b5df8	0.13610065
163	0xbe1f607d	-0.15564151
164	0x3ec8d73e	0.39226717
165	0xbe86f102	-0.2635575
166	0x3dde606c	0.10858235
167	0x3de52f44	0.11190656
168	0xbf02e20d	-0.51126176
169	0xbf3fd646	-0.7493633
170	0x3edaffde	0.42773336
171	0x3e912f45	0.28356376
172	0xbe5c5102	-0.21515277
173	0xbe866b10	-0.26253557
174	0x3eabb954	0.33539832
175	0xbef150a2	-0.4713183
176	0xbd410769	-0.047126208
177	0x3ed07e83	0.4072152
178	0xbe8e739b	-0.27822575
179	0xbc948afd	-0.018132681
180	0x3e650f5e	0.22369143
181	0x3ea71969	0.32636574
182	0x3e98245f	0.2971525
183	0xbe3a30a2	-0.18182614
184	0xbe511147	-0.20416747
185	0x3f56afd6	0.83862054
186	0x3c7e0f4b	0.015506576
187	0xbd4e7975	-0.0504088
188	0xbe61f81f	-0.22067307
189	0xbe0e89f6	-0.13919815
190	0xbe03ddab	-0.12877528
191	0x3db7f90f	0.08983051
192	0xbc4ffb35	-0.01269417
193	0x3db7a463	0.08966901
194	0xbee0002d	-0.43750134
195	0xbeb6cd42	-0.35703474
196	0x3f1bdaa2	0.6088048
197	0x3df76994	0.12080684
198	0x3dce7759	0.100813575
199	0xbf04cf73	-0.5187904
200	0xbe81e0d3	-0.2536684
201	0xbec9ddc1	-0.39426997
202	0xbdf44678	-0.11927503
203	0x3e50e55f	0.20399998
204	0x3def82cd	0.1169487
205	0xbee6994c	-0.4503883
206	0xbe59c274	-0.21265584
207	0xbf08afec	-0.53393435
208	0xbe374b21	-0.17899753
209	0xbf1bf5ae	-0.6092175
210	0x3ea35bcc	0.31905973
211	0xbeb6e4dc	-0.3572148
212	0xbd0c6476	-0.034275495
213	0xbf2842da	-0.6572701
214	0x3e666ad8	0.22501695
215	0x3dec263f	0.11530732
216	0x3eac46f1	0.33647874
217	0xbdd23e39	-0.10265774
218	0x3e94109f	0.2891893
219	0x3f34b492	0.7058803
220	0xbde5df6c	-0.11224255
221	0xbbbd18a2	-0.0057707587
222	0x3e41a84b	0.18911855
223	0xbd3c14a8	-0.045918137
224	0xbee37924	-0.4442836
225	0x3eb2ec06	0.34945697
226	0x3df0ed98	0.117640674
227	0x3c85057f	0.016237972
228	0x3effc69b	0.4995621
229	0xbec300df	-0.38086602
230	0x3f70d517	0.9407515
231	0x3e8420c7	0.25806257
232	0xbe541582	-0.2071133
233	0x3ec6e884	0.3884927
234	0xbe8f133d	-0.27944365
235	0x3ec0b1d6	0.37635678
236	0xbef1483d	-0.47125426
237	0xbe7a808f	-0.24463104
238	0x3f7f3ff3	0.99706954
239	0x3f03ccc3	0.51484317
240	0xbede1a8c	-0.4337963
241	0xbe1a15a7	-0.15047322
242	0x3e16413b	0.14673321
243	0xbc053e14	-0.008132476
244	0x3e7f41cc	0.24927443
245	0xbd6df1bb	-0.05809186
246	0xbeadb68a	-0.3392833
247	0x3f7b1062	0.98071873
248	0x3e97a720	0.29619694
249	0x3e2e402f	0.17016672
250	0x3e1ec334	0.15504152
251	0x3ed8fbb9	0.4237955
252	0xbe76214d	-0.2403614
253	0xbd4ecc32	-0.050487705
254	0xbe67caeb	-0.22636001
255	0x3f228ba0	0.634943

network_body._body_endoder.seq_layers.0.bias f4 [128]
0	0xbace47af	-0.0015737916
1	0x3b266dbb	0.0025394994
2	0xbc35c04e	-0.011093212
3	0x3b321d76	0.0027178205
4	0x3b8449de	0.004037126
5	0x3c545e03	0.012961867
6	0xbc51668c	-0.012780797
7	0x3c16023e	0.009155808
8	0x3b31c15b	0.0027123305
9	0x3cd9364c	0.026515149
10	0x3aa93b5c	0.0012911367
11	0xbb03b25d	-0.0020095326
12	0x3c8d2fb3	0.017234659
13	0xbc309e1a	-0.010779882
14	0x3b44791f	0.002997942
15	0x3b11c259	0.0022241084
16	0x3bb06e34	0.005384231
17	0xbbcad972	-0.0061904723
18	0x3c1f6e96	0.009730956
19	0xbc8af463	-0.016962236
20	0x3ae87d2f	0.0017737503
21	0x3cec7d12	0.028868232
22	0x3c3355c0	0.010945737
23	0x3c3d778a	0.011564145
24	0xbc2842be	-0.010269819
25	0x3c3eb3a2	0.0116395075
26	0x3bc37e4b	0.005965983
27	0xbbd514fe	-0.0065027466
28	0x3bba6bdd	0.005689128
29	0xbbb0df4d	-0.0053977133
30	0x3c47f1af	0.012203618
31	0x3971ba92	0.00023053054
32	0x3c3301be	0.010925708
33	0x3c814151	0.015778216
34	0x3c304579	0.010758751
35	0x3ad10331	0.0015946386
36	0x3be72993	0.0070545166
37	0x3cd1f076	0.025627356
38	0x3bc1e353	0.0059169917
39	0x3a0a3c97	0.0005273311
40	0x3cba608f	0.02275112
41	0xbc791077	-0.015201679
42	0x3bf9d257	0.0076239514
43	0xbc17696f	-0.009241446
44	0xbc1a61ed	-0.009422761
45	0x3bdf1233	0.0068075894
46	0xbc5d98e3	-0.013525221
47	0x3c39cbe7	0.011340118
48	0x3c5e48cd	0.013567162
49	0xbb0e8859	-0.002174875
50	0x3c0c9139	0.008579546
51	0x3d0e54b1	0.034748737
52	0xbbdf87b2	-0.006821596
53	0x3c71f375	0.014767517
54	0xbb2e78a3	-0.0026622198
55	0xbb311280	-0.0027019083
56	0x3b939b7b	0.0045046187
57	0xbc460891	-0.012087003
58	0x3b78c30f	0.003795806
59	0x3c9bff4e	0.019042637
60	0x3c93cb40	0.018041253
61	0xbc2165a3	-0.009850892
62	0x3b39365b	0.0028261158
63	0xba9817c7	-0.0011603766
64	0x3c4f4ad2	0.012652116
65	0x3b90c44a	0.0044179307
66	0x3b64c57e	0.0034907754
67	0x3ab38c86	0.0013698495
68	0x3c13a710	0.009011999
69	0x3ca3079d	0.019901091
70	0x3bc7daf7	0.0060991007
71	0x3cacbe75	0.02108691
72	0xbb927191	-0.0044691046
73	0xba71702f	-0.0009210137
74	0x3c028186	0.007965451
75	0x3c9f7af9	0.019467818
76	0xba9be9f4	-0.0011895285
77	0x3ca60aed	0.020268882
78	0xba850b0c	-0.0010150387
79	0x3c70a68e	0.014688147
80	0xbc4d6b85	-0.012537842
81	0x3ad22dac	0.001603534
82	0x3c358739	0.011079603
83	0xbc0384ad	-0.008027238
84	0x3965dc45	0.00021921199
85	0xbbdbf583	-0.006712617
86	0x3ac358f1	0.0014903826
87	0x3c0bc26f	0.008530243
88	0x3c42ea28	0.0118966475
89	0x3b94424e	0.0045245057
90	0x3b56c625	0.0032771912
91	0x3cf5c642	0.030001763
92	0x3c40d26e	0.01176892
93	0xbba21100	-0.004945874
94	0x3be85fea	0.007091512
95	0x3c84c586	0.016207468
96	0xbc7e1e5f	-0.015510171
97	0x3bc5de3a	0.0060384544
98	0x3c887182	0.016655687
99	0x3c779805	0.015111928
100	0xbbc58880	-0.006028235
101	0xbca8c5dc	-0.02060216
102	0x3bdc3ca9	0.0067210984
103	0x3c3cb9fb	0.011518951
104	0x3c1f22b3	0.009712863
105	0xbb44ba44	-0.003001825
106	0x3cbfaa8d	0.023396755
107	0x3c15943e	0.009129582
108	0xbbf5d140	-0.007501751
109	0x3c71124f	0.014713838
110	0x3c2d4890	0.010576382
111	0x3b9df01d	0.0048198835
112	0x3c710249	0.0147100175
113	0xbceb7bc2	-0.028745536
114	0xbc021591	-0.007939712
115	0x3bfe0511	0.007752069
116	0x3af57667	0.0018727303
117	0x3b52d292	0.0032168967
118	0x3bfdcaae	0.0077451086
119	0xbb289ef9	-0.002572952
120	0x3cbd0a01	0.02307606
121	0xba4f9309	-0.0007918333
122	0x3c01f208	0.00793124
123	0x3be723ee	0.0070538437
124	0x3cc27b47	0.023740424
125	0x3cf056fe	0.029338356
126	0xbbb25b64	-0.0054430235
127	0xbb8a083e	-0.0042124083

action_model._continuous_distribution.log_sigma f4 [1, 2]
0	0xbc2c20ea	-0.010505894
1	0xbbdaa3e4	-0.0066723693

action_model._continuous_distribution.mu.weight f4 [2, 128]
0	0xbd0cbe7f	-0.03436136
1	0xbcf6d364	-0.030130096
2	0xbc89bc05	-0.016813288
3	0xbc965bd2	-0.01835433
4	0x3c1607ae	0.009157104
5	0x3cbf63a1	0.023362936
6	0xbc028f59	-0.007968747
7	0xbd0d8a42	-0.03455568
8	0xbc2e92dc	-0.010655131
9	0xbc13f992	-0.00903167
10	0xbc5d25c1	-0.013497771
11	0xbcbcbbb6	-0.023038726
12	0xbbaa4c2d	-0.005197069
13	0xbc5cc0b6	-0.01347368
14	0xbd23540d	-0.03987508
15	0xbcca68d6	-0.024708193
16	0xbd3147c9	-0.04328135
17	0x3c3667ac	0.011133116
18	0x3c992610	0.018694907
19	0xbc9feb3d	-0.01952135
20	0x3b3b63c5	0.0028593403
21	0x3cb0ecf8	0.02159737
22	0x3c4d4754	0.012529213
23	0x3c2454d1	0.010029987
24	0xbcc7927e	-0.024361845
25	0xbcd13a5b	-0.025540521
26	0x3cd3a1e3	0.02583403
27	0xbc08e1cd	-0.008354616
28	0x3b9cb9b4	0.0047828797
29	0xbca21383	-0.019784695
30	0x3c07006a	0.008239845
31	0xbba4505f	-0.005014464
32	0x3c3676db	0.011136736
33	0x3ca33104	0.019920833
34	0x3c959f0d	0.018264318
35	0xbc2334d9	-0.00996133
36	0x3c918e35	0.017768005
37	0x3d1f5ca6	0.038906716
38	0xbd92b793	-0.0716392
39	0x3c6ac1d6	0.014328441
40	0xbd2d2383	-0.042270195
41	0xbc92327d	-0.01784634
42	0x3bc40888	0.0059824623
43	0xbca5e444	-0.020250447
44	0x3bdee7b0	0.0068025216
45	0x3d3864f0	0.045018137
46	0xbb104473	-0.0022013455
47	0x3c4484f0	0.011994585
48	0xbcf9ade1	-0.03047842
49	0xbd2e4236	-0.042543612
50	0x3c366110	0.01113154
51	0x3d260d88	0.04054025
52	0xba3d6501	-0.00072248286
53	0xbc8b1062	-0.016975585
54	0x3c3b2bdb	0.01142403
55	0xbafc1c53	-0.0019234515
56	0xbc24d061	-0.010059447
57	0xbcb3db25	-0.021955082
58	0x3c70a396	0.014687439
59	0x3cf160ba	0.029465068
60	0x3cb12a62	0.021626655
61	0x3c45344d	0.012036395
62	0x3b61a270	0.0034429096
63	0x3c781890	0.015142575
64	0xbbc5f28b	-0.0060408763
65	0xbbe23260	-0.006902978
66	0x3aa5d900	0.0012653172
67	0x3c359924	0.011083875
68	0x3c58f249	0.013241359
69	0x3cc786a7	0.0243562
70	0xbcd63b80	-0.026151419
71	0x3b92c9b4	0.0044796113
72	0xbcdca750	-0.02693525
73	0xbc7b0b06	-0.015322452
74	0x3cb1284c	0.02162566
75	0x3cc8cf54	0.024512924
76	0xbc830aea	-0.015996415
77	0x3d32b9a3	0.04363407
78	0x3c38b16a	0.011272768
79	0xbd3d4ae6	-0.046214007
80	0xbc7f446c	-0.015580278
81	0x3b542f2d	0.0032376752
82	0x3cc5e585	0.024157295
83	0xbc300c84	-0.010745171
84	0x3bf29ba8	0.0074038096
85	0xbd0504e6	-0.032475375
86	0x3cd2e90b	0.02574589
87	0x3c322f4f	0.010875537
88	0x3c99ccad	0.018774355
89	0xbc3543f7	-0.011063567
90	0xbcc27790	-0.023738652
91	0x3cfdef2f	0.03099784
92	0x3c997f6b	0.018737515
93	0xbcacde55	-0.02110211
94	0x3d09db59	0.03365645
95	0xbcaf296b	-0.021382054
96	0xbc278802	-0.010225298
97	0xbc98c78f	-0.018649844
98	0x3d2def9b	0.042464834
99	0xbd2a5ba0	-0.041591287
100	0xbc5cedb5	-0.013484408
101	0x3a3583ca	0.000692424
102	0x3cac2ebc	0.021018378
103	0x3d0fb41a	0.035083868
104	0x3d57f59b	0.052724462
105	0x3c3450b8	0.011005573
106	0xbc38c415	-0.011277218
107	0x3ce51327	0.027963234
108	0xbc354324	-0.011063371
109	0x3d07f1a8	0.033189446
110	0x3c9f65a1	0.01945764
111	0xbcd5c1e3	-0.026093429
112	0xbcf8ee2e	-0.03038701
113	0xbba28a85	-0.0049603605
114	0xbb87e005	-0.0041465783
115	0x3cabcf54	0.020972885
116	0xba3a2720	-0.0007101167
117	0xbc58c30b	-0.013230096
118	0x3c88351d	0.016626889
119	0xbd480f75	-0.048842866
120	0x3baf5757	0.005350988
121	0xbcf8e9d9	-0.030384945
122	0x3cfe5a14	0.031048812
123	0xbc903340	-0.017602563
124	0x3cc9995c	0.02460926
125	0xbbd92382	-0.0066265473
126	0xbd3de274	-0.04635854
127	0xbc8d1f2b	-0.017226776
128	0x3bfa1203	0.0076315417
129	0xbc8d51fc	-0.017251007
130	0x3ca0d216	0.019631427
131	0xbcd96f84	-0.026542433
132	0xbbe6e1bc	-0.0070459526
133	0x3c5e3d26	0.013564384
134	0xbb856aed	-0.0040715844
135	0xbd277929	-0.04088703
136	0x3d575e5a	0.052580215
137	0x3cb5b9b0	0.02218327
138	0x3c5f2625	0.013619934
139	0x3c8552fd	0.016274923
140	0x3caa52a7	0.020791365
141	0xbccc6096	-0.0249484
142	0x3d3e1cc8	0.046414167
143	0xbcbe7477	-0.023248894
144	0xbca3c0da	-0.01998942
145	0xbb94eb94	-0.0045446847
146	0xbb4de337	-0.0031415948
147	0xbca6d9a9	-0.02036746
148	0x3ae324dc	0.001732971
149	0x3cd38e58	0.02582471
150	0xbba94899	-0.005166125
151	0xbc5f369e	-0.013623862
152	0xbd2be6f3	-0.041968297
153	0x3d0a802f	0.03381365
154	0x3cbea1c1	0.02327049
155	0x3bb84bfb	0.005624292
156	0xbc5471c8	-0.012966581
157	0xbd391a57	-0.045191135
158	0xbc27c9d0	-0.010240987
159	0xbc8e5b1c	-0.017377429
160	0x3d15c131	0.036561195
161	0xbbb62a0b	-0.005559211
162	0x3c0f3397	0.008740327
163	0x3c9a5682	0.018840078
164	0x3c1a168f	0.009404792
165	0x3b30260e	0.002687815
166	0x3c3ab306	0.011395222
167	0xbcabfa5c	-0.020993404
168	0x3d2de9fb	0.04245947
169	0xbc48be37	-0.012252382
170	0x3bc7f476	0.00610214
171	0xbd4a9702	-0.04946042
172	0xbc28b60d	-0.010297311
173	0x3d341b59	0.043971393
174	0xbc869858	-0.016430065
175	0xbb8f3674	-0.004370505
176	0x3ca5846a	0.020204742
177	0xbc682803	-0.014169696
178	0xbb0e8585	-0.0021747064
179	0x3ce461c7	0.027878655
180	0xbcbc24ba	-0.022966731
181	0x3d058d63	0.03260554
182	0x3d267a92	0.040644236
183	0x3c11633f	0.00887376
184	0x3cd8d7cd	0.02647009
185	0xbd1141d2	-0.03546316
186	0xbb4a5b79	-0.0030877276
187	0x3cce2ded	0.025168383
188	0xbbcb699a	-0.006207657
189	0x3aeed086	0.0018220104
190	0xbd123d80	-0.035703182
191	0x3c037368	0.00802312
192	0x3c81e36f	0.01585552
193	0x3c87357b	0.016504994
194	0x3ca3f448	0.020013943
195	0xbb3e9ae2	-0.0029084017
196	0xbd87f86e	-0.06639181
197	0xbc83ba42	-0.016080026
198	0x3ba08bc0	0.004899472
199	0x3d6869c8	0.056741506
200	0xbd66a56f	-0.056310114
201	0xbc265b58	-0.010153614
202	0xbc49bf8e	-0.012313737
203	0xbc084bc3	-0.008318844
204	0xbcf161be	-0.029465552
205	0x3c8becd3	0.0170807
206	0xbcf5cb4f	-0.030004172
207	0x3cbf86a6	0.023379635
208	0xbc428174	-0.011871684
209	0xbc126c5d	-0.008936969
210	0x3cd2e12f	0.025742142
211	0xba2d90ed	-0.0006621022
212	0xbc1ce4cd	-0.009576035
213	0xbca9d697	-0.020732207
214	0xbca90345	-0.020631442
215	0xbc8130ee	-0.015770402
216	0x3d001744	0.031272188
217	0x3bd4d503	0.0064951195
218	0x3c00ff7a	0.00787341
219	0x3c7cb9d5	0.015425165
220	0xbb87c641	-0.0041435068
221	0x3c7a6c29	0.015284576
222	0xbc340b94	-0.010989089
223	0x3cb0ebb7	0.021596773
224	0x3bdbfd3a	0.0067135366
225	0x3c965337	0.018350227
226	0x3c8f5f31	0.017501445
227	0x3cd1a02b	0.02558907
228	0x3c997d7a	0.01873659
229	0xbc70cf2e	-0.014697833
230	0xbbeb5063	-0.0071812137
231	0xbcf9e306	-0.030503761
232	0x3be103d2	0.0068669105
233	0xbcdf2dae	-0.027243461
234	0x3d4902ad	0.049074817
235	0xba3d00cc	-0.00072098966
236	0xbc2beb77	-0.010493151
237	0x3c145506	0.009053474
238	0xbcd072aa	-0.025445301
239	0xbca601b8	-0.020264491
240	0x3d2d0528	0.042241246
241	0x3b5d7211	0.0033789913
242	0xba4a8280	-0.00077251345
243	0x3cab3fe3	0.020904487
244	0xbcdf0e4a	-0.027228493
245	0x3c71ec53	0.014765817
246	0xbc128d9a	-0.008944893
247	0xbc875c70	-0.01652357
248	0x3d4f5f11	0.05062777
249	0x3c32653d	0.010888395
250	0xbd06c3a9	-0.03290144
251	0x3b94ee2d	0.0045449943
252	0xbc946638	-0.018115148
253	0x3cd2bd9e	0.025725182
254	0xbd0e2930	-0.03470725
255	0xbc7bde18	-0.0153727755

action_model._continuous_distribution.mu.bias f4 [2]
0	0x3c0c4c60	0.008563131
1	0x3c2990c9	0.010349461

exp_avg f4 [128, 8]
0	0xb9bf5667	-0.00036494734
1	0x38653956	5.4651253e-05
2	0x39a2943b	0.00031009488
3	0x38e2338a	0.0001078612
4	0x39b7381a	0.0003494628
5	0x3997ddd4	0.0002896624
6	0x394c21ea	0.0001946759
7	0x39abdf81	0.00032782185
8	0xb9d7241e	-0.00041034905
9	0x391e66f6	0.0001510641
10	0xb8d83ac1	-0.000103106264
11	0x38ed1706	0.00011305329
12	0xb7af5e60	-2.0905572e-05
13	0x39886fa2	0.00026023114
14	0x39769001	0.00023514034
15	0xb892e4f7	-7.0044705e-05
16	0xb9f76b38	-0.00047191395
17	0x37e64431	2.744989e-05
18	0x38dfbe4b	0.000106689135
19	0x38d0eeb9	9.9626785e-05
20	0xb85f613c	-5.32579e-05
21	0x385db438	5.2858348e-05
22	0xb6fb7970	-7.49452e-06
23	0x3971ee05	0.0002307222
24	0xb9bc9514	-0.00035969226
25	0x38aa85f6	8.131184e-05
26	0xb917ca74	-0.00014475902
27	0x38162965	3.580134e-05
28	0x384992dc	4.8058908e-05
29	0x39020519	0.00012399665
30	0x3868b62e	5.548278e-05
31	0xb902edfa	-0.0001248642
32	0x3938d64d	0.0001762744
33	0xb8821392	-6.202528e-05
34	0xb8c2b83b	-9.2849565e-05
35	0xb862bf39	-5.406069e-05
36	0x3680d6fa	3.839724e-06
37	0xb8a3fe70	-7.819838e-05
38	0xb8975c7d	-7.2174684e-05
39	0xb90b2418	-0.00013269519
40	0x3a24bce8	0.0006284253
41	0xb70bc500	-8.330913e-06
42	0x38fe9666	0.00012139678
43	0xb961d99b	-0.00021538736
44	0xb8373fec	-4.3690132e-05
45	0xb890d0ef	-6.905372e-05
46	0xb914b742	-0.00014182649
47	0x38b191ee	8.467199e-05
48	0xb9290f77	-0.00016122857
49	0x3736a21e	1.0885791e-05
50	0xb76a66e3	-1.3971442e-05
51	0xb66d7f20	-3.5389749e-06
52	0xb7fff84c	-3.0513991e-05
53	0x38b50dc4	8.6333166e-05
54	0x382aa589	4.0685325e-05
55	0xb8724090	-5.7757425e-05
56	0xba0893d6	-0.00052100176
57	0x39b397f8	0.00034254766
58	0xb9aa97b1	-0.00032537946
59	0x3929298a	0.0001613257
60	0x37b23a58	2.1246422e-05
61	0x39806e48	0.00024496228
62	0x3954b1fb	0.00020284198
63	0xb9b7384c	-0.00034946424
64	0xb903cd95	-0.00012569719
65	0x3849aa7f	4.808092e-05
66	0x39285647	0.0001605387
67	0xb9711002	-0.00022989514
68	0xb91616e1	-0.00014313638
69	0xb789ab18	-1.6411344e-05
70	0xb891a61f	-6.945081e-05
71	0x3a1669f2	0.0005737833
72	0xb93cbaf5	-0.00017998724
73	0x38a5e60a	7.910661e-05
74	0x387ece7b	6.075062e-05
75	0xb8118547	-3.4694818e-05
76	0x3880c718	6.1406e-05
77	0xb883025f	-6.2470084e-05
78	0x3686c750	4.0167142e-06
79	0x39af0837	0.00033384722
80	0xb9af53c9	-0.00033441026
81	0x3843aab5	4.6650606e-05
82	0x3825b281	3.950531e-05
83	0x3847565d	4.752573e-05
84	0xb897ef41	-7.2448056e-05
85	0xb7876984	-1.6142389e-05
86	0x387e667e	6.0653772e-05
87	0x39561412	0.00020416107
88	0xba1d93b2	-0.0006011083
89	0xb810e1cc	-3.4542565e-05
90	0xb80e47d0	-3.392232e-05
91	0x385af574	5.2203846e-05
92	0x377531f0	1.4614765e-05
93	0x376154a0	1.3430748e-05
94	0x382a0634	4.0536936e-05
95	0x39b5d33c	0.00034680392
96	0xb868ec4e	-5.5533186e-05
97	0x38f256f2	0.00011555654
98	0x3927c818	0.00016000902
99	0xb7cedb7e	-2.4659323e-05
100	0x37af52d6	2.09002e-05
101	0xb8ae6b35	-8.3169354e-05
102	0xb92406c8	-0.00015642785
103	0x3984a378	0.00025298796
104	0xb9c10d98	-0.00036821957
105	0xb94017a7	-0.00018319358
106	0x3927db40	0.00016008038
107	0x3890145f	6.8702495e-05
108	0x398cc671	0.0002685073
109	0x38f63ebb	0.000117418786
110	0x377818d8	1.4787736e-05
111	0xb93ddd47	-0.00018106877
112	0xba45f05d	-0.00075507705
113	0xb8d66198	-0.000102224934
114	0x39614014	0.00021481543
115	0xb9551044	-0.00020319322
116	0x3a020d7a	0.00049611146
117	0x398e7292	0.00027169712
118	0x394cec4e	0.00019542986
119	0x3a8f11e6	0.0010915368
120	0xb9e376dd	-0.00043385374
121	0x3766f9f0	1.3767261e-05
122	0x38967292	7.173898e-05
123	0xb8725c05	-5.7782996e-05
124	0x39b0904a	0.0003367684
125	0x3942b4a8	0.00018568581
126	0xb90f5c6f	-0.00013671977
127	0x3837906c	4.3765103e-05
128	0xba33ec10	-0.0006863484
129	0xb8385550	-4.3948472e-05
130	0x3882eec0	6.243354e-05
131	0x3943bf0f	0.00018667824
132	0x3a07dc0d	0.00051826314
133	0x39028ae3	0.00012449505
134	0x3944f111	0.00018781821
135	0x39c6ecd3	0.0003794195
136	0x3953fe8d	0.00020217356
137	0x3873b2e8	5.8102334e-05
138	0x37b98d44	2.21195e-05
139	0xb7a547ea	-1.970302e-05
140	0xb8ca63eb	-9.650722e-05
141	0x36f20cd0	7.2136536e-06
142	0x36b23930	5.311471e-06
143	0xb92dd6fc	-0.00016578654
144	0x39bba2a4	0.00035788596
145	0x37577ace	1.2843591e-05
146	0xb8a4f53d	-7.8658086e-05
147	0x3713a750	8.800838e-06
148	0xb8f1b59e	-0.00011525604
149	0xb93feeb3	-0.00018304102
150	0xb92e3aa3	-0.00016615777
151	0xb94750e6	-0.00019008256
152	0xb9c0d0e2	-0.00036776724
153	0xb8ebd3b5	-0.00011245107
154	0xb891afcc	-6.9468835e-05
155	0x39406db1	0.0001835141
156	0x3859818e	5.185749e-05
157	0x3928e820	0.00016108202
158	0x396990a9	0.00022274502
159	0xb92f0da2	-0.00016694379
160	0x3860725c	5.3512267e-05
161	0xb6064b6c	-2.0011457e-06
162	0xb73488be	-1.0760674e-05
163	0xb137e400	-2.6759608e-09
164	0xb8299f1c	-4.0440922e-05
165	0xb794e155	-1.7747903e-05
166	0xb6b82654	-5.4880893e-06
167	0xb6954310	-4.448353e-06
168	0x3a15dab0	0.0005716486
169	0x398020f5	0.00024438617
170	0x38515d12	4.991616e-05
171	0xb8b19f7b	-8.469723e-05
172	0x382190de	3.852031e-05
173	0xb96507ea	-0.0002184209
174	0xb9066221	-0.00012815792
175	0x3a109ae6	0.0005516246
176	0x39798740	0.00023796875
177	0xb7f7f6d7	-2.9559638e-05
178	0xb88a7bd5	-6.603418e-05
179	0xb70e0674	-8.465362e-06
180	0xb88c1281	-6.679167e-05
181	0xb8dce7ea	-0.00010533615
182	0xb8a98f7e	-8.0852755e-05
183	0xb90cc8d2	-0.00013426252
184	0x39755f7c	0.00023400591
185	0xb8855fc0	-6.359769e-05
186	0xb8ea58ba	-0.00011174516
187	0xb8126b07	-3.490879e-05
188	0x38ab0ad2	8.155931e-05
189	0xb5180380	-5.6629506e-07
190	0x37f655cb	2.9365436e-05
191	0xb9094d6a	-0.00013094177
192	0xba1f07ed	-0.00060665497
193	0xb8292964	-4.0331288e-05
194	0xb84d0788	-4.8882823e-05
195	0x39d1c75c	0.0004001212
196	0x39843d23	0.00025222552
197	0x393ec0e3	0.00018191668
198	0x39cd53a2	0.00039162958
199	0xb9d0d24b	-0.00039829532
200	0xba269e63	-0.0006355999
201	0x38377074	4.373533e-05
202	0xb6c77d40	-5.945243e-06
203	0xb4ce7c00	-3.8460712e-07
204	0x37e0c8a0	2.6796304e-05
205	0xb8ae3cd8	-8.3082996e-05
206	0xb9a05e86	-0.00030588004
207	0x3a260c95	0.00063342723
208	0x3a182d05	0.0005805048
209	0x39667371	0.00021977515
210	0xb7171650	-9.005496e-06
211	0xb7c09d76	-2.2961507e-05
212	0xb963915d	-0.00021702559
213	0xb8ff69df	-0.000121790676
214	0xb887220f	-6.4436455e-05
215	0x392aad94	0.00016277126
216	0xb923e924	-0.00015631743
217	0x38140c97	3.5297675e-05
218	0x38da4b86	0.000104091174
219	0xb6905794	-4.30173e-06
220	0x37f07e0b	2.8668923e-05
221	0x3892f442	7.007319e-05
222	0xb76499de	-1.3625684e-05
223	0x390a0dde	0.00013165871
224	0x389911c4	7.2989176e-05
225	0x37be3102	2.2672586e-05
226	0x37368284	1.0878433e-05
227	0x37a44344	1.9581646e-05
228	0xb86851a8	-5.538916e-05
229	0x37b35971	2.1380112e-05
230	0xb8bd7005	-9.0330876e-05
231	0xb9b3e76f	-0.00034313972
232	0xb9bd40c9	-0.00036097158
233	0x39a2096a	0.00030906062
234	0xb994bebf	-0.00028370877
235	0x37878ba0	1.6158272e-05
236	0xb9c5d46c	-0.00037733035
237	0x39904109	0.00027514275
238	0x3898acb0	7.28009e-05
239	0xba8b51c4	-0.0010629226
240	0x39206ba9	0.00015298896
241	0x384ff31b	4.9579055e-05
242	0x378a987d	1.652189e-05
243	0xb8bb7e4a	-8.940378e-05
244	0xb8f779ab	-0.0001180054
245	0x37db2a12	2.6126425e-05
246	0xb8108d16	-3.4463672e-05
247	0xb982ca73	-0.0002494637
248	0xb8790bd1	-5.937723e-05
249	0x383a2104	4.4376604e-05
250	0xb86c3335	-5.6314475e-05
251	0xb8608c8a	-5.353665e-05
252	0x36ae59e0	5.196067e-06
253	0x39095d21	0.00013100031
254	0xb8445afa	-4.681477e-05
255	0xb932dcd2	-0.00017057665

exp_avg_sq f4 [128, 8]
0	0x35af9db0	1.3084409e-06
1	0x359b4aa3	1.1570122e-06
2	0x35ec427a	1.7602717e-06
3	0x35923080	1.0891963e-06
4	0x35cbfae1	1.5197694e-06
5	0x3587ad5b	1.0108737e-06
6	0x35fc2282	1.8785506e-06
7	0x357f95cf	9.52129e-07
8	0x35b058a1	1.3138816e-06
9	0x35c7b8c2	1.4880427e-06
10	0x35ed1187	1.7662977e-06
11	0x358dafc8	1.0556478e-06
12	0x35dedfc0	1.6605409e-06
13	0x359aa5af	1.1522114e-06
14	0x35b5460a	1.3505935e-06
15	0x359083e8	1.0767226e-06
16	0x35195c35	5.713112e-07
17	0x35330731	6.669316e-07
18	0x355b0e68	8.160482e-07
19	0x353e1a45	7.0818743e-07
20	0x35570803	8.01054e-07
21	0x34c3ac66	3.6447017e-07
22	0x35a029b7	1.193307e-06
23	0x34d5e554	3.98412e-07
24	0x355eac2e	8.2952e-07
25	0x35a31085	1.2149254e-06
26	0x35d44d31	1.5817697e-06
27	0x3598dc39	1.1388976e-06
28	0x35ccc6f4	1.5257087e-06
29	0x356e1dc4	8.8705224e-07
30	0x36359c7b	2.7062185e-06
31	0x356cf79a	8.827716e-07
32	0x3407176b	1.2581374e-07
33	0x3428ac3b	1.5708876e-07
34	0x344b833d	1.8953592e-07
35	0x33c1990e	9.015103e-08
36	0x342efb9f	1.6296552e-07
37	0x33f47206	1.1382876e-07
38	0x33efb4d9	1.1162201e-07
39	0x3402a54e	1.2167331e-07
40	0x352cb1f9	6.433398e-07
41	0x354c94ed	7.621264e-07
42	0x358dbec6	1.0560841e-06
43	0x353e8e67	7.098774e-07
44	0x3583531b	9.784447e-07
45	0x35188765	5.682144e-07
46	0x35c6fbac	1.4825396e-06
47	0x34f5e755	4.5803122e-07
48	0x33c7ab01	9.297765e-08
49	0x33e63630	1.0720066e-07
50	0x3415a3a8	1.3936244e-07
51	0x3385257d	6.200114e-08
52	0x3403e61c	1.2284039e-07
53	0x33d1e28b	9.773529e-08
54	0x33be53b5	8.862791e-08
55	0x33d2d12d	9.816936e-08
56	0x3646249a	2.9525604e-06
57	0x36840b01	3.9351876e-06
58	0x369fde0c	4.764419e-06
59	0x3626b3b5	2.484053e-06
60	0x368f0c99	4.2631987e-06
61	0x36527da5	3.1365573e-06
62	0x364caaa9	3.0497706e-06
63	0x36615a1a	3.3580059e-06
64	0x35c67527	1.4786245e-06
65	0x361ea95f	2.3642422e-06
66	0x365c3d74	3.2818325e-06
67	0x35d4efc1	1.5865008e-06
68	0x363a623c	2.777334e-06
69	0x35feccef	1.8984118e-06
70	0x365641b5	3.1926731e-06
71	0x36154e82	2.2248428e-06
72	0x34c3987d	3.643253e-07
73	0x34f02d18	4.4736294e-07
74	0x351cd7e6	5.84287e-07
75	0x34e409c5	4.2475418e-07
76	0x3519dd11	5.7318636e-07
77	0x34a1b817	3.012253e-07
78	0x35431e9a	7.268769e-07
79	0x34cedb2f	3.8529967e-07
80	0x34bbf07c	3.500644e-07
81	0x34fed359	4.7464962e-07
82	0x35112970	5.407701e-07
83	0x349b3d84	2.8915758e-07
84	0x350de862	5.2864755e-07
85	0x34afd49e	3.275099e-07
86	0x34daa676	4.072678e-07
87	0x34bc01e9	3.501912e-07
88	0x352d0a1f	6.446225e-07
89	0x353f4ef5	7.126794e-07
90	0x358d8ccb	1.0546295e-06
91	0x35390cfc	6.8936765e-07
92	0x3568f6d6	8.678593e-07
93	0x3507dacb	5.0609805e-07
94	0x358b0ced	1.0360069e-06
95	0x3509f3bf	5.1391174e-07
96	0x35094e45	5.1150374e-07
97	0x3508d88f	5.097908e-07
98	0x3523d64e	6.1034086e-07
99	0x353cb462	7.029795e-07
100	0x35282f85	6.2654027e-07
101	0x348c3cf0	2.612137e-07
102	0x3581f3ae	9.682169e-07
103	0x34ac8710	3.2135767e-07
104	0x35446e97	7.317662e-07
105	0x3575723a	9.1435834e-07
106	0x35a09afa	1.1966033e-06
107	0x354c2326	7.604707e-07
108	0x35b521d8	1.3495401e-06
109	0x35399c3b	6.9145216e-07
110	0x35c771da	1.485979e-06
111	0x357b277d	9.356225e-07
112	0x36582833	3.2209907e-06
113	0x367bce66	3.7522054e-06
114	0x369f1005	4.740434e-06
115	0x364ea46c	3.0792098e-06
116	0x36951f6c	4.444204e-06
117	0x36394616	2.7607944e-06
118	0x363ca7e5	2.811191e-06
119	0x36501829	3.1008478e-06
120	0x35b599ce	1.3530314e-06
121	0x35ac6fdc	1.2847554e-06
122	0x35e92132	1.7369514e-06
123	0x35c5ecae	1.4746527e-06
124	0x35fe0477	1.8925774e-06
125	0x356f254c	8.908871e-07
126	0x364b6c31	3.0312333e-06
127	0x35a2d72c	1.2132564e-06
128	0x35f5f3a3	1.832483e-06
129	0x35e3eaf1	1.6981195e-06
130	0x362d8d96	2.5861423e-06
131	0x35e966e2	1.7389796e-06
132	0x3630ad0e	2.6326775e-06
133	0x35de5fdd	1.6568189e-06
134	0x36a109db	4.7993212e-06
135	0x35ca0231	1.5050811e-06
136	0x34352f7d	1.6874215e-07
137	0x344305a0	1.8162837e-07
138	0x348f352d	2.6674516e-07
139	0x346c7d5a	2.2024815e-07
140	0x3481b65c	2.4160806e-07
141	0x33f0c381	1.1211433e-07
142	0x34dc4436	4.1027823e-07
143	0x341966f0	1.4286684e-07
144	0x34ef6b3b	4.459524e-07
145	0x34ee325a	4.436759e-07
146	0x351f4a1b	5.9339953e-07
147	0x34aa6383	3.1737372e-07
148	0x35107e64	5.3828103e-07
149	0x34dbd622	4.094773e-07
150	0x34bb5efa	3.490057e-07
151	0x34d2f5bd	3.9294346e-07
152	0x34dc84d2	4.1074833e-07
153	0x3506f334	5.0272797e-07
154	0x353dbef7	7.0685877e-07
155	0x34aecf2a	3.2560757e-07
156	0x353e2ed1	7.084864e-07
157	0x3504e9fc	4.9514324e-07
158	0x351989ee	5.7197656e-07
159	0x350e4f44	5.301447e-07
160	0x327276fb	1.4113307e-08
161	0x328689d5	1.5662332e-08
162	0x32ad4223	2.0169926e-08
163	0x32677fdc	1.34750415e-08
164	0x32c8bda0	2.3369296e-08
165	0x32655b4d	1.3350314e-08
166	0x32b554bd	2.1109708e-08
167	0x328f9fca	1.6720055e-08
168	0x3573f49b	9.08805e-07
169	0x359d3c4b	1.1714959e-06
170	0x35af5d91	1.3065747e-06
171	0x357d4e69	9.4363946e-07
172	0x35b9a768	1.3832296e-06
173	0x35476e70	7.4293985e-07
174	0x355f827f	8.326387e-07
175	0x356900e1	8.6800543e-07
176	0x34092310	1.2771875e-07
177	0x342573f0	1.5409e-07
178	0x3456e046	2.0011893e-07
179	0x33ca8686	9.430828e-08
180	0x3434fe32	1.6856282e-07
181	0x340f89b4	1.3368009e-07
182	0x34052239	1.239904e-07
183	0x33ed9648	1.10635085e-07
184	0x3486bf02	2.5098421e-07
185	0x34d65717	3.9923972e-07
186	0x34d2e238	3.9280144e-07
187	0x349269f0	2.72717e-07
188	0x34c33c46	3.6365435e-07
189	0x34588e18	2.0168261e-07
190	0x34ed924a	4.425113e-07
191	0x3468ff0c	2.1699469e-07
192	0x35c510f7	1.4682581e-06
193	0x36006a29	1.913528e-06
194	0x364365ec	2.911659e-06
195	0x35e04393	1.6708967e-06
196	0x3625a4b2	2.4682781e-06
197	0x35daa199	1.6289297e-06
198	0x364e9f61	3.0789163e-06
199	0x35e9cf9c	1.7420275e-06
200	0x35c2f483	1.4525289e-06
201	0x35ff4567	1.9019179e-06
202	0x362b2912	2.5504892e-06
203	0x35feb379	1.8976708e-06
204	0x36149599	2.2140796e-06
205	0x35b2863b	1.33011e-06
206	0x363bdb87	2.7992953e-06
207	0x35a8d806	1.2579846e-06
208	0x356b18f0	8.758061e-07
209	0x359b94eb	1.1591741e-06
210	0x35bfaec3	1.4281471e-06
211	0x356ea0ab	8.889571e-07
212	0x35c4a3b2	1.465078e-06
213	0x358d59d3	1.0531461e-06
214	0x35c4b7f4	1.4656675e-06
215	0x359198f1	1.0847854e-06
216	0x341a4cbd	1.4370285e-07
217	0x340fe622	1.3401635e-07
218	0x34334f9d	1.6699637e-07
219	0x342a5746	1.5864234e-07
220	0x34248dd2	1.5325284e-07
221	0x33bab1b6	8.6936254e-08
222	0x33dc4bf4	1.0258364e-07
223	0x33bf9295	8.920794e-08
224	0x3444f817	1.8344177e-07
225	0x3483cb60	2.4548626e-07
226	0x34a47610	3.0633282e-07
227	0x341217cf	1.3605971e-07
228	0x34a50632	3.0738153e-07
229	0x345006a5	1.9373927e-07
230	0x3446c70d	1.8512601e-07
231	0x3494fab3	2.7749556e-07
232	0x363f5125	2.850845e-06
233	0x36805096	3.8240787e-06
234	0x369db5a0	4.7001085e-06
235	0x363f897d	2.8541247e-06
236	0x368a48f6	4.1212143e-06
237	0x363be344	2.7997457e-06
238	0x3639147f	2.7579079e-06
239	0x366fe503	3.5747078e-06
240	0x342c2995	1.6033876e-07
241	0x344a55df	1.8843956e-07
242	0x347ce392	2.3552118e-07
243	0x344b4eba	1.8934489e-07
244	0x34a012c9	2.981599e-07
245	0x33f55a73	1.1425154e-07
246	0x34b00108	3.2783305e-07
247	0x347225d4	2.2551768e-07
248	0x34c55b3a	3.6760486e-07
249	0x34e0f6e6	4.1902894e-07
250	0x34ff3e9f	4.7543014e-07
251	0x34ee30f5	4.4366575e-07
252	0x34f777df	4.6094553e-07
253	0x3469a48c	2.1759678e-07
254	0x35165a62	5.601088e-07
255	0x34b6dc1a	3.4060287e-07

exp_avg f4 [128]
0	0x39c1bd9d	0.00036953102
1	0x3966a55b	0.00021996109
2	0x39962fb5	0.00028645774
3	0x392ceea8	0.00016492105
4	0xb98b602c	-0.000265838
5	0xba1b6309	-0.0005927538
6	0x393cb3f8	0.00017996121
7	0x39833729	0.00025027365
8	0xb891d03c	-6.9529255e-05
9	0x38ee7d80	0.000113721006
10	0x39856b82	0.00025447836
11	0x39c7a769	0.00038080968
12	0x35f516b0	1.8260525e-06
13	0x39d9a276	0.00041510508
14	0x39e15c5c	0.00042984157
15	0x3984747e	0.00025263795
16	0x39ea9782	0.0004474484
17	0xb91ae29b	-0.00014771002
18	0xb9da3c79	-0.00041625256
19	0x39b3547c	0.00034204486
20	0xb86c2b5f	-5.6307177e-05
21	0xba3ce773	-0.00072061195
22	0xb9717b96	-0.0002302959
23	0xb948b337	-0.00019140249
24	0x3a57bdd2	0.00082298846
25	0x3941f7b5	0.00018498192
26	0xb9fa33d8	-0.00047722342
27	0x38cad6b9	9.672106e-05
28	0xb91443ce	-0.00014139639
29	0x39a95304	0.00032296043
30	0xb9a482f2	-0.0003137808
31	0xb7b0672c	-2.1028878e-05
32	0xb983a494	-0.00025108887
33	0xba2754da	-0.00063831883
34	0xba0c9567	-0.0005362839
35	0xb7a06927	-1.9122452e-05
36	0xb9ef6ce6	-0.00045666768
37	0xba8f120b	-0.0010915411
38	0x3a47d69e	0.0007623228
39	0xb996beae	-0.00028752297
40	0x39941f9f	0.0002825232
41	0x39ec3195	0.0004505037
42	0xb90026ba	-0.00012221458
43	0x3a0ddcd6	0.000541163
44	0xb9752616	-0.00023379209
45	0xba924bd3	-0.0011161513
46	0x38a55322	7.883298e-05
47	0xb952020a	-0.0002002792
48	0x39348f1a	0.00017219447
49	0x39bed617	0.00036399133
50	0xb9843675	-0.00025217576
51	0xbaa8ed92	-0.0012888184
52	0x392401f4	0.00015640986
53	0x3953f6fa	0.00020214534
54	0xb984b6d2	-0.00025313214
55	0xb768efa8	-1.3884077e-05
56	0xb78cf154	-1.6801678e-05
57	0x39f8682f	0.0004737987
58	0xb9839b79	-0.00025102103
59	0xba3b783c	-0.00071514
60	0xba11ba42	-0.00055590656
61	0xb94ad340	-0.00019342918
62	0xb8eb59a7	-0.00011222372
63	0xb91b7256	-0.00014824545
64	0xb907896d	-0.00012925798
65	0x3887437f	6.449874e-05
66	0x3758a38c	1.2912682e-05
67	0xb9b79bef	-0.0003502066
68	0xb9f3d212	-0.00046505086
69	0xba19ff2e	-0.00058745116
70	0x38c4f98b	9.392489e-05
71	0xb901ef2e	-0.000123915
72	0x3a37a359	0.00070052367
73	0x38f70f69	0.00011780748
74	0xba1534ad	-0.0005691748
75	0xba1e86ad	-0.000604729
76	0x39a319d0	0.00031109015
77	0xba8e77ac	-0.0010869405
78	0xb9750074	-0.0002336519
79	0x39849bba	0.00025293027
80	0x3969a406	0.00022281715
81	0xb8fb1377	-0.00011972238
82	0xba8045e5	-0.0009786455
83	0x3924146e	0.0001564787
84	0xb9561c87	-0.00020419258
85	0x3a0ceae5	0.0005375578
86	0xba0cc798	-0.0005370318
87	0xb99a833e	-0.00029470952
88	0xb9edff29	-0.00045394272
89	0x3921a168	0.00015414285
90	0x39925414	0.00027909933
91	0xba525e97	-0.0008024959
92	0xb9fd6000	-0.00048327446
93	0x39b6c286	0.00034858676
94	0xba3a8429	-0.00071150303
95	0x3912b1ce	0.00013989882
96	0x39aea54f	0.0003331103
97	0x392890e1	0.000160757
98	0xba5883dc	-0.00082593947
99	0xb72c0988	-1.0254218e-05
100	0x3946005f	0.0001888289
101	0xb7f38154	-2.902808e-05
102	0xb9e869b6	-0.0004432925
103	0xba14598f	-0.0005659097
104	0xba96d522	-0.001150761
105	0xb991ac32	-0.0002778485
106	0xb81ac8b8	-3.6903395e-05
107	0xba24cfbc	-0.00062870583
108	0x3973d63a	0.00023254092
109	0xba3a1d1c	-0.00070996745
110	0xb9c8b9a4	-0.00038285286
111	0x39bd2224	0.00036074326
112	0x38c72dd6	9.497597e-05
113	0x39186bc9	0.00014536003
114	0x38b1ecaf	8.4841035e-05
115	0xba07d785	-0.0005181956
116	0xb89c4eaf	-7.4533156e-05
117	0x399fb595	0.00030462132
118	0xb9494a86	-0.00019196616
119	0x3a859833	0.0010192454
120	0xb9c58ad6	-0.0003767821
121	0x3a09eaee	0.00052611425
122	0xb9b795c3	-0.0003501606
123	0x392d8588	0.0001654831
124	0xba072fd2	-0.0005156967
125	0xb9835db2	-0.00025056076
126	0x3a290391	0.000644737
127	0x3987c4d6	0.0002589586

exp_avg_sq f4 [128]
0	0x35c8d545	1.4963231e-06
1	0x35ebefe6	1.7578684e-06
2	0x3566677a	8.5832255e-07
3	0x35b37fa4	1.3373688e-06
4	0x34659bb3	2.138393e-07
5	0x35677aab	8.623271e-07
6	0x3430374b	1.6411393e-07
7	0x36a6aa9e	4.967048e-06
8	0x3653fde3	3.1589232e-06
9	0x3536370e	6.78804e-07
10	0x35188fab	5.6833477e-07
11	0x3583f970	9.832856e-07
12	0x353d82a9	7.059812e-07
13	0x358ef0ee	1.0649944e-06
14	0x36b21b71	5.308008e-06
15	0x35c79b0d	1.4871781e-06
16	0x36123cbe	2.1791052e-06
17	0x3473a8f6	2.2692606e-07
18	0x353245cb	6.641173e-07
19	0x355b7744	8.175741e-07
20	0x32a8544f	1.9596113e-08
21	0x35e35232	1.693674e-06
22	0x346e36b9	2.2185385e-07
23	0x34d66ee3	3.9941287e-07
24	0x36292568	2.5204736e-06
25	0x3620982d	2.3930436e-06
26	0x35c6c610	1.4809793e-06
27	0x343893bc	1.7190081e-07
28	0x34b4e9d5	3.3697748e-07
29	0x36ae3788	5.192069e-06
30	0x34882fbc	2.5366705e-07
31	0x35077e17	5.0474904e-07
32	0x35eebe32	1.7787736e-06
33	0x350ad1de	5.1714403e-07
34	0x3510da31	5.396169e-07
35	0x354f9a3d	7.7337955e-07
36	0x3521ff8d	6.034905e-07
37	0x3606d76f	2.0092955e-06
38	0x36f6911f	7.3482656e-06
39	0x359d860d	1.1736425e-06
40	0x36c1ae1c	5.772117e-06
41	0x354829e8	7.456679e-07
42	0x33914bc7	6.7658725e-08
43	0x364cb769	3.0505128e-06
44	0x34360a0f	1.695373e-07
45	0x36e7bdfb	6.906453e-06
46	0x34ee4cbb	4.4386783e-07
47	0x34a56477	3.0806743e-07
48	0x360de97f	2.114655e-06
49	0x3636118f	2.7130334e-06
50	0x341a31b7	1.4360454e-07
51	0x367dd310	3.7822792e-06
52	0x3532a6e8	6.655305e-07
53	0x35fdaa45	1.8899524e-06
54	0x35c6bdda	1.4807404e-06
55	0x33d2a3bd	9.808671e-08
56	0x35a50280	1.2294186e-06
57	0x361a9c74	2.3038856e-06
58	0x349900db	2.8499093e-07
59	0x36013608	1.9253948e-06
60	0x355041e9	7.758195e-07
61	0x3442e5cc	1.8151258e-07
62	0x35ef5f14	1.7834559e-06
63	0x34c367a2	3.6396983e-07
64	0x34da7246	4.068881e-07
65	0x35054d76	4.965908e-07
66	0x353db15d	7.0666084e-07
67	0x344b9294	1.8959173e-07
68	0x3714cf89	8.869808e-06
69	0x35c82910	1.4913112e-06
70	0x359a60c5	1.1502058e-06
71	0x36b72e9b	5.4592506e-06
72	0x36d7154c	6.4099786e-06
73	0x34b9515e	3.4518138e-07
74	0x3552c080	7.851122e-07
75	0x357c73f9	9.404608e-07
76	0x35ba6763	1.3888169e-06
77	0x365556d8	3.1790023e-06
78	0x35abea29	1.2808642e-06
79	0x3647e740	2.9787916e-06
80	0x350edd46	5.322112e-07
81	0x3432c558	1.6649335e-07
82	0x36055f3e	1.9873983e-06
83	0x34332380	1.6683589e-07
84	0x3452b733	1.9624422e-07
85	0x35b48152	1.3448682e-06
86	0x35f144f8	1.7975972e-06
87	0x351f5fa7	5.937131e-07
88	0x35c1fdab	1.4453448e-06
89	0x348e7fed	2.654264e-07
90	0x354bb86f	7.589178e-07
91	0x35d6f1b2	1.6014585e-06
92	0x3505ca0b	4.984037e-07
93	0x35989c8f	1.1370447e-06
94	0x360d9f15	2.1103235e-06
95	0x35a9bb8d	1.2646066e-06
96	0x3498f15f	2.8487827e-07
97	0x35531b26	7.864313e-07
98	0x3631dd78	2.6503967e-06
99	0x3685994b	3.9815545e-06
100	0x35246243	6.123775e-07
101	0x34847ad8	2.4676297e-07
102	0x351ec340	5.9143713e-07
103	0x3665e4c3	3.4256816e-06
104	0x367a944e	3.7339228e-06
105	0x35a096fd	1.1964872e-06
106	0x36aa257d	5.070759e-06
107	0x35811481	9.617216e-07
108	0x349c7b99	2.9147193e-07
109	0x35e808c7	1.7287902e-06
110	0x35a6b33a	1.2420126e-06
111	0x358ccfdb	1.0491307e-06
112	0x3685803b	3.978637e-06
113	0x33af67e2	8.167969e-08
114	0x32d5b37d	2.4878085e-08
115	0x356a5fd2	8.731123e-07
116	0x359698cb	1.122034e-06
117	0x350589a2	4.9746643e-07
118	0x3523dd69	6.1044426e-07
119	0x369c9043	4.6659566e-06
120	0x365c57d8	3.2833686e-06
121	0x35a5b7ff	1.2347008e-06
122	0x3656953d	3.1975353e-06
123	0x34e2264d	4.2123648e-07
124	0x35d8767a	1.6127735e-06
125	0x3553632a	7.874793e-07
126	0x369451b4	4.420255e-06
127	0x3544a0bd	7.3249595e-07

exp_avg f4 [1, 2]
0	0xbbc795c4	-0.0060908515
1	0x3ccee5d4	0.025256075

exp_avg_sq f4 [1, 2]
0	0x3bfa94de	0.007647141
1	0x3bedf96c	0.0072623994

exp_avg f4 [2, 128]
0	0x3bcba1d2	0.006214359
1	0x3c32f666	0.010923004
2	0xbbe0382a	-0.006842633
3	0xbbbdfa12	-0.005797633
4	0xbc9020f3	-0.017593836
5	0xbc206aca	-0.0097910855
6	0xbc2ff9f8	-0.01074075
7	0x3b9b5ce4	0.004741298
8	0xbb4d3a6c	-0.003131534
9	0x3b237608	0.0024942178
10	0xbb4a361b	-0.0030855003
11	0xbb3039c8	-0.002688991
12	0x3c10e157	0.008842788
13	0xbcd55182	-0.026039843
14	0xbabe22ec	-0.0014506257
15	0x39e78106	0.00044155883
16	0x3c36be08	0.011153705
17	0x3b072b89	0.0020625314
18	0xbbef9f74	-0.0073127095
19	0x3b404bbf	0.0029342023
20	0xbb959389	-0.0045647067
21	0xbc5c8d97	-0.013461492
22	0xbba692c4	-0.005083414
23	0xbbbe16a8	-0.0058010407
24	0xba37e5d8	-0.00070151454
25	0xbb736aa8	-0.003714243
26	0xbb759dd8	-0.0037478115
27	0x3ba4fce3	0.0050350293
28	0xbc9189b8	-0.017765865
29	0xbc389edf	-0.011268347
30	0xbcae1eea	-0.021254975
31	0x3acf29ae	0.0015805268
32	0x3b480f30	0.003052663
33	0xbc860476	-0.016359549
34	0xbc4fe954	-0.012689907
35	0xbadbf0a6	-0.0016780093
36	0xbcb9f7b7	-0.022701127
37	0xbc6cd500	-0.01445508
38	0x3bf4d8f7	0.0074721533
39	0xbc9d7a6a	-0.01922341
40	0x3c065cf9	0.008200877
41	0xbbbb173a	-0.005709556
42	0xbae1f2de	-0.0017238518
43	0xbbf347f2	-0.007424348
44	0xbc5a9274	-0.013340581
45	0xbc199215	-0.009373208
46	0xba6665ef	-0.0008788993
47	0xbb5d8dfd	-0.0033806555
48	0x3c1a6580	0.009423614
49	0x3c1c2552	0.009530382
50	0xbbfd3035	-0.007726694
51	0xbc6bb2ec	-0.01438592
52	0xbc307ede	-0.010772435
53	0x3b1d3bba	0.0023991899
54	0x3bbcdb75	0.005763466
55	0xbb3ea35c	-0.002908907
56	0x3b908d71	0.0044113924
57	0x3beb7228	0.0071852393
58	0x3aba3dde	0.0014209112
59	0xbb513368	-0.003192151
60	0xbc52c2f7	-0.012863866
61	0x3a759f44	0.0009369741
62	0xbc9a8cc6	-0.018865954
63	0x3c30a836	0.010782292
64	0x3bcbcacc	0.0062192436
65	0x3b00877e	0.001961201
66	0xbbc39bcf	-0.0059695016
67	0xbc915c29	-0.01774414
68	0xbbb4849c	-0.0055089723
69	0xbc494085	-0.012283449
70	0x3c3da7f4	0.011575688
71	0xbbd470b7	-0.006483163
72	0xbbe4f4bb	-0.006987182
73	0x3c039586	0.008031255
74	0xbc934527	-0.01797731
75	0xbc64786d	-0.013944727
76	0xbbf746ba	-0.007546273
77	0xbc0383b8	-0.00802701
78	0xbba31bca	-0.004977678
79	0x3c240a7d	0.010012266
80	0x3c1b7e60	0.009490579
81	0xb82c8940	-4.113582e-05
82	0xbd002df7	-0.031293835
83	0x39760ad0	0.00023464416
84	0xbcc76d74	-0.024344184
85	0x3b3c8831	0.00287677
86	0xba2e4484	-0.0006647783
87	0xbcb0845a	-0.021547485
88	0xbbac79bd	-0.005263536
89	0x3b76d810	0.0037665404
90	0x3bf6e398	0.0075344555
91	0xbc0c70d8	-0.008571826
92	0xbc4249b2	-0.011858391
93	0xbc0992e8	-0.008396842
94	0xbbdff147	-0.0068341824
95	0xbb0d9219	-0.0021601974
96	0xbcb02b63	-0.021505063
97	0x3bdb36be	0.0066898754
98	0xbb365b90	-0.0027825572
99	0x3c25743e	0.010098515
100	0xbbcd863e	-0.0062721064
101	0xbc5b10df	-0.013370722
102	0xbb435c82	-0.0029809778
103	0xbc34156b	-0.010991435
104	0xbc164ac8	-0.009173103
105	0xbb8ebcda	-0.004356009
106	0x3ba0ffb5	0.004913295
107	0xbbec0fca	-0.0072040306
108	0xbc38a9a8	-0.011270918
109	0xbbed9200	-0.0072500706
110	0xb9e9187f	-0.00044459474
111	0x3b633584	0.003466935
112	0x3bb0a2bb	0.0053904927
113	0xbc953006	-0.018211376
114	0xbc176f6b	-0.009242873
115	0xbb34e453	-0.0027601912
116	0xbc85b4a1	-0.016321482
117	0xbc3cc5a4	-0.011521731
118	0xbaca43d0	-0.0015431587
119	0xbcb9ccb5	-0.02268062
120	0xbaa2d9fd	-0.0012424585
121	0xbb33b60e	-0.0027421745
122	0x3932061f	0.00016977683
123	0x3b8c3756	0.0042790575
124	0xbc562c7c	-0.013072129
125	0x3c4be31c	0.012444284
126	0x3afd0100	0.0019302666
127	0xbbfbae44	-0.007680686
128	0x3b95dae0	0.004573211
129	0xbb93f8f8	-0.0045157634
130	0xbab40ee1	-0.0013737344
131	0x3c1e45b3	0.009660172
132	0x3c0eb179	0.008709305
133	0xbac60609	-0.0015108
134	0x3c180f4d	0.009280992
135	0x3af6d1e1	0.0018830859
136	0xbaf018af	-0.0018317903
137	0x39cd4eee	0.00039159454
138	0x3ba2c82c	0.00496771
139	0x3927af50	0.0001599167
140	0x3b6cbf36	0.0036124713
141	0x3adec206	0.0016995079
142	0xbb7985aa	-0.0038074055
143	0x3c075e0e	0.0082621705
144	0x3be75994	0.007060239
145	0x3b14d94e	0.0022712531
146	0x3c2e21b3	0.010628152
147	0xb9a6401f	-0.0003170976
148	0x3b272afd	0.00255078
149	0xbc3ebfa2	-0.0116423685
150	0xbba54745	-0.0050438964
151	0x3b496bf1	0.0030734504
152	0xbbcc8e52	-0.006242552
153	0xbc000d5d	-0.007815686
154	0x3b0e999c	0.0021759039
155	0xba2676ea	-0.0006350117
156	0x3beab848	0.0071630813
157	0x3c0ed1a4	0.008716974
158	0x3c4ea414	0.012612361
159	0x3c14ed3e	0.009089766
160	0x3b85295c	0.0040637683
161	0x3bcac112	0.0061875666
162	0xbc145203	-0.009052756
163	0xbc008a79	-0.007845514
164	0x3bce8380	0.006302297
165	0xbabfcd22	-0.0014633278
166	0xbbbd6ffa	-0.005781171
167	0x3c848158	0.016174957
168	0x3abad5c6	0.0014254383
169	0xbb4349b0	-0.002979856
170	0x3b5bda2d	0.003354679
171	0xba005e6a	-0.00048968813
172	0x3c09b8e8	0.0084059015
173	0xbc0594fd	-0.008153197
174	0x39a5a3ec	0.00031593384
175	0xb9a228c0	-0.0003092941
176	0xbc17b795	-0.009260078
177	0xbba10094	-0.004913399
178	0x3b992cd0	0.0046745315
179	0xbc571735	-0.013128092
180	0xbbb5097a	-0.0055248113
181	0x3b53494c	0.0032239733
182	0x3ba17731	0.004927539
183	0x3a176e92	0.0005776669
184	0xbb1b2300	-0.0023671985
185	0xbb9b69ee	-0.0047428524
186	0x3b291f9d	0.0025806196
187	0xbbd938d1	-0.0066290875
188	0x3ae4dfbc	0.0017461698
189	0xbbd623d2	-0.006535032
190	0x3ba888a8	0.005143244
191	0xba45ef3e	-0.00075506035
192	0xbc0e0e9e	-0.008670477
193	0xb8ff01e0	-0.00012159697
194	0x3bf14fd9	0.007364255
195	0x3c503d38	0.012709908
196	0x3ba7dcd5	0.005122761
197	0x3b2a6233	0.0025998473
198	0xbc81ef3c	-0.015861146
199	0x3a70e630	0.0009189574
200	0x3b30b20e	0.0026961598
201	0x3b8ee583	0.004360856
202	0xbaae2313	-0.0013285599
203	0xb46cd000	-2.2054883e-07
204	0x3b366e8b	0.0027836885
205	0xbc001584	-0.00781763
206	0x3b504740	0.003178075
207	0xba82a736	-0.0009968046
208	0xbbb1f142	-0.0054303715
209	0x3c725bfc	0.014792439
210	0xbb5970c6	-0.003317879
211	0xbb342b16	-0.0027491502
212	0x3b215a69	0.002462054
213	0xb9201410	-0.00015266263
214	0x3bfb8eeb	0.0076769493
215	0x3b5bbab7	0.0033528039
216	0x3b0e7619	0.0021737872
217	0x3c64dfc2	0.013969364
218	0x3b6607c4	0.0035099844
219	0xbbd3f820	-0.006468788
220	0x3b761a3b	0.0037552256
221	0xbbadc390	-0.005302854
222	0x3b8a303a	0.004217175
223	0xbbddfd98	-0.0067746155
224	0x3c692ae4	0.014231417
225	0x3b3b5486	0.0028584315
226	0x3b8a44dd	0.004219635
227	0xbbeddf68	-0.007259298
228	0x3a11e9d6	0.00055661553
229	0x3ba4ff4f	0.005035318
230	0x3bfce5b2	0.0077178115
231	0xbb8ec55f	-0.0043570246
232	0x3b822016	0.00397111
233	0x3ba4e21c	0.005031837
234	0xbb0c2c57	-0.0021388733
235	0x3b21efa4	0.0024709487
236	0x3bc396cc	0.005968904
237	0x3b01c228	0.0019799564
238	0x3b34cd0d	0.002758804
239	0x3b313703	0.0027040846
240	0xbb9488ec	-0.004532924
241	0xbab5e5e9	-0.0013877723
242	0x3bc772fe	0.006086706
243	0x3b920210	0.0044558123
244	0x3c08ec26	0.008357083
245	0x3bbe9470	0.005816035
246	0x3937e300	0.00017536804
247	0x3c67a761	0.014139027
248	0xbba0e9f0	-0.0049107
249	0xba92b874	-0.0011193887
250	0x39cd63a8	0.00039174897
251	0xb9885fc9	-0.00026011307
252	0xbae89128	-0.0017743455
253	0xbbc04573	-0.005867654
254	0x3ba1309a	0.004919124
255	0x3c3ebcb0	0.011641666
