results/Short_LowLR/3DBall/3DBall-349991.onnx (onnx, 10026 bytes, 7 tensors)

network_body.observation_encoder.processors.0.normalizer.running_mean f4 [8]
-0.0027412905 -0.0040619913 0.045056697 3.0879278 -0.0097205965 0.04174963 -1.0185825 -0.03137717
00000000: 39a7 33bb 741a 85bb 5f8d 383d 9ca0 4540
00000010: 2343 1fbc a901 2b3d e960 82bf 5985 00bd

network_body._body_endoder.seq_layers.0.weight f4 [128, 8]
0.17533857 -0.06403988 0.31172723 0.59176 -0.19297408 -0.14918604 0.36493248 0.013802704
0.28260353 0.13443859 -0.11981027 -0.22627187 -0.22259542 -0.09414993 -0.10420164 0.4793403
-0.51181304 0.028931092 0.35628933 -0.16661663 -0.2913794 0.71179307 0.84182024 -0.29523745
0.19496977 -0.25143078 0.61924493 -0.41157705 0.14842208 0.2209726 -0.26888582 -0.47380453
-0.1518609 -0.3459173 -0.12288439 -0.040711697 0.18725637 0.116332114 -0.62723273 -0.04337054
-0.04923102 -0.25058705 0.53585476 -0.22274022 -0.11678581 -0.1293542 0.08725246 -0.058453776
0.28206927 -0.42747742 0.58181185 -0.086514965 -0.111676596 -0.51320606 -0.07384515 0.25746632
-0.42017007 0.0416788 0.3157653 -0.54573846 -0.13842678 -0.081192605 1.3818337 -0.22642648
0.015604612 -0.3392593 -0.17383651 1.0315973 0.16055913 0.45247725 -0.10675984 0.16365156
0.25138065 0.24833693 -0.088775046 -0.2220222 -0.103953585 0.12143827 -0.6434358 0.47894803
-0.5876621 -0.6520538 0.14808269 0.037724502 -0.059091356 0.47645867 -0.38103318 0.036951948
0.16057736 0.20453297 -0.057596132 0.24223171 -0.044431217 -0.1805118 -0.5899359 -0.25969964
-0.111440994 0.28920317 -0.23102991 -0.03422709 0.84734964 0.12517111 0.30554467 0.25495306
0.45226213 0.3407494 0.30715048 0.08657819 0.1832562 -0.17432095 0.6328198 0.11363802
0.47169766 0.2997873 0.069326006 -0.41464677 0.6277502 -0.015060643 -0.054577462 -0.3737595
-0.069521695 -0.4120601 0.26236254 -0.02486478 0.01320908 -0.5005119 -0.4738624 0.0111075705
-0.27092528 -0.06662323 0.29495442 -0.0037530903 0.025820572 -0.11568575 0.2937531 0.035460845
0.20139566 0.6647323 -0.42765492 0.36530736 -0.3079518 -0.18832077 -0.10074904 0.012752524
-0.49164107 -0.2543171 0.4964796 0.3065152 -0.5814409 0.018209273 -0.37384626 0.33395043
-0.115668975 0.56705517 0.020785512 0.06885674 0.048516102 0.11150376 0.124446586 -0.22397299
-0.15990879 0.25203496 0.050074466 -0.19476436 0.2229198 0.037288383 0.16235238 0.2504707
-0.16603349 1.1404932 -0.5795464 -0.20764399 0.120170295 0.055778082 -0.49856848 0.0886574
-0.4869447 -0.173998 0.38109732 -0.2969402 -0.34182665 -0.41419843 0.43885854 -0.23321603
0.6636086 -0.34108374 0.07133935 -0.46778592 0.65730405 -1.3426378 -0.17723379 0.5641507
0.10501615 0.0040362105 -0.044162363 -0.06801931 0.36226696 0.18539204 -0.022695605 -0.020595329
-0.6051251 -0.22943369 -0.14221056 0.06596534 0.056748696 0.6178778 -0.1636739 -0.18382908
0.12127266 0.34828413 -0.5982589 -0.289169 0.52652663 -0.3973552 -0.02006226 0.3084782
-0.16401763 0.11520604 -0.3976259 -0.044807464 -0.11834284 -0.91368675 0.6723295 -0.64305663
-0.16340898 0.3545552 0.5608614 0.13574426 -0.15734015 0.095942765 0.18464738 -0.13663785
-0.053297356 -0.15816265 0.3513636 -0.38260564 -0.01733544 0.40656412 -0.3240504 -0.641776
-0.5801143 0.028064435 0.2423584 -0.23172288 -0.28088683 0.27444947 0.4711449 0.40792504
-0.5416766 0.03630916 0.25053367 0.10164112 0.052586656 0.12487652 0.32965454 0.081788726
00000000: f48b 333e 5727 83bd b69a 9f3e 957d 173f
00000010: ff9a 45be 3ac4 18be 6ed8 ba3e bd24 623c
00000020: 69b1 903e 45aa 093e 165f f5bd d0b3 67be
00000030: 0ef0 63be aed1 c0bd ab67 d5bd 186c f53e
00000040: 2e06 03bf e600 ed3c 8e6b b63e 8d9d 2abe
00000050: ae2f 95be 1238 363f 8881 573f 5d29 97be
00000060: 28a6 473e 89bb 80be d686 1e3f 3aba d2be
00000070: f5fb 173e a446 623e 67ab 89be 8296 f2be
00000080: 6c81 1bbe 131c b1be d0aa fbbd 4fc1 26bd
00000090: 22c0 3f3e 883f ee3d 5392 20bf 4fa5 31bd
000000a0: 77a6 49bd f24c 80be c72d 093f 0316 64be
000000b0: 662d efbd 6d75 04be 6bb1 b23d 3a6d 6fbd
000000c0: 626b 903e 52de dabe 9ff1 143f c22e b1bd
000000d0: b3b6 e4bd 7961 03bf 203c 97bd a0d2 833e
000000e0: 8820 d7be 64b7 2a3d fdab a13e 84b5 0bbf
000000f0: c0bf 0dbe 4f48 a6bd eddf b03f 58dc 67be
00000100: 7daa 7f3c 65b3 adbe 3302 32be 610b 843f
00000110: 9d69 243e 19ab e73e e7a4 dabd 4694 273e
00000120: f7b4 803e 094c 7e3e b1cf b5bd ca59 63be
00000130: 9ee5 d4bd a1b4 f83d 35b8 24bf ad38 f53e
00000140: 0671 16bf ffec 26bf fda2 173e 0285 1a3d
00000150: c709 72bd 64f2 f33e c816 c3be ed5a 173d
00000160: 646e 243e 1771 513e ece9 6bbd 970b 783e
00000170: 82fd 35bd 16d8 38be 0a06 17bf 5af7 84be
00000180: 2d3b e4bd 7012 943e 1b93 6cbe b531 0cbd
00000190: e8eb 583f db2c 003e 5a70 9c3e 3589 823e
000001a0: e78e e73e b576 ae3e d442 9d3e e84f b13d
000001b0: 83a7 3b3e 3181 32be 7a00 223f 0dbb e83d
000001c0: 5b82 f13e b97d 993e cbfa 8d3d 954c d4be
000001d0: 3db4 203f eac0 76bc 9e8c 5fbd 685d bfbe
000001e0: 6461 8ebd 8bf9 d2be 6254 863e 39b1 cbbc
000001f0: e66a 583c 8c21 00bf 189e f2be 87fc 353c
00000200: b8b6 8abe c371 88bd 4404 973e 68f6 75bb
00000210: aa85 d33c a7ec ecbd ce66 963e 643f 113d
00000220: aa3a 4e3e e52b 2a3f 96f5 dabe 9109 bb3e
00000230: dcab 9dbe 29d7 40be 8355 cebd f6ef 503c
00000240: 61b8 fbbe da35 82be 9332 fe3e 8fef 9c3e
00000250: 50d9 14bf 9d2b 953c c768 bfbe 8dfb aa3e
00000260: dbe3 ecbd 872a 113f 6146 aa3c c304 8d3d
00000270: d2b8 463d 155c e43d dadd fe3d 2d59 65be
00000280: 21bf 23be ba0a 813e e21a 4d3d 4f70 47be
00000290: 1745 643e b4bb 183d b43f 263e b23d 803e
000002a0: af04 2abe aefb 913f 275d 14bf a0a0 54be
000002b0: d81b f63d 8f77 643d 5e44 ffbe 0392 b53d
000002c0: d150 f9be 882c 32be 301f c33e 8c08 98be
000002d0: e703 afbe d111 d4be 11b2 e03e 2fd0 6ebe
000002e0: 41e2 293f 87a2 aebe 5d1a 923d a381 efbe
000002f0: 1445 283f 8edb abbf c67c 35be 2e6c 103f
00000300: b512 d73d 3042 843b 98e3 34bd b54d 8bbd
00000310: 0e7b b93e 69d7 3d3e 22ec b9bc 89b7 a8bc
00000320: 7be9 1abf aaf0 6abe a59f 11be d618 873d
00000330: 5271 683d 3d2d 1e3f 219a 27be b13d 3cbe
00000340: cd5d f83d 4c52 b23e 7f27 19bf f60d 94be
00000350: 73ca 063f 2472 cbbe 9c59 a4bc dbf0 9d3e
00000360: 3df4 27be 25f1 eb3d 9f95 cbbe 0888 37bd
00000370: bb5d f2bd 60e7 69bf c91d 2c3f 5c9f 24bf
00000380: af54 27be 4288 b53e 9d94 0f3f 8b00 0b3e
00000390: c71d 21be a47d c43d 3414 3d3e cbea 0bbe
000003a0: 544e 5abd 64f5 21be eee5 b33e e3e4 c3be
000003b0: 0d03 8ebc 2c29 d03e efe9 a5be 6f4b 24bf
000003c0: 5f82 14bf 63e7 e53c cd2c 783e c348 6dbe
000003d0: 66d0 8fbe a484 8c3e e839 f13e 8ddb d03e
000003e0: 51ab 0abf eab8 143d f345 803e 3829 d03d
000003f0: 1b65 573d 43bf ff3d 7bc8 a83e d980 a73d

network_body._body_endoder.seq_layers.0.bias f4 [128]
0.003788263 0.0069285952 -0.0035998367 -0.015343204 -0.011824926 -0.0025900712 -0.0074226432 -0.0036955178
-0.0056554945 0.011594395 0.004742302 -0.0011197198 0.0061339545 0.01397487 0.008001896 0.009097179
-0.0062975516 0.014189184 0.022088112 -0.009976565 0.015319759 0.00836981 -0.013198956 -0.0015833138
0.004096971 0.01573248 0.02360177 -0.0020208822 0.0073451553 0.005503138 0.008923378 0.0075290324
-0.010367589 0.013143719 -0.005240522 0.014909188 0.0009594849 0.011590341 0.017583115 -0.0026179051
0.0041239983 -0.0012776136 0.005657903 0.0035525109 0.01056205 0.001233295 0.010045046 -0.0069558653
0.012570383 0.012096286 0.0049570603 0.011072442 0.010307301 -0.002775334 -0.001408393 -0.002931433
0.00845687 0.007263932 0.015569017 -0.0015967686 0.010769273 0.011786005 0.018325167 0.007966723
-0.014640915 -0.0063264007 -0.006613089 0.004596592 0.008216356 0.013627483 0.009290961 -0.004160557
-0.00020948816 0.01170632 -0.007320508 0.0056989403 -0.0052201217 -0.014329297 0.014566311 0.0029099546
0.0038335726 0.009405867 0.014363844 0.019068925 -0.0022082839 -0.007021696 0.01971297 -0.003906288
0.02519146 0.009084006 0.009589401 0.01597368 -0.013691611 -0.010063771 0.0155705735 0.0024454307
0.017087463 0.0059112604 0.0034460048 0.0039111525 0.009233083 0.018763058 -0.0012528914 -0.003139685
0.011341683 0.0037762686 0.011350255 0.0074756453 -0.005311068 0.008260494 0.0022747985 7.835704e-05
0.003200628 -0.007873792 -0.013121913 0.00036761677 -0.0013270922 0.00091948826 0.00019769641 0.003957866
0.0018679674 0.019054137 0.022000419 0.01773043 -0.0013647567 0.010145591 0.006334302 0.007119857
00000000: 8244 783b 4509 e33b 3deb 6bbb 1062 7bbc
00000010: 56bd 41bc 2fbe 29bb a539 f3bb 8030 72bb
00000020: ba51 b9bb 6bf6 3d3c 5065 9b3b 90c3 92ba
00000030: 57ff c83b daf6 643c 621a 033c 560c 153c
00000040: b15b cebb c079 683c 21f2 b43c bf74 23bc
00000050: baff 7a3c 8721 093c 6f40 58bc 3287 cfba
00000060: e23f 863b 67e1 803c 8058 c13c c770 04bb
00000070: a1af f03b ab53 b43b 5c33 123c 1ab6 f63b
00000080: d2dc 29bc c158 573c afb8 abbb ab45 743c
00000090: f185 7b3a 6ae5 3d3c 770a 903c 2991 2bbb
000000a0: 9b22 873b 9975 a7ba ee65 b93b 3ed1 683b
000000b0: 730c 2d3c 83a6 a13a fa93 243c 07ee e3bb
000000c0: 02f4 4d3c 802f 463c d66e a23b 3069 353c
000000d0: f4df 283c 61e2 35bb d499 b8ba 491d 40bb
000000e0: af8e 0a3c 4706 ee3b 3115 7f3c aa4a d1ba
000000f0: 9b71 303c 171a 413c a91e 963c dc86 023c
00000100: 73e0 6fbc b24d cfbb 9cb2 d8bb 029f 963b
00000110: e59d 063c ce45 5f3c 1d39 183c 4855 88bb
00000120: 0daa 5bb9 ddcb 3f3c dfe0 efbb 2dbe ba3b
00000130: 8e0d abbb 6dc5 6abc 89a7 6e3c f0b4 3e3b
00000140: ad3c 7b3b 111b 1a3c 5456 6b3c 6f36 9c3c
00000150: dbb8 10bb 4116 e6bb 187d a13c 5200 80bb
00000160: 525e ce3c 15d5 143c dd1c 1d3c 3cdb 823c
00000170: c752 60bc 84e2 24bc b81b 7f3c 8543 203b
00000180: 02fb 8b3c 3fb3 c13b 5ed6 613b 2029 803b
00000190: 5b46 173c fcb4 993c 0f38 a4ba 2cc3 4dbb
000001a0: 77d2 393c 467b 773b 6cf6 393c 42f6 f43b
000001b0: 7808 aebb 0657 073c c914 153b 9e53 a438
000001c0: a1c1 513b 1401 01bc 4bfd 56bc b0bc c039
000001d0: d3f1 adba d009 713a ba4c 4f39 fdb0 813b
000001e0: 96d6 f43a 6c17 9c3c 393a b43c 683f 913c
000001f0: a3e1 b2ba b139 263c fa8f cf3b b04d e93b

action_model._continuous_distribution.log_sigma f4 [1, 2]
-0.006666983 -0.005144668
00000000: b576 dabb 9a94 a8bb

action_model._continuous_distribution.mu.weight f4 [2, 128]
0.0026070415 -0.047945622 -0.0083141215 -0.009106666 -0.020181024 0.017802157 -0.0032541114 0.010901502
-0.021338694 -0.012553655 0.017963367 -0.008949345 0.011512842 -0.03242381 -0.022006908 0.0016750763
-0.0053723515 -0.043650463 0.035888866 -0.003070709 0.010757684 -0.03217684 -0.016915126 -0.018956162
0.010223173 0.039763216 -0.03261394 -0.0035800973 0.029712863 -0.007950583 0.023480406 0.031828165
-0.007826601 0.0083054835 -0.015367629 0.009136518 -0.0012862063 0.011073298 0.047365177 0.014082705
-0.010027052 0.026085693 0.015001035 0.0060820123 -0.010525093 0.012587318 0.03740517 0.0012123567
-0.028347343 -0.0007578673 -0.016948096 -0.035229865 -0.050539367 0.0020975121 0.02395935 -0.031914387
-0.041187137 -0.015366502 0.0034178807 0.009318332 -0.016944451 0.029117562 -0.05911976 -0.036722463
0.022752065 0.011093645 0.0036537016 -0.036730118 0.006499567 0.009594295 0.03307673 -0.016862039
0.004258955 0.047974784 0.008546515 0.007259004 0.0073764175 -0.0051328423 0.061331887 0.028795658
-0.0145778945 0.005214829 -0.006053221 0.012382813 0.004876761 0.014252395 0.04433347 -0.031055644
0.07378602 -0.026932852 0.010755183 0.0029659905 -0.006135971 -0.0049670334 0.018590098 -0.011534596
-0.010592725 -0.02304353 0.02982576 -0.0025184008 -0.015537037 0.030579519 0.019083807 -0.03032547
0.030644067 -0.007243358 0.0045230575 0.0060357163 0.016278569 0.009203813 -0.039470702 0.03833266
0.033899516 -0.009716056 -0.01363838 -0.011817116 -0.011709796 -0.0052742325 0.012218095 0.020930374
0.016745195 0.039165795 0.004855276 -0.04086607 0.0067444635 0.0003615728 0.0007212188 -0.00372865
0.050717015 -0.001992693 0.04090161 -0.005405122 -0.024128916 -0.003288591 -0.018018749 -0.017529
0.025844542 -0.017388137 0.006144488 -0.029117784 -0.01785658 -0.029225368 -0.00542024 0.03819873
0.01323019 -0.035749365 0.010985498 -0.0014210128 -0.052941766 -0.022472944 0.0013482646 0.020799147
-0.027773429 -0.004643358 -0.025406772 0.009235292 -0.038670663 0.030332217 -0.01520942 0.01625648
-0.0019999424 0.021815589 0.014797732 -0.03923463 0.008674395 0.036204237 -0.032528505 -0.023643738
0.015462933 -0.0058118044 -0.026931196 -0.02292258 0.015083375 -0.0028427395 -0.02448614 0.0018358695
-0.012231802 -0.03862453 0.045482352 -0.028892945 -0.033509057 -0.004708336 0.0019433546 0.0060478337
0.037395228 0.004242974 -0.030452184 -0.027694987 0.008920639 -0.008714039 -0.011476558 0.03422785
-0.013609059 -0.0066462304 -0.016063163 0.023058398 0.020572083 0.035379678 -0.010818322 -0.0017424391
0.01273856 -0.021760166 0.012393856 -0.02588171 0.013596076 0.0049334723 0.023027482 0.0054386975
0.031696986 -0.04234118 0.03993006 0.023129739 0.0038546934 0.00014775594 0.008652483 -0.0061969203
-0.017029045 -0.029291002 -0.005950781 0.026942607 0.012546518 -0.01327595 -0.026508542 -0.022993451
-0.029331764 0.03013609 -0.0057901954 -0.02470539 0.0071992488 0.0012781282 -0.0040381732 -0.000225984
-0.026076894 0.023961533 0.02227786 -0.016158506 0.015196976 0.03875716 0.019529432 -0.015280151
-0.004099004 -0.029850854 -0.005339117 0.016992731 -0.03943472 0.009730262 -0.022892488 -0.019398304
0.003251983 0.0031028276 0.032498375 0.018303676 0.017338302 0.02994974 -0.026356371 0.023329668
00000000: e6da 2a3b a162 44bd f437 08bc 2034 15bc
00000010: ad52 a5bc d4d5 913c ee42 55bb 379c 323c
00000020: 7cce aebc d8ad 4dbc e927 933c 46a0 12bc
00000030: 5ca0 3c3c d4ce 04bd d547 b4bc 3c8e db3a
00000040: 8d0a b0bb d4ca 32bd 3400 133d f33d 49bb
00000050: ff40 303c ddcb 03bd 9791 8abc f449 9bbc
00000060: 187f 273c c1de 223d 3296 05bd 11a0 6abb
00000070: 6468 f33c 2943 02bc fb59 c03c 405e 023d
00000080: 253b 00bc b913 083c 82c8 7bbc 56b1 153c
00000090: ec95 a8ba c76c 353c fd01 423d 25bb 663c
000000a0: 8148 24bc aab1 d53c e7c6 753c 9e4b c73b
000000b0: 7171 2cbc 0a3b 4e3c 2a36 193d f1e7 9e3a
000000c0: b038 e8bc 9dab 46ba bcd6 8abc 314d 10bd
000000d0: 5e02 4fbd 6a76 093b 6646 c43c a9b8 02bd
000000e0: d8b3 28bd c8c3 7bbc 86fe 5f3b ebab 183c
000000f0: 17cf 8abc f487 ee3c 9027 72bd 4b6a 16bd
00000100: 8a62 ba3c 1fc2 353c f172 6f3b 5272 16bd
00000110: 52fa d43b 6431 1d3c 777b 073d 4222 8abc
00000120: b48e 8b3b 3581 443d af06 0c3c f0dc ed3b
00000130: e0b5 f13b 6731 a8bb 2537 7b3d dfe4 eb3c
00000140: 1fd8 6ebc 28e1 aa3b 195a c6bb 48e1 4a3c
00000150: 3dcd 9f3b e182 693c 0397 353d 6868 febc
00000160: 201d 973d 49a2 dcbc 8236 303c 1061 423b
00000170: 4110 c9bb 7fc2 a2bb 434a 983c 9afb 3cbc
00000180: 1c8d 2dbc c9c5 bcbc 2755 f43c c10b 25bb
00000190: 0e8f 7ebc e681 fa3c a555 9c3c 1f6d f8bc
000001a0: 4409 fb3c b159 edbb 2836 943b 42c7 c53b
000001b0: a25a 853c 97cb 163c 08ac 21bd b502 1d3d
000001c0: 38da 0a3d 1830 1fbc 8373 5fbc 949c 41bc
000001d0: 72da 3fbc 78d3 acbb 682e 483c 2d76 ab3c
000001e0: 382d 893c 506c 203d 0219 9f3b 2e63 27bd
000001f0: a900 dd3b 7b91 bd39 2d10 3d3a 5e5c 74bb
00000200: a5bc 4f3d d797 02bb 7288 273d 731d b1bb
00000210: 01aa c5bc 6785 57bb 0e9c 93bc fa98 8fbc
00000220: efb7 d33c 9171 8ebc b457 c93b 6b88 eebc
00000230: f647 92bc 0a6a efbc 459c b1bb 4676 1c3d
00000240: 70c3 583c ed6d 12bd 85fc 333c 4741 baba
00000250: 77d9 58bd 2e19 b8bc 41b8 b03a f962 aa3c
00000260: 1a85 e3bc 4f27 98bb dd21 d0bc 9f4f 173c
00000270: 2165 1ebd 457b f83c ee30 79bc 4f2c 853c
00000280: 7711 03bb 9bb6 b23c 3072 723c 7eb4 20bd
00000290: 0d1f 0e3c e54a 143d 9c3c 05bd 83b0 c1bc
000002a0: 3e58 7d3c f370 bebb d09e dcbc 22c8 bbbc
000002b0: 4320 773c 414d 3abb 2897 c8bc 8fa1 f03a
000002c0: e567 48bc c134 1ebd b44b 3a3d e6b0 ecbc
000002d0: cb40 09bd 6348 9abb 29b8 fe3a e82c c63b
000002e0: bd2b 193d a508 8b3b dc76 f9bc 99e0 e2bc
000002f0: df27 123c 54c5 0ebc 2c08 3cbc 8132 0c3d
00000300: 88f8 5ebc 9fc8 d9bb e596 83bc f7e4 bc3c
00000310: c986 a83c 48ea 103d 553f 31bc 8e62 e4ba
00000320: 65b5 503c 6042 b2bc 9a0f 4b3c e105 d4bc
00000330: 13c2 5e3c f7a8 a13b 21a4 bc3c 1a37 b23b
00000340: b3d4 013d f26d 2dbd b48d 233d 947a bd3c
00000350: 069f 7c3b efee 1a39 25c3 0d3c 890f cbbb
00000360: 7f80 8bbc aff3 efbc c5fe c2bb beb6 dc3c
00000370: e98f 4d3c 5f83 59bc 7128 d9bc c35c bcbc
00000380: 2b49 f0bc f6df f63c aebb bdbb f562 cabc
00000390: ade7 eb3b de86 a73a a752 84bb 1ef6 6cb9
000003a0: 369f d5bc fa4a c43c 0f80 b63c d85e 84bc
000003b0: bdfc 783c d4bf 1e3d 30fc 9f3c 9959 7abc
000003c0: f050 86bb c789 f4bc c2f3 aebb 5734 8b3c
000003d0: 4d86 21bd ad6b 1f3c 0789 bbbc 31e9 9ebc
000003e0: 391f 553b cf58 4b3b 041d 053d 97f1 953c
000003f0: 0e09 8e3c 2859 f53c 51e9 d7bc dc1d bf3c

action_model._continuous_distribution.mu.bias f4 [2]
0.001659442 0.0012740316
00000000: a281 d93a 68fd a63a

onnx::Div_46 f4 [8]
0.091228366 0.09058168 1.2422384 0.4559465 1.2520446 1.1700305 1.185689 1.1543778
00000000: f0d5 ba3d e382 b93d ab01 9f3f d271 e93e
00000010: ff42 a03f 8fc3 953f a8c4 973f a7c2 933f
