results/Short_LowLR/3DBall/3DBall-399937.onnx (onnx, 10026 bytes, 7 tensors)

network_body.observation_encoder.processors.0.normalizer.running_mean f4 [8]
00000000: 5b35 30bb 809c 82bb da50 2e3d f32a 4640
00000010: e4e0 08bc abfb 203d 86d3 80bf 42c6 10bd
-0.002688727 -0.0039859414 0.042557575 3.0963714 -0.008354399 0.03930251 -1.0064552 -0.035345323

network_body._body_endoder.seq_layers.0.weight f4 [128, 8]
00000000: 7479 333e 681f 88bd cb94 9f3e df92 173f
00000010: 2420 46be 4c12 18be 6ffd ba3e e9ec 3f3c
00000020: b3d1 913e 124f 0a3e 520c f7bd 8583 67be
00000030: 2cd9 63be 8ef4 c5bd 6c06 d5bd bb7c f53e
00000040: 72f7 02bf 5ad5 da3c ac47 b63e 99b2 2abe
00000050: da92 95be d12d 363f 45b1 573f 6645 98be
00000060: 8327 493e 3515 80be 055e 1e3f 2fbf d2be
00000070: e855 183e d566 603e cdb8 89be 8b17 f2be
00000080: fa40 1abe b227 b0be c540 fcbd ccf7 28bd
00000090: ecec 3f3e 16f0 ea3d f18d 20bf 2ef2 2cbd
000000a0: 89b3 52bd 4852 80be 565e 093f 0325 64be
000000b0: 4414 efbd 020a 02be f337 b23d 366b 6ebd
000000c0: 1c9c 903e 30a6 d9be 4ee6 143f ba1c b2bd
000000d0: 095c e3bd c9a2 03bf 69ce 96bd 34cc 843e
000000e0: 9db3 d7be 409b 323d 0ced a13e ae9a 0bbf
000000f0: 1104 0dbe faf8 a3bd 19d5 b03f 53d4 65be
00000100: 3c45 8c3c bd83 aebe 9850 32be b815 843f
00000110: 1121 243e c22b e73e 0d37 dbbd 301a 263e
00000120: 785d 813e 8f0f 803e 5e71 b6bd 7331 63be
00000130: 1cda d3bd a625 f53d 5e91 24bf cbe1 f53e
00000140: 2de9 16bf ba40 27bf 9d3c 183e f1d3 1d3d
00000150: 60cc 71bd 4a03 f53e aee1 c2be f428 153d
00000160: e514 253e 9090 533e 0079 6cbd 3104 783e
00000170: b64b 34bd dc24 3abe 0af5 16bf d133 84be
00000180: 05b7 e6bd 74eb 943e 3325 6cbe fef5 0bbd
00000190: 9eff 583f 7003 013e 339d 9c3e 4e57 833e
000001a0: ce64 e83e 2272 af3e 1d0e 9d3e acaa b13d
000001b0: 7c2b 3c3e 5fd0 34be ff0a 223f 8bce eb3d
000001c0: 7986 f23e 6a24 9a3e 5e76 8c3d 2113 d4be
000001d0: 90c0 203f f6c1 8fbc 6c2f 5ebd 1110 bfbe
000001e0: e099 8ebd 7c1d d4be 514c 863e 9361 c7bc
000001f0: ed5d 4e3c caf7 ffbe 49ae f2be 6666 183c
00000200: 4e53 8abe 7622 8dbd 97da 963e 5eec 6fbb
00000210: 75bb cd3c 42ca edbd f080 963e a2ae 083d
00000220: 4313 503e 0f87 2a3f 1320 dbbe e218 bb3e
00000230: 0b61 9dbe 40fe 42be b9dd cdbd 8f74 633c
00000240: a0bd fcbe 56a4 82be e085 fe3e 7828 9d3e
00000250: 5aea 14bf 71c3 a73c c857 bfbe 59ad aa3e
00000260: 3cfc e8bd 1e88 113f 56f4 a63c 6f4c 8d3d
00000270: b10b 493d 25c8 df3d 7bad fe3d 8702 64be
00000280: f818 24be b232 823e 2d9b 4e3d e831 47be
00000290: e8f5 643e 88e4 183d eba3 263e 083e 813e
000002a0: 0c4e 28be 9420 923f 547c 14bf ad6f 54be
000002b0: 6001 f73d d53d 5c3d cb1b ffbe 2772 b73d
000002c0: 5a33 f8be 5e35 32be 59b4 c23e 445c 98be
000002d0: 7a06 afbe 1a4e d5be 3ab3 e03e 9f15 6fbe
000002e0: a537 2a3f 9e15 afbe 89f7 903d 9636 efbe
000002f0: 4728 283f a900 acbf e12c 35be 8521 103f
00000300: 0e3c d53d e001 c93b 1c0d 33bd cf0f 8cbd
00000310: 3bbe b93e 8d5b 3e3e cd9b b9bc 9f25 99bc
00000320: fb67 1bbf 24fe 6abe 3de2 10be a57c 883d
00000330: df36 693d 40bb 1e3f be00 27be e0f4 3bbe
00000340: 4bc7 fb3d bf41 b33e d03a 19bf ef14 94be
00000350: 39d5 063f d96f ccbe b6b1 a0bc 3d70 9e3e
00000360: eb24 27be 9d8e e73d e4c7 cbbe 7482 38bd
00000370: f3a3 f3bd e0fe 69bf b755 2c3f 2322 25bf
00000380: 02d5 28be 9573 b63e 22ad 0f3f 1125 0b3e
00000390: 74c6 20be 9afc c63d f609 3d3e 804a 0abe
000003a0: f672 58bd 21fa 23be 15c2 b33e eac0 c3be
000003b0: 4fb1 93bc 130a d03e 88b9 a5be 52bc 24bf
000003c0: 4cf8 14bf 6624 f03c f2d3 783e 6d6a 6cbe
000003d0: 5fa2 8fbe 7f84 8d3e 6d87 f13e 1573 d13e
000003e0: 5b39 0bbf 5b11 0f3d 2f79 803e 888c d13d
000003f0: 8ece 553d a857 023e 050b a93e c56c a53d
0.175268 -0.06646615 0.31168208 0.5920848 -0.19348198 -0.1485073 0.3652148 0.011714199
0.284803 0.13506725 -0.12062897 -0.22608764 -0.22250813 -0.09665786 -0.104016155 0.47946724
-0.5115882 0.026713062 0.35601556 -0.16669692 -0.292136 0.7116366 0.84254867 -0.29740447
0.19643979 -0.2501618 0.6186221 -0.41161487 0.1487652 0.21914227 -0.26898804 -0.47283587
-0.15063849 -0.34405285 -0.12317041 -0.041251943 0.18742722 0.11471574 -0.62716585 -0.042223148
-0.05144075 -0.25062776 0.5365957 -0.22279744 -0.11673787 -0.1269913 0.08702078 -0.058207713
0.28244102 -0.42509604 0.5816392 -0.086968854 -0.11101539 -0.51420265 -0.07363588 0.25937045
-0.42129222 0.04360509 0.31626165 -0.545329 -0.13771082 -0.08006473 1.3815032 -0.22444277
0.017122857 -0.34084883 -0.17413557 1.0319128 0.16028239 0.45150572 -0.107038595 0.16220927
0.25266623 0.2501187 -0.08908342 -0.22186832 -0.103443354 0.119700715 -0.6428431 0.4802383
-0.5894955 -0.6533314 0.14866872 0.0385322 -0.059032798 0.47854072 -0.38062805 0.03641601
0.16121252 0.20660615 -0.057732582 0.24220349 -0.044017516 -0.18178123 -0.5896765 -0.25820783
-0.11265377 0.29085886 -0.23061065 -0.034170143 0.8476504 0.12598968 0.30588683 0.25652546
0.45389408 0.34266764 0.3067483 0.08675131 0.18375963 -0.17657612 0.6329803 0.11514004
0.4736822 0.30105907 0.06858514 -0.41420844 0.6279383 -0.017548542 -0.054244444 -0.37316945
-0.06962943 -0.41428745 0.262301 -0.02433852 0.012595636 -0.49993736 -0.47398594 0.009301757
-0.2701668 -0.068913385 0.29463646 -0.0036609392 0.0251138 -0.11610843 0.29395247 0.033369668
0.20319848 0.66612333 -0.42797908 0.36542422 -0.307381 -0.19042301 -0.10052056 0.01388277
-0.49363422 -0.25516003 0.49711514 0.30694938 -0.5817009 0.020478936 -0.3737166 0.3333538
-0.11376235 0.56848323 0.02038018 0.06899344 0.049083415 0.109268464 0.124354325 -0.22266589
-0.1602515 0.25429302 0.050440956 -0.19452631 0.22359431 0.03732732 0.16273467 0.2524264
-0.16436023 1.1416192 -0.5800221 -0.20745726 0.12060809 0.053769905 -0.49825892 0.0895732
-0.48476678 -0.1740317 0.3802822 -0.29757893 -0.3418463 -0.4166115 0.4388674 -0.23348092
0.66491157 -0.3419618 0.070784636 -0.46721333 0.6568646 -1.3437701 -0.17692901 0.56301147
0.10411845 0.0061342567 -0.043713674 -0.06838953 0.36277947 0.18589611 -0.0226573 -0.018694697
-0.60705537 -0.2294851 -0.14148803 0.06664399 0.056937095 0.6200447 -0.16308877 -0.18355131
0.122938715 0.35011098 -0.59855366 -0.2892222 0.526691 -0.39929083 -0.01961599 0.30945006
-0.16322677 0.11306498 -0.39800942 -0.045046285 -0.11896505 -0.91404533 0.6731829 -0.64505213
-0.16487506 0.35635057 0.56123555 0.13588358 -0.15700704 0.09716149 0.18460831 -0.13504982
-0.05284401 -0.16013385 0.3510901 -0.3823312 -0.018028883 0.40632686 -0.32368112 -0.64349854
-0.5819137 0.029314231 0.242996 -0.23087473 -0.28053567 0.2764015 0.47173634 0.40908113
-0.5438439 0.03492866 0.25092456 0.10231882 0.05219894 0.1272875 0.3301622 0.08077387

network_body._body_endoder.seq_layers.0.bias f4 [128]
00000000: 283c 923b 1a05 f83b 98a3 3cbb c6b0 87bc
00000010: cdda 58bc ea2d 15bb 0cdc 03bc eac8 7fbb
00000020: dfca b3bb 163d 463c 6e66 eb3b d7c3 c9ba
00000030: 7868 dd3b 0e5b 6e3c d4e8 0d3c b685 283c
00000040: 4bb0 c3bb 2605 733c 250a c13c 9234 27bc
00000050: 87dc 813c 547f 133c 29b2 5ebc 5fd5 03ba
00000060: 0cac 763b 330f 903c 29de ca3c 70ea 48ba
00000070: 8908 fc3b 47fb e63b 1418 263c 6d99 123c
00000080: 13c8 39bc 574f 703c 3758 9fbb 3e39 7a3c
00000090: 5433 103b d131 553c 7522 993c 789b 4dbb
000000a0: 79a0 a23b 718b 95ba 9f06 c03b c087 623b
000000b0: 9b19 483c 33ba 223b 21f4 303c 0555 aabb
000000c0: 33bd 573c adf0 483c 480a bd3b c9a7 363c
000000d0: 2996 303c 380e 2fbb 68d2 8bba 56f0 49bb
000000e0: 5466 183c ce61 073c 675f 813c 0052 fdba
000000f0: 7c11 3e3c a483 4f3c b266 9f3c 6489 113c
00000100: 09cc 7ebc 5f79 bebb 28b6 e9bb f984 a43b
00000110: 8514 143c c4b6 753c ec97 233c 7021 4dbb
00000120: 587f 0a3a 5151 483c 1268 d2bb 34a4 c03b
00000130: 17bb 9fbb b011 71bc 0a51 823c dc57 6e3b
00000140: 2320 a83b 9b26 1d3c 9d3b 853c cc25 aa3c
00000150: c1d6 bbba 4d2a f5bb 3428 b03c 0dda 86bb
00000160: b535 dc3c d8b5 133c 907f 223c bdbc 923c
00000170: 977b 60bc 73d8 32bc 34f7 863c ef58 2d3b
00000180: 95e0 933c d6fa e13b 0232 753b 525f 9b3b
00000190: 85b1 2d3c 5f2b a63c c8f3 8dba 0821 28bb
000001a0: 9c9f 463c 2722 973b 4d2e 533c 198f f73b
000001b0: 606d abbb 233c 183c 43cb 2c3b 0378 273a
000001c0: e8e9 6b3b 4990 0fbc 8d08 5bbc e59f e73a
000001d0: a029 b6ba 65a7 1f3b 53c7 993a df5e 843b
000001e0: 605f 743b 776b a83c ed0b c73c 2d4f 9d3c
000001f0: 31f2 55ba 32eb 3e3c c0e2 cf3b 3046 063c
0.0044627376 0.0075689675 -0.0028784033 -0.016563784 -0.01323576 -0.0022762963 -0.008048069 -0.0039029666
-0.0054868306 0.012099525 0.0071838414 -0.0015393448 0.0067568384 0.014548076 0.008661468 0.010285785
-0.0059719435 0.01483277 0.023564408 -0.010205405 0.015852226 0.009002525 -0.013592281 -0.0005029048
0.003763917 0.017585373 0.024764137 -0.00076643284 0.007691447 0.0070489976 0.010137577 0.008947712
-0.011339205 0.014667354 -0.004862811 0.015272437 0.002200325 0.013012365 0.018693188 -0.0031373184
0.0049629775 -0.0011409355 0.0058601643 0.0034565777 0.012213136 0.0024830222 0.010800392 -0.0051981234
0.013167667 0.012264413 0.005769048 0.011148402 0.0107779885 -0.0026711356 -0.0010667564 -0.0030813417
0.009301741 0.008263065 0.015792562 -0.0019326806 0.011600848 0.012665663 0.019458149 0.008882854
-0.015551575 -0.0058128084 -0.0071323104 0.0050207344 0.009038095 0.014997188 0.0099849515 -0.0031300448
0.0005283258 0.012226419 -0.0064210976 0.0058789495 -0.004874598 -0.01471369 0.015907783 0.0036368286
0.005130784 0.009591724 0.016263777 0.020769976 -0.001433097 -0.0074818493 0.021503545 -0.004115349
0.026881078 0.009015523 0.009918109 0.017912263 -0.013701341 -0.010915863 0.016475298 0.0026450714
0.018051425 0.006896357 0.003741384 0.0047415877 0.010601406 0.020284353 -0.0010830099 -0.0025654454
0.012123015 0.0046122256 0.012889457 0.0075549004 -0.0052315444 0.009291681 0.002636627 0.00063884276
0.0035997573 -0.008762428 -0.013368738 0.0017671554 -0.0013897903 0.002436125 0.0011732377 0.00403963
0.0037288293 0.020559056 0.024297679 0.019202793 -0.00081613945 0.011652755 0.0063441694 0.008195445

action_model._continuous_distribution.log_sigma f4 [1, 2]
00000000: b7a0 ebbb bd1f bebb
-0.0071907896 -0.0058021233

action_model._continuous_distribution.mu.weight f4 [2, 128]
00000000: e5a8 023b 5ac0 4bbd a36b c7bb 01a5 09bc
00000010: 7568 a0bc 64fd 963c 0eef 94bb e61d 403c
00000020: 3284 a8bc 347b 53bc 3dd4 a53c 30eb 1fbc
00000030: cb33 413c b29d 0abd fae4 bfbc 28ea ad3a
00000040: f53b 7fbb 7d30 37bd 3125 1a3d 0b88 1cbb
00000050: d603 3c3c f3d1 04bd ab43 86bc 6298 a9bc
00000060: 479b 2d3c 56e1 2d3d 5e21 0bbd 2a99 a0bb
00000070: 63d6 fc3c 8e9d d8bb a4a0 d33c 4ad9 0c3d
00000080: a16c e6bb c20e 0f3c 5a30 87bc d1c2 173c
00000090: d14b 9fba 8ba0 303c 3f39 4b3d d43e 663c
000000a0: 9fec 1fbc 2350 d43c e215 873c 6cc0 b73b
000000b0: f917 44bc f872 663c 639d 223d c8f2 cb3a
000000c0: 0ca1 f4bc 65e3 b0ba d4c4 90bc c6b7 15bd
000000d0: 480c 50bd e5de 043b 7262 c43c ca7d 02bd
000000e0: 589e 2fbd 07a2 89bc b22b 793b 83ba 203c
000000f0: 4cc8 92bc 8c5e fb3c ff0e 7cbd acb8 1cbd
00000100: ea9d ac3c fe49 553c f1a2 753b f8cf 18bd
00000110: 16a1 d93b ab2a 163c 59ac 0d3d b294 9cbc
00000120: c81e 9a3b 622e 473d add0 e03b 9e79 ee3b
00000130: e2a3 fa3b 232d 3fbb a7a4 7f3d 11c3 f63c
00000140: 659d 88bc 094b b53b 1371 9cbb 4065 5f3c
00000150: 19f8 a23b 97a0 603c 49b9 3c3d 3e35 00bd
00000160: 369d 9b3d 7244 e6bc d006 363c 48be 703b
00000170: 8bf1 80bb 82a6 b7bb c2ab a53c fc35 31bc
00000180: 9738 31bc d797 c0bc 2c0b f63c b53c 7ebb
00000190: c44a 90bc 9e57 023d c72c 9e3c b3af ffbc
000001a0: f36b 053d 5240 0abc 55ad ab3b b5b2 de3b
000001b0: 6876 833c 3b76 0b3c eb03 22bd d2ef 1d3d
000001c0: 9c5f 0d3d 5d57 07bc 3441 71bc a6a9 41bc
000001d0: 5364 24bc 6b21 b5bb 21e1 6b3c e1a7 ab3c
000001e0: 869c 983c ac8e 273d 1f61 c63b 9a30 2ebd
000001f0: 8ae5 dd3b 47fa 993a 87ea b739 94db 8bbb
00000200: faa6 513d f32b 81bb 89e4 2b3d a1b9 8dbb
00000210: 7d0f bfbc 7299 05bb 902f 90bc 7710 88bc
00000220: bf71 db3c 23b1 94bc 9231 fc3b 7a82 eebc
00000230: 74fc 9cbc 7d5b f9bc 44af c5bb ce4c 203d
00000240: 384b 5a3c f51c 17bd e6e4 3f3c 44a6 43bb
00000250: 5a97 62bd 6f6c c3bc cc23 413b 0a77 a43c
00000260: 24ab e6bc d6c8 56bb ae60 dbbc 2532 223c
00000270: bfe8 20bd a913 023d 54be 81bc 64bd 823c
00000280: 6997 f3ba 1b67 c23c a354 693c 348c 25bd
00000290: 2c7d 293c 557b 1b3d aa12 05bd 954d bfbc
000002a0: 507e 8b3c 738e e8bb f7ef dbbc 76ef bdbc
000002b0: 7adb 803c 532c 63bb 3227 cabc ca7f 623b
000002c0: d03a 51bc 85f4 21bd e589 3c3d 5f4b f2bc
000002d0: cce2 0fbd 0f1a c3bb 0bc6 c93a de91 eb3b
000002e0: 833c 1a3d b506 953b fe61 01bd 48e6 e4bc
000002f0: 3626 143c a516 05bc 9bf2 3ebc 1dd6 0d3d
00000300: 2c4b 58bc eb7c b4bb c131 82bc 434b bc3c
00000310: a578 ae3c a529 183d 7eb2 34bc e199 ebb9
00000320: 0aaf 503c fbe9 b5bc 12f5 613c 5320 debc
00000330: 2107 593c 509a a33b 9a5a c83c 4a15 9f3b
00000340: 0109 053d 2c94 33bd 2c17 2e3d c688 cc3c
00000350: 5edf 993b 1a36 18b7 b80f 243c f480 c7bb
00000360: 664c 8cbc 349f efbc e7cc bebb f056 ee3c
00000370: 9a63 503c 91e5 45bc 13b3 e5bc 27e0 c5bc
00000380: 9aa5 ffbc f117 fc3c e2b5 c9bb 2b51 d8bc
00000390: 622c 033c 8931 f73a 7615 61bb e658 f33a
000003a0: 7b93 d9bc 22df c53c 149e c43c e3cb 8abc
000003b0: 9353 6f3c b46d 233d 2af6 a13c b1a9 8dbc
000003c0: 971a 9bbb 93a3 f4bc 35e8 3dbb 30e8 9d3c
000003d0: 5586 25bd 5d40 3d3c e9b7 c5bc ba72 a4bc
000003e0: 1fff 943b 9882 853b b9be 0d3d 1e8c a13c
000003f0: 407a 903c 9e5e 023d d1c4 e0bc 9e42 c73c
0.0019937095 -0.049743988 -0.0060858293 -0.008401156 -0.019581059 0.018431373 -0.004545099 0.011725878
-0.020570848 -0.012907792 0.020242805 -0.009760663 0.011792134 -0.033841796 -0.023424614 0.0013268637
-0.003894565 -0.044723976 0.037633125 -0.00238848 0.011475524 -0.032426786 -0.016389688 -0.020702545
0.010596103 0.042451225 -0.03396737 -0.004901071 0.030863946 -0.006610579 0.025833435 0.03438691
-0.0070319925 0.008731546 -0.016502548 0.009262756 -0.0012153332 0.010780464 0.04961514 0.014053065
-0.009761005 0.025917118 0.016489927 0.0056076553 -0.011968606 0.014065497 0.039700877 0.0015560025
-0.02986195 -0.0013495503 -0.01767198 -0.036552213 -0.050792962 0.0020274457 0.023972724 -0.031858243
-0.042875618 -0.016800893 0.003802043 0.009810093 -0.017917775 0.030684732 -0.06153774 -0.038262054
0.021071393 0.013018129 0.0037481154 -0.03730771 0.0066415174 0.009165446 0.03458819 -0.019113872
0.0047033764 0.04862822 0.0068608136 0.0072776815 0.007648931 -0.002917119 0.062412884 0.030122312
-0.016676614 0.0055326265 -0.0047742217 0.01363498 0.004973423 0.013710163 0.04607514 -0.031300776
0.07598345 -0.02810881 0.011110023 0.003673451 -0.003935044 -0.005604566 0.020223502 -0.0108160935
-0.010816715 -0.023509903 0.030034624 -0.0038793508 -0.017613776 0.03182184 0.01930846 -0.03121171
0.03257365 -0.008438187 0.0052391686 0.006796206 0.016047671 0.008512075 -0.039554518 0.03855879
0.03451501 -0.008260575 -0.014725018 -0.0118202325 -0.010033685 -0.0055276654 0.014396937 0.020954074
0.018629324 0.040907547 0.006054058 -0.04252682 0.006771748 0.0011747562 0.00035079216 -0.004268119
0.051184632 -0.0039420067 0.041965995 -0.004325107 -0.023322815 -0.002038565 -0.017600805 -0.016609414
0.026787637 -0.018150872 0.007696339 -0.02911495 -0.019163348 -0.030439133 -0.006032856 0.039135747
0.013323598 -0.03689285 0.0117122885 -0.002985374 -0.05532012 -0.023855416 0.00294708 0.020076293
-0.028157778 -0.0032773516 -0.026779499 0.009899651 -0.039284464 0.03175703 -0.015837826 0.01595945
-0.0018584552 0.023730805 0.01424137 -0.04041691 0.010344785 0.037959415 -0.032488503 -0.023352424
0.017028004 -0.0070970594 -0.026847823 -0.023185473 0.015729655 -0.003466387 -0.024676893 0.0034561031
-0.01277037 -0.039539833 0.046029944 -0.029576955 -0.0351284 -0.005954034 0.0015394104 0.0071890196
0.037655365 0.0045479187 -0.031587593 -0.027941838 0.009042313 -0.008123075 -0.011654521 0.034628022
-0.013201516 -0.0055080554 -0.015892865 0.022985106 0.021297762 0.03714909 -0.011028884 -0.00044937342
0.012737045 -0.022206297 0.0137913395 -0.027115023 0.013246329 0.0049927607 0.024457265 0.004854833
0.03247929 -0.04384248 0.042502567 0.024967562 0.004695817 -9.0725025e-06 0.010013513 -0.0060883705
-0.017126273 -0.029250719 -0.005822766 0.02909419 0.012719059 -0.012078659 -0.02803949 -0.024154736
-0.031206895 0.030773135 -0.0061557153 -0.026405891 0.008006187 0.0018859367 -0.0034345067 0.0018565923
-0.026559582 0.02415425 0.024001159 -0.016942924 0.014607328 0.039899543 0.0197707 -0.01729283
-0.0047333944 -0.029863155 -0.0028977518 0.019275755 -0.040411312 0.01155099 -0.024135547 -0.020074237
0.0045470144 0.004074406 0.034605715 0.019720133 0.017636418 0.031828515 -0.0274376 0.024323758

action_model._continuous_distribution.mu.bias f4 [2]
00000000: 0a54 f83a 4684 fd3a
0.0018945944 0.0019341789

onnx::Div_46 f4 [8]
00000000: cd6c b73d 3e27 b63d f92b 9e3f 76c0 e73e
00000010: 7ced 9f3f 6dd9 923f eb6f 9a3f 4843 913f
0.08956299 0.088942036 1.2357169 0.45264024 1.249435 1.1472603 1.2065405 1.1348658
