results/Short_LowLR/3DBall/checkpoint.pt (torch, 49131 bytes, 32 tensors)

network_body.observation_encoder.processors.0.normalizer.running_mean f4 [8]
000000 0c 2e d8 bb e5 88 60 bb 67 14 a0 3d 2f f5 46 40
       -0.006597286 -0.0034261283 0.078163914 3.1087148
000010 97 e0 cb bd 04 6c d6 3d 28 3c 6f bf a8 55 e0 bd
       -0.099549465 0.10469821 -0.93451166 -0.10953838

network_body.observation_encoder.processors.0.normalizer.running_variance f4 [8]
000000 47 42 5a 45 c6 e9 3d 45 b2 3d 42 49 b4 c8 ad 47
       3492.1423 3038.6108 795611.1 88977.41
000010 fb a7 2c 49 2b aa 1b 49 b0 6a 30 49 fb 6b f1 48
       707199.7 637602.7 722603.0 494431.84

network_body.processors.0.normalizer.running_mean f4 [8]
000000 0c 2e d8 bb e5 88 60 bb 67 14 a0 3d 2f f5 46 40
       -0.006597286 -0.0034261283 0.078163914 3.1087148
000010 97 e0 cb bd 04 6c d6 3d 28 3c 6f bf a8 55 e0 bd
       -0.099549465 0.10469821 -0.93451166 -0.10953838

network_body.processors.0.normalizer.running_variance f4 [8]
000000 47 42 5a 45 c6 e9 3d 45 b2 3d 42 49 b4 c8 ad 47
       3492.1423 3038.6108 795611.1 88977.41
000010 fb a7 2c 49 2b aa 1b 49 b0 6a 30 49 fb 6b f1 48
       707199.7 637602.7 722603.0 494431.84

network_body._body_endoder.seq_layers.0.weight f4 [128, 8]
000000 b2 a1 eb 3e 72 3e 71 3e a8 85 96 3e fd 69 c6 be
       0.460218 0.23558977 0.29398847 -0.38752738
000010 9a 37 09 bc 98 eb fc 3d 64 dc 94 bd 43 5a cc ba
       -0.008375073 0.123496234 -0.07268599 -0.0015590865
000020 83 ec 39 3f b5 30 f2 3e b8 d8 c2 be 19 e1 91 3d
       0.72626513 0.47302786 -0.38055968 0.07123012
000030 6c e1 84 be 86 20 a1 3d 8e e9 40 3e 47 fc 51 bc
       -0.25953233 0.078675315 0.18839094 -0.012816495
000040 a5 b9 19 be 1c 4e af bd 4b b6 aa be 5e 23 0b 3e
       -0.15012224 -0.0855982 -0.33342203 0.1358771
000050 3b 8a ea be 89 98 11 3f 98 a8 9d be 85 3e 09 3e
       -0.45808586 0.56873375 -0.3079269 0.13402756
000060 39 a6 8c be 8a a5 c3 3e e5 ab 57 be 89 0d 26 be
       -0.27470568 0.38212234 -0.21061666 -0.16216101
000070 6b a7 c9 be a7 3e 26 bf 28 68 fb be 96 82 03 3f
       -0.39385542 -0.6493935 -0.49102902 0.51371133
000080 28 43 fa be 7f 63 0e 3f 36 c3 41 3f 52 51 63 bd
       -0.4887936 0.5562057 0.75688493 -0.055497475
000090 61 78 6f be 6e 45 59 be 8e 27 29 3f 15 33 b8 3e
       -0.23385765 -0.21217892 0.6607598 0.35976472
0000a0 3a e3 08 bf e8 b7 8f 3e a6 f6 59 be 2e c9 55 3d
       -0.5347172 0.28069997 -0.21285495 0.052193813
0000b0 87 86 89 bb e3 86 cc be aa b8 80 be 30 d5 a1 be
       -0.004196945 -0.3994666 -0.25140887 -0.31607962
0000c0 7d 27 63 bd 51 e8 94 bd 0c d6 91 be f1 a0 c7 bc
       -0.05545758 -0.07270873 -0.28483617 -0.024368735
0000d0 d5 15 04 bf 0e 0c 0c 3f f8 00 48 3f d1 d9 25 3f
       -0.51595813 0.54705894 0.7812648 0.64785486
0000e0 07 17 ef 3e e6 ba 3f 3f 5e 23 ac be 70 0d 38 bc
       0.46697256 0.7489456 -0.33620733 -0.0112336725
0000f0 f0 90 5c be 99 6f fd be 05 4c d2 3e 70 3f 89 3e
       -0.21539664 -0.49499205 0.41073623 0.2680621
000100 8e a0 9b be 12 f0 ce 3e ff 57 7e be da d3 2b bf
       -0.3039593 0.40417534 -0.24838255 -0.67120135
000110 dc 9b 71 3d 13 10 ad bd 20 94 86 3e 25 47 99 be
       0.05898653 -0.084503315 0.26284885 -0.2993709
000120 c5 7d 47 3e 68 2e 30 bf aa ef 96 bd 85 68 8d be
       0.19481571 -0.6882081 -0.07369931 -0.27618805
000130 e8 4f 34 bf a5 44 97 bd f2 bb 75 bd f0 36 84 3e
       -0.7043443 -0.0738614 -0.05999369 0.25823164
000140 56 97 9c bd de 53 d9 3e 5a 17 57 bd 2c 7f 0e be
       -0.076460525 0.42446798 -0.052512504 -0.139157
000150 95 6d 19 bf c5 2c 85 be ad 98 90 3e ad ef 8e 3e
       -0.59932834 -0.2601072 0.28241482 0.27917233
000160 f7 76 ea bc 21 2b 8d be 68 e3 d5 be 83 01 cd 3d
       -0.02862118 -0.27571967 -0.4177506 0.10010054
000170 f5 e5 cb be 66 c3 0b 3e f4 0f b5 bd 74 fc 5e 3e
       -0.3982388 0.13648757 -0.088409334 0.2177599
000180 31 fd e9 3e eb 00 f9 be 80 47 90 3e 6a 82 cf 3e
       0.45700982 -0.48633513 0.2817955 0.40529186
000190 11 d4 b0 be 32 f7 cf be 2f b5 10 bf f3 9c d1 bc
       -0.34536794 -0.40618283 -0.56526464 -0.025587535
0001a0 27 c9 57 bf e2 9f af be 76 3d e7 39 c1 93 cf be
       -0.8429131 -0.34301668 0.00044105545 -0.40542415
0001b0 af a6 44 3f bd ef c9 be 79 24 2c be ed 28 92 3e
       0.7681684 -0.39440718 -0.16810788 0.2854685
0001c0 17 e7 2b 3e 12 3f 88 be 13 b1 ac be 70 f7 23 3e
       0.16787373 -0.2661062 -0.33728847 0.16012359
0001d0 94 70 e0 3d 55 6f f1 3e c9 5a 86 3e 12 7b 94 bd
       0.109589726 0.47155252 0.2624114 -0.07250036
0001e0 97 84 e7 3e 8e 5a 35 be b5 10 0f 3d cd e3 77 3d
       0.45218346 -0.17710325 0.034928042 0.060519982
0001f0 1f f3 97 3e 65 21 88 be bf c7 fa be 7c ff d0 3e
       0.29677674 -0.26587978 -0.4898052 0.4081992
000200 15 75 af 3e bb 44 13 3d ab b2 9e 3e a7 ad 3f bf
       0.34269014 0.03595422 0.30995688 -0.7487435
000210 03 2e 88 3d 63 59 0d bf 55 69 ae be 86 56 a3 bd
       0.06649401 -0.5521452 -0.34064737 -0.079754874
000220 d8 81 d3 3e 9e 81 93 be 32 94 50 bf 0a 8e 88 3d
       0.4131 -0.28809828 -0.8147613 0.06667717
000230 31 9f 6a be c6 4b c8 3e fa 35 22 bf b6 f3 11 3f
       -0.22912289 0.3912031 -0.6336361 0.570125
000240 83 a1 49 3d 3b 76 25 be 4e 94 9a 3d e2 d2 19 3e
       0.049226295 -0.16158383 0.07547818 0.15021852
000250 8d a8 a9 be c0 24 92 3e 2c 2e 4f 3f 57 f4 15 3f
       -0.33136407 0.28543663 0.8092983 0.5857596
000260 8c 70 8f 3d 90 34 03 be f1 f2 b2 3d fd 63 ac be
       0.070038885 -0.1281302 0.08737744 -0.33670035
000270 e2 6b 72 be 0e b9 ea bd de 31 8e 3e 5c 1b bd bd
       -0.23673967 -0.11461078 0.2777242 -0.09233734
000280 99 ee 13 bd 00 e4 8e 3d 80 f6 0c 3e 50 50 1f be
       -0.036116216 0.06977081 0.13765907 -0.1555798
000290 97 d0 c8 3e 37 17 85 be e6 eb de 3d b4 88 e3 3d
       0.3922164 -0.25994274 0.10884838 0.111100584
0002a0 be a9 03 bf 24 7b 40 bf 02 2c db 3e 01 dd 91 3e
       -0.5143088 -0.751879 0.42807013 0.28488925
0002b0 ec 11 5d be 8b f4 84 be b4 b1 ac 3e 54 a5 f2 be
       -0.21588868 -0.2596782 0.33729327 -0.4739176
0002c0 1c d7 50 bd df 04 d1 3e 7d 76 8d be 8f 12 91 bc
       -0.050986394 0.4082403 -0.27629462 -0.017709045
0002d0 3e f1 65 3e e7 68 a9 3e 38 ba 98 3e 1f 07 39 be
       0.22455308 0.33087847 0.29829574 -0.18069123
0002e0 de bf 52 be 83 26 57 3f 6d 1d 89 3c 8d d9 4b bd
       -0.20581004 0.8404314 0.016737664 -0.04976802
0002f0 95 b1 60 be e1 9e 0c be ac cd 03 be e0 77 bc 3d
       -0.21942742 -0.13732482 -0.12871426 0.09202552
000300 9c 13 27 bc 83 00 bd 3d b2 3d e0 be f0 fb b6 be
       -0.010197546 0.09228613 -0.4379707 -0.35739088
000310 41 0c 1c 3f 1c d4 f1 3d 5a 8b cb 3d 55 f4 03 bf
       0.609562 0.11808035 0.099386886 -0.51544696
000320 34 aa 80 be 36 07 cb be bd 03 f7 bd 65 0b 51 3e
       -0.25129855 -0.3965394 -0.1206126 0.20414503
000330 e1 eb ed 3d d1 c0 e7 be 6a d0 58 be 40 3e 09 bf
       0.11617256 -0.45264295 -0.21173254 -0.5361061
000340 35 77 3a be b7 8d 1c bf 3b 0b a4 3e 13 b7 b6 be
       -0.18209536 -0.6115374 0.32039818 -0.3568655
000350 7e af 0f bd 79 70 27 bf 27 d7 66 3e 3a 4c e7 3d
       -0.03507947 -0.65405995 0.22543012 0.11293836
000360 32 bd ad 3e 4f 56 d5 bd 48 3c 93 3e 6a b7 34 3f
       0.33933407 -0.10416853 0.28756928 0.7059237
000370 bb 84 e7 bd 45 28 1a bc 59 9b 41 3e 48 aa 42 bd
       -0.11304613 -0.009409015 0.18906917 -0.047525674
000380 f5 ad e3 be 56 38 b4 3e 4f c2 f3 3d 24 56 86 3c
       -0.44468656 0.3519923 0.11902296 0.016398497
000390 ed 39 00 3f 31 2b c2 be 87 d0 70 3f 07 a9 85 3e
       0.5008839 -0.37923577 0.9406819 0.2610552
0003a0 fb 34 51 be b1 20 c8 3e b5 ec 8e be 1f 83 c0 3e
       -0.20430367 0.39087442 -0.27914968 0.37600037
0003b0 3c 7a f0 be 4e b7 7c be ed 13 7f 3f c9 8f 04 3f
       -0.46968257 -0.246793 0.9963978 0.517819
0003c0 b0 0e df be 4f 0c 18 be ff 90 17 3e 7d 43 fb bb
       -0.43565893 -0.14848445 0.14801405 -0.0076679573
0003d0 b7 29 80 3e fb d2 65 bd 4f 47 ad be 39 72 7b 3f
       0.25031826 -0.05610941 -0.33843467 0.98221165
0003e0 4c 92 98 3e 27 01 31 3e 80 98 1e 3e 45 f1 d8 3e
       0.29799116 0.17285596 0.15487862 0.42371574
0003f0 5f 91 74 be 27 60 56 bd 8b 10 67 be 28 23 23 3f
       -0.2388358 -0.05233779 -0.22564904 0.6372552

network_body._body_endoder.seq_layers.0.bias f4 [128]
000000 22 3d fb ba 14 76 57 3b 79 49 37 bc 19 bd 52 3b
       -0.0019167999 0.0032876777 -0.011186951 0.0032156168
000010 67 87 c7 3b 49 c1 6f 3c 49 db 74 bc ae a1 29 3c
       0.0060891393 0.014633485 -0.01494486 0.010353489
000020 13 b5 73 3b 06 f0 ef 3c 73 80 b0 3a 47 48 bd ba
       0.0037186786 0.029289257 0.0013466015 -0.0014441096
000030 c8 66 9e 3c 78 06 49 bc 26 c2 68 3b 5f c2 49 3b
       0.01933612 -0.012269609 0.0035516112 0.003078602
000040 a4 06 d2 3b 80 39 df bb 1c 3a 39 3c 41 9b 9b bc
       0.006409483 -0.0068122745 0.011305358 -0.01899493
000050 d0 33 11 3b fd 95 07 3d c2 1b 4e 3c 0c eb 4c 3c
       0.0022156127 0.033102024 0.01257986 0.012507211
000060 48 b8 48 bc 64 b8 62 3c f2 47 f8 3b eb 88 cd bb
       -0.012250967 0.013837907 0.007576936 -0.0062724254
000070 4b 9b c7 3b be 66 ca bb e3 1b 62 3c 30 d2 1b 3a
       0.0060915104 -0.0061767986 0.013800594 0.0005944101
000080 a9 bf 52 3c 30 29 96 3c b5 12 75 3c 9e 91 08 3b
       0.012863078 0.018330187 0.014958073 0.0020838748
000090 1e a6 01 3c ba 20 f0 3c 76 63 da 3b 20 e7 47 3a
       0.007913141 0.02931248 0.0066646887 0.0007625688
0000a0 42 f5 ce 3c f6 17 8a bc b3 56 30 3c e4 a7 27 bc
       0.025263432 -0.016857129 0.010762858 -0.010232899
0000b0 ad 55 0f bc 43 2e 0a 3c c4 98 71 bc 6c a2 50 3c
       -0.008748454 0.008433881 -0.014745895 0.012734037
0000c0 1c 8a 7b 3c 83 0f 04 bb 75 58 24 3c d7 b2 21 3d
       0.015352752 -0.0020150847 0.010030855 0.039477196
0000d0 96 23 e6 bb 45 c3 86 3c 48 5d 26 bb d0 0c 43 38
       -0.007023285 0.016450534 -0.002538519 4.6503555e-05
0000e0 71 2d ad 3b ac fb 5d bc a1 13 93 3b 8e f0 ae 3c
       0.005284958 -0.013548773 0.004488424 0.02135494
0000f0 ce 90 a4 3c 93 ec 0b bc 5b a5 2d 3b 35 70 7d ba
       0.02008858 -0.00854029 0.0026496265 -0.0009667904
000100 98 0c 71 3c 94 17 a2 3b 6b 76 94 3b 49 cf 82 3b
       0.014712475 0.0049466584 0.004530718 0.0039919955
000110 05 fb 25 3c bf d1 b5 3c 20 4d ed 3b 9f aa c0 3c
       0.0101306485 0.022194741 0.00724186 0.023518858
000120 49 a7 a9 bb 3d d7 69 3a 84 3b 44 3c 5a c5 b5 3c
       -0.0051774126 0.00089203176 0.01197708 0.022188831
000130 81 d5 96 ba 27 b6 c0 3c e8 c8 9b ba 9e e5 87 3c
       -0.0011507721 0.023524357 -0.0011885436 0.016588982
000140 f3 39 4e bc a4 21 17 3b 61 b2 78 3c 55 ff 15 bc
       -0.012587058 0.0023060823 0.015179248 -0.009155114
000150 99 bf 06 3b 54 14 fa bb 2a a2 c3 3a 07 45 1d 3c
       0.0020560978 -0.007631818 0.0014925648 0.009598977
000160 e6 e9 5f 3c dd 5a c9 3b 5d 5c 87 3b c9 a3 0a 3d
       0.013666606 0.006144865 0.0041308836 0.033847604
000170 13 98 62 3c 7c 2c b5 bb 1e 35 fd 3b aa a1 98 3c
       0.013830203 -0.0055289846 0.0077272793 0.018631775
000180 05 23 8a bc a5 ea e8 3b b7 65 9b 3c cd ae 83 3c
       -0.016862402 0.00710805 0.0189694 0.016074562
000190 41 0d 98 bb 57 cd ac bc fc 98 ee 3b ba 55 55 3c
       -0.004640252 -0.021094007 0.0072814208 0.013020927
0001a0 ca 26 38 3c 33 23 2d bb 8f 23 d1 3c 59 b7 28 3c
       0.011239717 -0.0026418685 0.025529651 0.01029762
0001b0 a5 38 0d bc 8c b9 8d 3c 76 a3 41 3c e8 7c b6 3b
       -0.008619462 0.01730039 0.011818757 0.005569089
0001c0 83 c5 82 3c 1c f6 f9 bc 8c 3c 0b bc 03 fa 22 3c
       0.015963322 -0.030512862 -0.008498322 0.009947303
0001d0 3d 8b 32 3b 8f e6 7f 3b 29 37 05 3c ca a9 12 bb
       0.0027243637 0.0039047336 0.008130827 -0.0022379034
0001e0 48 0f d6 3c 93 2d 7c ba e2 42 15 3c 9d 74 0c 3c
       0.026130334 -0.0009619828 0.009110184 0.008572725
0001f0 c8 ce d5 3c e0 34 07 3d 74 ee ca bb 2e 45 8e bb
       0.026099578 0.03300941 -0.0061929766 -0.004341743

action_model._continuous_distribution.log_sigma f4 [1, 2]
000000 4c 31 42 bc a6 20 06 bc
       -0.011852574 -0.008186495

action_model._continuous_distribution.mu.weight f4 [2, 128]
000000 93 d3 0f bd 4a 28 08 bd 41 2e 69 bc 10 d5 a2 bc
       -0.035113882 -0.033241548 -0.014232219 -0.019876987
000010 6a 03 3c 3c 2f be c2 3c 52 d7 a9 bb 23 c7 1a bd
       0.011475423 0.023772327 -0.005183139 -0.037787568
000020 a6 5a 25 bc 83 51 2c bc bc 46 6c bc f6 e7 be bc
       -0.010092413 -0.010517481 -0.014421161 -0.023303967
000030 a5 db f0 bb a1 a3 4f bc 16 2e 1b bd 99 19 de bc
       -0.0073504024 -0.0126732895 -0.037885748 -0.027111815
000040 b9 b8 3b bd ba 33 1a 3c 37 b6 a8 3c 24 90 a7 bc
       -0.045830462 0.009411747 0.0205947 -0.020454474
000050 17 ea d6 3a c6 c9 c4 3c e2 5e 7a 3c 0c 3c 28 3c
       0.0016396669 0.024021994 0.015281411 0.010268223
000060 d3 a6 c7 bc 25 4a d6 bc 7c 7b c6 3c c6 b7 14 bc
       -0.02437154 -0.026158402 0.024228804 -0.009077018
000070 a9 07 b8 3b 51 48 a3 bc f0 eb 17 3c eb aa d1 bb
       0.0056161475 -0.019931944 0.0092725605 -0.006398549
000080 ae 22 56 3c 4a 50 b6 3c 7b 58 b5 3c 9c c3 19 bc
       0.013069792 0.022255082 0.022136917 -0.009385016
000090 0a 39 90 3c 9f 82 33 3d dd 0e 99 bd 50 5b 60 3c
       0.017605323 0.04382574 -0.07473538 0.013693646
0000a0 c5 ed 3b bd 0b 77 86 bc 35 a8 01 3c cd 33 97 bc
       -0.04588105 -0.016414186 0.007913639 -0.018457318
0000b0 de 3e 1a 3c b5 5d 34 3d b4 56 09 bb ec f8 4b 3c
       0.009414403 0.04403468 -0.002095622 0.012449484
0000c0 a2 d7 09 bd 68 0e 39 bd 8b 8e 3e 3c b5 73 35 3d
       -0.03365291 -0.045179754 0.011630665 0.0442998
0000d0 6c 53 a2 3a 45 c8 9f bc 0d a4 2d 3c ee 7a 02 bb
       0.0012384481 -0.019504676 0.010598195 -0.0019909698
0000e0 8a f4 3b bc eb 03 b9 bc bd c5 6d 3c 12 8d f7 3c
       -0.011471877 -0.022584876 0.0145124765 0.030218635
0000f0 96 81 c7 3c 0b 12 3a 3c e5 26 89 3b 1b 8d 55 3c
       0.024353784 0.011356841 0.004185545 0.01303413
000100 8d ac e3 bb 0b 75 e7 bb e9 ef 14 3b a9 3f 68 3c
       -0.00694806 -0.007063513 0.0022726005 0.014175334
000110 8b 3f 57 3c e2 af d8 3c 5e a1 e6 bc 38 c8 b9 3b
       0.013137708 0.026451055 -0.028153118 0.00566962
000120 f8 61 e8 bc 35 27 a1 bc 4f 79 db 3c ab 22 e2 3c
       -0.028367028 -0.019672016 0.026791243 0.027604422
000130 9d c1 86 bc df 47 41 3d 63 f3 41 3c e2 92 4b bd
       -0.016449744 0.047187682 0.011837813 -0.049700625
000140 03 43 97 bc 10 79 df 3a 0f 39 f1 3c 7a 20 2e bc
       -0.01846457 0.0017049629 0.029446153 -0.01062786
000150 01 a5 17 3c c3 25 11 bd 13 8d c5 3c 42 a4 53 3c
       0.009255649 -0.035436403 0.024115121 0.01291758
000160 64 67 99 3c 6f 7c 62 bc 72 9f d2 bc b8 d9 0b 3d
       0.018726058 -0.013823613 -0.025710795 0.03414318
000170 a6 13 af 3c fa 42 a4 bc 7a ff 07 3d b6 55 bc bc
       0.021371674 -0.020051468 0.033202626 -0.022990089
000180 c5 cc 26 bc ec fb a1 bc 07 ce 35 3d 62 17 32 bd
       -0.010180657 -0.019773446 0.044385936 -0.04347933
000190 a5 93 40 bc 1d 54 b1 3b f8 cb a6 3c 70 4a 16 3d
       -0.011753951 0.0054116384 0.020360932 0.036692083
0001a0 57 ec 5a 3d 24 ea 56 3c 71 10 42 bc b3 c2 e7 3c
       0.053448047 0.013117347 -0.01184474 0.028291082
0001b0 71 e2 32 bc f3 03 10 3d 32 95 a5 3c a6 ec f5 bc
       -0.010918246 0.035160016 0.020212743 -0.03002007
0001c0 1e 7f 02 bd 55 81 84 38 bf f4 96 bb a7 f7 be 3c
       -0.03185951 6.3183405e-05 -0.0046068127 0.02331145
0001d0 7b c9 8a 3a ed dc 65 bc 1c df 85 3c de 37 4a bd
       0.001058861 -0.014029724 0.016341738 -0.049369685
0001e0 98 7f bf 3b 66 47 fe bc 8a fc 03 3d 32 b7 a9 bc
       0.005844068 -0.031039905 0.032223262 -0.020717237
0001f0 f8 d6 db 3c cc b4 06 bc d3 94 43 bd 5c 9b 9b bc
       0.026835904 -0.008221816 -0.04774935 -0.01899498
000200 67 84 d6 3b 99 93 95 bc ac 39 ad 3c a1 05 e5 bc
       0.0065465453 -0.018258857 0.021145664 -0.027956786
000210 0f 92 10 bc 0d ce 61 3c 8f bd 89 bb 04 70 2f bd
       -0.008823886 0.0137820365 -0.0042035053 -0.042831436
000220 22 16 59 3d 45 5c d1 3c 7c f1 4f 3c 49 7d 97 3c
       0.052999623 0.025556693 0.012691852 0.018492358
000230 7f 30 b7 3c 33 22 cf bc f6 56 48 3d 91 2a c6 bc
       0.022361992 -0.025284862 0.048911057 -0.02419022
000240 4c be a4 bc 4d 95 8c bb a3 aa 6e bb 21 67 91 bc
       -0.020110272 -0.004290259 -0.0036417625 -0.017749371
000250 87 0b 13 ba d1 0f f5 3c fd ae c3 bb 81 06 81 bc
       -0.00056093227 0.029914768 -0.005971788 -0.015750172
000260 fd e8 26 bd a4 63 16 3d b0 d5 cd 3c ca d6 c7 3b
       -0.04074954 0.03671612 0.025126308 0.006098603
000270 e3 69 6d bc 1c e1 3b bd e1 ef 40 bc f1 31 9f bc
       -0.014490577 -0.045868978 -0.011775942 -0.019432994
000280 11 9b 18 3d 75 90 fd bb 6a 94 35 3c b8 47 9f 3c
       0.037257258 -0.007738168 0.011082748 0.019443378
000290 84 4e 1a 3c 61 b6 11 3b b1 39 47 3c ff f1 b4 bc
       0.009418134 0.002223395 0.012159751 -0.022088049
0002a0 52 0b 33 3d 97 d1 52 bc f6 d0 07 3c 97 3c 50 bd
       0.043711968 -0.012867353 0.008289566 -0.050839033
0002b0 95 59 27 bc 16 19 3c 3d 6c 27 85 bc b8 98 c1 bb
       -0.010214229 0.04592236 -0.01625415 -0.005908098
0002c0 88 21 b9 3c 46 c7 57 bc 54 0a 4f bb 76 97 01 3d
       0.022598997 -0.013170069 -0.003159185 0.031638585
0002d0 c2 40 c7 bc 1b 59 0a 3d 28 f2 23 3d 52 16 32 3c
       -0.024322871 0.033776384 0.04002586 0.010869579
0002e0 25 99 d4 3c 17 03 11 bd 88 03 83 bb 45 19 dc 3c
       0.025951931 -0.035403337 -0.0039982237 0.026867518
0002f0 40 d5 e0 bb a6 ef 9d 3b fd aa 16 bd d3 40 04 3c
       -0.006861359 0.004819828 -0.03678416 0.008072096
000300 98 92 92 3c 8f a4 86 3c 1c dd a4 3c e7 c8 7c bb
       0.017892167 0.01643589 0.020124964 -0.0038571896
000310 c0 95 8d bd 96 9d 8f bc 9b 71 bc 3b 69 3d 72 3d
       -0.06913328 -0.017531198 0.0057508475 0.059140597
000320 b2 31 67 bd ad 30 45 bc d2 71 41 bc 33 dc 0c bc
       -0.056443878 -0.012035531 -0.011806922 -0.008597421
000330 b7 54 00 bd be 3e a3 3c 86 79 fc bc c6 14 d8 3c
       -0.03133079 0.019927379 -0.030819666 0.026377093
000340 90 98 2f bc 09 34 3d bc 3f 32 d6 3c f9 f2 e4 ba
       -0.010717526 -0.011548051 0.026147006 -0.0017467431
000350 fa 1f 2b bc 3d c5 b1 bc f6 fc b8 bc 52 d6 88 bc
       -0.0104446355 -0.021700496 -0.022581559 -0.016703758
000360 e4 4d 01 3d 10 ff be 3b 97 0a db 3b 4e e1 8a 3c
       0.031568423 0.0058287457 0.006684612 0.016953137
000370 20 4b b4 bb 64 e0 7a 3c dd 47 5b bc 4d d5 c7 3c
       -0.0055021197 0.015312288 -0.013383833 0.024393702
000380 c5 31 87 3b 8e f7 9b 3c 4d c1 9a 3c f0 37 d5 3c
       0.004125806 0.019038942 0.018891001 0.02602765
000390 fa 50 ae 3c 3a ec 71 bc bb 39 18 bc f5 b9 04 bd
       0.021278847 -0.014765793 -0.009291108 -0.032403905
0003a0 50 bc c8 3b 2c e6 ee bc 57 bc 51 3d c1 45 4a ba
       0.006125964 -0.029162489 0.051205005 -0.00077160826
0003b0 b9 16 3a bc ba 29 35 3c fa 48 d8 bc a3 96 ba bc
       -0.011357957 0.011057312 -0.026401985 -0.022776907
0003c0 47 22 34 3d 68 c9 28 3b af 9b 27 bb 9e 7d a5 3c
       0.043978002 0.0025754813 -0.0025574972 0.0202015
0003d0 b9 7f f4 bc 22 fe 72 3c b7 46 26 bc 06 dd 95 bc
       -0.02984606 0.014831098 -0.010148696 -0.018293869
0003e0 ba 8c 5a 3d 36 23 3e 3c cc ab 0a bd 2f 12 a5 3b
       0.053356864 0.011605075 -0.033855245 0.005037568
0003f0 c3 ef a5 bc a2 d1 ee 3c 0e 02 12 bd 9c 38 81 bc
       -0.020255929 0.029152695 -0.03564649 -0.015774064

action_model._continuous_distribution.mu.bias f4 [2]
000000 06 f1 1f 3c 43 54 40 3c
       0.009762054 0.01173884

exp_avg f4 [128, 8]
000000 6e 1c 05 ba fc 58 12 b9 e7 c8 41 39 27 fa 3d 39
       -0.0005077784 -0.00013956794 0.00018480756 0.00018117634
000010 dc b0 b7 39 cc ef 01 3a 92 57 8f 39 af c6 6d 39
       0.0003503625 0.0004956692 0.0002734033 0.00022676097
000020 ee 8e 04 ba 08 f0 d1 b9 09 72 21 3a b2 87 3d b9
       -0.00050566986 -0.00040042424 0.0006158655 -0.00018074995
000030 f4 33 f3 39 5d ce 48 3a 41 3e a0 39 ec be af 37
       0.0004638728 0.0007660145 0.0003056396 2.095053e-05
000040 5c 82 6a b9 bb 95 97 39 da 69 71 b9 57 2e 33 39
       -0.00022364542 0.00028912522 -0.00023022984 0.00017088033
000050 ae 42 55 39 bc 99 92 b8 80 c2 ca b5 93 34 86 39
       0.00020338103 -6.990458e-05 -1.510678e-06 0.00025597643
000060 28 bd e9 b9 b5 62 26 b9 f7 8e 0d 3a 32 66 15 b9
       -0.00044582156 -0.00015867765 0.00054000266 -0.00014247818
000070 28 d8 b4 b7 72 61 8c 39 3d 46 e7 39 74 5a 9e 38
       -2.1558328e-05 0.00026775483 0.00044112085 7.550875e-05
000080 7f 3a 5f 39 2f 7a a3 b6 12 e8 2e 38 d0 9a 8f b6
       0.00021288729 -4.8720026e-06 4.1700965e-05 -4.2797546e-06
000090 63 6e ed b8 cf 83 23 b9 04 3e b5 37 c2 36 15 b9
       -0.00011321602 -0.00015593994 2.160576e-05 -0.00014230146
0000a0 b7 dd 05 3a 16 87 3f 39 87 f4 a0 b9 20 a3 cb b7
       0.00051065854 0.00018265503 -0.00030699765 -2.4275447e-05
0000b0 e0 73 39 b9 f8 36 84 b9 98 45 ea b9 7c 5e 30 b8
       -0.00017686142 -0.00025217957 -0.0004468381 -4.2049665e-05
0000c0 da 3e e8 b8 e0 d8 55 b8 4c 46 8b 38 26 00 f8 36
       -0.00011074329 -5.0985138e-05 6.64113e-05 7.3909932e-06
0000d0 c5 11 90 b7 7d e8 b7 38 74 68 7e 38 16 e6 3a b8
       -1.7174412e-05 8.769424e-05 6.06556e-05 -4.456014e-05
0000e0 44 b8 5b ba ac a1 f6 b9 d2 1b 49 3a ce aa 84 b9
       -0.0008381645 -0.0004704123 0.0007671687 -0.0002530426
0000f0 17 78 fe 39 e9 c4 5a 3a 29 6d b2 39 20 f7 fe 38
       0.0004853613 0.0008345382 0.00034032136 0.000121576944
000100 28 89 6f b9 2e 3d a4 39 52 18 21 ba b0 21 8d 39
       -0.00022843911 0.000313261 -0.00061452866 0.00026918715
000110 e6 5d ab 39 c7 67 98 b9 c1 59 51 b9 0c 88 38 39
       0.0003268562 -0.0002906902 -0.00019965229 0.00017598289
000120 eb fd 94 b8 e8 45 74 39 c1 7e 48 b9 5d a7 5b 39
       -7.104486e-05 0.00023295695 -0.00019120706 0.00020947815
000130 d3 65 9c 39 e9 ec d2 b8 ca 44 1f 38 94 7f 6f 39
       0.00029830504 -0.00010057708 3.797262e-05 0.00022840343
000140 8e cd b3 b9 60 f5 9e 37 a0 c1 4b b7 9a eb 48 38
       -0.0003429469 1.894933e-05 -1.2144825e-05 4.7903137e-05
000150 ae 45 0c 39 2f d5 5b 39 d0 c9 ed 37 06 46 e5 37
       0.00013377398 0.00020964885 2.8346578e-05 2.7331535e-05
000160 c9 28 ac b9 9f b0 f9 38 5f ca 7a b8 a6 45 79 39
       -0.00032836784 0.000119061435 -5.9793118e-05 0.00023772437
000170 f5 15 d0 39 b6 1c 6e 38 e4 1b 12 39 fe 04 5d 39
       0.0003968921 5.677036e-05 0.00013934035 0.00021078062
000180 07 c0 2a b9 f3 ec a6 38 c5 67 9f b9 08 ec 8b 39
       -0.00016283999 7.959632e-05 -0.00030404158 0.00026688003
000190 77 a5 95 39 4e 7c 60 b9 fd 75 ee b8 01 20 77 39
       0.00028542776 -0.00021408612 -0.000113707014 0.00023567678
0001a0 5b 2b 9d b9 e1 1a 83 b8 a2 a3 b5 39 24 7f b8 38
       -0.00029977676 -6.251573e-05 0.00034644926 8.7974855e-05
0001b0 52 bb f9 b9 b0 41 fd 38 12 cd ad 39 ee 66 a2 b9
       -0.00047632545 0.00012076215 0.0003314992 -0.00030975736
0001c0 22 eb c8 b9 3c 4f 3d 39 5c 8a 15 ba 18 07 d3 39
       -0.0003832216 0.00018053962 -0.0005704516 0.0004025034
0001d0 50 4f 93 3a 87 b0 be b9 0c 49 70 38 b7 f3 9b 3a
       0.0011238847 -0.00036371147 5.728849e-05 0.0011898194
0001e0 42 25 35 b9 85 99 06 b9 3a 12 3a 3a 29 bb b5 38
       -0.00017275385 -0.00012836426 0.0007098053 8.665614e-05
0001f0 c0 ca ca 36 3c 75 e3 39 e4 42 da 39 e7 22 8a b9
       6.0436723e-06 0.0004338416 0.00041630038 -0.00026347415
000200 09 b2 0d ba 98 02 53 b9 46 a4 2d 3a 55 47 95 39
       -0.00054052525 -0.00020123494 0.0006623905 0.0002847264
000210 2b e1 86 39 5b de 49 3a aa bf c4 39 d8 e1 c3 b8
       0.00025726235 0.0007700675 0.00037526834 -9.340391e-05
000220 b8 4b 14 39 fa 28 07 38 f2 0e 93 b8 c6 d0 25 b9
       0.00014142587 3.222467e-05 -7.01229e-05 -0.000158134
000230 50 89 39 b9 18 b7 51 b8 54 a9 15 b9 a1 84 8c b8
       -0.00017694128 -5.0000002e-05 -0.00014272827 -6.700424e-05
000240 76 a3 a7 39 78 e2 26 39 f2 42 39 b8 12 11 99 b8
       0.0003197451 0.0001591536 -4.4169785e-05 -7.298788e-05
000250 fd f2 a1 b9 7b be 80 b9 ae 0a ff b8 f5 91 6b b9
       -0.00030889353 -0.00024555982 -0.00012161337 -0.0002246572
000260 68 08 ad b9 c2 5f 67 b9 eb 78 8b 39 9e 48 31 38
       -0.00033003394 -0.0002206555 0.00026602237 4.226772e-05
000270 61 6a 63 38 ca 83 d2 39 18 1f 6d 39 a0 dc c3 b8
       5.422009e-05 0.00040152512 0.00022613665 -9.339419e-05
000280 5e 37 c9 37 71 a2 34 37 ec 81 9c b5 b7 9d c3 b7
       2.398685e-05 1.0766657e-05 -1.1660718e-06 -2.3319253e-05
000290 97 ef ec b7 ba fd 16 b7 74 aa 4b b7 71 d0 5b b7
       -2.824496e-05 -8.999772e-06 -1.213943e-05 -1.3101949e-05
0002a0 6c 9a 12 3a 97 31 0d 3a b6 80 4e b9 50 28 3d b7
       0.00055924687 0.00053861126 -0.0001969364 -1.1274664e-05
0002b0 02 17 e4 b7 f3 8b fd b9 b6 e0 f9 b9 81 aa 58 39
       -2.7190432e-05 -0.0004836019 -0.00047660404 0.00020662883
0002c0 c6 9f 92 39 65 b3 98 37 9b 3a d3 37 c9 97 7f b8
       0.0002796633 1.820335e-05 2.518045e-05 -6.09381e-05
0002d0 fc 29 2e b9 8c 5a c8 b8 23 00 8c b8 60 5c 00 b9
       -0.00016609574 -9.553609e-05 -6.675746e-05 -0.00012241444
0002e0 51 73 a8 39 92 a3 04 b8 bc 23 2a 39 93 22 dd b8
       0.00032129374 -3.162359e-05 0.00016225775 -0.00010544541
0002f0 b3 50 b9 b8 3d b2 99 b8 50 f9 c6 36 db ab 01 b8
       -8.836519e-05 -7.328808e-05 5.9298836e-06 -3.091605e-05
000300 37 b4 22 b9 82 85 17 b9 4a cf 6a 3a e5 ac ef 38
       -0.00015516659 -0.00014450218 0.000895728 0.00011428612
000310 69 a9 b6 b9 4e 1b 21 3a 66 cb 29 3a cd ba 0f ba
       -0.00034839966 0.00061457313 0.0006477147 -0.00054828526
000320 56 bd af b9 9f d4 91 39 e0 0e 1f ba d2 d3 c6 39
       -0.00033519667 0.0002781497 -0.0006067585 0.0003792332
000330 1c ed 39 3a 62 02 f2 b9 61 ee 35 b9 10 54 c8 39
       0.0007092522 -0.00046159612 -0.00017350308 0.00038209604
000340 05 7d f1 39 3c 5a 6c 39 58 c3 7f b9 64 d0 7f b9
       0.0004606025 0.00022540329 -0.00024391466 -0.00024396327
000350 f6 5b 1f 39 95 af a9 b9 76 c7 b8 b9 ae 75 68 39
       0.0001519768 -0.0003236501 -0.00035243825 0.00022169083
000360 f6 9b fb b8 68 cd 6c b8 2b 7e 84 b8 d5 78 ef 37
       -0.00011997663 -5.6458084e-05 -6.317751e-05 2.8547287e-05
000370 dd 73 5a 39 b0 57 13 37 a0 12 69 36 78 f7 3c 39
       0.00020833263 8.782299e-06 3.4730547e-06 0.00018021266
000380 10 3d aa 38 22 3e 7d 38 f0 18 20 39 5f 0e d8 b8
       8.1176055e-05 6.0377766e-05 0.00015268079 -0.000103023594
000390 56 1c a9 b9 00 f2 c9 35 48 7a 3f b7 16 cb 6f b9
       -0.00032255304 1.5046098e-06 -1.1412958e-05 -0.00022868472
0003a0 68 e5 33 ba c8 54 da b9 88 18 db 39 1a 5e 27 b9
       -0.00068624923 -0.00041643367 0.00041789212 -0.00015961417
0003b0 f5 e1 29 b9 b0 64 d0 39 2f 52 ad 39 9f d0 66 b9
       -0.00016201272 0.0003974787 0.00033058363 -0.00022012227
0003c0 44 e4 94 38 69 01 87 37 43 6d 3c 38 ed 69 7a b9
       7.099708e-05 1.609391e-05 4.492445e-05 -0.00023881318
0003d0 1e 86 bf b9 43 0e 08 b8 d3 fe 83 b8 a2 5b 76 b9
       -0.00036530284 -3.243821e-05 -6.2940315e-05 -0.00023494524
0003e0 0c 0d 08 b8 31 a9 37 b8 56 ed 9c 39 69 7e 53 b9
       -3.2437078e-05 -4.378817e-05 0.00029931468 -0.0002016962
0003f0 54 76 e2 b8 82 49 36 39 6c d6 f9 38 55 18 2a b9
       -0.0001079856 0.00017384256 0.000119131844 -0.00016221528

exp_avg_sq f4 [128, 8]
000000 76 9d c0 35 fc bb a0 35 03 02 ca 35 81 c5 65 35
       1.4350942e-06 1.197564e-06 1.5050758e-06 8.5596554e-07
000010 4f b6 b7 35 81 5c 87 35 02 16 d5 35 7e 53 8a 35
       1.3687621e-06 1.0085206e-06 1.5876142e-06 1.0306101e-06
000020 58 8a f8 35 94 4f 00 36 4f 21 01 36 03 df a2 35
       1.8517703e-06 1.9119807e-06 1.9241886e-06 1.2134846e-06
000030 fe 78 04 36 35 7d c6 35 aa a1 be 35 d0 e4 c3 35
       1.973996e-06 1.478859e-06 1.4203154e-06 1.4595225e-06
000040 37 5e 19 35 d4 ca 29 35 df 89 47 35 66 36 14 35
       5.713404e-07 6.325256e-07 7.4333906e-07 5.5213457e-07
000050 0e 0f 48 35 1a ed c4 34 7f 96 85 35 55 c6 e2 34
       7.4527713e-07 3.668036e-07 9.953072e-07 4.2240086e-07
000060 ba dc 96 35 30 3d c7 35 e4 10 e7 35 4f fc 96 35
       1.1240111e-06 1.4844463e-06 1.7215757e-06 1.1249302e-06
000070 64 5a cf 35 61 80 94 35 86 04 24 36 b8 1b 96 35
       1.5449009e-06 1.1064222e-06 2.4440537e-06 1.1183938e-06
000080 64 0c 7c 34 83 a9 a2 34 0b c6 9c 34 55 c9 19 34
       2.3473837e-07 3.0298187e-07 2.920136e-07 1.432248e-07
000090 ca 49 97 34 8b e3 60 34 57 4b 39 34 ed 36 7f 34
       2.817963e-07 2.0944405e-07 1.7256876e-07 2.3768708e-07
0000a0 6f 5e 63 35 95 44 6c 35 60 ed 91 35 58 69 46 35
       8.470151e-07 8.801665e-07 1.0872427e-06 7.3914043e-07
0000b0 89 c0 81 35 05 52 38 35 14 a7 a7 35 f1 3b 1d 35
       9.667284e-07 6.8664696e-07 1.2491096e-06 5.8574284e-07
0000c0 0c 42 53 33 ae c3 75 33 b7 cd 80 33 ab 4a f6 32
       4.9187335e-08 5.7221477e-08 5.997884e-08 2.8672124e-08
0000d0 c7 3e 89 33 55 30 47 33 49 26 1f 33 97 ca 71 33
       6.390979e-08 4.6377256e-08 3.7054892e-08 5.629644e-08
0000e0 b7 eb 88 36 c5 7c 9e 36 eb 20 ab 36 62 9d 2d 36
       4.0805567e-06 4.723292e-06 5.1000293e-06 2.5870618e-06
0000f0 0e cb a0 36 e3 af 80 36 09 a3 4f 36 46 ff 88 36
       4.7920103e-06 3.835173e-06 3.0940303e-06 4.0828336e-06
000100 65 3b f5 35 4c 58 23 36 e4 0a 56 36 93 38 c8 35
       1.8271209e-06 2.4340288e-06 3.1894824e-06 1.4917626e-06
000110 aa 1d 3c 36 2e b5 0e 36 50 f1 4d 36 b3 ad 2a 36
       2.803145e-06 2.126511e-06 3.0687843e-06 2.543308e-06
000120 e5 93 1d 35 fc 66 31 35 09 54 61 35 83 b9 09 35
       5.870227e-07 6.60875e-07 8.394132e-07 5.130643e-07
000130 4b 4b 69 35 7f bf 02 35 35 cc 8a 35 4e 2d 20 35
       8.690883e-07 4.870744e-07 1.0341233e-06 5.967057e-07
000140 9c b2 c8 34 c4 28 05 35 1f 96 07 35 bc ad 8a 34
       3.7382858e-07 4.960568e-07 5.0509874e-07 2.5830911e-07
000150 da 75 09 35 cd 3c c1 34 63 3f be 34 22 44 c7 34
       5.1207974e-07 3.599329e-07 3.5436378e-07 3.7116212e-07
000160 64 3e 59 35 56 a9 6d 35 ca a7 a1 35 c3 27 3e 35
       8.092959e-07 8.8535796e-07 1.2044268e-06 7.0838377e-07
000170 2a 9e 8c 35 b1 ac 31 35 78 76 8e 35 b8 e5 2d 35
       1.0476845e-06 6.618894e-07 1.0614303e-06 6.4781807e-07
000180 87 b1 45 35 0a bd 43 35 e1 63 59 35 8f 26 3a 35
       7.3646555e-07 7.291825e-07 8.098414e-07 6.934651e-07
000190 21 8e 6d 35 2f 80 d2 34 e5 17 96 35 7a 1a 04 35
       8.8496205e-07 3.9208814e-07 1.1182825e-06 4.921236e-07
0001a0 aa b7 63 35 00 a0 9c 35 77 0a a6 35 ea f0 3f 35
       8.4831356e-07 1.1669472e-06 1.237101e-06 7.150362e-07
0001b0 fa 80 cb 35 bc 70 49 35 d1 c6 ad 35 fc 1b 8a 35
       1.5162216e-06 7.5042385e-07 1.2947368e-06 1.0289946e-06
0001c0 17 08 80 36 ec 88 92 36 3d 36 a2 36 70 d0 47 36
       3.815639e-06 4.367079e-06 4.8342904e-06 2.9774637e-06
0001d0 d1 8e a4 36 94 75 44 36 f8 3a 42 36 ee 78 6f 36
       4.904207e-06 2.9274715e-06 2.8942577e-06 3.5684166e-06
0001e0 b3 0f e7 35 c9 e9 e7 35 00 53 fd 35 e1 74 c1 35
       1.721541e-06 1.7278882e-06 1.8874125e-06 1.4413637e-06
0001f0 78 38 18 36 94 c7 98 35 13 fe 31 36 d1 37 cb 35
       2.2682634e-06 1.1382967e-06 2.6522946e-06 1.5140923e-06
000200 71 5a 13 36 cc 68 02 36 98 df 24 36 6e 97 cd 35
       2.195735e-06 1.943251e-06 2.4568053e-06 1.5317762e-06
000210 8d c9 2c 36 cf 25 02 36 3a 06 93 36 c5 56 f1 35
       2.5747315e-06 1.9393517e-06 4.3816663e-06 1.7981152e-06
000220 00 2d 06 34 f3 fc 0d 34 08 5f 36 34 4a 3c 02 34
       1.2496093e-07 1.322367e-07 1.6984643e-07 1.2129127e-07
000230 7d e3 33 34 cc 44 b9 33 df 80 84 34 1b 8a db 33
       1.6753434e-07 8.627248e-08 2.4680682e-07 1.02231034e-07
000240 fa db 22 35 c1 49 2e 35 01 63 32 35 7e fd ca 34
       6.066981e-07 6.492738e-07 6.6454237e-07 3.7809872e-07
000250 56 c7 36 35 21 24 0f 35 74 4c d2 34 0d b0 18 35
       6.8090355e-07 5.3324226e-07 3.9171175e-07 5.68806e-07
000260 45 4e ec 34 d6 78 00 35 14 77 1b 35 e0 88 86 34
       4.4015374e-07 4.7859555e-07 5.791528e-07 2.5059035e-07
000270 e2 cf 27 35 34 bf 03 35 ea 2f f9 34 67 10 10 35
       6.251486e-07 4.907954e-07 4.6414726e-07 5.366805e-07
000280 08 a9 50 31 a9 2f 59 31 05 9a 79 31 d5 ab 0c 31
       3.0364067e-09 3.1604748e-09 3.6321819e-09 2.0470357e-09
000290 de 98 94 31 ab 98 4a 31 e4 1e 66 31 9c fb 4f 31
       4.324746e-09 2.948165e-09 3.3486964e-09 3.0265488e-09
0002a0 32 a6 da 35 94 c0 05 36 95 15 00 36 b2 eb ad 35
       1.6290635e-06 1.993064e-06 1.9086049e-06 1.2958101e-06
0002b0 db 15 09 36 49 d0 a1 35 0a ed a2 35 63 57 d2 35
       2.0427312e-06 1.2056054e-06 1.2138928e-06 1.5671652e-06
0002c0 7e 9c 80 34 88 ec 96 34 3b 3a 9b 34 95 e8 25 34
       2.395572e-07 2.8111776e-07 2.8913368e-07 1.5451435e-07
0002d0 78 72 96 34 90 ea 6e 34 35 a1 45 34 2f e5 62 34
       2.8022964e-07 2.225081e-07 1.8405701e-07 2.1131267e-07
0002e0 7d 73 bc 34 af a1 0d 35 b2 7a 02 35 0f 42 a6 34
       3.5101758e-07 5.2761874e-07 4.860732e-07 3.0967973e-07
0002f0 10 ae f3 34 87 d7 97 34 76 ca 06 35 cf 54 a7 34
       4.5388924e-07 2.8282759e-07 5.021351e-07 3.116788e-07
000300 14 66 e4 35 0e fd 16 36 ea 9d 38 36 47 80 c1 35
       1.7017032e-06 2.249904e-06 2.7510055e-06 1.4416954e-06
000310 ed f9 32 36 fe 67 e5 35 9b 2c 34 36 99 0c 08 36
       2.6669543e-06 1.7092095e-06 2.6848054e-06 2.0272912e-06
000320 2a 9c 07 36 94 85 2a 36 7f fe 53 36 0b 71 08 36
       2.0207467e-06 2.5409727e-06 3.1589586e-06 2.033138e-06
000330 0f 0f 3f 36 77 10 fa 35 7d 7e 52 36 34 9d e2 35
       2.8469983e-06 1.8631243e-06 3.1366064e-06 1.6884064e-06
000340 ff d3 8e 35 49 20 cb 35 c2 ea c5 35 ef b8 50 35
       1.0641523e-06 1.5134075e-06 1.4745967e-06 7.775515e-07
000350 d1 b4 e2 35 18 b4 9e 35 ac b3 ae 35 4a b3 ab 35
       1.6890937e-06 1.1824332e-06 1.3016302e-06 1.2792673e-06
000360 90 8e 4a 34 fa 2c 45 34 99 e0 45 34 c2 fd 31 34
       1.886458e-07 1.8363417e-07 1.8428763e-07 1.6576726e-07
000370 17 ef 51 34 e5 1f ee 33 df cc ef 33 c5 24 02 34
       1.9551622e-07 1.108854e-07 1.11665706e-07 1.212057e-07
000380 ce b1 95 34 5a 3b c7 34 a0 4e e6 34 93 50 51 34
       2.7882783e-07 3.7109822e-07 4.2898046e-07 1.9493955e-07
000390 6a 47 e1 34 d9 f2 98 34 a0 b7 76 34 53 d1 c3 34
       4.1961476e-07 2.84889e-07 2.2977338e-07 3.6473884e-07
0003a0 9b bc 66 36 51 7f 8d 36 a6 a4 9d 36 d7 a5 31 36
       3.4382454e-06 4.216949e-06 4.698132e-06 2.6471587e-06
0003b0 af 2f 93 36 51 0b 49 36 4d 02 24 36 3a 98 80 36
       4.3864925e-06 2.995792e-06 2.4439244e-06 3.8324188e-06
0003c0 f4 c0 86 34 64 b6 9e 34 f0 db bf 34 72 06 71 34
       2.5099837e-07 2.95625e-07 3.5736548e-07 2.2447219e-07
0003d0 7a 4a d6 34 f3 12 54 34 b7 46 e8 34 2d c0 a7 34
       3.9914795e-07 1.9750932e-07 4.326482e-07 3.1246e-07
0003e0 b1 c9 13 35 70 2c 15 35 08 14 28 35 42 53 f5 34
       5.5055267e-07 5.557149e-07 6.2614026e-07 4.5695384e-07
0003f0 7b c3 22 35 2f 96 a1 34 e5 ef 1a 35 49 3c f9 34
       6.0634164e-07 3.009786e-07 5.7718563e-07 4.6423727e-07

exp_avg f4 [128]
000000 78 26 cb b9 4e 95 38 ba 90 7b 35 38 55 4d 3d ba
       -0.0003874784 -0.0007041291 4.326884e-05 -0.0007221301
000010 8f 25 5a b8 4e e0 96 39 80 d1 53 36 1c a5 9a ba
       -5.201023e-05 0.0002877735 3.1563395e-06 -0.0011798474
000020 1a 8d 58 39 8e 11 21 b9 9c fb 9d b8 00 1c 38 36
       0.0002065193 -0.00015360696 -7.533209e-05 2.7434435e-06
000030 08 8e 82 37 68 b2 71 b9 a4 8d 4e 39 6a e3 24 ba
       1.5563346e-05 -0.00023050013 0.00019698456 -0.0006289991
000040 6c 5f 60 ba 6c f7 15 38 fd 7d 75 b8 d7 ea 00 b9
       -0.0008559141 3.5754798e-05 -5.8529888e-05 -0.00012294516
000050 c2 46 30 b6 d9 17 83 b9 8c 13 18 b8 ce 7e 85 b8
       -2.626723e-06 -0.00025004035 -3.625783e-05 -6.3655534e-05
000060 2e 93 d4 b9 4e 37 e5 38 ac ec 33 39 6a 2f 58 b7
       -0.00040545448 0.00010929872 0.00017158937 -1.2885643e-05
000070 6d 42 3c b9 67 1b fa b9 86 f0 4e b9 06 b6 90 b9
       -0.00017953823 -0.00047704132 -0.00019735293 -0.00027601438
000080 dc 7d 19 b9 15 8c 1b b9 08 a0 b2 b8 19 5b 3e b9
       -0.00014638103 -0.00014834137 -8.5175096e-05 -0.00018153749
000090 2d e7 1b 39 d4 d4 3a b9 c9 8b 0a ba 6c 03 8a b9
       0.00014868072 -0.00017817627 -0.0005285112 -0.0002632396
0000a0 72 95 31 b9 4e 8f d4 b8 40 73 1e b6 f5 37 9f b9
       -0.00016935708 -0.0001013564 -2.361092e-06 -0.00030368534
0000b0 64 a2 9c b8 b0 51 e6 39 ea 38 d3 b8 c0 dd 21 b8
       -7.468907e-05 0.0004392988 -0.00010071865 -3.8591912e-05
0000c0 ba bb 24 b9 08 a9 40 ba c0 eb 3d b7 e8 4d 90 b9
       -0.00015710192 -0.00073494064 -1.1320168e-05 -0.00027523865
0000d0 28 dd 00 b9 7c de 37 38 80 2a e4 39 30 55 26 37
       -0.00012289418 4.3837805e-05 0.00043519214 9.914205e-06
0000e0 90 8c 07 b7 24 e2 c8 b9 81 57 11 39 d8 32 67 38
       -8.079354e-06 -0.0003831546 0.00013860875 5.5122044e-05
0000f0 d8 9c ee b8 04 7f 24 38 bd 6b 06 ba d7 6c 88 39
       -0.00011377939 3.921894e-05 -0.00051277486 0.00026021033
000100 3f 13 02 b9 0c f8 c9 b8 10 bc 9d 38 e6 70 d9 b8
       -0.00012404936 -9.630629e-05 7.521373e-05 -0.00010368395
000110 89 f2 3f ba 5b 54 2e b9 94 5e b7 b9 68 ec bc 38
       -0.00073222123 -0.00016625358 -0.00034974946 9.008573e-05
000120 0b 08 32 ba ba 21 fd b9 90 b5 1a b9 52 81 74 b9
       -0.00067913596 -0.0004828105 -0.00014754222 -0.00023317829
000130 45 c8 0d ba e0 6a 9b b8 80 4b 77 b9 e4 d9 4f ba
       -0.00054085656 -7.410883e-05 -0.00023583882 -0.00079288916
000140 d4 69 97 b9 02 44 f9 b8 08 3a 28 ba 12 b5 dd b8
       -0.00028879812 -0.00011885913 -0.0006417339 -0.00010571828
000150 08 d8 65 b9 94 38 ce b9 85 d3 14 b9 fb e5 9a b9
       -0.0002191962 -0.00039333536 -0.00014193177 -0.00029544518
000160 aa 7a 95 39 3e 32 19 b9 92 e8 d7 b9 24 2e f8 b8
       0.00028510886 -0.00014609934 -0.00041181274 -0.00011834156
000170 66 13 01 b8 40 d2 7b 39 38 9b 01 b8 98 74 9e b7
       -3.0774063e-05 0.0002401555 -3.0900555e-05 -1.8889361e-05
000180 e9 43 c4 38 af 09 03 b9 f8 e0 85 38 d8 ab cb b9
       9.3586576e-05 -0.00012496741 6.383838e-05 -0.0003884721
000190 59 28 c9 b8 26 c2 01 b9 0c 8d db 38 97 70 15 ba
       -9.591942e-05 -0.00012374725 0.00010469006 -0.0005700676
0001a0 c8 2c 46 b8 ca 95 e2 b8 39 33 8b b9 38 ad a5 b7
       -4.7248584e-05 -0.0001080442 -0.0002655031 -1.9750194e-05
0001b0 82 39 b1 b8 00 ad 15 b8 54 7d b5 b8 31 04 26 ba
       -8.4507294e-05 -3.5685487e-05 -8.654097e-05 -0.0006333022
0001c0 96 59 13 b9 00 08 e4 b4 0f 7d 80 b8 dc 85 ac 38
       -0.00014052386 -4.247413e-07 -6.1268096e-05 8.2265324e-05
0001d0 2b c5 04 ba 81 39 0c 39 be 98 78 38 c0 28 c3 b9
       -0.00050647807 0.00013372862 5.927006e-05 -0.0003722366
0001e0 7f f9 98 39 8b bc 24 b8 62 66 7c 39 ca 75 2a b9
       0.00029177588 -3.927624e-05 0.00024070733 -0.00016256343
0001f0 5e e2 04 b9 13 6b 82 b9 ec 07 b9 b9 4d 19 90 b9
       -0.0001267283 -0.0002487531 -0.00035291852 -0.0002748467

exp_avg_sq f4 [128]
000000 da 1f c1 35 c3 61 15 36 9d ef 3d 35 75 c7 d9 35
       1.4388891e-06 2.2259635e-06 7.075667e-07 1.622581e-06
000010 ab 4b bd 34 47 ef 87 35 5d 90 aa 33 79 90 c5 36
       3.525905e-07 1.0127923e-06 7.9425014e-08 5.8878763e-06
000020 dd 0c 69 36 6f aa 77 35 37 64 16 35 84 ff 8c 35
       3.4727193e-06 9.2262684e-07 5.6025186e-07 1.0505178e-06
000030 ca 55 5c 35 a1 b0 a4 35 72 2a ac 36 c2 93 fa 35
       8.2081226e-07 1.2270358e-06 5.1309407e-06 1.8669455e-06
000040 9f 2c 29 36 39 e6 1a 34 62 e2 56 35 60 d3 4d 35
       2.5208935e-06 1.4426122e-07 8.005064e-07 7.667604e-07
000050 f5 63 84 31 cf 03 2a 36 ba 4b bc 34 08 c9 01 35
       3.8530694e-09 2.533419e-06 3.5072827e-07 4.8348784e-07
000060 e0 4f 41 36 6c 0c 3e 36 d9 1c da 35 4d 51 4b 34
       2.8805734e-06 2.8319437e-06 1.6250661e-06 1.8935425e-07
000070 ab 5c fe 34 f0 e8 b4 36 dd 56 b0 34 16 84 2b 35
       4.7378612e-07 5.3915355e-06 3.2845756e-07 6.3894674e-07
000080 2a fc 02 36 03 66 3f 35 60 f0 81 35 42 af 4b 35
       1.9518288e-06 7.130149e-07 9.681207e-07 7.5878427e-07
000090 22 bb 36 35 dd 27 39 36 4e 32 0a 37 76 51 ad 35
       6.80726e-07 2.7590352e-06 8.237153e-06 1.2913213e-06
0000a0 09 1b e1 36 6f 09 3e 35 39 0f 1a 34 d5 10 5c 36
       6.70867e-06 7.0794243e-07 1.4347906e-07 3.2792352e-06
0000b0 5e 74 70 34 fc 10 01 37 54 98 d6 34 64 98 ae 34
       2.2394076e-07 7.692954e-06 3.997144e-07 3.2520904e-07
0000c0 68 2e 3c 36 0e 91 54 36 a0 d5 35 34 c8 a8 ae 36
       2.8041195e-06 3.1674895e-06 1.6934655e-07 5.205253e-06
0000d0 1e 29 4f 35 b6 a2 07 36 05 7c c9 35 0c 29 20 34
       7.717334e-07 2.0211278e-06 1.5011761e-06 1.4916094e-07
0000e0 47 36 9d 35 b3 f7 1a 36 da d5 98 34 a5 36 1d 36
       1.1713208e-06 2.3091968e-06 2.8467804e-07 2.342663e-06
0000f0 97 e7 84 35 8e e6 5a 34 21 13 10 36 8d 3f 99 34
       9.902168e-07 2.0386707e-07 2.1468807e-06 2.854471e-07
000100 99 6b 19 35 3b 83 02 35 8f d3 30 35 d6 3b b8 34
       5.7153517e-07 4.861974e-07 6.587297e-07 3.4316207e-07
000110 96 11 11 37 f3 b1 c6 35 b3 9d bf 35 14 99 c3 36
       8.646768e-06 1.480394e-06 1.4276505e-06 5.8292735e-06
000120 52 fc f5 36 e8 23 30 35 27 54 94 35 06 dd 9d 35
       7.330943e-06 6.561736e-07 1.1051351e-06 1.1761738e-06
000130 8c d1 e6 35 20 c6 8c 36 6f ee ac 35 06 be 71 36
       1.7197322e-06 4.19539e-06 1.2884392e-06 3.6022407e-06
000140 02 d3 3d 35 76 15 85 34 ee 4f 43 36 ed d5 2f 34
       7.0715043e-07 2.4788795e-07 2.910379e-06 1.6375971e-07
000150 22 87 8d 34 95 d7 eb 35 ed 73 db 35 aa 35 59 35
       2.636162e-07 1.7571607e-06 1.635051e-06 8.091689e-07
000160 31 4b da 35 99 18 c6 34 76 96 65 35 e1 f5 0d 36
       1.6264149e-06 3.689827e-07 8.55281e-07 2.1153758e-06
000170 92 96 3b 35 95 54 85 35 3b f8 04 36 a4 95 e3 35
       6.988204e-07 9.933889e-07 1.9814022e-06 1.6956369e-06
000180 d8 3f 59 34 02 69 53 35 f9 51 48 36 b8 9a 8b 36
       2.0232926e-07 7.875643e-07 2.9850037e-06 4.1605344e-06
000190 99 11 28 35 91 3c 90 34 ea dd 1a 35 ab 58 77 36
       6.2610485e-07 2.6866158e-07 5.76924e-07 3.685748e-06
0001a0 3d aa 82 36 d5 84 af 35 c2 42 b8 36 05 ca 83 35
       3.8941203e-06 1.3077175e-06 5.491399e-06 9.819056e-07
0001b0 6d d9 b7 34 ad 61 07 36 1f cc 9d 35 00 96 d4 35
       3.4244604e-07 2.0173422e-06 1.1756819e-06 1.5838887e-06
0001c0 09 91 91 36 c5 e1 01 32 2e 2d 2b 33 45 d9 87 35
       4.338221e-06 7.560122e-09 3.985513e-08 1.0121518e-06
0001d0 c1 c2 bc 35 88 05 16 35 f7 0f 19 35 ff 37 ad 36
       1.4063772e-06 5.5887404e-07 5.7020173e-07 5.1623206e-06
0001e0 84 13 71 36 1b 71 b7 35 42 bc 4e 36 86 42 37 35
       3.5923158e-06 1.366748e-06 3.0805973e-06 6.8269617e-07
0001f0 21 29 ea 35 86 17 a4 35 bb 1c a1 36 1d 75 7a 35
       1.7446329e-06 1.2225798e-06 4.8015186e-06 9.330268e-07

exp_avg f4 [1, 2]
000000 66 33 fd 3c 9c 81 83 3c
       0.030908298 0.016053014

exp_avg_sq f4 [1, 2]
000000 ae 2d 01 3c e7 b4 f7 3b
       0.007884426 0.007559407

exp_avg f4 [2, 128]
000000 d0 49 dc 3b 66 f6 a5 3c c2 e4 c5 3a 9c 7d 6c 3c
       0.0067226663 0.020259093 0.0015098082 0.0144342445
000010 04 f0 ec bb 74 b1 08 bb 97 cb 30 bc 89 b9 c2 3c
       -0.0072307605 -0.0020857723 -0.010790727 0.02377011
000020 a8 8b ce b9 6f 53 2c 3c fa 32 f6 3b ff 1a 8c 3b
       -0.00039395434 0.010517939 0.007513401 0.004275679
000030 8e 28 76 3c 87 00 2d bc 6d 8a 9f bb 48 6c d9 3b
       0.015024317 -0.010559208 -0.0048687966 0.0066352226
000040 90 88 94 3c 29 ee ab 3c 90 92 25 bc 60 64 3b 3b
       0.018131524 0.020987587 -0.010105744 0.0028593764
000050 3d 30 4b bb c2 02 09 bc fe de 9f bb cf 68 84 3b
       -0.0031004094 -0.008362474 -0.0048788777 0.0040408145
000060 ab 15 19 ba df 39 c3 ba 48 81 08 ba 6e ce 3b 3b
       -0.00058397156 -0.0014894566 -0.00052072527 0.0028656977
000070 7b 79 81 bc 74 e5 25 bb 05 1a 19 bc 1c 7a b4 3b
       -0.015804997 -0.0025313767 -0.009344582 0.0055077206
000080 21 3f 3a 3a 4e a9 09 bc fc 14 82 bb 32 bc 2c 3c
       0.0007104744 -0.008402182 -0.0039697867 0.010542916
000090 1d 87 22 bc 4a 79 3e bc 9d ed 93 3b ca 30 37 bc
       -0.009919909 -0.011625597 0.0045144097 -0.011181066
0000a0 d6 10 0c 3c 2a eb d5 bb 14 73 8c 3a d5 e6 81 bb
       0.008548936 -0.006528278 0.0010715448 -0.003964285
0000b0 b1 1b a1 bb dc cd cc bb f0 28 70 bb 63 20 ce bb
       -0.004916631 -0.0062501263 -0.0036645494 -0.006290482
0000c0 e7 82 8a 3b f2 c5 81 3c ee fe f0 3a c8 d6 3a bb
       0.0042270306 0.015841458 0.0018386522 -0.0028509367
0000d0 55 a3 fa bb e9 61 df 3b 7c f2 96 3c 8b e7 48 3c
       -0.007648865 0.0068170917 0.018426172 0.012262235
0000e0 ea 68 a0 3c 49 d0 4e 3c c7 a8 9f 3b ba 55 80 bb
       0.019581277 0.012622901 0.0048724147 -0.0039164694
0000f0 6e 4d d6 bb da bd 68 bb 42 21 45 bc c0 bd 8c 3c
       -0.006539992 -0.003551355 -0.012031855 0.017180324
000100 a0 29 f5 3b 87 a8 f9 3b c6 02 ad bb 60 9e 3b bc
       0.0074817687 0.007618967 -0.0052798716 -0.011451334
000110 a3 a6 45 bb eb e8 3b bc 2c f8 b9 3c 18 1d ef bb
       -0.0030159138 -0.011469106 0.022701345 -0.0072971694
000120 3d b4 f8 bb ac 6b 97 3c 8e 96 5f bc 87 4d c4 bb
       -0.0075898455 0.01848396 -0.013646735 -0.0059906873
000130 a5 1d 3e bb ea 35 a6 bb 6e 00 45 3b 40 f8 52 3c
       -0.0029009369 -0.005072345 0.003006007 0.01287657
000140 90 09 7e 3a c9 50 8f 3b 85 43 be bc 35 66 09 3c
       0.0009690756 0.004373644 -0.023225555 0.008386184
000150 94 b0 36 bc 68 82 50 3b 9a 64 eb ba 7d 36 7a bc
       -0.011150498 0.003181601 -0.0017959059 -0.01527178
000160 76 37 7e bb 17 ee 91 3c 00 b0 b4 3c 88 e9 84 bb
       -0.0038790382 0.017813725 0.02205658 -0.0040561594
000170 87 0f e9 bb 93 ec 4b bc 5c b0 65 3b 47 a7 6d 3b
       -0.0071124467 -0.01244654 0.0035047745 0.0036263035
000180 9d 5b 0a bc 36 91 4b 3c 19 ac 58 bb 52 cc fd 3b
       -0.008444694 0.012424758 -0.0033061563 0.007745304
000190 6e c6 5d 3b 6b cf 1e bc c7 99 f0 3b fe 55 e9 bb
       0.0033840197 -0.009693007 0.0073425504 -0.007120847
0001a0 1f ff c6 bb c2 6a 71 bb 72 a9 4e bb 4e 32 b1 bb
       -0.0060728933 -0.0036837314 -0.0031534103 -0.005407608
0001b0 09 b1 ad bb 12 a4 2a bb a3 bc 8c 3b a7 a8 1b 3c
       -0.0053006453 -0.0026037735 0.004294948 0.009500659
0001c0 1d e9 b0 3a f1 6a 6a bc b0 f1 a3 3a 24 1e c4 ba
       0.0013497208 -0.014307723 0.0012507942 -0.0014962596
0001d0 01 b6 21 bc 76 06 7a 3a e6 43 5a 3c 44 a5 68 bc
       -0.009870053 0.0009537706 0.013321852 -0.014199559
0001e0 57 8b 22 3c 7f 7b d9 3a e8 77 8b 3a 60 44 23 3c
       0.0099209165 0.0016592591 0.0010640593 0.009965032
0001f0 68 88 cc bb b6 7e 69 3c fe 07 82 ba 26 f4 2a bb
       -0.006241847 0.014251402 -0.0009920595 -0.0026085465
000200 96 4b 11 bc 20 8f af 3a 78 db 32 3a 4a d1 f8 3b
       -0.008868119 0.0013394095 0.00068228645 0.0075933086
000210 82 ec 63 bb fc be 28 3c f0 33 f7 ba b8 b8 da 3b
       -0.003477842 0.0102994405 -0.0018860083 0.006674852
000220 fc ab 3a 3a bb 42 0c bc a4 5f 59 3a 56 e1 15 3b
       0.00071209646 -0.008560832 0.00082921446 0.0022869906
000230 60 6b 64 3a 69 2b 7f 3c 7e 59 28 bb 14 41 47 3c
       0.000871351 0.015574315 -0.0025688107 0.012161512
000240 56 d2 6e bb 56 5a 8b 3c 9b 28 05 bb 70 4a cb bb
       -0.0036441288 0.017010849 -0.0020318392 -0.006203942
000250 4c 45 b1 3b b5 3c b1 bc 78 14 70 3a dc 9e a6 3b
       0.005409872 -0.021635393 0.00091583235 0.0050848555
000260 03 b1 94 3b 10 33 52 3b ce aa 6e bb 90 78 82 bb
       0.004537703 0.0032073893 -0.0036417725 -0.0039816573
000270 06 2d e8 3b 98 50 dc 3a a1 53 93 3c 36 ef df 3b
       0.0070854453 0.0016808687 0.017984213 0.006833936
000280 bf 7d 9c bc 8a 84 b9 3b f3 58 38 bc b1 5c 9c bc
       -0.01910293 0.005661552 -0.011251676 -0.019087167
000290 64 0f c0 3c 1c 56 66 ba be a4 0e 3c e0 26 00 3d
       0.023444839 -0.0008786635 0.00870627 0.031287074
0002a0 1a fe 38 3c db ae 06 3c 02 47 49 bc e6 6e e0 ba
       0.011291051 0.0082204 -0.012284996 -0.0017122894
0002b0 58 a9 94 ba 50 94 3c 3a 4b ac a3 3a a8 e6 b2 3b
       -0.0011341972 0.0007193731 0.001248726 0.0054596253
0002c0 ba 2f 31 3b 02 58 55 bb 76 b1 13 3c 4b 55 ba bc
       0.0027036504 -0.0032553677 0.009014478 -0.022745749
0002d0 73 c6 86 bb d9 ea 40 3b 56 0e 71 3a 48 09 0b 3b
       -0.0041130125 0.0029436855 0.00091955566 0.002121525
0002e0 f3 ca 17 3c cd 94 5e bb 3c cc e4 ba ed ac b7 bb
       0.009264695 -0.0033963204 -0.0017455886 -0.005605331
0002f0 a0 9f ab 39 19 06 94 bb 90 17 2b 3c f6 00 50 3a
       0.00032734592 -0.0045173285 0.010442629 0.00079347135
000300 41 84 91 bc 2a 0a 74 bb ed 12 ad b9 83 73 ea 3b
       -0.017763259 -0.0037237504 -0.00033011232 0.0071548834
000310 69 fb 92 3b 56 58 9b 3a 5e c9 81 3c 91 81 03 bc
       0.004485537 0.0011851888 0.01584309 -0.0080264965
000320 b5 2b 3e 3c c8 57 bd 3b fc e0 3e bc 44 7d 2b 3c
       0.0116071 0.0057782866 -0.01165032 0.010466877
000330 e0 ec 8c 3c 6d d8 03 bc a8 b0 a8 3b a4 d1 aa bb
       0.017202795 -0.008047205 0.005148012 -0.0052129794
000340 46 83 37 3c 62 5c e9 3b 94 64 82 bc c8 1e 08 3a
       0.011200732 0.0071216086 -0.0159171 0.0005192575
000350 66 ea 95 3c b7 1e 95 3a 49 32 ac 3b f9 b0 7a 3c
       0.018300246 0.0011376952 0.005255018 0.015300983
000360 54 68 3a 3b 78 92 39 3c 94 3b b7 3b f1 a3 aa bc
       0.0028443532 0.011326425 0.005591819 -0.020830126
000370 9a 64 2e bb 15 f0 d0 3b c0 f3 96 3c 62 30 83 3b
       -0.0026610256 0.0063762763 0.018426776 0.0040035704
000380 df 44 a0 3c 44 3f 26 3a da 77 bc bb 5f 77 17 bc
       0.01956409 0.0006341825 -0.005751592 -0.009244769
000390 e9 17 b1 bb ac e4 d6 b9 84 ed 49 3b 02 65 62 3c
       -0.0054044616 -0.00040987635 0.0030811736 0.013818027
0003a0 7e 02 2c 3c 45 3f 8d ba 5c 62 43 bc 10 b0 3d 3b
       0.010498641 -0.0010776302 -0.011925306 0.0028944053
0003b0 3e d3 16 3c 41 fc 26 bc ea c1 d2 3a 70 9a b3 3b
       0.0092056375 -0.010191978 0.0016079519 0.005481057
0003c0 ac e2 da bb b7 56 83 bb 32 c3 b8 3c fe c1 c2 bb
       -0.0066798534 -0.00400814 0.022554014 -0.005943536
0003d0 79 06 75 3c 4d 0a 0f 3c 6f 4b 62 3b ca a9 07 3d
       0.0149551565 0.008730483 0.0034529825 0.033120908
0003e0 58 de ca 39 73 e9 d1 3b 7e 34 05 bc c6 2b 2f 3c
       0.000386941 0.006406003 -0.008130191 0.010691589
0003f0 f2 45 34 bb bf 40 0c bc 34 9c bf 39 88 2a 46 3c
       -0.002750751 -0.008560359 0.0003654674 0.012095101
